image_encoder/trained_models/vit_20241108_160904.pth (torch, 561019 bytes, 77 tensors)

cls_token f4 [1, 1, 32]
0	0xbc0b3a42	-0.008497776
1	0x3c80360d	0.015650773
2	0x3c2a4026	0.010391271
3	0x3c28244a	0.010262558
4	0xbc946b9b	-0.018117717
5	0xbc583bd8	-0.013197862
6	0x3c1936e1	0.009351463
7	0x3ca257a7	0.019817187
8	0xbc8c1088	-0.017097726
9	0xbc0d89eb	-0.008638839
10	0xbb598d8d	-0.0033195943
11	0xbba54ddf	-0.0050446833
12	0x3ae3b05e	0.0017371287
13	0x3cb85c54	0.022504963
14	0xbca5823b	-0.0202037
15	0xbc9e3d7f	-0.019316433
16	0xbb28e196	-0.0025769225
17	0xbba49b36	-0.0050233854
18	0x3cd0fae4	0.025510259
19	0x3c82075e	0.015872654
20	0x3c8b9fe3	0.017044013
21	0xba1a8f40	-0.00058959797
22	0xbc8aeecd	-0.016959572
23	0x3cba4e5b	0.02274244
24	0xbcc4789f	-0.023983298
25	0xbc6fced2	-0.014636712
26	0xb970342f	-0.00022907623
27	0x397fafad	0.0002438414
28	0x3c943f32	0.01809654
29	0xbc871e07	-0.01649381
30	0x3a4cc39b	0.000781113
31	0xbc73bc88	-0.014876492

pos_enc f4 [32, 32, 32]
0	0x00000000	0.0
1	0x3f800000	1.0
2	0x00000000	0.0
3	0x3f800000	1.0
4	0x00000000	0.0
5	0x3f800000	1.0
6	0x00000000	0.0
7	0x3f800000	1.0
8	0x00000000	0.0
9	0x3f800000	1.0
10	0x00000000	0.0
11	0x3f800000	1.0
12	0x00000000	0.0
13	0x3f800000	1.0
14	0x00000000	0.0
15	0x3f800000	1.0
16	0x00000000	0.0
17	0x3f800000	1.0
18	0x00000000	0.0
19	0x3f800000	1.0
20	0x00000000	0.0
21	0x3f800000	1.0
22	0x00000000	0.0
23	0x3f800000	1.0
24	0x00000000	0.0
25	0x3f800000	1.0
26	0x00000000	0.0
27	0x3f800000	1.0
28	0x00000000	0.0
29	0x3f800000	1.0
30	0x00000000	0.0
31	0x3f800000	1.0
32	0x00000000	0.0
33	0x3f800000	1.0
34	0x00000000	0.0
35	0x3f800000	1.0
36	0x00000000	0.0
37	0x3f800000	1.0
38	0x00000000	0.0
39	0x3f800000	1.0
40	0x00000000	0.0
41	0x3f800000	1.0
42	0x00000000	0.0
43	0x3f800000	1.0
44	0x00000000	0.0
45	0x3f800000	1.0
46	0x00000000	0.0
47	0x3f800000	1.0
48	0x3f576aa4	0.84147096
49	0x3f0a5141	0.54030234
50	0x3f087dba	0.53316844
51	0x3f58940d	0.8460091
52	0x3e9f393e	0.3109836
53	0x3f734e6b	0.9504153
54	0x3e35233a	0.17689219
55	0x3f7bf683	0.9842302
56	0x3dcc7577	0.09983342
57	0x3f7eb898	0.9950042
58	0x3d6636af	0.056204494
59	0x3f7f9868	0.9984193
60	0x3d01815c	0.031617507
61	0x3f7fdf3c	0.99950004
62	0x3c91ab42	0.017781857
63	0x3f7ff5a3	0.99984187
64	0x00000000	0.0
65	0x3f800000	1.0
66	0x00000000	0.0
67	0x3f800000	1.0
68	0x00000000	0.0
69	0x3f800000	1.0
70	0x00000000	0.0
71	0x3f800000	1.0
72	0x00000000	0.0
73	0x3f800000	1.0
74	0x00000000	0.0
75	0x3f800000	1.0
76	0x00000000	0.0
77	0x3f800000	1.0
78	0x00000000	0.0
79	0x3f800000	1.0
80	0x3f68c7b7	0.9092974
81	0xbed51133	-0.41614684
82	0x3f66f20a	0.9021307
83	0x3edce8b2	0.43146282
84	0x3f17541b	0.5911271
85	0x3f4e7bec	0.8065784
86	0x3eb247f6	0.34820527
87	0x3f6ffaa6	0.93741834
88	0x3e4b6ff9	0.19866933
89	0x3f7ae5a5	0.9800666
90	0x3de5d987	0.11223131
91	0x3f7e61f3	0.9936821
92	0x3d8170c9	0.0632034
93	0x3f7f7cf9	0.9980007
94	0x3d11a55c	0.03555809
95	0x3f7fd68e	0.9993676
96	0x00000000	0.0
97	0x3f800000	1.0
98	0x00000000	0.0
99	0x3f800000	1.0
100	0x00000000	0.0
101	0x3f800000	1.0
102	0x00000000	0.0
103	0x3f800000	1.0
104	0x00000000	0.0
105	0x3f800000	1.0
106	0x00000000	0.0
107	0x3f800000	1.0
108	0x00000000	0.0
109	0x3f800000	1.0
110	0x00000000	0.0
111	0x3f800000	1.0
112	0x3e1081c3	0.14112
113	0xbf7d7026	-0.9899925
114	0x3f7e45d7	0.9932532
115	0xbded7fab	-0.11596616
116	0x3f5009c2	0.8126489
117	0x3f152f58	0.58275366
118	0x3f022f6d	0.50853616
119	0x3f5c6d29	0.86104065
120	0x3e974e6d	0.29552022
121	0x3f7490ef	0.9553365
122	0x3e2beed8	0.1679033
123	0x3f7c5d9e	0.9858035
124	0x3dc1ffc1	0.09472609
125	0x3f7ed94f	0.99550337
126	0x3d5a694e	0.053323083
127	0x3f7fa2c3	0.9985773
128	0x00000000	0.0
129	0x3f800000	1.0
130	0x00000000	0.0
131	0x3f800000	1.0
132	0x00000000	0.0
133	0x3f800000	1.0
134	0x00000000	0.0
135	0x3f800000	1.0
136	0x00000000	0.0
137	0x3f800000	1.0
138	0x00000000	0.0
139	0x3f800000	1.0
140	0x00000000	0.0
141	0x3f800000	1.0
142	0x00000000	0.0
143	0x3f800000	1.0
144	0xbf41bdcf	-0.7568025
145	0xbf275530	-0.6536436
146	0x3f4749ec	0.7784717
147	0xbf20af9e	-0.6276797
148	0x3f741dde	0.95358074
149	0x3e9a2eb1	0.30113748
150	0x3f271fbc	0.652828
151	0x3f41ebed	0.7575062
152	0x3ec761d8	0.38941836
153	0x3f6bcaa7	0.921061
154	0x3e6465c6	0.22304448
155	0x3f798d09	0.9748083
156	0x3e012e89	0.12615408
157	0x3f7df469	0.99201065
158	0x3d918dc8	0.07107121
159	0x3f7f5a46	0.9974712
160	0x00000000	0.0
161	0x3f800000	1.0
162	0x00000000	0.0
163	0x3f800000	1.0
164	0x00000000	0.0
165	0x3f800000	1.0
166	0x00000000	0.0
167	0x3f800000	1.0
168	0x00000000	0.0
169	0x3f800000	1.0
170	0x00000000	0.0
171	0x3f800000	1.0
172	0x00000000	0.0
173	0x3f800000	1.0
174	0x00000000	0.0
175	0x3f800000	1.0
176	0xbf757c10	-0.9589243
177	0x3e913c2c	0.2836622
178	0x3ea5dad8	0.32393527
179	0xbf723240	-0.94607925
180	0x3f7ffc7f	0.99994653
181	0xbc2972e9	-0.010342338
182	0x3f46caab	0.77652997
183	0x3f214cf1	0.6300803
184	0x3ef57744	0.47942555
185	0x3f60a940	0.87758255
186	0x3e8e11ed	0.2774805
187	0x3f75f27c	0.96073127
188	0x3e213c1e	0.15745589
189	0x3f7cce81	0.987526
190	0x3db5db21	0.08879686
191	0x3f7efd1e	0.99604976
192	0x00000000	0.0
193	0x3f800000	1.0
194	0x00000000	0.0
195	0x3f800000	1.0
196	0x00000000	0.0
197	0x3f800000	1.0
198	0x00000000	0.0
199	0x3f800000	1.0
200	0x00000000	0.0
201	0x3f800000	1.0
202	0x00000000	0.0
203	0x3f800000	1.0
204	0x00000000	0.0
205	0x3f800000	1.0
206	0x00000000	0.0
207	0x3f800000	1.0
208	0xbe8f0f8c	-0.2794155
209	0x3f75cdb8	0.96017027
210	0xbe6be576	-0.23036751
211	0xbf791d53	-0.9731037
212	0x3f72784e	0.9471482
213	0xbea43f6d	-0.3207964
214	0x3f603089	0.8757406
215	0x3ef72f32	0.48278195
216	0x3f108c69	0.5646425
217	0x3f534932	0.8253356
218	0x3ea97dfd	0.33103934
219	0x3f7190e2	0.943617
220	0x3e41206f	0.18860029
221	0x3f7b67e3	0.98205394
222	0x3dda19c2	0.10649444
223	0x3f7e8b51	0.9943133
224	0x00000000	0.0
225	0x3f800000	1.0
226	0x00000000	0.0
227	0x3f800000	1.0
228	0x00000000	0.0
229	0x3f800000	1.0
230	0x00000000	0.0
231	0x3f800000	1.0
232	0x00000000	0.0
233	0x3f800000	1.0
234	0x00000000	0.0
235	0x3f800000	1.0
236	0x00000000	0.0
237	0x3f800000	1.0
238	0x00000000	0.0
239	0x3f800000	1.0
240	0x3f283046	0.6569866
241	0x3f40ffbd	0.75390226
242	0xbf36b66d	-0.7137211
243	0xbf334f61	-0.70043
244	0x3f4ce86e	0.8004216
245	0xbf1974bc	-0.5994375
246	0x3f728444	0.9473307
247	0x3ea3f8b6	0.3202569
248	0x3f24eb73	0.64421767
249	0x3f43ccb3	0.7648422
250	0x3ec460de	0.38355154
251	0x3f6c6bc6	0.9235195
252	0x3e60d351	0.21955611
253	0x3f79c0ea	0.9755999
254	0x3dfe46ba	0.12415834
255	0x3f7e04e9	0.9922624

norm.weight f4 [32]
0	0x3f9acc25	1.209355
1	0x3f9f8abb	1.2464212
2	0x3f9d1ac7	1.2273797
3	0x3f97ef4b	1.1869901
4	0x3fa0a6fe	1.2550962
5	0x3f97130c	1.1802688
6	0x3f9a4333	1.2051758
7	0x3f99d69e	1.2018621
8	0x3fa614b3	1.2975067
9	0x3f9a0925	1.2034041
10	0x3fa4da86	1.2879188
11	0x3f9a2560	1.2042656
12	0x3f9bf929	1.2185413
13	0x3f9cb517	1.2242764
14	0x3fa1b426	1.2633102
15	0x3f9bb199	1.2163574
16	0x3f936d18	1.1517668
17	0x3fa43a2b	1.2830251
18	0x3fa59aa8	1.2937822
19	0x3f9ecda9	1.2406512
20	0x3f9dc518	1.2325773
21	0x3fa42b4d	1.2825714
22	0x3fa23192	1.2671378
23	0x3f92b436	1.1461246
24	0x3f9fc87e	1.248306
25	0x3fa35a6e	1.2761972
26	0x3fa69f52	1.3017371
27	0x3f997f7a	1.1992028
28	0x3fa345ae	1.275564
29	0x3f9f03ac	1.2422996
30	0x3f9e3792	1.2360709
31	0x3f9dacfe	1.2318418

norm.bias f4 [32]
0	0x3cb2a730	0.021808237
1	0x3dc83899	0.0977642
2	0x3de0f2a9	0.10983784
3	0xbd4fd687	-0.0507417
4	0x3b506c20	0.0031802729
5	0x3cdbea78	0.026845202
6	0x3c907a3b	0.017636409
7	0x3de279d8	0.11058396
8	0xbd6926c5	-0.05692174
9	0xbdeaaab6	-0.11458342
10	0xbce8f674	-0.02843783
11	0x3db6a022	0.08917262
12	0xbdd04f00	-0.10171318
13	0xbe0ab140	-0.13544178
14	0xbc8fb6c6	-0.017543208
15	0x3b64d27c	0.0034915498
16	0xbe35cd0c	-0.17754
17	0xbb0b64fb	-0.0021269906
18	0x3dcd5b57	0.10027187
19	0x3e1feec9	0.15618433
20	0x3ccad899	0.024761485
21	0x3ce3fd59	0.027830767
22	0xbdedee85	-0.116177596
23	0x3cfa7ae0	0.03057617
24	0x3c9910c7	0.018684758
25	0xbe28fed8	-0.16503465
26	0x3de2bcf4	0.11071196
27	0xbccb7f3d	-0.024840945
28	0x3dbb1bfb	0.09136196
29	0xbe0886db	-0.13332693
30	0x3dec95ec	0.11552033
31	0xbd6ef957	-0.058343258

patch_embeddings.weight f4 [14, 32]
0	0x3e739830	0.23788524
1	0xbda9888a	-0.08277996
2	0xbec99dfa	-0.3937834
3	0xbf601941	-0.87538534
4	0x3f27db01	0.6556855
5	0x3a3c1c0f	0.0007175812
6	0x3f70753f	0.93928903
7	0x3da69d28	0.08135444
8	0x3ec1cb70	0.37850523
9	0x3f97b949	1.185342
10	0xbfb263da	-1.3936722
11	0xbf02dafe	-0.51115406
12	0x3e4c5ee7	0.19958077
13	0xbe82429f	-0.25441453
14	0xbf6dc7cc	-0.9288299
15	0x3fc97879	1.573989
16	0x3faa075b	1.3283495
17	0xbdd7f9ba	-0.105456784
18	0x3e9701e8	0.29493642
19	0x3f6cbfaa	0.92479956
20	0xc002f26e	-2.0460467
21	0x3efe27fb	0.49639878
22	0x3fc1574a	1.5104764
23	0x3f1d3dc5	0.6142238
24	0x3db8afde	0.09017919
25	0xbfc8b724	-1.568089
26	0xbf91e2e8	-1.1397371
27	0xbeb76e06	-0.3582613
28	0x3ed6d6f9	0.41960886
29	0xbf483a0f	-0.7821359
30	0x3fbc37ff	1.4704589
31	0x401f5b10	2.489933
32	0xbf31aa10	-0.6940012
33	0xbe9b462e	-0.3032698
34	0x3f867088	1.0503092
35	0x3de6778f	0.11253273
36	0x3e12c32a	0.14332262
37	0x3f9394b5	1.1529757
38	0xbf979fee	-1.1845682
39	0xbead044c	-0.3379234
40	0xbf0507c6	-0.51964986
41	0xbf66236f	-0.8989782
42	0x3f10b530	0.5652647
43	0xbfb915ef	-1.4459819
44	0xbf964930	-1.1741085
45	0x3f1beb28	0.60905695
46	0xbf14b805	-0.5809329
47	0xbf3f01fc	-0.746124
48	0x3fd674b3	1.6754364
49	0xbf53a78f	-0.8267755
50	0x3fad03d5	1.3516794
51	0xbe76f58e	-0.24117109
52	0xbfc4e1db	-1.5381426
53	0x40049761	2.0717394
54	0x403120c8	2.7676258
55	0xbfdad0f7	-1.7095021
56	0x3fbb87cb	1.4650816
57	0xbfc0d3e5	-1.5064665
58	0x3f5352dd	0.82548314
59	0xbe5e57a3	-0.21713118
60	0x3f456839	0.77112156
61	0x3fc27edf	1.5194968
62	0x3fd70c94	1.6800714
63	0xbee031b9	-0.43787935
64	0xbf539e01	-0.8266297
65	0x3f114735	0.5674928
66	0xbdc69175	-0.096957125
67	0xbd010413	-0.031498026
68	0xbf03410c	-0.5127113
69	0x3efa0cc0	0.48837852
70	0xbe8f284b	-0.2796043
71	0xbf8a10e9	-1.078641
72	0x4003e9fd	2.0611565
73	0xbf00743c	-0.5017736
74	0x3e86ef09	0.26354244
75	0x3f336cf0	0.700881
76	0xbfb0849d	-1.379047
77	0x3f64fd15	0.8944867
78	0x3dd3b0f5	0.10336486
79	0x3e732f84	0.23748595
80	0x401fa501	2.494446
81	0xbf9fb760	-1.2477837
82	0x3f8403a9	1.0313617
83	0x3f0accf0	0.5421896
84	0xbfcab20d	-1.5835587
85	0xbfa43bae	-1.2830713
86	0x3f301f89	0.6879812
87	0xbe44daab	-0.1922404
88	0x3eb410d3	0.35169086
89	0xbeb26c2d	-0.34848157
90	0x3ed44551	0.41459134
91	0xbf48ca5e	-0.7843379
92	0xbede2504	-0.43387616
93	0xbec39422	-0.38198954
94	0xbf7cb607	-0.9871525
95	0xbedbaca7	-0.4290516
96	0xbfd59e0d	-1.6688858
97	0xbfb07ced	-1.3788124
98	0xbe2d19f5	-0.16904433
99	0x3f784679	0.9698253
100	0x3c9603e6	0.018312406
101	0xbf412df9	-0.75460774
102	0xbe8782c3	-0.2646695
103	0x3ce91c9f	0.02845603
104	0xbe353063	-0.1769424
105	0xbe08bc0c	-0.13352984
106	0x3e9c90ce	0.30579227
107	0x3faf04d5	1.367335
108	0x3e15191a	0.14560357
109	0x40227d02	2.5388799
110	0xbf17612d	-0.59132653
111	0xc0007fac	-2.0077925
112	0xbeb71148	-0.35755372
113	0x3d06dcde	0.03292548
114	0x3f6b6842	0.9195596
115	0xbfed373d	-1.8532482
116	0x3e0a1345	0.13483913
117	0x3ef7dd45	0.48411003
118	0xbfde1d7a	-1.7352746
119	0x3f133b32	0.575122
120	0x3fe18e1e	1.7621496
121	0x3e9ed1b4	0.31019366
122	0x3e9eba4c	0.31001508
123	0xbf28d25a	-0.6594597
124	0xbf2f82a1	-0.685587
125	0x3e9d74cf	0.3075318
126	0xbf1aeb47	-0.60515255
127	0xbfbcecf0	-1.4759808
128	0xc002fe15	-2.046758
129	0x3fec89f6	1.8479602
130	0x3fab7f53	1.3398231
131	0xbefa215b	-0.48853573
132	0x3fab8209	1.3399059
133	0x3fd860ce	1.6904542
134	0xbddbfa09	-0.1074105
135	0xbfdc804e	-1.7226655
136	0xbcb9e0b4	-0.022690155
137	0x3de5cfb2	0.11221255
138	0x3f8074e0	1.0035667
139	0x3f2d11bc	0.67605186
140	0x3e9a585e	0.30145544
141	0xbf38c247	-0.72171444
142	0x3f4455b5	0.7669328
143	0x3f640d08	0.89082384
144	0x400fbc26	2.2458587
145	0x3f7f0aa8	0.99625635
146	0xbfbec1cc	-1.4902892
147	0xbe8061e8	-0.25074697
148	0xbd9f8ccc	-0.07790527
149	0xbe8aad4f	-0.2708535
150	0xbf1fa4d2	-0.6236087
151	0x3f8f6a5b	1.1204332
152	0xbf7de46e	-0.9917668
153	0x3e2a06fc	0.16604227
154	0x3fa0f41a	1.2574494
155	0xbe89377f	-0.26800153
156	0xbf8c7767	-1.0973939
157	0xbf32e17f	-0.6987533
158	0x3fc6eaaa	1.5540364
159	0xbf335b28	-0.7006097
160	0xbf64fd34	-0.8944886
161	0x3d7e0f69	0.062026415
162	0xbd72d3f8	-0.05928418
163	0x40170d6d	2.3601944
164	0xc02ceae0	-2.7018356
165	0x3f04976a	0.5179354
166	0xbf59d95c	-0.8509729
167	0xbe891536	-0.26773995
168	0xbc034b07	-0.008013493
169	0x400326c7	2.0492418
170	0xbe1e13a2	-0.15437177
171	0xbe7ca703	-0.24673085
172	0xbfa7c1c3	-1.3106006
173	0xbda238ee	-0.07921015
174	0xbfefef24	-1.8744855
175	0xbfb13022	-1.3842814
176	0xbeaea3c7	-0.34109327
177	0xbf9731e0	-1.1812096
178	0x3dbbbc9d	0.091668345
179	0x3e54aa9e	0.2076821
180	0x3f468a40	0.775547
181	0x3f5e68ef	0.86878866
182	0xbfdce57a	-1.7257531
183	0x3fa3d301	1.2798768
184	0x3f78c7af	0.97179693
185	0x3f8854be	1.0650861
186	0x3f203592	0.6258174
187	0xbfa195bd	-1.2623821
188	0xbf2818ef	-0.65663046
189	0x40078baf	2.1179006
190	0x3f0a76c4	0.5408747
191	0x3f9bb7d2	1.2165473
192	0x3e62aeec	0.2213704
193	0xbead0a3d	-0.33796874
194	0x3feb7c44	1.8397298
195	0x3fb3c98b	1.4045881
196	0x3f8f4a3f	1.1194533
197	0xbf254342	-0.6455575
198	0xbef862c4	-0.48512852
199	0x3f152dac	0.58272815
200	0x3c854fc7	0.016273392
201	0xbfd68a5b	-1.6760973
202	0x3f889db2	1.0673125
203	0x3efbda41	0.49189952
204	0xbf9ed76c	-1.2409492
205	0xbf77b2df	-0.9675731
206	0xbde71945	-0.11284117
207	0x3e0d0231	0.13770367
208	0x3e899937	0.26874706
209	0xbf33f1a4	-0.7029059
210	0xbeb7f103	-0.35926065
211	0xbef53b2f	-0.47896716
212	0x3f1ea830	0.61975384
213	0x3f24fa27	0.644442
214	0x3f9d7c6d	1.2303597
215	0x3f4496e2	0.7679273
216	0x3ef203b9	0.47268465
217	0x3f5eed9a	0.870813
218	0xbe7a1194	-0.24420768
219	0xbf455c30	-0.7709379
220	0xbf163207	-0.58670086
221	0x3eb874d5	0.36026636
222	0xbf07f68f	-0.53110594
223	0xbeb70790	-0.35747957
224	0xbf1ef5e4	-0.6209395
225	0xbe5ac64f	-0.21364711
226	0xbab676e0	-0.0013920926
227	0xbe9c3f62	-0.30517107
228	0xbd8d8343	-0.06909802
229	0x3f48ab16	0.78386056
230	0x3b853f9b	0.0040664203
231	0xbed55ada	-0.41670877
232	0x3f5874eb	0.845534
233	0xbfc34940	-1.5256729
234	0x3f1cb95e	0.6122035
235	0xbff46b98	-1.9095335
236	0xbf7a4e0c	-0.9777534
237	0x3dc48fd9	0.09597749
238	0xbee3409d	-0.44385234
239	0xbee1dcdf	-0.44113824
240	0x3fbc1366	1.469342
241	0x3c23ec8b	0.010005127
242	0xbf3f4b79	-0.7472454
243	0xbf942ed4	-1.1576791
244	0x3ef7173c	0.48259914
245	0xbe7799f3	-0.2417982
246	0xbbc9ac62	-0.006154583
247	0xbf55c998	-0.8351073
248	0xbeac4b2c	-0.33651102
249	0x3e6c515a	0.23077908
250	0xbf7111aa	-0.9416758
251	0xbf9e3a32	-1.236151
252	0x3f8e7640	1.1129837
253	0xbffb94bc	-1.9654765
254	0xbf127e75	-0.5722421
255	0x3f8b9a2d	1.0906426

blocks.0.norm1.weight f4 [32]
0	0x3f863a33	1.0486511
1	0x3f873457	1.0562848
2	0x3f8283a5	1.0196425
3	0x3f80baac	1.0056968
4	0x3f80821d	1.0039707
5	0x3f80cb46	1.0062034
6	0x3f8680fd	1.0508114
7	0x3f829dda	1.0204422
8	0x3f862caf	1.0482386
9	0x3f803dc1	1.0018846
10	0x3f7fa2b8	0.99857664
11	0x3f819eb0	1.0126553
12	0x3f7ed1f7	0.9953913
13	0x3f825aec	1.0183997
14	0x3f832298	1.0244932
15	0x3f8235a9	1.0172626
16	0x3f8001a7	1.0000504
17	0x3f820bf0	1.0159893
18	0x3f7fc269	0.9990602
19	0x3f7c88b5	0.986461
20	0x3f85dd4c	1.045816
21	0x3f8365e8	1.0265474
22	0x3f8adbc5	1.0848318
23	0x3f84464a	1.033395
24	0x3f80b4ab	1.0055135
25	0x3f82eab4	1.0227876
26	0x3f80f40f	1.0074481
27	0x3f807fe6	1.0039032
28	0x3f82e95d	1.0227467
29	0x3f839171	1.027876
30	0x3f829b2c	1.0203605
31	0x3f8070b7	1.0034398

blocks.0.norm1.bias f4 [32]
0	0xba5184ad	-0.00079924875
1	0xbc360eaf	-0.011111899
2	0xbcbe5a8f	-0.023236541
3	0xbb19c3ef	-0.0023462733
4	0x3a9e2a33	0.001206702
5	0x3ba1dcf0	0.004939668
6	0xbbfd5bc5	-0.007731887
7	0xbcb25c2b	-0.021772465
8	0xbbb1eab5	-0.0054295906
9	0x3bd9bf3e	0.0066451123
10	0x3c2c952b	0.010533611
11	0xbbc8167b	-0.0061061955
12	0x3ba8b6ba	0.005148736
13	0xbc2f0123	-0.010681423
14	0x3b6a1e0f	0.0035723483
15	0x3bb48459	0.005508941
16	0xbb9082fa	-0.004410145
17	0x3c8d93fc	0.017282479
18	0xbc2d9b84	-0.01059616
19	0x3bae86e8	0.0053261407
20	0xbbd99039	-0.006639507
21	0xbb88013a	-0.004150537
22	0xbb5e4c0c	-0.003391984
23	0xbc5eac2e	-0.0135908555
24	0xbc3a3012	-0.011364
25	0x3cacf956	0.021114986
26	0xbb448375	-0.002998558
27	0x3c75f05b	0.0150109185
28	0x3c91b8f3	0.017788386
29	0x3c1554cf	0.009114458
30	0x3b8e415e	0.0043412885
31	0x3bc45ef7	0.005992766

blocks.0.attn.qkv.weight f4 [96, 32]
0	0x3dc24411	0.09485639
1	0xbdeebb38	-0.11656803
2	0xbd96eb40	-0.07369089
3	0x3ad956b7	0.0016581629
4	0x3df376d2	0.118878976
5	0xbd84ca32	-0.06483878
6	0x3d3972df	0.045275565
7	0xbe2ced16	-0.16887316
8	0x3ddeee3b	0.108852826
9	0xbd4c73ad	-0.049915005
10	0xbe28d5f7	-0.16487871
11	0x3d98687f	0.07441806
12	0x3c634f95	0.013873954
13	0x3c941280	0.018075228
14	0xbc0d9101	-0.008640529
15	0xbe1c94ea	-0.15291181
16	0xbe34b115	-0.17645676
17	0x3da18559	0.07886762
18	0x3e20a616	0.15688357
19	0x3dbff01f	0.09371971
20	0xbcb617bb	-0.022228112
21	0x3de5ddfe	0.11223982
22	0x3d8f0ca7	0.06984835
23	0xbdb5232f	-0.08844601
24	0xbe28a11f	-0.16467713
25	0x399bf2ed	0.00029744898
26	0x3bdec2fa	0.0067981454
27	0x3c3dead3	0.011591631
28	0xbd8edf13	-0.06976142
29	0x3de4df7d	0.111754395
30	0xbdae9737	-0.08524936
31	0xbda6aaef	-0.08138072
32	0x3cb98f6f	0.022651402
33	0xbe13af63	-0.14422373
34	0x3bfad294	0.0076544974
35	0x3db72f2a	0.08944543
36	0x3d9235a1	0.07139135
37	0xbde97218	-0.11398715
38	0xbd50ad08	-0.050946265
39	0x3d9660cf	0.073426835
40	0xbe3b6f41	-0.18304159
41	0x3d8b2942	0.06794979
42	0x3d61970a	0.055075683
43	0x3dbdaa8a	0.09261043
44	0xbde57d5c	-0.11205551
45	0xbe38aec6	-0.18035421
46	0x3d4d39ca	0.05010394
47	0xbd8a3bff	-0.067497246
48	0xbdb70f0a	-0.08938415
49	0xbe3c42c2	-0.18384841
50	0xbe2db0ae	-0.16961929
51	0x3e181f69	0.14855732
52	0x3e60e0de	0.2196078
53	0xbe5d80d1	-0.21631171
54	0xbe4c5355	-0.19953664
55	0x3ba8a93e	0.0051471284
56	0xbb91e4dd	-0.0044523315
57	0xbe3783bb	-0.17921345
58	0xbe274191	-0.16333605
59	0x3d66b2d4	0.056322888
60	0xbe2d5ceb	-0.16929977
61	0xbd399803	-0.045310985
62	0x3d9921cd	0.0747715
63	0x3e27a5fd	0.16371913
64	0x3d18cb17	0.037303057
65	0x3e1a3991	0.15061022
66	0x3de1113f	0.109896176
67	0x3c1d575e	0.0096033495
68	0x3e4da625	0.2008291
69	0x3e3e5d3a	0.1859025
70	0x3d2015d5	0.03908332
71	0xbdb0b938	-0.08629078
72	0xbd8b3b65	-0.06798438
73	0xbe37923d	-0.17926879
74	0x3dc04958	0.09388989
75	0x3d9b1ef4	0.07574263
76	0x3e452c47	0.19255172
77	0x3ca8b84c	0.020595692
78	0x3d37abc3	0.04484154
79	0x3df544ac	0.11975989
80	0x3c6ddc29	0.014517822
81	0x3daabf50	0.08337271
82	0xbce096c3	-0.027415639
83	0x3d88eb3c	0.066854924
84	0x3dfa7a94	0.12230411
85	0x3cc03314	0.023461856
86	0xbd2a3bfe	-0.04156112
87	0xbe3f12ce	-0.18659517
88	0xbdb3523d	-0.0875592
89	0xbb98f9e1	-0.0046684598
90	0x3d539ea9	0.051664982
91	0x3d275752	0.04085476
92	0x3e5a31ee	0.21308109
93	0xbcc4c972	-0.024021838
94	0xbd22d560	-0.03975427
95	0x3c052b7f	0.008128046
96	0xbe3da083	-0.18518262
97	0x3c878cb2	0.016546581
98	0xbe0992a2	-0.13434842
99	0xbd267a85	-0.040644187
100	0x3d853ffe	0.06506346
101	0xbe2ee8bf	-0.17080973
102	0xbc79e0db	-0.015251364
103	0x3d6c9652	0.057760544
104	0x3db5ac4a	0.08870752
105	0x3da74a52	0.08168472
106	0xbdbd3c16	-0.09239976
107	0xbdfb54fe	-0.1227207
108	0x3db1cd97	0.08681791
109	0x3dd3df34	0.10345307
110	0xbe2ebd88	-0.17064488
111	0xbe3403e9	-0.17579617
112	0x3d93a3a5	0.07208947
113	0xbe309f0d	-0.17248173
114	0xbde6febf	-0.11279058
115	0xbe130d79	-0.14360608
116	0xbe1c0f02	-0.152401
117	0xbde5e798	-0.112258136
118	0x3d55297e	0.052041523
119	0x3df679cb	0.12034949
120	0xbe168e46	-0.1470271
121	0xbe083883	-0.13302808
122	0xbda0c283	-0.078496
123	0xbdac3217	-0.084079914
124	0x3de48ea1	0.11160017
125	0xbde313a0	-0.110877275
126	0xbd8bb2de	-0.068212256
127	0x3e1ce528	0.15321791
128	0x3d8c511d	0.06851409
129	0x3cfa9f1c	0.030593447
130	0xbdcfea63	-0.101521276
131	0xbe17cea9	-0.14824928
132	0xbdef4767	-0.11683541
133	0x3e60d5e0	0.21956587
134	0xbe57ecec	-0.21086472
135	0x3d266650	0.040624917
136	0x3dcf53f0	0.10123432
137	0x3d959e3f	0.07305574
138	0x3b9533c4	0.00455329
139	0xbdde46b6	-0.10853331
140	0xbdd4c3a2	-0.103888765
141	0x39918257	0.00027753666
142	0xbdbe468a	-0.09290798
143	0x3e5cdaab	0.2156779
144	0xbd8ebcbc	-0.06969592
145	0xbdb1064b	-0.086437784
146	0xbe368c3b	-0.17826931
147	0x3d84b0da	0.06479044
148	0x3dd0576a	0.10172923
149	0x3e5eb7ff	0.21749876
150	0x3cafcf9b	0.021461299
151	0xbe31145d	-0.17292924
152	0xbd0782ed	-0.033083845
153	0xbcaa42cd	-0.020783806
154	0xbd71ef29	-0.05906597
155	0xbe2a9dd5	-0.1666177
156	0x3df6290c	0.12019548
157	0x3c8a1161	0.01685399
158	0xbc140652	-0.00903471
159	0x3e216044	0.15759379
160	0x3e672e2e	0.2257621
161	0x3e40dbdc	0.1883387
162	0xbdc2f026	-0.09518461
163	0x3cfbcb5b	0.030736616
164	0xbe050b21	-0.12992527
165	0xb9c5fadb	-0.0003776167
166	0x3de0ca28	0.10976058
167	0xbe0163eb	-0.12635772
168	0xbdc5fad2	-0.09666981
169	0xbd27e9e4	-0.04099454
170	0x3dcfe2e7	0.101507
171	0xbc14c6ea	-0.009080628
172	0xbe2c1907	-0.16806422
173	0xbcda16a2	-0.02662212
174	0x3e42d332	0.19025877
175	0x3cee0129	0.029053288
176	0xbe6b96ca	-0.2300674
177	0x3de14630	0.10999715
178	0xbe2054e4	-0.15657383
179	0xbe438b52	-0.19096115
180	0xbdb4ff26	-0.08837728
181	0x3e62bfbb	0.22143452
182	0x3d937519	0.07200069
183	0xbe0491d0	-0.12946248
184	0x3de8b196	0.11361997
185	0x3ddc73e7	0.10764294
186	0x3e2797d5	0.16366513
187	0x3e271cfd	0.16319652
188	0x3e1b6743	0.1517611
189	0xbe1d18d7	-0.15341507
190	0x3d3712a7	0.044695523
191	0xbd2a8100	-0.04162693
192	0xbdc5a568	-0.09650689
193	0x3e29fe39	0.16600884
194	0x3e0c9d93	0.13731985
195	0xbd5f6a87	-0.05454495
196	0xbdf4b8b3	-0.11949291
197	0xbe0904b9	-0.13380708
198	0x3e39189a	0.18075791
199	0xbdca2526	-0.09870367
200	0x397a5fb5	0.00023877512
201	0x3dfc6856	0.12324588
202	0x3de1ea44	0.11031011
203	0x3d93641f	0.07196831
204	0x37c53e34	2.3513196e-05
205	0x3e443cb0	0.19163775
206	0xbd96e277	-0.073674135
207	0xbe195d90	-0.14977098
208	0xbe052e60	-0.13005972
209	0x3e0f26d0	0.1397965
210	0x3db26b9f	0.08711933
211	0x3e20d070	0.15704513
212	0x3daa3dfc	0.08312604
213	0x3bb5de7d	0.0055502043
214	0x3d8b2e3c	0.06795928
215	0xbd35ac61	-0.044353846
216	0xbe467ec3	-0.19384293
217	0xbd2c09e2	-0.042001612
218	0x3e5cbae7	0.21555673
219	0x3deb0bb0	0.114768386
220	0x3da7fd0f	0.08202564
221	0xbd1e77b4	-0.038688377
222	0xbc25a06b	-0.010109047
223	0xbe315fd6	-0.17321715
224	0x3e092090	0.13391328
225	0x3e30b38b	0.1725599
226	0xbddf6c43	-0.10909321
227	0xbdc89048	-0.097931445
228	0xbd43fc3b	-0.047847968
229	0x3d64e3c4	0.055881277
230	0xbdc2558b	-0.09488972
231	0x3dcacc04	0.09902194
232	0x3e0ca2bb	0.13733952
233	0x3d23051b	0.03979979
234	0xbdbcb469	-0.09214098
235	0x3e261ee8	0.16222727
236	0xbdea76de	-0.11448453
237	0x3d2c553b	0.04207347
238	0x3e3c1074	0.18365651
239	0x3da9131e	0.082555994
240	0xbdb2adc7	-0.08724552
241	0xbdcfb9f0	-0.10142887
242	0xbdce27fd	-0.10066221
243	0xbd3578b3	-0.04430456
244	0xbe0a779f	-0.13522194
245	0x3e29c4a0	0.16578913
246	0x3e4ef6fb	0.20211403
247	0xbd750384	-0.059817806
248	0xbdd500ab	-0.10400518
249	0xbdaa8d5b	-0.08327743
250	0x3e141934	0.14462739
251	0xbcca793e	-0.024716016
252	0xbde41df2	-0.11138524
253	0x3dcbc28a	0.09949215
254	0x3d335b1b	0.043788057
255	0x3e32668d	0.17421933

blocks.0.attn.proj.weight f4 [32, 32]
0	0x3dc0b946	0.09410338
1	0xbce8a90f	-0.028400926
2	0xbd36bd27	-0.044613983
3	0xbdb51be7	-0.088432126
4	0x3d871c2d	0.06597171
5	0xbd84c756	-0.06483333
6	0xbda8e110	-0.08246052
7	0xbc015fa3	-0.007896337
8	0x3c08f685	0.008359556
9	0xbd329f88	-0.043609172
10	0xbd8f919f	-0.07010197
11	0xbe470172	-0.19434145
12	0xbddbc069	-0.10730059
13	0x3de0420d	0.10950098
14	0x3e094ad4	0.13407451
15	0xbdd9bb02	-0.10631372
16	0xbe27c309	-0.16382994
17	0xbe04e364	-0.12977368
18	0xbc8660b1	-0.016403528
19	0x3d866267	0.065617375
20	0xbe28f375	-0.16499121
21	0xbe0c9f21	-0.13732578
22	0xbd73bd3e	-0.059506647
23	0xbdcf3038	-0.10116619
24	0x3e09b4d4	0.13447887
25	0xbd724eca	-0.05915717
26	0x3ca2158f	0.01978567
27	0xbdf2a0ff	-0.11847114
28	0xbe127ea7	-0.14306127
29	0xbe30a234	-0.17249376
30	0xbd850fd9	-0.06497163
31	0xbe23ec4b	-0.16008107
32	0xbd83507b	-0.06411835
33	0x3d89ca9b	0.06728097
34	0xbd147e39	-0.036253188
35	0x3c3d3b71	0.0115498165
36	0x3dfb3fa8	0.12268001
37	0x3dbc1c10	0.0918504
38	0xbdb68965	-0.08912925
39	0x3ccbc166	0.024872493
40	0x3dc1893d	0.09450004
41	0xbdbe4b39	-0.09291691
42	0x3d35ce9b	0.044386487
43	0x3e372391	0.17884661
44	0xbe2a8182	-0.16650966
45	0x3da38bdd	0.07985661
46	0xbd739c78	-0.059475392
47	0x3db38393	0.0876533
48	0x3cc65bfa	0.02421378
49	0x3dd880c0	0.10571432
50	0xbd547fd5	-0.051879723
51	0x3e31fa02	0.17380527
52	0x3e2da77a	0.16958418
53	0x3e03269a	0.12807694
54	0x3e24c4c0	0.16090679
55	0x3db60b9e	0.088889346
56	0xbe368485	-0.1782399
57	0x3de2825f	0.110600226
58	0xbd39c850	-0.04535705
59	0x3dc70a76	0.09718792
60	0x3e10ebe8	0.14152491
61	0xbd825a04	-0.06364825
62	0xbdbd8b51	-0.09255088
63	0xbd07ff26	-0.033202313
64	0x3e141fe7	0.14465295
65	0x3d900c56	0.07033603
66	0xbe1031a6	-0.1408144
67	0x3dc114ed	0.094278194
68	0xbdd381e5	-0.1032751
69	0x3df03b5c	0.11730072
70	0x3c4f34e5	0.012646888
71	0x3e17a0e8	0.14807475
72	0x3c144085	0.009048586
73	0x3d6debdb	0.058086257
74	0x3cad12aa	0.021127064
75	0xbdea6c09	-0.11446387
76	0x3e1f1847	0.15536605
77	0x3dabbc5f	0.08385538
78	0xbcd89762	-0.026439372
79	0x3d00ca7d	0.031443108
80	0xbdb9a81f	-0.0906527
81	0x3d98705b	0.07443305
82	0x3e076cd4	0.13225108
83	0xbdcbfe41	-0.099606045
84	0xbe271db9	-0.16319932
85	0xbd60688d	-0.054787207
86	0xbde1e582	-0.11030103
87	0xbdc5ac83	-0.096520446
88	0xbe02fc7e	-0.1279163
89	0xbd17f8f4	-0.037102655
90	0x3d03c441	0.032169584
91	0x3d3137af	0.043265995
92	0xbe0ef4ca	-0.13960567
93	0xbe39ca6d	-0.18143626
94	0x3e0ec6d7	0.13943039
95	0xbd888f54	-0.06667963
96	0x3c070ef5	0.008243312
97	0xbe1255e6	-0.1429058
98	0xbd49f4e1	-0.0493058
99	0x3ddcbe08	0.10778433
100	0xbda0a771	-0.07844437
101	0xbd290feb	-0.041274946
102	0xbe245686	-0.16048631
103	0x3e2fccfc	0.17168039
104	0x3cdeafae	0.02718338
105	0x3db8c2e0	0.090215445
106	0xbdd1681e	-0.10224937
107	0x3e1a6855	0.15078862
108	0xbc7c8ebe	-0.015414892
109	0xbdbd1df0	-0.09234226
110	0x3d318180	0.04333639
111	0x3c660a40	0.01404053
112	0x3d83d676	0.064373896
113	0xbda1e342	-0.07904674
114	0xbd643ecf	-0.05572396
115	0x3df9700a	0.12179573
116	0x3e22cf58	0.15899408
117	0x3d2e5dbb	0.042569857
118	0x3da5a01d	0.0808718
119	0xbdf1831e	-0.11792587
120	0x3d0a72da	0.033800937
121	0xbe13f6a6	-0.14449558
122	0x3bcf8078	0.0063324533
123	0xbbc918d3	-0.0061369925
124	0xbd4682fd	-0.048464764
125	0xbd14fbbd	-0.03637289
126	0xbc67fd75	-0.01415955
127	0x3c73803b	0.0148621155
128	0x3d572b13	0.052531313
129	0xbd967085	-0.0734568
130	0xbda56d3d	-0.08077476
131	0x3c14a5e0	0.009072751
132	0x3dc95424	0.09830502
133	0x3b813502	0.0039430866
134	0x3d026c37	0.031841483
135	0xbd3abf84	-0.0455928
136	0xbdc73fc6	-0.09728961
137	0x3dc9244b	0.098213755
138	0xbdc3cc5a	-0.09560461
139	0x3e016442	0.12635902
140	0x3db4c305	0.088262595
141	0xbd95cda5	-0.07314614
142	0xbd81b952	-0.06334175
143	0x3d542aae	0.051798515
144	0x3cc646f2	0.024203751
145	0xbe114b1c	-0.14188808
146	0x3ca66243	0.020310527
147	0xbdfa6cee	-0.12227808
148	0xbc4641d1	-0.012100653
149	0xbd73e65b	-0.059545856
150	0xbe0daf7f	-0.13836478
151	0xbe315f7d	-0.17321582
152	0x3df582b1	0.11987818
153	0xbd09b16d	-0.033616472
154	0xbd37a293	-0.044832777
155	0xbdc31c3b	-0.09526869
156	0x3d9864fa	0.07441135
157	0x3dd7b121	0.105318315
158	0x3b991210	0.0046713427
159	0x3c848d9c	0.016180806
160	0xbe04809e	-0.12939689
161	0xbe0827b9	-0.13296403
162	0x3e2242cf	0.15845798
163	0xbdc49288	-0.09598261
164	0xbc9085cf	-0.01764193
165	0x3e337abc	0.17527288
166	0x3d7b0499	0.06128368
167	0xbe0518ca	-0.12997738
168	0x3e0e421c	0.13892406
169	0x3d54c2da	0.051943637
170	0xbe183496	-0.1486381
171	0x3e23bd62	0.15990213
172	0xbccebc08	-0.025236145
173	0x3e0e0a7b	0.13871185
174	0x3df730bc	0.12069842
175	0xbe1ff977	-0.15622507
176	0x3d045a01	0.032312397
177	0xbd872ffa	-0.06600948
178	0x3c710e43	0.014712873
179	0xbd1b0a91	-0.037851874
180	0x3e0ba173	0.13635807
181	0xbdbf9248	-0.09354073
182	0xbdb95cfa	-0.09050937
183	0x3bad7c4c	0.0052943584
184	0xbc35d658	-0.011098467
185	0x3d18caaf	0.03730267
186	0xbcc47a23	-0.02398402
187	0xbdea84e1	-0.11451126
188	0xbdd85a60	-0.10564113
189	0xbd45c483	-0.04828311
190	0x3d99a49b	0.07502099
191	0xbe0b4bd4	-0.13603145
192	0x3d613e02	0.054990776
193	0xbd5451ec	-0.05183594
194	0x3e1c66f1	0.15273644
195	0x3d33614e	0.04379397
196	0xbd0115e8	-0.031515032
197	0x3df75e2b	0.12078508
198	0xb938ced3	-0.00017624655
199	0x3e2f6a8b	0.17130487
200	0xbe01bf7f	-0.12670706
201	0x3d424be3	0.047435652
202	0xbda8b715	-0.08238045
203	0x3dc6ba08	0.097034514
204	0x3cae7214	0.021294631
205	0xbd04b014	-0.032394484
206	0x3df8045c	0.121102065
207	0xbe152d40	-0.14568043
208	0x3d82c922	0.06386019
209	0x3bc63790	0.006049104
210	0x3c2b4132	0.0104525555
211	0x3d2b2eca	0.04179267
212	0xbd151584	-0.036397472
213	0xbe3a9c40	-0.18223667
214	0x3e36f01c	0.17865032
215	0xbd97446f	-0.073860995
216	0xbbd6e0a2	-0.00655754
217	0xbc8a1510	-0.016855747
218	0x3d9ee3ad	0.077582695
219	0xbcddb131	-0.02706203
220	0x3cf500e6	0.029907655
221	0xbc59e667	-0.013299561
222	0x3db8af42	0.09017803
223	0x3b4abe09	0.0030936024
224	0xbd702098	-0.058624834
225	0xbd19eedb	-0.037581306
226	0x3d18c00a	0.037292518
227	0xbd3944cf	-0.045231637
228	0xbe031621	-0.1280141
229	0x3e34c678	0.17653835
230	0xbe16f66a	-0.14742437
231	0x3dafd90f	0.085863225
232	0xbd7651b3	-0.06013651
233	0x3d29b347	0.041430738
234	0xbdf87a45	-0.12132696
235	0xbddd2663	-0.10798337
236	0xbd7107ab	-0.058845203
237	0x3d950c87	0.0727778
238	0x3d88b3ae	0.06674896
239	0x3cea1dbd	0.028578633
240	0xbd4bedf6	-0.049787484
241	0x3e3cd6c1	0.18441297
242	0xbcabbadd	-0.020963127
243	0xbd0931d2	-0.033494778
244	0x3e2ab1d8	0.16669405
245	0x3d062910	0.032754004
246	0xbe345e82	-0.17614177
247	0xbe0fb83d	-0.14035125
248	0xbdf1f151	-0.118136056
249	0xbe1534ce	-0.14570925
250	0xbe28f770	-0.1650064
251	0x3e13ef40	0.14446735
252	0x3e0d09c6	0.1377326
253	0xbdcdd239	-0.100498624
254	0xbd693371	-0.056933824
255	0x3d99850f	0.07496082

blocks.0.attn.proj.bias f4 [32]
0	0xbd71eafb	-0.059061985
1	0x3d9b107f	0.07571506
2	0x3dce1bf4	0.100639254
3	0xbdb64b9f	-0.08901142
4	0x3d715a47	0.058923986
5	0x3dec0024	0.11523464
6	0xbdf1c40b	-0.1180497
7	0x3defbcb4	0.11705914
8	0xbdbd26d2	-0.0923592
9	0xbdb56694	-0.08857456
10	0x3dbbf0f1	0.09176815
11	0xbd39314c	-0.04521303
12	0x3d0837ff	0.033256527
13	0x3de24b84	0.1104956
14	0xbd789316	-0.060687147
15	0xbd5f33a5	-0.05449261
16	0xbe132097	-0.14367901
17	0x3db16153	0.08661141
18	0x3d05e864	0.032692328
19	0x3e2352e3	0.15949588
20	0x3dfb87dc	0.122817725
21	0x3d3fe6e7	0.046851065
22	0x3d216ee1	0.039412383
23	0x3e16a5eb	0.1471173
24	0xbe116351	-0.14198042
25	0xbe0faed7	-0.1403154
26	0x3e21e05e	0.15808246
27	0xbd616aeb	-0.055033606
28	0x3d4b0d64	0.049573317
29	0xbd4b5dce	-0.049650006
30	0xbe1106d7	-0.14162765
31	0xbe07d85e	-0.13266131

blocks.0.norm2.weight f4 [32]
0	0x3f808c4c	1.0042815
1	0x3f7e4d07	0.99336284
2	0x3f7b18ca	0.980847
3	0x3f7eadb4	0.994838
4	0x3f7d93f3	0.9905388
5	0x3f7c0eec	0.9846027
6	0x3f76fe4a	0.96481764
7	0x3f7fb551	0.9988604
8	0x3f83d381	1.0298921
9	0x3f7d0707	0.9883885
10	0x3f80d777	1.0065755
11	0x3f81a72f	1.0129145
12	0x3f82acdc	1.0209002
13	0x3f818a4e	1.0120332
14	0x3f80af4e	1.0053499
15	0x3f84851d	1.0353123
16	0x3f817aac	1.0115561
17	0x3f80ac5b	1.0052599
18	0x3f7fa65b	0.99863213
19	0x3f73f5ec	0.9529712
20	0x3f7ad4e5	0.979811
21	0x3f7889c5	0.9708522
22	0x3f80c140	1.0058975
23	0x3f799883	0.9749834
24	0x3f7d9bf0	0.99066067
25	0x3f84465c	1.0333972
26	0x3f829c2f	1.0203913
27	0x3f81bf81	1.0136567
28	0x3f7f31a6	0.9968513
29	0x3f805c43	1.0028156
30	0x3f823252	1.0171607
31	0x3f7e7e99	0.9941192

blocks.0.norm2.bias f4 [32]
0	0x3b754be4	0.0037429268
1	0x3aa9932a	0.0012937535
2	0x3bb95cfa	0.0056568356
3	0x3c9eaf47	0.019370688
4	0xbce3ec50	-0.027822644
5	0xbc6f4cf1	-0.014605747
6	0x3c7cf262	0.015438648
7	0x3af6d7bb	0.0018832603
8	0x3c83950b	0.01606228
9	0x3c74d060	0.014942259
10	0x3b05e4a0	0.002043046
11	0x399b39c6	0.00029606948
12	0x3a26657b	0.0006347519
13	0x3bb45422	0.0055031935
14	0x3baaa73c	0.005207924
15	0x3c16bd5a	0.009200418
16	0x3b423619	0.0029634295
17	0xbb2727f2	-0.0025505987
18	0x3b7140e1	0.0036812352
19	0x3d019c66	0.031643294
20	0x3c324734	0.010881234
21	0x38afa39f	8.375127e-05
22	0xbc0798ac	-0.008276146
23	0x3d072ada	0.03299985
24	0xbc2e6ecb	-0.010646532
25	0x3bb1c212	0.0054247463
26	0x3bafc9fc	0.0053646546
27	0x3ae892d2	0.0017743951
28	0xbb5fca1b	-0.0034147564
29	0x3a939492	0.0011259487
30	0xbc1dc72f	-0.009630009
31	0xbd06d4c4	-0.032917753

blocks.0.mlp.fc1.weight f4 [128, 32]
0	0x3c04369c	0.0080696605
1	0xbca056c6	-0.019572627
2	0x3d95d6fb	0.07316395
3	0xbe10a605	-0.14125831
4	0xbc06d328	-0.0082290545
5	0x3c2125eb	0.0098357005
6	0xbdfee693	-0.12446322
7	0x3e4910b6	0.19635281
8	0xbd2fdb9a	-0.042934038
9	0xbb54b5c1	-0.0032456967
10	0x3db6c5ba	0.08924432
11	0xbe2459a7	-0.16049825
12	0xbe460a75	-0.19339927
13	0x3dc6eb11	0.09712804
14	0x3e202d86	0.15642366
15	0xbdfdafd2	-0.12387051
16	0xbe11da00	-0.14243317
17	0x3e209c00	0.1568451
18	0x3e1e84e5	0.15480383
19	0x3e2fc881	0.1716633
20	0xbd009917	-0.031395998
21	0xbd2252c3	-0.03962971
22	0x3daac78e	0.08338843
23	0xbcb9251c	-0.022600703
24	0x3e1e3609	0.154503
25	0xbdb96e4a	-0.09054239
26	0x3e20f4bd	0.1571836
27	0x3ddd00f8	0.107912004
28	0x3d50da7e	0.05098962
29	0x3e22a16c	0.1588189
30	0xbd848b65	-0.064719
31	0xbcc2c243	-0.023774272
32	0x3dbe4a80	0.092915535
33	0x3e4119a9	0.18857445
34	0x3dd4d852	0.10392822
35	0x3dbf1dee	0.093318805
36	0xbe238879	-0.15970029
37	0xbe1f7a3a	-0.1557397
38	0xbd4dc933	-0.050240707
39	0xbdabfca2	-0.08397795
40	0x3e3e2ec8	0.18572533
41	0x3d8140a0	0.06311154
42	0x3da0b586	0.07847123
43	0x3cbc4f87	0.02298714
44	0x3dff7615	0.12473694
45	0xbe2f4be6	-0.17118797
46	0xbd9f976e	-0.07792555
47	0x3e225384	0.15852171
48	0x3ceec3b3	0.029146051
49	0xbdfecc15	-0.12441269
50	0x3e09f439	0.1347207
51	0x3df02d85	0.11727432
52	0xbd03664e	-0.032079987
53	0x3d6c4ced	0.05769055
54	0x3e414fed	0.18878146
55	0x3b9e2c8b	0.0048270873
56	0xbc0383e8	-0.008027054
57	0x3dbe5dd7	0.09295242
58	0xbcda17d4	-0.02662269
59	0x3dd875cb	0.10569342
60	0xbdaebfeb	-0.08532699
61	0x3bef0573	0.007294351
62	0x3e1b581d	0.15170331
63	0x3d903f05	0.0704327
64	0xbe0322e7	-0.12806283
65	0x3d761599	0.06007919
66	0x3dea5485	0.11441902
67	0xbe0f5cc0	-0.14000225
68	0x3e2b7709	0.16744627
69	0x3cff803e	0.03118908
70	0xbe2e4060	-0.17016745
71	0xbe1aba8b	-0.15110223
72	0x3e0b3e7c	0.13598055
73	0x3e10c571	0.14137818
74	0xbce16e8f	-0.027518539
75	0xbd3bfeb2	-0.045897193
76	0x3d7ec6a0	0.062201142
77	0x3d99d3e5	0.07511119
78	0x3b808bc3	0.003922911
79	0x3e1d776f	0.15377592
80	0xbdeee025	-0.11663846
81	0x3e1df5b8	0.15425766
82	0xbe0be68a	-0.13662162
83	0x3c093f72	0.008376943
84	0x3ccaa418	0.02473645
85	0xbcac08fc	-0.021000378
86	0x3d8bb2d8	0.06821221
87	0xbe052487	-0.13002215
88	0x3d2d5476	0.042316876
89	0xbcc73ba8	-0.024320439
90	0x3e1f9f4f	0.15588115
91	0xbdd59eb2	-0.10430659
92	0xbe16e9ad	-0.14737578
93	0xbded57fd	-0.11589048
94	0xbd4710e7	-0.048600104
95	0xbdee12de	-0.116246924
96	0x3e002359	0.12513484
97	0xbd300364	-0.042971984
98	0x3dec18ef	0.11528193
99	0xbddf0614	-0.10889831
100	0x3e214ef6	0.15752777
101	0x3e2366e5	0.1595722
102	0xbe13d54c	-0.14436835
103	0x3e1e2183	0.15442471
104	0x3964ef5a	0.0002183294
105	0x3dcfb26a	0.10141452
106	0xbd651975	-0.05593248
107	0x3e0ac3d8	0.13551271
108	0xbce0dd3a	-0.027449239
109	0xbc0f2401	-0.008736611
110	0xbd01b471	-0.031666223
111	0x3d9c9a41	0.07646609
112	0x3d06718e	0.032823138
113	0xbe1c3de7	-0.15257989
114	0xbaf2c078	-0.0018520495
115	0x3d4f1832	0.050560184
116	0x3d0c7ead	0.034300495
117	0xbda6c845	-0.08143667
118	0x3d733674	0.059378102
119	0xbb31c87b	-0.0027127552
120	0x3defeff5	0.1171569
121	0x3dfce522	0.12348391
122	0x3ca0c1f3	0.019623732
123	0xbdcdc560	-0.10047412
124	0x3df3c8a3	0.11903503
125	0x3d85949e	0.06522487
126	0x3d607c5d	0.054806102
127	0xbd0c526b	-0.034258287
128	0x3d767736	0.060172282
129	0xbdbbc2b0	-0.09167993
130	0xbe334422	-0.1750646
131	0x3e2aef54	0.16692859
132	0x3d2f158a	0.04274515
133	0x3e02979a	0.12753144
134	0xbe330515	-0.17482407
135	0xbd29ac07	-0.041423824
136	0xbd23a864	-0.03995551
137	0x3e0d3637	0.13790213
138	0x3cf05716	0.0293384
139	0xbdc93e58	-0.09826344
140	0xbe168f05	-0.14702995
141	0x3da38a17	0.07985323
142	0x3e315afa	0.17319861
143	0x3d9b8588	0.075938284
144	0x3e1fa668	0.15590823
145	0xbe44ff33	-0.19237976
146	0x3e17f5cf	0.14839862
147	0xbbee44b1	-0.0072713722
148	0xbd801a24	-0.06254986
149	0xbe23ba7d	-0.15989108
150	0x3d5f8bf9	0.054576848
151	0x3dd081f9	0.1018104
152	0x3dd3cc73	0.1034173
153	0x3da92483	0.08258917
154	0xbd0cbfff	-0.03436279
155	0xbd4cd766	-0.050010107
156	0xbdb50309	-0.088384695
157	0x3da6ba06	0.0814095
158	0x3d3eb5d6	0.04656013
159	0x3dfbcb16	0.12294595
160	0x3d36702b	0.044540565
161	0x3dc4984f	0.09599363
162	0xbd5aae63	-0.053388964
163	0xbe3e2cb0	-0.18571734
164	0x3a404022	0.0007333775
165	0x3dc5a3f6	0.09650414
166	0xbe1a07eb	-0.15042083
167	0x3d84b90a	0.06480606
168	0x3d2f09a9	0.042733822
169	0x3d694f10	0.056960166
170	0x3c291493	0.010319847
171	0xbe03f664	-0.1288696
172	0xbe204b31	-0.15653683
173	0x3d1c115b	0.03810249
174	0x3d6a362f	0.05718058
175	0x3d8f4a61	0.069966085
176	0x3e1b0d77	0.15141855
177	0xbda11362	-0.07865025
178	0xbda2e584	-0.07953933
179	0xbdd4f81b	-0.10398885
180	0x3e16c067	0.14721833
181	0x3c96414b	0.018341681
182	0xbe11962c	-0.14217442
183	0x3dafdcfe	0.08587073
184	0xbe335f41	-0.17516805
185	0xbe10d0b0	-0.14142108
186	0xbe14e6ea	-0.14541212
187	0x3daa23f2	0.08307637
188	0x3c89e934	0.016834833
189	0x3e35b850	0.17746091
190	0x3cfd0f40	0.03089106
191	0xbd87098c	-0.06593618
192	0xbdbba31e	-0.091619715
193	0x3e02c6fa	0.12771216
194	0x3ce45e95	0.027877131
195	0xbe2de1ff	-0.16980742
196	0x3cad5e05	0.021162996
197	0x3df3cf3d	0.11904762
198	0xbd6f5d9e	-0.05843889
199	0x3d853fef	0.06506335
200	0xbdd27ea4	-0.10278061
201	0x3dbc8d9a	0.09206696
202	0x3d549b2a	0.05190579
203	0x3e0acdd5	0.13555081
204	0x3e29b757	0.16573845
205	0x3b8b816b	0.004257371
206	0xbc8d1060	-0.017219722
207	0xbdd27dad	-0.10277877
208	0x3d280b12	0.041026182
209	0x3d991e35	0.07476465
210	0xbe18f80e	-0.14938375
211	0x3da3358c	0.07969198
212	0x3e2bc16e	0.16773006
213	0xbccb51c6	-0.024819266
214	0x3dc7fbf4	0.09764853
215	0xbdb2f57f	-0.08738231
216	0x3cd247e0	0.025669038
217	0xbe152f84	-0.14568907
218	0x3d9c9b24	0.07646778
219	0x3e18beb1	0.14916493
220	0xbdd08039	-0.101807065
221	0xbe08a36c	-0.1334359
222	0x3de3ba3a	0.11119504
223	0x3cbf6af5	0.02336643
224	0xbd9b55c1	-0.07584716
225	0xbdf8885c	-0.121353835
226	0x3e376da0	0.17912912
227	0xbd81b70a	-0.0633374
228	0x3de778b9	0.11302323
229	0xbcbed1fe	-0.023293491
230	0xbc284b98	-0.010271929
231	0xbdab4172	-0.08362092
232	0xbd370bf4	-0.044689134
233	0x3bc5f92b	0.006041666
234	0x3e28cd7b	0.16484635
235	0x3e3f3a51	0.1867459
236	0xbd036416	-0.03207787
237	0x3e0cde10	0.13756585
238	0x3e0209dc	0.12699074
239	0xbb1f4d7a	-0.0024307654
240	0x3dc5aae3	0.09651735
241	0x3d6ca821	0.057777528
242	0x3d3da70f	0.046301898
243	0xbd3d5671	-0.046225015
244	0xbcc77567	-0.024347974
245	0xbd3d447f	-0.0462079
246	0x3d391b67	0.04519215
247	0xbd2f2796	-0.04276236
248	0x3d0084ec	0.031376764
249	0x3e0a636b	0.13514487
250	0x3dbe968a	0.09306057
251	0x3c467475	0.012112726
252	0xbe294b80	-0.16532707
253	0xbd7be31e	-0.061495893
254	0xbd80f496	-0.06296651
255	0xbdd2a53b	-0.102854215

blocks.0.mlp.fc2.weight f4 [32, 128]
0	0xbda5110c	-0.08059892
1	0xbd516b68	-0.05112782
2	0x3d042e99	0.032271
3	0xbcacf168	-0.021111205
4	0x3b841099	0.004030299
5	0x3d8bbf06	0.06823544
6	0x3c81637d	0.01579451
7	0xbd0fbda1	-0.035092954
8	0xbc74c2c3	-0.014939013
9	0xbc85e14a	-0.016342778
10	0x3d9bb595	0.076029934
11	0x3bc2b893	0.005942413
12	0x3d019593	0.031636786
13	0x3e00d038	0.12579429
14	0xbcbf2401	-0.023332598
15	0xbd46bd84	-0.04852058
16	0x3d2307ac	0.03980224
17	0xbdb88d29	-0.09011299
18	0xbd4dc6df	-0.050238486
19	0xbcd4dcff	-0.025984285
20	0xbce6a8ce	-0.028156664
21	0xbccfecd7	-0.025381489
22	0x3cb71c58	0.022352383
23	0x3d727db1	0.0592019
24	0xbd9758a6	-0.07389955
25	0xbc995266	-0.018716048
26	0xbd497acf	-0.049189385
27	0x3d354cb0	0.044262588
28	0x3d53177d	0.051536072
29	0x3d836f00	0.06417656
30	0x3da864a7	0.08222323
31	0x3d30051a	0.042973615
32	0xbce8ede8	-0.028433755
33	0xbd6da3f4	-0.058017686
34	0xbd78dc26	-0.060756825
35	0x3d3dc782	0.046332844
36	0xbd1b635d	-0.037936557
37	0x3d3c4bbe	0.04597067
38	0xbddb6d72	-0.107142344
39	0x3d07decb	0.033171456
40	0x3d31c379	0.043399308
41	0x3cce23a4	0.02516348
42	0xbd465c13	-0.048427653
43	0x3dbac05f	0.09118723
44	0x3bb9fc2e	0.005675814
45	0x3d54c1ea	0.051942743
46	0xbb7bdd83	-0.0038431592
47	0x3939cb30	0.00017718668
48	0x3d1152a4	0.035479203
49	0xbc9246e0	-0.017856061
50	0xbd9d74cf	-0.07688295
51	0x3bf821d0	0.00757239
52	0xbc0e0564	-0.008668277
53	0xbd847deb	-0.064693294
54	0x3d117673	0.035513353
55	0x3bb58adc	0.005540235
56	0xbc21468a	-0.009843478
57	0x3d0dff97	0.034667578
58	0x3d98037b	0.07422539
59	0xbd91bcb3	-0.0711607
60	0x3dd242ef	0.10266673
61	0x3d974857	0.073868446
62	0xbcdca821	-0.026935639
63	0x3d96cafa	0.073629335
64	0xbbe81cdd	-0.007083519
65	0x3d255104	0.040360466
66	0x3c9f6b64	0.019460388
67	0xbdd5a5d2	-0.10432018
68	0x3d8faac4	0.07014993
69	0x3d991cb4	0.07476178
70	0x3d4d9cf9	0.05019853
71	0x3d859849	0.06523187
72	0xbda0177d	-0.0781698
73	0x3d8a06d5	0.06739584
74	0x3caa2f2c	0.020774446
75	0xbda3fa24	-0.08006695
76	0xbd70fc21	-0.0588342
77	0xbd016756	-0.03159269
78	0x3d2389de	0.039926402
79	0xbd98d51b	-0.07462522
80	0x3dc16fe6	0.09445171
81	0x3da6430e	0.081182584
82	0x3d32f10e	0.04368692
83	0x3dc5cc8b	0.09658154
84	0xbd1cd148	-0.038285524
85	0xbd604f8b	-0.054763358
86	0xbce21cea	-0.027601678
87	0xbd116017	-0.03549203
88	0x3d81da43	0.06340458
89	0xbcf6e648	-0.030139104
90	0x3db19fc3	0.0867305
91	0xba893bda	-0.0010470108
92	0xbc8304e4	-0.015993543
93	0x3cadfdd4	0.021239199
94	0x3d9ec454	0.0775229
95	0xbd6c20a5	-0.05764832
96	0x3d8b5561	0.06803394
97	0xbc0554a5	-0.008137857
98	0x3cf4ae66	0.029868316
99	0xbd7f07a3	-0.062263142
100	0x3c1ae905	0.00945497
101	0xbd1e81ff	-0.038698193
102	0xbd956832	-0.07295264
103	0x3b32c20c	0.0027276305
104	0x3d933fe9	0.07189924
105	0xbc3a9d2a	-0.01139001
106	0x3ce04e03	0.027380949
107	0xbd312dc5	-0.04325654
108	0xbd2570bf	-0.040390726
109	0x3d670888	0.05640462
110	0xbd40de78	-0.047087163
111	0xbd7884ae	-0.06067341
112	0xbd126143	-0.035737287
113	0x3cb6a327	0.022294594
114	0xbda64350	-0.081183076
115	0x3d7261f8	0.05917546
116	0xbd94eccf	-0.0727173
117	0x3d8900e8	0.06689626
118	0xbd50b40c	-0.050952956
119	0xbc90fd56	-0.017698925
120	0x3d9ca472	0.07648553
121	0x3cf9d1ce	0.03049555
122	0xbc2aa80e	-0.010416044
123	0xbd4a71b4	-0.049424842
124	0x3db6f0e1	0.08932663
125	0xbc77513c	-0.015095051
126	0x3cec247e	0.028825995
127	0x3d4f1e9b	0.050566297
128	0xbd07046c	-0.0329632
129	0xbd7beb77	-0.061503854
130	0x3d753d8a	0.05987314
131	0xbc68eedd	-0.014217106
132	0x3c3aee53	0.01140936
133	0x3d56ff43	0.05248953
134	0x3d72527b	0.05916069
135	0x3d5806fe	0.052741043
136	0x3bd29c98	0.006427359
137	0x3cc82570	0.024431914
138	0x3cc21375	0.023690918
139	0x3c7f17cf	0.015569641
140	0x3d901637	0.07035487
141	0xbc17c387	-0.009262926
142	0x3c0f55ef	0.0087485155
143	0x3d90c612	0.07069029
144	0x3bdb614c	0.0066949483
145	0x3d2a5326	0.041583203
146	0xbcf7d2ec	-0.030251943
147	0xbd9b6bc1	-0.07588912
148	0xbd7d35ca	-0.061818875
149	0xbda39fd9	-0.07989473
150	0xbd87d626	-0.066326424
151	0x3c9cb846	0.019130837
152	0x3d09f0a0	0.033676744
153	0x3d998c6d	0.07497487
154	0x3da16513	0.078806065
155	0xbc429edb	-0.011878694
156	0xbcfda7f8	-0.030963883
157	0xbc52fdc1	-0.012877882
158	0x3bbc882f	0.005753539
159	0xbdbe26b8	-0.09284729
160	0xbd055ef9	-0.032561276
161	0xbbbe66c7	-0.005810592
162	0xbda2e9e2	-0.07954766
163	0xbcc2c2f6	-0.023774605
164	0xba8698a9	-0.0010268885
165	0xbc976067	-0.018478585
166	0x3ca8f71b	0.020625642
167	0x3d0e699d	0.03476869
168	0x3d3b7858	0.045769066
169	0xbd0a87fb	-0.033821087
170	0x3c6cdeae	0.014457388
171	0x3850b342	4.975801e-05
172	0x3d80ff67	0.06298714
173	0xbd76bdce	-0.060239606
174	0x3d477137	0.048691954
175	0xbd9b91f6	-0.07596199
176	0xbdb317ef	-0.08744799
177	0x3d809a0d	0.06279383
178	0xbd5f833e	-0.05456852
179	0x3ce2df7b	0.027694454
180	0xbc4df650	-0.0125709325
181	0x3cbf227a	0.02333187
182	0xbdaed0bd	-0.085359074
183	0x3dadf6d9	0.08494348
184	0x3d3aa63b	0.045568686
185	0xbd7c15a9	-0.061544094
186	0xbd465c99	-0.04842815
187	0xbda010a1	-0.07815672
188	0x3d9d81da	0.07690783
189	0x3c2a422c	0.010391753
190	0xbca87a76	-0.020566206
191	0xbd16e2b3	-0.03683729
192	0xbc664d56	-0.014056524
193	0xbd4c8532	-0.049931712
194	0xbd5a02b9	-0.053225253
195	0x3d4575fc	0.04820822
196	0x3dbbeb20	0.09175706
197	0x3c062c33	0.008189249
198	0x3db42635	0.0879635
199	0x3d8cca20	0.0687449
200	0x3cf6da5b	0.030133417
201	0x3d6a88e3	0.05725945
202	0xbd60c68b	-0.054876845
203	0xbce8c117	-0.028412385
204	0xbd88e04b	-0.066834055
205	0x3bd2b4c7	0.0064302417
206	0xbd09b495	-0.033619482
207	0x3cc827d7	0.02443306
208	0x3b68a6a2	0.0035499712
209	0xbc5cc52f	-0.013474747
210	0x3d53b96f	0.051690515
211	0xbbd5251d	-0.0065046684
212	0x3bd67eb1	0.0065458645
213	0x3c8a2564	0.016863532
214	0xbc219778	-0.009862773
215	0x3d53d2f2	0.051714845
216	0x3c6afb6b	0.014342169
217	0xbd97228b	-0.073796354
218	0x3d892734	0.066969305
219	0xbd322364	-0.043490782
220	0xbd0d8714	-0.03455265
221	0x3d03c0b3	0.032166194
222	0xb9e8c74f	-0.00044398985
223	0xbc628836	-0.0138264205
224	0x3bdefeb0	0.0068052635
225	0x3d9e8712	0.07740606
226	0xbdcfe28a	-0.10150631
227	0xbdd40b0a	-0.10353668
228	0xbd24bfec	-0.040222093
229	0x3cf3176c	0.029674254
230	0x3d720aaa	0.0590922
231	0x3da8fd2a	0.08251412
232	0x3c9b1444	0.018930562
233	0x3d256e8c	0.04038863
234	0xbd5ef99a	-0.054437257
235	0x3d96e7bd	0.07368419
236	0x3d27fbeb	0.041011732
237	0xbb0bebe1	-0.0021350312
238	0xbd932585	-0.07184891
239	0x3d9b6cc1	0.075891025
240	0x3ce66787	0.028125538
241	0x3ca2b431	0.019861313
242	0x3d46212f	0.04837149
243	0xbcefe5c6	-0.02928437
244	0x3d5f1ac9	0.054468904
245	0xbd5203db	-0.051273208
246	0x3d16b457	0.03679308
247	0x3d9042c3	0.07043984
248	0xbdb58dfa	-0.088649705
249	0x3b033338	0.0020019542
250	0xbd588a94	-0.052866533
251	0x3caaec03	0.020864492
252	0x3d89cd15	0.067285694
253	0x3de3d977	0.111254625
254	0x3c05bebf	0.008163153
255	0x3db366cd	0.08759842

blocks.1.norm1.weight f4 [32]
0	0x3f81fdda	1.0155594
1	0x3f879034	1.0590882
2	0x3f851ebf	1.0400008
3	0x3f82df9f	1.0224494
4	0x3f82d385	1.0220801
5	0x3f829ce0	1.0204124
6	0x3f88d302	1.0689394
7	0x3f80086d	1.0002571
8	0x3f873b1e	1.0564916
9	0x3f835dae	1.0262964
10	0x3f7f427e	0.99710834
11	0x3f83e897	1.0305356
12	0x3f849df2	1.0360701
13	0x3f81bb01	1.0135194
14	0x3f8314a5	1.0240675
15	0x3f853355	1.040629
16	0x3f88e43f	1.0694655
17	0x3f8304fe	1.0235898
18	0x3f80053a	1.0001595
19	0x3f7b5802	0.98181164
20	0x3f85d41d	1.0455357
21	0x3f84d6aa	1.037801
22	0x3f8659a7	1.049611
23	0x3f8578e3	1.0427517
24	0x3f7cbdb1	0.98726946
25	0x3f83de20	1.0302162
26	0x3f8453fe	1.0338132
27	0x3f814ff4	1.0102525
28	0x3f874700	1.0568542
29	0x3f84def2	1.0380538
30	0x3f84a6c3	1.0363392
31	0x3f85b443	1.0445637

blocks.1.norm1.bias f4 [32]
0	0x3c4b0cda	0.012393201
1	0x3b147d76	0.0022657788
2	0xbbb574fe	-0.005537628
3	0xb8e73ddc	-0.000110264606
4	0x3bd4faf9	0.006499645
5	0x3b8f11ce	0.004366136
6	0xbc954d13	-0.018225228
7	0xbafb51f9	-0.001917421
8	0xbc1c79d4	-0.00955053
9	0xbb79fbe7	-0.003814453
10	0xbb533d7a	-0.0032232688
11	0x3b62fdfe	0.0034636254
12	0x3b38fe82	0.002822787
13	0xbc035c63	-0.008017632
14	0x3c08e9b7	0.008356503
15	0xb917c11c	-0.00014472421
16	0xbc2a392f	-0.01038961
17	0x3c055c8c	0.008139741
18	0x3b8df479	0.004332122
19	0x3c268cee	0.010165436
20	0xbcdac0b2	-0.026703212
21	0x3c2813b6	0.010258606
22	0xbb976054	-0.0046196375
23	0x3b3f0d15	0.0029152085
24	0xbc1c417b	-0.009537096
25	0xbb8e432e	-0.0043415045
26	0x3bc92852	0.0061388398
27	0xbbc3be26	-0.005973595
28	0x3bba3dda	0.005683643
29	0x3c86a702	0.016437057
30	0xbc0feae9	-0.008784034
31	0xbb7b4923	-0.0038343153
