image_encoder/trained_models/vit_20241110_192754.pth (torch, 454617 bytes, 59 tensors)

cls_token f4 [1, 1, 32]
00000000: 1f87 1b3c d337 933c aa9c a3bb 01de 213c
00000010: 05b0 fb3b 3fbc 58bb ebab 9fbc f69f 23bc
00000020: b0e4 c0b9 8119 f93a 669a 2f3c f47f 16bc
00000030: 4057 23b7 c3f0 103c ede3 2cbc 1bd9 7f3a
00000040: 53b1 c23b a554 7ebc 27ef 1b3c e071 07bc
00000050: a14c 9b3b eee0 113c 8d28 f13b c5b0 503c
00000060: 9881 543a 41f8 1139 e8e4 1abb 0c64 5d3c
00000070: c26f 17bb 1322 41bc e8d7 fbbb ddfd 94bc
0.009492665 0.017970955 -0.004993041 0.00987959 0.0076808953 -0.0033071188 -0.019491157 -0.009986868
-0.0003679148 0.0019004793 0.010717964 -0.00918578 -9.735872e-06 0.008846465 -0.010552389 0.0009759829
0.005941549 -0.0155231105 0.009517468 -0.008266896 0.0047393595 0.008903725 0.0073595704 0.012737458
0.0008106469 0.0001392076 -0.0023634974 0.013512623 -0.0023107384 -0.011787909 -0.00768565 -0.018187458

pos_enc f4 [32, 32, 32]
00000000: 0000 0000 0000 803f 0000 0000 0000 803f
00000010: 0000 0000 0000 803f 0000 0000 0000 803f
00000020: 0000 0000 0000 803f 0000 0000 0000 803f
00000030: 0000 0000 0000 803f 0000 0000 0000 803f
00000040: 0000 0000 0000 803f 0000 0000 0000 803f
00000050: 0000 0000 0000 803f 0000 0000 0000 803f
00000060: 0000 0000 0000 803f 0000 0000 0000 803f
00000070: 0000 0000 0000 803f 0000 0000 0000 803f
00000080: 0000 0000 0000 803f 0000 0000 0000 803f
00000090: 0000 0000 0000 803f 0000 0000 0000 803f
000000a0: 0000 0000 0000 803f 0000 0000 0000 803f
000000b0: 0000 0000 0000 803f 0000 0000 0000 803f
000000c0: a46a 573f 4151 0a3f ba7d 083f 0d94 583f
000000d0: 3e39 9f3e 6b4e 733f 3a23 353e 83f6 7b3f
000000e0: 7775 cc3d 98b8 7e3f af36 663d 6898 7f3f
000000f0: 5c81 013d 3cdf 7f3f 42ab 913c a3f5 7f3f
00000100: 0000 0000 0000 803f 0000 0000 0000 803f
00000110: 0000 0000 0000 803f 0000 0000 0000 803f
00000120: 0000 0000 0000 803f 0000 0000 0000 803f
00000130: 0000 0000 0000 803f 0000 0000 0000 803f
00000140: b7c7 683f 3311 d5be 0af2 663f b2e8 dc3e
00000150: 1b54 173f ec7b 4e3f f647 b23e a6fa 6f3f
00000160: f96f 4b3e a5e5 7a3f 87d9 e53d f361 7e3f
00000170: c970 813d f97c 7f3f 5ca5 113d 8ed6 7f3f
00000180: 0000 0000 0000 803f 0000 0000 0000 803f
00000190: 0000 0000 0000 803f 0000 0000 0000 803f
000001a0: 0000 0000 0000 803f 0000 0000 0000 803f
000001b0: 0000 0000 0000 803f 0000 0000 0000 803f
000001c0: c381 103e 2670 7dbf d745 7e3f ab7f edbd
000001d0: c209 503f 582f 153f 6d2f 023f 296d 5c3f
000001e0: 6d4e 973e ef90 743f d8ee 2b3e 9e5d 7c3f
000001f0: c1ff c13d 4fd9 7e3f 4e69 5a3d c3a2 7f3f
00000200: 0000 0000 0000 803f 0000 0000 0000 803f
00000210: 0000 0000 0000 803f 0000 0000 0000 803f
00000220: 0000 0000 0000 803f 0000 0000 0000 803f
00000230: 0000 0000 0000 803f 0000 0000 0000 803f
00000240: cfbd 41bf 3055 27bf ec49 473f 9eaf 20bf
00000250: de1d 743f b12e 9a3e bc1f 273f edeb 413f
00000260: d861 c73e a7ca 6b3f c665 643e 098d 793f
00000270: 892e 013e 69f4 7d3f c88d 913d 465a 7f3f
00000280: 0000 0000 0000 803f 0000 0000 0000 803f
00000290: 0000 0000 0000 803f 0000 0000 0000 803f
000002a0: 0000 0000 0000 803f 0000 0000 0000 803f
000002b0: 0000 0000 0000 803f 0000 0000 0000 803f
000002c0: 107c 75bf 2c3c 913e d8da a53e 4032 72bf
000002d0: 7ffc 7f3f e972 29bc abca 463f f14c 213f
000002e0: 4477 f53e 40a9 603f ed11 8e3e 7cf2 753f
000002f0: 1e3c 213e 81ce 7c3f 21db b53d 1efd 7e3f
00000300: 0000 0000 0000 803f 0000 0000 0000 803f
00000310: 0000 0000 0000 803f 0000 0000 0000 803f
00000320: 0000 0000 0000 803f 0000 0000 0000 803f
00000330: 0000 0000 0000 803f 0000 0000 0000 803f
00000340: 8c0f 8fbe b8cd 753f 76e5 6bbe 531d 79bf
00000350: 4e78 723f 6d3f a4be 8930 603f 322f f73e
00000360: 698c 103f 3249 533f fd7d a93e e290 713f
00000370: 6f20 413e e367 7b3f c219 da3d 518b 7e3f
00000380: 0000 0000 0000 803f 0000 0000 0000 803f
00000390: 0000 0000 0000 803f 0000 0000 0000 803f
000003a0: 0000 0000 0000 803f 0000 0000 0000 803f
000003b0: 0000 0000 0000 803f 0000 0000 0000 803f
000003c0: 4630 283f bdff 403f 6db6 36bf 614f 33bf
000003d0: 6ee8 4c3f bc74 19bf 4484 723f b6f8 a33e
000003e0: 73eb 243f b3cc 433f de60 c43e c66b 6c3f
000003f0: 51d3 603e eac0 793f ba46 fe3d e904 7e3f
0.0 1.0 0.0 1.0 0.0 1.0 0.0 1.0
0.0 1.0 0.0 1.0 0.0 1.0 0.0 1.0
0.0 1.0 0.0 1.0 0.0 1.0 0.0 1.0
0.0 1.0 0.0 1.0 0.0 1.0 0.0 1.0
0.0 1.0 0.0 1.0 0.0 1.0 0.0 1.0
0.0 1.0 0.0 1.0 0.0 1.0 0.0 1.0
0.84147096 0.54030234 0.53316844 0.8460091 0.3109836 0.9504153 0.17689219 0.9842302
0.09983342 0.9950042 0.056204494 0.9984193 0.031617507 0.99950004 0.017781857 0.99984187
0.0 1.0 0.0 1.0 0.0 1.0 0.0 1.0
0.0 1.0 0.0 1.0 0.0 1.0 0.0 1.0
0.9092974 -0.41614684 0.9021307 0.43146282 0.5911271 0.8065784 0.34820527 0.93741834
0.19866933 0.9800666 0.11223131 0.9936821 0.0632034 0.9980007 0.03555809 0.9993676
0.0 1.0 0.0 1.0 0.0 1.0 0.0 1.0
0.0 1.0 0.0 1.0 0.0 1.0 0.0 1.0
0.14112 -0.9899925 0.9932532 -0.11596616 0.8126489 0.58275366 0.50853616 0.86104065
0.29552022 0.9553365 0.1679033 0.9858035 0.09472609 0.99550337 0.053323083 0.9985773
0.0 1.0 0.0 1.0 0.0 1.0 0.0 1.0
0.0 1.0 0.0 1.0 0.0 1.0 0.0 1.0
-0.7568025 -0.6536436 0.7784717 -0.6276797 0.95358074 0.30113748 0.652828 0.7575062
0.38941836 0.921061 0.22304448 0.9748083 0.12615408 0.99201065 0.07107121 0.9974712
0.0 1.0 0.0 1.0 0.0 1.0 0.0 1.0
0.0 1.0 0.0 1.0 0.0 1.0 0.0 1.0
-0.9589243 0.2836622 0.32393527 -0.94607925 0.99994653 -0.010342338 0.77652997 0.6300803
0.47942555 0.87758255 0.2774805 0.96073127 0.15745589 0.987526 0.08879686 0.99604976
0.0 1.0 0.0 1.0 0.0 1.0 0.0 1.0
0.0 1.0 0.0 1.0 0.0 1.0 0.0 1.0
-0.2794155 0.96017027 -0.23036751 -0.9731037 0.9471482 -0.3207964 0.8757406 0.48278195
0.5646425 0.8253356 0.33103934 0.943617 0.18860029 0.98205394 0.10649444 0.9943133
0.0 1.0 0.0 1.0 0.0 1.0 0.0 1.0
0.0 1.0 0.0 1.0 0.0 1.0 0.0 1.0
0.6569866 0.75390226 -0.7137211 -0.70043 0.8004216 -0.5994375 0.9473307 0.3202569
0.64421767 0.7648422 0.38355154 0.9235195 0.21955611 0.9755999 0.12415834 0.9922624

norm.weight f4 [32]
00000000: 7a4b 233f 4b2d 5a3f 7c84 433f 5af7 363f
00000010: e43d 3b3f 4967 563f afb0 333f b0ae 413f
00000020: 1797 153f c4f9 133f e332 213f 75e2 2d3f
00000030: d068 3f3f d26d 4a3f 813d 2c3f 4c80 443f
00000040: cc2f 433f 651a 553f 44bc 223f 93d3 283f
00000050: 732e 4f3f 5679 3e3f 49a6 273f fd51 493f
00000060: b255 0e3f 52f4 453f 10b0 293f 3b43 423f
00000070: c026 223f 2ccd 5b3f 7c0c 2d3f 6fbe 0a3f
0.63787043 0.8522536 0.7637403 0.7147118 0.7314131 0.8375135 0.7019147 0.75657177
0.5843367 0.5780299 0.6296827 0.6792367 0.74769306 0.7907382 0.6728135 0.76758265
0.7624481 0.832434 0.6356852 0.65947837 0.8093025 0.74403894 0.65488106 0.7864073
0.5559951 0.7732593 0.66284275 0.75883836 0.6334038 0.8585994 0.67597175 0.5419683

norm.bias f4 [32]
00000000: 271a 133c 2467 203d 2059 0fbd 9d1c 5a3e
00000010: 79e6 3a3d d850 893d 3acc 12bd bf22 3cbd
00000020: 33cb 19be 6637 85be ccf9 f33d e852 083e
00000030: c200 1f3e 07bb 8f3d e9f7 f5bd 5011 66ba
00000040: 885c 4bbd 876f 45bb b0ba ecbd c92a ab3d
00000050: 9e5d bf3d c600 f73c 7ced 3f3e 9064 5dbb
00000060: c902 153e fef6 17be ca7f cfbc 556d 06be
00000070: a96c 983c 853b b33c 4cc7 4e3e 3266 b4be
0.008978403 0.039160863 -0.034997106 0.21299978 0.045629952 0.06704873 -0.035839297 -0.045931574
-0.1501892 -0.26018828 0.11912879 0.13312876 0.15527633 0.070180945 -0.12010176 -0.00087763835
-0.04964879 -0.003012629 -0.11559045 0.0835777 0.09344028 0.030151736 0.18742937 -0.0033781864
0.14551844 -0.14840314 -0.02532949 -0.13127644 0.0186065 0.021878967 0.20193213 -0.3523422

patch_embeddings.weight f4 [14, 32]
00000000: 1e21 f83f ab3c bc3f 606c 6c3f a17a 06c0
00000010: 6fa6 2f3f cfd1 9ebf f65c b7bd 3ded cdbf
00000020: 9c39 42bf 68e2 cf3f 0fa0 c3be 8cf0 b2bf
00000030: 9729 30bf 9dab 0dbf e7de 46bf 9d29 3e3f
00000040: 445e d33f d8f6 f9bd b387 eabe 81ec e43e
00000050: 4e72 33bf a6c0 8b3f 2219 413f 66bc d83f
00000060: e56f 9f3f f70a aa3f 2ccd 153f 6fcf a63f
00000070: 4d09 75be 87a4 963c a57b 81be fac6 5b3f
00000080: 416c b6bf 6e66 5ebf 436c 4abe 4474 de3f
00000090: f578 913e 7c0e c5be 612f a83e c717 3abf
000000a0: 1e30 c2bf c187 813f e597 64bf 399e 1abf
000000b0: 60c5 a2bf eefe 0540 277b 9abf c36e 03bf
000000c0: 7988 67bf 92fc 23bf ec05 703d 5a78 053f
000000d0: 007b 03bf 80dc 943f 7c9c 4abf 93b4 3bbf
000000e0: 18f5 b2bf 4d4a 43bc 9d80 61bd b1ff 273f
000000f0: f00b cdbd f857 eb3f 4d67 95bf 90ab b03f
00000100: 983b b23f 11a6 653f e79e 0c40 404d 013f
00000110: f167 a13e 3e30 11be 2dcf 7cbf 0c3e a53f
00000120: 8588 c9bd c667 173f 4201 893d fbda c83e
00000130: 2f01 163f 0a1a 23bf 5b98 0cc0 0f5b 43bf
00000140: d640 65bb 75ef b6be b0aa afbf 0b48 05bf
00000150: 14cd f83e 80aa 033f c6b5 943f 87be 10bc
00000160: 2112 2d3f feca 03bf e0d5 87bf 2ec7 0e3f
00000170: b854 e2bf 5baa 44bf 92ec ae3f 7054 e93e
00000180: de71 1ec0 65f5 ec3e c0a8 493f 29ad 00ba
00000190: d106 213f be50 153f 854d 863f c3f4 e3be
000001a0: 1328 66be cfa1 423f d0a4 c73e b226 603e
000001b0: 7250 8c3e 515c a63f 83be 19bb 4527 b3be
000001c0: fc1b b8bf 7aea d4bd 86ab 10bf 845f 073f
000001d0: 22a1 373f d504 0e3e da76 dabe e150 073f
000001e0: 97c4 45bd b888 913e be45 e43d 1a7c 323f
000001f0: 7892 8f3f 754a be3e a049 313f 925a d53e
00000200: 303e f93f 2b52 7f3f 24d5 b7bf c7cc 90bf
00000210: 028e 12be 12c9 cd3f 92ba 2a3f 7ab5 163f
00000220: 6086 913f 2323 ed3c 9abc e3bf 544c 693f
00000230: 1210 c0be 3391 873f 2502 35bf 33a4 1d3f
00000240: 437e 71bf 73de 713f a3c1 c53f ea35 b83f
00000250: 5430 8d3e c11f 40be 3bc5 37bf c084 bc3d
00000260: d942 ab3e 06ce 703f 58d9 f8be c778 ca3f
00000270: 0017 1dc0 4cab cabe 0d05 99bf 3619 493f
00000280: a334 f4bf 3f9d 6a3e b9c1 8f3c 3326 a6be
00000290: f143 8e3e 7b8a 33bf f5e2 553e 4ac6 86bf
000002a0: 949c c8bf a500 af3f 6d42 a53f eac7 073d
000002b0: 4428 c6bf 2449 3b3f 0689 483f e6f9 ff3f
000002c0: e9e7 463d 2ef1 183e ba84 4dbf 3c41 5fbe
000002d0: 6811 6cbf 3efa cabf 504f 8cbf e456 13bf
000002e0: c14a 04bf e887 bbbf cc2a fabf 8ab9 083e
000002f0: f443 813f 0903 0ebf d664 2f3f 53a6 2b3f
00000300: da0f e73f 2803 6abf e781 7d3f c312 b7be
00000310: ebee 8ebf 1c71 b13e ae07 e53e e5f4 a93f
00000320: bc43 f83e 2ae1 0240 f22f 06bf 430b 6cbf
00000330: 96c1 553e eb7f 873f 40ec a33f fb70 d13e
00000340: 4bde 40bf 2388 84bf 6c20 f5be 2e32 28bf
00000350: ddab 2a3e 5606 f03e b0c9 52be 50bb 14c0
00000360: a896 d3be a596 883f e7b1 debf a94c be3f
00000370: 0348 af3e 3c52 08bf 5edc 8a3f 42f3 de3f
00000380: 985a 47bd f9ae db3f a412 213e 3069 88bf
00000390: b1d1 17bf e3fe 0e3e 7386 e53e 06e1 fb3f
000003a0: e62f 52bd aea9 61bf da7a 02c0 9479 8dbf
000003b0: 6557 9c3d cf9c f63d 81a5 5a3e 884b c03e
000003c0: 1e7a 76bf a4c8 973e eb84 0dbf 7175 053f
000003d0: 1a49 69bf b4b4 debc 5705 a4be 6041 b03f
000003e0: 2876 9a3f 44a1 34bf 0d76 583f 256c ff3e
000003f0: 33c3 033f 2f29 153f 6b2a 0f3f 1de1 1d3e
1.9385107 1.4706014 0.9235287 -2.1012347 0.6861333 -1.2407779 -0.08953278 -1.6088024
-0.75869155 1.6240969 -0.38208053 -1.3979659 -0.6881346 -0.55339986 -0.7768387 0.74282247
1.6513143 -0.12205285 -0.45806655 0.44711688 -0.7009629 1.0918167 0.75428975 1.6932495
1.2456023 1.3284596 0.5851619 1.3032054 -0.23929329 0.018389 -0.25289646 0.8585049
-1.4251786 -0.86875045 -0.19767861 1.7379231 0.28412595 -0.38487613 0.32848647 -0.7269253
-1.5170934 1.0119554 -0.8929427 -0.6039768 -1.2716484 2.0936847 -1.2068833 -0.51340884
-0.90442616 -0.64057267 0.058599398 0.52136767 -0.5135956 1.1629791 -0.79145026 -0.7332241
-1.3981047 -0.01191957 -0.055054296 0.6562453 -0.100120425 1.8386221 -1.167215 1.3802357
1.3924437 0.8970652 2.1971986 0.505085 0.31524613 -0.14178559 -0.98753625 1.290956
-0.09840492 0.5914272 0.06689693 0.3922957 0.58595556 -0.6371161 -2.196799 -0.7631082
-0.0034981272 -0.35729566 -1.3723965 -0.52063054 0.48593962 0.5143204 1.1617973 -0.008834488
0.6760579 -0.51481616 -1.0612144 0.55772674 -1.7682104 -0.7682244 1.3665946 0.45572233
-2.4757 0.4628097 0.7877312 -0.00049086154 0.62901026 0.5832633 1.0492407 -0.44522676
-0.22476225 0.7602815 0.3899293 0.21889761 0.27405125 1.2996923 -0.00234595 -0.34990898
-1.438354 -0.10396285 -0.56511724 0.5288012 0.71730244 0.13869031 -0.42668802 0.52857786
-0.048283186 0.2842462 0.11146115 0.69720614 1.1216574 0.3716618 0.6925297 0.41670662
1.9472103 0.99734753 -1.436192 -1.1312493 -0.14311984 1.6076987 0.66690934 0.5887066
1.1369133 0.028947419 -1.7791932 0.9113209 -0.3751226 1.0591186 -0.707064 0.61578673
-0.94333285 0.94480056 1.5449718 1.4391453 0.27575934 -0.18762113 -0.71785325 0.092050076
0.33449438 0.94064367 -0.4860332 1.5818108 -2.4545288 -0.39583814 -1.1954666 0.78554094
-1.9078563 0.22911547 0.017548429 -0.3245102 0.2778621 -0.7013318 0.20887358 -1.0529263
-1.5672784 1.3672072 1.2910897 0.033149637 -1.5481038 0.7315848 0.7833408 1.9998138
0.04856101 0.14935753 -0.8028065 -0.21802229 -0.9221406 -1.5857618 -1.0961704 -0.5755446
-0.51676565 -1.465085 -1.954431 0.13352028 1.0098863 -0.5547338 0.6851324 0.67050666
1.8051713 -0.91411066 0.9902634 -0.35756502 -1.1166662 0.34656608 0.44732422 1.3277861
0.48489177 2.044993 -0.5241691 -0.92204684 0.20874628 1.0585912 1.2806473 0.4090651
-0.7533919 -1.0354046 -0.47876298 -0.6570157 0.16667123 0.46879834 -0.2058475 -2.3239326
-0.4132588 1.0670973 -1.7398041 1.4867145 0.34234628 -0.5325048 1.0848501 1.7417986
-0.04867038 1.7162772 0.15729767 -1.0657101 -0.5930434 0.13964419 0.4482914 1.9678047
-0.05131521 -0.88149536 -2.0387483 -1.1052728 0.07633857 0.120416276 0.21352197 0.37557626
-0.96280086 0.29645264 -0.5528094 0.52132326 -0.9112717 -0.027185775 -0.32035324 1.3769951
1.2067308 -0.7055857 0.8455513 0.49887195 0.51469725 0.58265966 0.559241 0.15417905

blocks.0.norm1.weight f4 [32]
00000000: 560e 833f 1056 803f a9bd 7a3f 1bbf 7c3f
00000010: 6467 803f 949e 7d3f c78b 813f 9ea1 7c3f
00000020: 2960 823f 3fb4 7f3f 67a4 7b3f caa0 7f3f
00000030: 0cc2 7f3f 3a5d 803f 5803 7d3f eb9b 7e3f
00000040: dc85 813f 23cc 7e3f 6985 7f3f 7002 803f
00000050: 477a 7e3f a2c0 7f3f e923 813f 8f41 7b3f
00000060: c29d 7f3f c0cc 7e3f 23a3 7f3f 765b 7b3f
00000070: a7d1 7b3f 0fdd 7f3f 6012 7d3f e3be 7f3f
1.023875 1.0026264 0.9794565 0.98729104 1.0031552 0.99070096 1.0120782 0.9868411
1.0185596 0.9988441 0.98297733 0.9985472 0.9990547 1.002845 0.9883323 0.9945666
1.0118976 0.9953024 0.9981294 1.0000744 0.9940533 0.9990331 1.0089084 0.9814691
0.99850094 0.99531174 0.998583 0.98186433 0.9836678 0.99946684 0.98856163 0.99900645

blocks.0.norm1.bias f4 [32]
00000000: 30e1 c13b 2d74 e03b 77e0 79bb 8219 9c3b
00000010: 817a 23bc 0ce8 8a3c 4ded e9bb 2496 83b7
00000020: 9fda a6bb f5dd f63a be8b 4d3c ab0b afb9
00000030: f387 8fbb a8d7 ea3b 6ed8 e5ba ecf2 8cbb
00000040: 34b8 343c dc0f d2bb e4a0 98bb 4544 693b
00000050: cd42 8abb 4a9d 963b 9435 d0bb c189 8c3c
00000060: e36c 063b 7413 4ebb fdb7 0fbc f300 30bb
00000070: 6e58 6f3b 7d10 beb7 7a79 65bb e6c8 f23a
0.005916737 0.0068497867 -0.0038128176 0.004763783 -0.009977938 0.016956352 -0.007138884 -1.5686332e-05
-0.0050919796 0.0018834459 0.012545524 -0.00033387294 -0.00438022 0.0071668215 -0.0017535815 -0.0043014195
0.011030246 -0.006410582 -0.0046578515 0.003559367 -0.004219389 0.004596387 -0.0063540433 0.01715553
0.002051168 -0.00314447 -0.008771894 -0.0026856035 0.0036521214 -2.2657443e-05 -0.0035015033 0.0018523007

blocks.0.attn.qkv.weight f4 [96, 32]
00000000: 734e 0f3e ff1e 15be 125e 96bc f81c 32be
00000010: 4d0e 15be 8fce 9b3c 5a89 273d fdf1 c03c
00000020: 61d6 94bd a015 1a3e 64eb d43c f544 b2bd
00000030: 7e90 313c 4c37 363d fdf6 623d b669 d3bd
00000040: cc18 453d 50b3 b0bd e0ad 22be 02f8 c0bd
00000050: 8ae8 483e b8c9 153e 4ffb 273e cbf5 d63d
00000060: ca6c 033e 6d54 51bd 01e4 ccbd 2a9b b33d
00000070: 2745 d1bd 9465 d8bd 096b 54bd 8565 273d
00000080: ca69 ac3d fe4a 45bd 6af2 a2bd cf7b 7f3c
00000090: 0b8a c3bd 6549 b5bd fc66 bf3d 04e7 df3b
000000a0: 8e2e 233e 6360 403e b0e2 183d b25c 233d
000000b0: 7de9 9c3c 159f 733a c426 333b b3ab d5bc
000000c0: 0a49 ba3d c2cd 1a3e 9a8f 03bd 8aa6 b6bd
000000d0: e358 acbd b20a 99bd 5cdf 363c c9aa eb3d
000000e0: 2896 053e 97b3 de3d 3b87 fabd 041f b0bd
000000f0: 2cad 48ba 09af 60bd ffc8 bb3b 0234 24be
00000100: b8dc 663d 3f96 03be 61b5 c1bd 9ee1 19be
00000110: 8c7b 233e 4e8a 2abe fc25 fc3d a7d6 183a
00000120: 01d0 0fbd a94e e43d eff8 cebc 8064 e13d
00000130: 4eba f33d c846 17be 5143 8b3d 6f6e af3c
00000140: 18ea 293d 2c17 a53c 080a 423d 0b7d c1bd
00000150: 45c3 b9bc b395 2e3e 7a1e f03d bb5d 1abc
00000160: b03f 31be eaac 263c 01dd f9bd cf0d 193e
00000170: cedf c7bd 204f 8bbc 5b65 38bd 4877 093d
00000180: 79dc 453e d120 fa3c 11a1 2e3d cdfc 253e
00000190: 7845 1c3e f526 a9bd 6182 81bd ea80 213d
000001a0: 2804 99bd b7cd a23d 2467 02bc a4ab 06be
000001b0: b624 af3d 703f 533d 303e 2b3d b3ee 493e
000001c0: 81b3 033e 47ee 1c3e f29d c23c d1b0 28be
000001d0: a7a2 95bd d36c b2bd 3916 eebd 6a24 55bd
000001e0: 6092 10be 3c66 2fbe 4b58 efbd e1fa 1dbe
000001f0: 0a8f 1ebe 9dd6 773d fe68 023e 1b8b 9ebd
00000200: 3b80 23bd 48c4 d83d d09a b9bd d5a5 a0bd
00000210: 44ea fd3d e685 26be 4fb0 1e3b d018 173e
00000220: b533 393c 9264 363d ade3 cdbd 972b d8bb
00000230: 0476 ee3b d361 683d 527f 6a3d ce5c 1b3e
00000240: d616 03be 2eb9 0cbc 707b a2bd b4a9 1ebe
00000250: 6e72 bd3b 31a5 10be 0cb3 063e cf82 ee3c
00000260: b37c d5bd b857 bd3d 9ede 33be a8a9 57bd
00000270: eaef 1abd 3186 23be d320 01be 889e 15bd
00000280: 0006 053e 77dc 303e 1acd 2c3e e093 f3bd
00000290: 35a1 d3bd be5b 2b3e 9ffe 6a3d 114b 103d
000002a0: 4386 093d d36a 0dbe e969 94bd 6550 313e
000002b0: b1b9 7abd 8f1c 32bc b438 0fbe 1d7e e9bd
000002c0: dc4c 603b 1b80 e9bd 100d f1bc 70d2 763d
000002d0: c57c 57be ede7 493d 0abc 02be 38ce c6bd
000002e0: f463 923d 1c36 1c3e b691 38bd 1165 87bd
000002f0: ccfd 04be ef3d c9bd e7a2 1fbe 5445 efbc
00000300: 8d8f 013d 1134 26be 8b44 113e 6bcb e93d
00000310: 16c4 2abe 3f22 d1bd b181 5c3d ac1e 0dbd
00000320: 2808 ffbc 0c19 a6bd 2b31 0e3e e4f8 cbbd
00000330: ce6a 193e c3d3 b43c e343 143d 9bc7 113e
00000340: 1710 18bd 91e3 dabd f3c7 d6bc 1f8b 0e3e
00000350: c793 f5bd 72f5 3e3d d584 37be e638 b33d
00000360: 382e 5b3d 836e 31ba f141 953d c2c8 c23b
00000370: a605 d33d 8ce8 0cbe 6da4 ddbc 4a2e a33d
00000380: e7b6 343e 792d b73d bbd3 0abe a24b 033e
00000390: bb01 12bd 1a9c 43bd 0fc9 2bbe e8b0 f9bc
000003a0: 2a77 dd3d 03a3 7c3c 3435 e0bd 1083 753d
000003b0: 10e7 3ebd 669e 283e bb1a 1dbe 76c1 3ebd
000003c0: 0d1c 32be e995 94bd 3dd9 593d 4088 273e
000003d0: 9f25 413d ee29 333e 1cb5 143d 171a d03d
000003e0: 070c 063e bd8f 0e3e 70fb d5bd 60fe 2a3e
000003f0: 7dc0 da3d 5b6a a4bd 7aef b4bd dc3f 14be
0.1399477 -0.14562605 -0.018355403 -0.17393863 -0.14556237 0.019019393 0.040902473 0.023552889
-0.07267452 0.15047312 0.02599115 -0.08704559 0.010837672 0.04448633 0.055411328 -0.10322897
0.04811935 -0.08627951 -0.1588664 -0.09422304 0.19619957 0.14627731 0.1640446 0.104961
0.12834468 -0.051105905 -0.10004426 0.087698296 -0.10218268 -0.105662495 -0.05185989 0.0408683
0.08418615 -0.04816722 -0.07956393 0.015593483 -0.09547814 -0.088518895 0.093458146 0.006832959
0.15935728 0.18786769 0.03732556 0.039883323 0.019154305 0.00092934194 0.0027336339 -0.02608285
0.09095962 0.15117553 -0.03211937 -0.089184836 -0.08415391 -0.07472743 0.011161651 0.11507184
0.13045561 0.10874098 -0.122328244 -0.08599666 -0.0007655199 -0.054854427 0.0057307477 -0.16035464
0.056362838 -0.12850283 -0.094584234 -0.15027472 0.15965098 -0.16654322 0.123119324 0.00058303255
-0.035110477 0.11147816 -0.025265185 0.11005497 0.11900769 -0.14773095 0.06799949 0.021414964
0.041483015 0.02015265 0.047372848 -0.09447678 -0.02267612 0.17049293 0.11724563 -0.009421761
-0.17309451 0.010173062 -0.12200356 0.14946674 -0.09759484 -0.017005503 -0.045018535 0.03356102
0.19322385 0.030533226 0.042634074 0.16209717 0.15260875 -0.082593836 -0.06323696 0.039429583
-0.07471496 0.07949393 -0.007959161 -0.13151413 0.08551924 0.05157417 0.041807353 0.19719963
0.12861444 0.1532527 0.023756955 -0.164737 -0.07306414 -0.08712163 -0.116253324 -0.05203668
-0.14118338 -0.17128843 -0.116867624 -0.15427734 -0.15484253 0.060507406 0.12735364 -0.07741376
-0.039917212 0.10584313 -0.09062731 -0.0784413 0.12398198 -0.16262016 0.0024213975 0.14755559
0.011303832 0.044529505 -0.10053191 -0.006596993 0.007277252 0.056733917 0.05725033 0.15172121
-0.1280168 -0.008589072 -0.079337 -0.15494424 0.0057814633 -0.14125516 0.13154238 0.029115109
-0.10424175 0.09245247 -0.1756539 -0.05265203 -0.037826456 -0.15969159 -0.12610178 -0.03652814
0.1299057 0.172716 0.16875115 -0.11893439 -0.10333482 0.16734216 0.05737173 0.03522784
0.033575308 -0.13810281 -0.07246763 0.17315824 -0.061212245 -0.010871067 -0.13986474 -0.11401007
0.00342255 -0.11401387 -0.029425174 0.060259283 -0.2104369 0.049293447 -0.12767044 -0.09707302
0.07147971 0.15255016 -0.045060836 -0.06611074 -0.12987441 -0.09826266 -0.15589486 -0.029207863
0.03163104 -0.162308 0.14186303 0.11415752 -0.16676363 -0.1021161 0.05383462 -0.03445308
-0.031131819 -0.08110246 0.13885944 -0.099595815 0.14982149 0.022073632 0.036197554 0.142363
-0.03712472 -0.10687936 -0.02621839 0.13920258 -0.11991077 0.046620794 -0.17921765 0.08751087
0.053510875 -0.00067684817 0.07287968 0.0059443424 0.10303812 -0.13760585 -0.027055943 0.07967813
0.17647897 0.0894422 -0.13557331 0.1282182 -0.03564618 -0.047756292 -0.16775917 -0.030479863
0.10813744 0.015419724 -0.10947648 0.059939444 -0.046607077 0.16466674 -0.15342228 -0.046571217
-0.17393513 -0.072551556 0.05318569 0.16360569 0.04715502 0.17496464 0.03630553 0.10161226
0.13090526 0.1392202 -0.104483485 0.16698599 0.106812455 -0.08028098 -0.08834739 -0.14477485

blocks.0.attn.proj.weight f4 [32, 32]
00000000: d82a 82bd 0358 ef3d 9404 02be 7ac1 11be
00000010: d351 08be eaa7 d6bd c337 253e 0feb ed3c
00000020: 533a c5bc 3a24 54bd c621 0cbe 48dc 55bd
00000030: cdb7 b83d 762f ff3d c36a 053e 4b28 8c3c
00000040: 17a3 c0bd d065 cfbd 6365 273e 28b1 26be
00000050: 6bf7 243d 9ae3 9cbc e614 353e f638 db3d
00000060: 3c68 64bd f1e1 12be d59b 273d 0f9d f3bd
00000070: 989b d5bc ff41 333d 3814 c23d 1cd8 2dbd
00000080: 6d15 dfbd 58e6 04be de21 38be e249 aa3c
00000090: 4e59 f0bd 8386 603c 4f94 9cbd 3f16 f9bd
000000a0: 79d7 e93d 915e d23d e832 053e 7908 4a3e
000000b0: dbcd 05be 4120 e2bd bd14 13be 3649 dd3d
000000c0: 9584 ac3d de9d 143e 517d 03be d0ad cfbd
000000d0: 0649 283e 693d 01be 2ed6 1ebe 2b54 9b3d
000000e0: fe24 0fbe b817 55bd 948c d23d dd8a 0b3e
000000f0: 6d09 38bc 1e8c 15be eaad dc3d acad 393e
00000100: 5f1b 0bbe 5fe7 ee3b a1a9 f9bd 14ba f0bd
00000110: 53b8 923d 7b7d 913d 75dd 723d dfb6 0bbe
00000120: 9edd f2bc 1ce0 423d cbc1 e4bc 5728 bcbd
00000130: 9e38 afbd 033c 2e3e b49b 10be 81ab d1bd
00000140: 0667 093e 405e ffbd 2048 f13d f750 b4bd
00000150: 6e39 b8bb 9dbb b4bd 8e42 103e 02df e83d
00000160: ddba 3f3d a6b0 7a3c 9692 87bd 59ef b6bd
00000170: cac1 8abd 3418 633d 49ed d8bc fc66 d73d
00000180: ed44 b53c cec7 bdbb 8bfb cdbd daa2 973d
00000190: 90c5 22be 5bdc 243d 3ca9 613d 7f63 e93c
000001a0: 9e24 f53d c7f0 423d b1ef 3fbd 5eab 16be
000001b0: 7e7e 2bbe 4f94 ca3d db7c cb3d 0ed8 06be
000001c0: 0898 563d 6b4b 7abd e72b 133e afe5 78bd
000001d0: 9923 173e 9593 093e ade4 f83d 0fa6 fa3d
000001e0: 946d 6c3d 2258 5a3d cd84 36be 112a 23bd
000001f0: 196c 97bc fa9f a63d bb9e a1bd 2e6d 8a3d
00000200: 9dfd f53d c701 993d 7056 943d 58f8 9ebc
00000210: 574e be3d 8bc0 7dbd 0b67 0d3e 82c9 bf3b
00000220: d893 1abc 3868 1dbe 9bec 243e 6ec0 00bd
00000230: a2d2 043e 2f00 fcbd 105f 12be ba62 abbc
00000240: e203 0ebe a92d f43c a1b9 803b 6e71 7dbd
00000250: 7666 dc3d 4fd9 e43d 5f65 19be c54d 13be
00000260: d9b1 c83d 3384 d3bd 089c cb3c e5d0 3bbd
00000270: 851c d53c e8fc bebd 177d 3cbc 4751 57bd
00000280: 4cd3 a6bd daa5 bfbd 38bd 0f3d 1f97 f73d
00000290: 84a3 bbbb 2a80 87bb 27bf 073e ae68 0a3e
000002a0: f371 eabc fb80 09be 0556 3c3d 83c8 7f3d
000002b0: 127d 0fbe c299 24be 352d ba3c 7b51 243e
000002c0: cad2 1abe 51ba b5bd d4c7 63bd 7d06 1ebe
000002d0: cdd5 d7bd 2dff 083e 0a16 0a3e f9d6 0bbe
000002e0: 21fd 74bb e215 11be e7af 813d 6a98 f0bd
000002f0: 427f babd 7d7f acbd 6f43 033d 04c7 eb3d
00000300: 7efe 8ebd 3f0e 073d 9bce 163e 3a1a 66bb
00000310: 15bd af3b 38d6 843c e130 af3c 9228 bd3d
00000320: b55c c13d bfbd c7bd 2c63 293e c853 c23d
00000330: 8dc3 d8bc f54b 1c3e 0b61 fd3b 7820 d43d
00000340: e85c 23be 50e2 243e adce 213e 167c 08be
00000350: b2a2 28be 82ed 28bd 8fba 0cbe dc6f 7d3d
00000360: 37c5 bb3d 3d24 b8bc 4f49 ed3d 4458 2b3c
00000370: 1bb1 54bd 5077 1fbe 7bb2 123d 2ecc 32be
00000380: 5697 d03b f8db db3c cbbd e1bd d5db 7b3d
00000390: 2b77 f03c 28ac fd3d 623b a93d ee0f 19be
000003a0: abe0 0cbe 8446 4fbd b43f f2bd 4f63 803d
000003b0: c29e fabd cfa5 03be ec38 373d f7f1 c43d
000003c0: 32cd 5bbd f87b 34be 7ed4 c23c 4034 a43d
000003d0: 33ac 0a3e a6a0 c53b 7a78 103e effc 23be
000003e0: e8aa 223e deaa fbbd e863 dfbd b2f9 f73d
000003f0: 283a febc fba5 e43d 3b96 b3bd 9eaa 053e
-0.06355828 0.11686709 -0.12697059 -0.14233962 -0.13312463 -0.10481246 0.16134553 0.029042749
-0.024075663 -0.05179236 -0.13684759 -0.05221203 0.09019432 0.12460224 0.13029008 0.017109057
-0.09406107 -0.10126841 0.1634727 -0.16278517 0.04027502 -0.019151498 0.17683753 0.10704224
-0.05576347 -0.14344002 0.040920097 -0.11895191 -0.02607517 0.04376411 0.09476513 -0.042442426
-0.108927585 -0.12978494 -0.1798167 0.020787183 -0.117357835 0.013703945 -0.07645475 -0.12162446
0.11418051 0.10271943 0.130077 0.19729795 -0.13066809 -0.11041308 -0.1436338 0.108049795
0.084237255 0.14513347 -0.12840773 -0.10140574 0.16434106 -0.12621082 -0.1551139 0.07584413
-0.13978955 -0.052024573 0.102807194 0.13627191 -0.011232716 -0.14604232 0.10775359 0.18132657
-0.1358466 0.007290765 -0.12190557 -0.117542416 0.07164063 0.071040116 0.05929323 -0.13643979
-0.029646691 0.04757701 -0.027924439 -0.09187382 -0.08555721 0.1701508 -0.14121896 -0.1023779
0.13418207 -0.12469149 0.11781335 -0.08804505 -0.0056220805 -0.08824847 0.14087889 0.1137066
0.046809066 0.015300905 -0.06619756 -0.08932371 -0.067752436 0.055443004 -0.026480334 0.105176896
0.022127593 -0.005791641 -0.10057744 0.07404108 -0.15895677 0.04024921 0.055093035 0.028489826
0.11969875 0.047592904 -0.046859447 -0.14713809 -0.16747472 0.09891569 0.09935924 -0.13168356
0.052391082 -0.06110708 0.14372216 -0.06076592 0.14759673 0.13435204 0.121529914 0.122387044
0.05772169 0.053306706 -0.17824097 -0.03983504 -0.018484162 0.08135982 -0.078916036 0.067591056
0.120112635 0.07471042 0.07243049 -0.019405529 0.09292286 -0.0619512 0.13808839 0.005852879
-0.009434663 -0.15371788 0.16105883 -0.031433515 0.12970975 -0.123047225 -0.14294076 -0.0209211
-0.13868669 0.029806929 0.0039283787 -0.061875753 0.107617304 0.11174261 -0.14980076 -0.14385135
0.09799547 -0.103279494 0.024854675 -0.045853514 0.026014576 -0.09325582 -0.011504433 -0.052567746
-0.081457704 -0.093578056 0.035092562 0.12089371 -0.0057262797 -0.0041351514 0.13256513 0.13516495
-0.028618788 -0.13428108 0.045980472 0.062447082 -0.14012554 -0.16074279 0.022726635 0.16046707
-0.15119472 -0.08873428 -0.055610493 -0.15432163 -0.10538826 0.13378592 0.1348497 -0.13656224
-0.0037382322 -0.14168504 0.06332379 -0.11747821 -0.09106304 -0.08422754 0.03204673 0.115125686
-0.06982134 0.03297257 0.14727251 -0.0035110847 0.0053631165 0.016215429 0.021385612 0.09236254
0.094415106 -0.09752988 0.16541737 0.09488636 -0.026460433 0.1526335 0.0077325157 0.103577554
-0.1595341 0.16101956 0.15801497 -0.13328585 -0.16468313 -0.04124213 -0.13743041 0.061874256
0.09168475 -0.022478217 0.11586248 0.010458056 -0.051926713 -0.15572858 0.035814743 -0.17460701
0.006365697 0.026838288 -0.11022528 0.061488945 0.029353699 0.12386352 0.082632795 -0.14947483
-0.13757579 -0.05060436 -0.11828557 0.062689416 -0.12237312 -0.1285622 0.04473202 0.09616464
-0.053662486 -0.17625415 0.023782965 0.080177784 0.13542251 0.0060311137 0.14108458 -0.16014455
0.15885508 -0.1228845 -0.109077275 0.121081725 -0.03103359 0.11164471 -0.087688886 0.13053367

blocks.0.attn.proj.bias f4 [32]
00000000: ef23 f33d 0281 4b3c 01af 253e ed03 b7bd
00000010: c177 6bbd ebc9 4a3b d3fe c43d a4da 16be
00000020: cc12 4dbd 5661 0a3e 536a 363d f022 fe3d
00000030: b6a8 82bd a566 e6bd 0eac ddbd 4b84 d9bd
00000040: f95e 04be 210f a03d 88fc 573d 6610 dfbd
00000050: 6145 133e 4382 273d 6a48 853d ed4d 94bd
00000060: 93b8 f23d 92c0 eebd 52ae f43d f1a6 b5bd
00000070: 9f0e 8d3d 4673 8ebd c437 dd3d 65fc 0abe
0.11872088 0.012420895 0.1618004 -0.08936296 -0.057487253 0.0030943106 0.09618916 -0.14731842
-0.050066754 0.13513693 0.044534992 0.124090075 -0.06379835 -0.11250047 -0.108238325 -0.10620936
-0.12926854 0.078153856 0.052731067 -0.108918 0.14381935 0.04089571 0.065079525 -0.07241426
0.11851611 -0.116578236 0.119473115 -0.08869732 0.068875544 -0.069555804 0.10801652 -0.13572843

blocks.0.norm2.weight f4 [32]
00000000: ba87 823f 6bc9 803f 9f71 803f a4a8 803f
00000010: e109 773f 3ba0 783f 9fc0 7d3f 33a2 803f
00000020: 752f 803f cae3 7f3f 025a 7d3f 69e3 803f
00000030: c792 813f 0ee7 7c3f 5207 7d3f 1e68 7d3f
00000040: cb5b 813f e6b7 7d3f 6077 783f 2188 7d3f
00000050: d915 7d3f 5f95 7a3f 4e35 7e3f 21f5 813f
00000060: 851e 7f3f 29a7 803f 7553 7f3f f475 7f3f
00000070: 155f 813f e0d2 813f 9c0e 7f3f 44a5 813f
1.019767 1.0061468 1.0034674 1.0051465 0.9649945 0.9711949 0.9912204 1.0049499
1.0014483 0.99956954 0.98965466 1.00694 1.0122918 0.9879006 0.98839295 0.98986995
1.0106138 0.9910873 0.9705715 0.9903584 0.9886146 0.9788417 0.99300086 1.0152932
0.99655944 1.0051013 0.9973672 0.9978936 1.0107142 1.0142479 0.9963167 1.012856

blocks.0.norm2.bias f4 [32]
00000000: 1f37 be3a f17a 95bb afa2 12bc b618 adbc
00000010: 548b d3bb 65b9 e03a c76c 1d3c 7214 e7bb
00000020: 2c7e 223b a05a ed3b 1bc3 013c b93f 32bc
00000030: 329e 5b3a a6a5 cdbc bca2 1c3c 3216 7dbb
00000040: f3eb 983b d41a b3bb d6d3 863c d4b8 96bb
00000050: 049b aebb 6713 c0bb e062 5f3b 7f3d 733a
00000060: 9d3b b23b 8bcc 93b9 1487 c5bb 0fa0 84b9
00000070: d66c f9bb 2c51 99bb a3dc eabb 5ffd 583c
0.0014512277 -0.004561775 -0.00894992 -0.021129947 -0.006455818 0.0017145096 0.009608454 -0.007051998
0.0024794443 0.0072434694 0.007920052 -0.0108794505 0.000837776 -0.025103401 0.009560283 -0.0038617966
0.004666799 -0.0054658446 0.016458433 -0.00459967 -0.005328538 -0.005861688 0.0034086034 0.0009278878
0.0054392354 -0.0002819042 -0.0060280655 -0.00025296255 -0.007611851 -0.004678866 -0.007167415 0.013244002

blocks.0.mlp.fc1.weight f4 [128, 32]
00000000: 14c0 cebc 1d2c 6dbd d8b5 28be 2821 7bbd
00000010: c850 83bd b177 973c edb6 0e3e 5290 26bd
00000020: 7c36 533e f2fa 89bd 7e9d 8fbd 0703 53bc
00000030: 335f 5bbd 1b63 6f3d 6dbc 393e fce8 663d
00000040: 9474 05be d994 a3bd 812c 9bbc 883b 13be
00000050: b596 383d 0e89 6c3e 60da 263d c49a fb39
00000060: 4b1a dbbc f00b a1bd c099 f5bc 66d5 213e
00000070: 2bd2 febd cf57 1a3d 164c dcbd ced4 43bd
00000080: 4ebc 433c 780b 17be c0f4 a43c 93c4 28be
00000090: 463c e4bd d0a4 e03d 6b92 473e 48c2 f5bc
000000a0: d518 bbbd 1077 20be 204c cbbc 764f a7bd
000000b0: e1dc 133e 5727 11be d254 da3d b66c 363d
000000c0: 9fab 20bd 0160 073e e58b c73d 7e5e 653c
000000d0: 04bd dbbd c688 07bd 29ec c03c 37c7 253e
000000e0: b5ab 4cbd 8513 c5bd 67d6 1dbe 5ca5 c63d
000000f0: e6ed 733e 3eec 053e 03ae b9bd a611 063e
00000100: a710 57bd 251d c03d 0794 f33d 0f7f 15be
00000110: 1c41 453d a76c 993d 0002 efbd 3c3e 303e
00000120: ae46 013e 603b 1a3e d97d 7bbc 9e72 ebbd
00000130: c383 c2bd 999b 953d 0626 28bd 6b68 013e
00000140: 0c2b 1c3e 6819 753c e086 18be 7e3e 803d
00000150: fdfb 283e 815f 22bd f27a d5bd 5660 0cbd
00000160: 3b21 033d fa6a f5bd 5057 d53d f0ed 843d
00000170: 1f4c 9cbd b595 80bd 5838 94bd 9ddd ff3d
00000180: 8025 cd3d ef1f 483d d04a b1bc 9cf8 2a3d
00000190: 5d1a 1f3e f68c 1e3d 4031 97bd b1e7 723d
000001a0: 8567 94bd 7359 d2bb 2b71 f4bd 2c4b 1d3c
000001b0: da98 c03c 8b55 c8bd bb5f d13d 4ca9 253e
000001c0: d71c 44be 1801 803d d30c 03be 7bf0 95bc
000001d0: da71 bb3d 9bc5 c73c 0166 753d 0ecc 55bd
000001e0: 3fd8 333e 0b77 b4bd 122e 0b3d de2f ed3b
000001f0: 8601 d43d ef38 103d a2d2 fc3d 9b19 0d3d
00000200: 1f29 063e c0ef 3cbc 02f8 973d 0632 313e
00000210: 9061 7bbd 3c48 79bd e292 003e 506c 8f3d
00000220: 386a 19be a683 9e3d f37c 2cbe baab c0bd
00000230: 0085 6d3d 4a4f a13d d286 16bd 550d 0f3e
00000240: 2cda 2c3e df26 0c3e ece3 11be 4f3f 86bd
00000250: 50cf 983b 3beb 163e 1985 fcbc 420d 403d
00000260: b3a6 ab3d d81c b0bd 10ff e9bd db18 243e
00000270: bb17 163b 994a f93d 978d 41be 75cf 98bd
00000280: f496 1a3e b733 81bc b39a 6d3d 8aee 0bbe
00000290: c132 243e 6f52 b0bd 0988 4cbb ebed f7bd
000002a0: d7b2 aebd 6972 1fbe 3aba 1abe 59ec a9bc
000002b0: 84ba 96bd 3117 f13d d112 2bba 4365 0a3e
000002c0: c615 22bd 25ca 243d 7f73 2d3e 3f19 00be
000002d0: 04f5 a5bd 5bb9 f03d 3a4d 9fbc ab47 77bd
000002e0: 8491 5e3c eb45 ccbd 7741 c53b 2328 85bd
000002f0: 7d61 6e3d f9e6 2abd 1543 8dbd 51d2 5ebd
00000300: 1ef8 cc3c 7346 923d cbac 45be de90 04be
00000310: 5489 36be 992a bf3d 6290 f03d 146b 30be
00000320: 529c ae3c e2b6 fa3c d2ac a6bd c68a 423d
00000330: 7cf6 1d3e 2e32 443e 55a0 7a3d 188b 10bd
00000340: 1fe5 f4bd 8163 91bd fe7d 5ebc 4dc9 843a
00000350: 83e5 0d3e 5295 06be 2589 2c3c 9618 21bd
00000360: 193e 993c 0464 323e 2cbc 573c 768d fcbc
00000370: 0c67 62bd 7b33 0dbe 845f 19be ce42 9a3d
00000380: 60ef cabd b475 dd3d 120d 7dbd 971b f93c
00000390: 7a9c 0b3e 36b8 e6bb acb5 9c3d 7a0b 0c3e
000003a0: dc80 a5bd 6103 093e 534a 33be 2ef8 3a3e
000003b0: 712f 2fbd fb4f 273c 80a3 af3d 775a 293d
000003c0: 0651 db3d 13ac 72bd 14f5 e1bd 7823 283e
000003d0: a838 e5bd 8119 dc3d fe66 293e 9580 123e
000003e0: e231 57bd 95d8 85ba 5df2 2abe e9b0 a3bd
000003f0: 5213 6ebd 577c dabd 5949 913d a8cb e93d
-0.025238074 -0.057903398 -0.16475618 -0.061310917 -0.06411892 0.01848969 0.13936968 -0.04066498
0.20626253 -0.06737317 -0.07012461 -0.01287914 -0.053557586 0.058444124 0.18138285 0.056374535
-0.13032752 -0.07987375 -0.01894212 -0.14378178 0.0450656 0.23099157 0.040735602 0.0004798976
-0.026745936 -0.07863605 -0.02998054 0.15804061 -0.1244243 0.037681397 -0.107567 -0.04781037
0.011946751 -0.14750469 0.020136237 -0.16481237 -0.11144309 0.109689355 0.19489448 -0.029999867
-0.09135596 -0.15670419 -0.024816573 -0.08169453 0.14439727 -0.14175163 0.106607094 0.04453727
-0.03922617 0.13220216 0.0974348 0.0139995795 -0.10729411 -0.03308942 0.02355011 0.16189276
-0.04996844 -0.09622864 -0.15413819 0.096995085 0.2382122 0.130784 -0.09066393 0.1309267
-0.052506115 0.09380559 0.11893468 -0.1459925 0.048157796 0.07491427 -0.11670303 0.1721124
0.12624618 0.15061712 -0.015349829 -0.11496471 -0.09497788 0.073050685 -0.041051887 0.12637489
0.15250796 0.014959671 -0.148952 0.062619194 0.16502376 -0.03964186 -0.104238406 -0.03427156
0.032014113 -0.11983295 0.10417044 0.064906955 -0.076317064 -0.06278554 -0.07237309 0.12493441
0.10016918 0.04885858 -0.021642119 0.041741 0.155374 0.03870865 -0.073824406 0.05930299
-0.07246307 -0.0064193546 -0.119356476 0.009600442 0.023510385 -0.09781941 0.10223337 0.16177863
-0.19151627 0.062502086 -0.12797861 -0.018303147 0.09152575 0.024386218 0.05991173 -0.052196555
0.1756296 -0.08811768 0.033979483 0.007238372 0.10351853 0.035210546 0.123448625 0.034448247
0.13101624 -0.01153177 0.074203506 0.17304239 -0.06137234 -0.060859904 0.12556031 0.07003081
-0.14981925 0.07739954 -0.1684454 -0.09407754 0.057988167 0.07876451 -0.03674967 0.1396993
0.16880101 0.13686703 -0.14247102 -0.06555044 0.0046633855 0.14738171 -0.030825185 0.046887644
0.08381405 -0.085992515 -0.114256024 0.16025107 0.0022902328 0.121724315 -0.18901668 -0.07461444
0.15096647 -0.01577173 0.05800886 -0.13665214 0.16034986 -0.08609473 -0.0031209013 -0.12105926
-0.08530205 -0.15570988 -0.15110102 -0.020742582 -0.07359794 0.117720015 -0.0006525936 0.13515191
-0.039571546 0.040231843 0.1693859 -0.1250963 -0.08103374 0.11754104 -0.019446004 -0.060371082
0.013584498 -0.09974273 0.006019767 -0.06501796 0.05819844 -0.04172418 -0.068975605 -0.054399792
0.025020655 0.07142343 -0.19304197 -0.12945887 -0.17825824 0.09334297 0.11746289 -0.17228347
0.021314774 0.030604783 -0.081384316 0.047495626 0.15426058 0.19159767 0.06118806 -0.0352889
-0.11957764 -0.07099057 -0.013579844 0.0010130793 0.13857083 -0.13142899 0.010530745 -0.039330088
0.018706368 0.17420965 0.013167422 -0.030829173 -0.055274054 -0.1378917 -0.14977843 0.07532273
-0.099089384 0.10813466 -0.061780043 0.030408664 0.1363391 -0.0070410026 0.07651839 0.13676253
-0.080812186 0.13380195 -0.17508821 0.18258736 -0.042769853 0.01021194 0.08576107 0.04134604
0.10708813 -0.059246134 -0.11033073 0.1641978 -0.11192447 0.10747052 0.16543195 0.14306863
-0.052537806 -0.0010211641 -0.16694017 -0.07992727 -0.058123894 -0.10668247 0.07094068 0.114157975

blocks.0.mlp.fc2.weight f4 [32, 128]
00000000: 98ec 533b e95f 5eba a36f a4bd 1f39 623c
00000010: 7c07 97bd a051 ab3b 3033 82bb 185b 653d
00000020: 8733 e5bc 0910 993d 0c51 21bc 3ab5 83bc
00000030: acf5 aebd d15d 983d a71c f43b 4db8 94bd
00000040: c854 3b3c db79 5e3d 39dc dbbc a55a 543d
00000050: db92 1f3d a1ac 71bc 7b97 c73d fdc8 8b3d
00000060: d703 36bc 5dfa 95bb 9474 613d 3460 d4bc
00000070: 3834 833d fc5f a3bd d30e 25bd c75a 323d
00000080: 0de4 ccbd 87c1 28bd d61c 2dbd 72e0 233d
00000090: 7a21 e3bb 6a9b a3bd 6321 923d 2389 27bd
000000a0: 06ae 27bb 914e 043d 12f3 adbd ca9d d2bb
000000b0: f2d5 c8bc 10f0 1dbd dc48 bfbc d516 533d
000000c0: 85f1 58bd 7a14 3ebd 8108 353d f606 da3c
000000d0: 9b97 523b 1869 fb3b 7719 a33d 1fca 12bd
000000e0: f880 a2bd 762e a7bd 62f2 c73c 0af8 023d
000000f0: e82e 84bc 717f 97bd beb0 87bd 65f2 8dbd
00000100: 2982 983d aa0f a33c 70d4 53bd 9a4b e1bd
00000110: 73df 493d 6127 3f3b 9736 ad3d c6bf 6fbd
00000120: 5ad6 92bd 7662 ba3c 6c7f 823d 8bb5 bb3d
00000130: 6b9c b73d c22d 613d 0a0f 053d 3ead 48bd
00000140: fe4a b13d 5574 08bd 01db 8f3d 1665 273d
00000150: 9e33 4bbd 2b33 63bc ccfe 0bbc 23e1 b23d
00000160: e0c1 6c3d ea33 333c 95a2 6fbd 62be 8a3c
00000170: b0fa 8c3d b832 0cbd db06 963d 255d d4ba
00000180: 8fab 673d 40eb 043d 2eeb 3c3d 621b 6bbd
00000190: 2f30 303d d63f b7bd 68a1 29bc ad75 903d
000001a0: 3b95 9bbd c913 a1bd b4b1 03bd 2c8b 033c
000001b0: 4f2e a6bc 6a10 8bbd 2ac4 8f3c af6b bcbc
000001c0: 9a61 30bd 0dc0 cc3b dd46 013d 6405 603c
000001d0: 00b0 51bd 39bf 423d b97f d63b b7c6 1dbd
000001e0: dd17 a13d ab77 d93c 7cdc 503d 2cc9 913d
000001f0: 0975 ed39 9c58 643d d1b9 223d 8675 8e3d
00000200: cd4c ee3b 14b1 ca3d 335c 2c3d 7248 3abd
00000210: dd20 813d 2710 05bc b89f 8bbc 0412 aabd
00000220: 3ebe 62bc 622d 7f3d 7ba7 8ebd 7afb 0b3d
00000230: 3a7b 6c3d 9df9 a5bd a759 0ebc 929f cb3c
00000240: 949f 9e3d abbf d33c 76dc b4bd 461a 41bd
00000250: f535 283d 2bcd 70bd 1488 c6bd 65cb b1bb
00000260: 1a53 013d 66b7 8bbd aa87 abbd c3e3 443d
00000270: ab3a 73bd 3163 8cbd 25c2 c8bc 48d0 883d
00000280: 8b9c 9cbc 7470 7cbd 2ac5 8abd 38cd dcbc
00000290: f840 a33d f42c 733d 8ba0 febc 0e71 a8bd
000002a0: e5a0 e1bc 716d 2b3d 36b0 c03d 84f9 503d
000002b0: 17a9 a5bd 96e1 bd3c 4fbe f83a ecf8 163d
000002c0: 045d 283d ce5b 0fbd 854c dd3b 0d6c dd3c
000002d0: 6895 853c 2dc6 70bd 7dea 383d 2046 bfbd
000002e0: 3527 363d faab 74bd 385c edbc dc26 4fbd
000002f0: f52a 4abc 72ad f6b9 d87b bcbd b050 723d
00000300: a8bb 14bc 722d b03d eb14 f2bc d468 5bbd
00000310: 2722 b53c 346a 913d 8598 de3d c4cd f43c
00000320: 2784 a23c 9b1b 95ba 57f4 64bd eac1 8abd
00000330: 5b53 9abd 5d37 89bd 84c4 2fba 36ba 6a3d
00000340: 52b7 9d3d 86b0 48bd e528 cbbc 38bd a33d
00000350: cd00 8db9 7ef1 963a fccf 40bd f1ce 523b
00000360: f489 443d 875d 45bd e96e f4bc c023 da3b
00000370: bef7 1abd 61ac d1bc b08b 933b 0fbc 4f3d
00000380: 8316 8cbb 8cd2 b63c e823 6dbd 36fd 3a3d
00000390: d5c7 9538 9a69 1cbd 59ab dabd 29b9 12bd
000003a0: d0c8 a6bd 43e0 0cbc a8b1 8c3d 9179 a7bb
000003b0: 3572 9a3d da42 b5bc 13ec a6bc b440 dbbd
000003c0: 038b 56bd d96b 833d b17a 373d 2118 523d
000003d0: e2d2 cabb a68b 773b b552 f0bc a4ac 803d
000003e0: feae ccbd de94 6bbd 1752 d0bd 4aca ad3c
000003f0: 89f8 c3bc 56f6 a0bc c04e 313d 20c2 9a3d
0.0032337066 -0.00084829197 -0.080291055 0.013807564 -0.073744744 0.0052282363 -0.003973387 0.055995077
-0.027978672 0.074737616 -0.009845983 -0.016077626 -0.08542952 0.07439769 0.0074497047 -0.07261715
0.011433788 0.05431543 -0.026838409 0.051844258 0.03895841 -0.014750631 0.097456895 0.06825445
-0.011109314 -0.004576965 0.05504282 -0.02592478 0.06406444 -0.07977292 -0.04029734 0.043543603
-0.10004435 -0.041200187 -0.04226383 0.04000897 -0.006931481 -0.07988627 0.07135274 -0.04090227
-0.0025585904 0.03230149 -0.084936276 -0.0064275013 -0.02451608 -0.03855902 -0.023350172 0.051535446
-0.052964706 -0.046406247 0.044197563 0.026614647 0.003213382 0.0076724403 0.079638414 -0.03583729
-0.07934755 -0.081631586 0.02440757 0.03197483 -0.016135648 -0.073973544 -0.06625508 -0.06930999
0.07446701 0.01990493 -0.051716268 -0.11000748 0.049285363 0.0029167759 0.08457678 -0.0585325
-0.071697906 0.022752028 0.0637196 0.09165486 0.08965381 0.05497528 0.032485045 -0.04899334
0.08656882 -0.033314068 0.070241936 0.040867887 -0.049609773 -0.01386718 -0.008544635 0.08734348
0.05780208 0.01093767 -0.05850466 0.016936485 0.06883752 -0.034228057 0.07325526 -0.0016202076
0.056560095 0.032450914 0.046122722 -0.05739916 0.0430147 -0.089477226 -0.010353424 0.07053695
-0.07596823 -0.07865102 -0.032151893 0.008028787 -0.020285754 -0.0679024 0.017549593 -0.023000566
-0.04306183 0.00624848 0.03156172 0.01367316 -0.051193237 0.047545645 0.0065459874 -0.038519587
0.0786588 0.02654632 0.05099152 0.071184486 0.0004529136 0.055748567 0.03972799 0.069560096
0.007272339 0.09897056 0.042080116 -0.045479245 0.06305096 -0.008121527 -0.017043933 -0.083042175
-0.013839303 0.06229914 -0.06965538 0.034175374 0.057734706 -0.081042506 -0.008688367 0.024856362
0.07745281 0.02584823 -0.08831112 -0.047144197 0.041067082 -0.058789413 -0.096939236 -0.005425858
0.031573392 -0.0682209 -0.08375485 0.048068773 -0.059382122 -0.06854857 -0.024506638 0.066803515
-0.019117614 -0.06163068 -0.06775887 -0.026953325 0.07971376 0.059369043 -0.031082412 -0.082246885
-0.02754254 0.04185242 0.094086096 0.051019207 -0.08088892 0.023178857 0.0018977615 0.036858484
0.04110433 -0.03499966 0.0067535066 0.027029062 0.016306594 -0.058782745 0.0451455 -0.09339547
0.044470984 -0.059734322 -0.028974637 -0.05057417 -0.012339343 -0.00047050003 -0.09203309 0.05915898
-0.009077944 0.08602418 -0.02955099 -0.05356677 0.022111012 0.07100335 0.108689345 0.029883273
0.019838406 -0.0011376025 -0.055897083 -0.067752674 -0.0753543 -0.06700013 -0.00067050033 0.05730649
0.07700981 -0.04899647 -0.024799773 0.07995075 -0.00026894212 0.0011516062 -0.04707335 0.0032166804
0.047983125 -0.048184898 -0.029838042 0.0066570938 -0.03783392 -0.025594892 0.004502736 0.050716456
-0.0042751445 0.022317193 -0.05789557 0.045651637 7.142095e-05 -0.038186647 -0.10677213 -0.035821114
-0.08143771 -0.00859839 0.06869823 -0.0051109274 0.075413145 -0.022126604 -0.02037624 -0.107057005
-0.052378666 0.06417055 0.044794742 0.051292542 -0.00618969 0.0037772446 -0.029336313 0.062829286
-0.099943146 -0.057515018 -0.101719074 0.021214623 -0.023922222 -0.019648712 0.043287992 0.07556558

blocks.1.norm1.weight f4 [32]
00000000: 2391 813f 87f1 863f e5d7 813f f537 7d3f
00000010: 587c 7e3f c973 7e3f 216d 7f3f 284f 783f
00000020: a8ec 833f fa67 7e3f a3db 813f 3360 7d3f
00000030: 6041 7e3f ae19 7e3f 2e89 7c3f a489 7d3f
00000040: 33c6 7f3f a7f6 7f3f e27c 7c3f 0d57 7d3f
00000050: 6e78 7c3f 4e36 7e3f aadf 803f c7df 833f
00000060: 05b2 7a3f ed95 7e3f 9aa7 7b3f 5ea7 7d3f
00000070: 7fc1 833f a368 823f 998e 833f a133 7e3f
1.0122417 1.0542458 1.0144011 0.9891351 0.99408484 0.99395424 0.9977589 0.9699578
1.0306597 0.99377406 1.0145153 0.98974913 0.99318504 0.99257934 0.9864682 0.9903815
0.99911803 0.99985737 0.98628056 0.98960954 0.9862126 0.9930161 1.0068257 1.0302666
0.97927886 0.9944752 0.98302615 0.9908351 1.0293425 1.0188183 1.0277892 0.9929753

blocks.1.norm1.bias f4 [32]
00000000: a7d6 ef3a 788e 52bc 7d70 e5bb f3df cb38
00000010: 751b ad3a ce94 3f3b 4134 bbbb 4072 3e3c
00000020: 4484 63ba 677f 3f3c 5cc9 afbb 062f b8ba
00000030: 0e80 d2bb 1d9b c4bb c7d6 bd3b c58b e0bb
00000040: 4927 a43b 6570 89bc 0e16 303c f460 993b
00000050: 03ad 72bb 512e 29ba 2b01 24bb eac3 20bb
00000060: a2a6 76bc 2a05 133b a78d b4b9 9e4a 6aba
00000070: 348d 5538 0e5d 85ba 6bd0 cebb fee9 55bb
0.0018298224 -0.01285135 -0.007001935 9.721508e-05 0.0013207035 0.0029232982 -0.0057130163 0.011623919
-0.0008679072 0.01168809 -0.00536458 -0.00140521 -0.0064239567 -0.0059999363 0.0057934257 -0.0068525993
0.005009566 -0.016777227 0.010747446 0.004680747 -0.0037029393 -0.000645374 -0.002502511 -0.0024530836
-0.015054377 0.0022433498 -0.00034437815 -0.00089375104 5.0914663e-05 -0.0010174827 -0.0063114665 -0.003264069

blocks.1.attn.qkv.weight f4 [96, 32]
00000000: f5cc 6cbc fac2 c03d fea7 443e 4883 e8bd
00000010: 60e5 a33d 62c7 2d3e b7bf fcbd f3ab 94bd
00000020: 7159 ed3d b230 ccbd e35e 683d caa2 c6bd
00000030: 8715 093d 8567 0cbe 1ef2 493e 3391 22be
00000040: c813 1dbe 9468 c0bd 8305 483d ee5e ec3d
00000050: 2eab 9a3b 8504 bcbd 620b 1dbe 8df7 0ebd
00000060: c67c 35bc 4925 76bc 855e 39bd 20cf b13c
00000070: 149d 533e 481a 3dbe bb73 a9bd d45f db3d
00000080: 1b88 26be 9168 f03c 0b31 2e3e bd52 073e
00000090: 0195 edbd 70db 6dbd 5bd5 d83c c45b 1a3e
000000a0: 636e 6dbc c753 2dbe b473 a03b fed9 d13d
000000b0: c923 9dbd 0e67 07be 645e 4e3d cced 023e
000000c0: df07 fcbd 4589 ff3c 5a6b 093e e6aa 0abd
000000d0: 1b61 ebbd cc3b c2bd 3e31 20be e804 7cbd
000000e0: 9868 b2bd 57cb 153d 43d4 0abd ee10 07be
000000f0: bc34 773e b8b5 4fbc cc71 283d f0ff 013e
00000100: b8f3 ee3d b7ce 98bd 4e66 a8bd ca94 e2bd
00000110: 32ef 31be 126a 21be ad42 a0bd fa8a 063e
00000120: 040c 5fbe 947d d4bd 3f39 10be 826f ebbd
00000130: d8f8 113e 5dcd 29be 8784 31be 95d7 adbd
00000140: 4947 383d adb1 1fbd 37a2 24be 4379 363e
00000150: acde 603d 9b2a 9abd 1d3c 11bd e033 4a3e
00000160: de2a 993d a7f5 08be 6d3b bebd b3c0 92bd
00000170: 5f9d 073c cac9 b3bd 9ac9 433e 2d2e 18bc
00000180: a768 a73b 80c1 813d 498c 433e b4de 51bc
00000190: 9f96 3fbd d06b c4bd abbe 053e 1f58 b53c
000001a0: a8cc d63c 86f7 0e3e dc6e 8bbc 396e 70bd
000001b0: 120d 85bd 9cda fd3d 673a 453d 64fb cabd
000001c0: 0085 0a3e 2155 393d 9cc1 90bc 78aa 443c
000001d0: 0c1b 38be 5ef1 f3bd 45bb cbbd 9322 13bc
000001e0: 1f4f 68bd b067 153e 59e8 25be a00f 073e
000001f0: 8785 bbbd fae8 d6bd ce92 143e 1340 fbbc
00000200: 4c3b 4cbd c2ee a83d 61a5 e1bd ddde 193c
00000210: f1d8 62bd 6968 533d aeee ccbd 6641 cabd
00000220: 2921 1abe fccd 10bd 94c9 033e 2c8b df3d
00000230: c64d 1bbe 247b 943d 1d46 133e 1368 323e
00000240: b916 4f3b 4e74 1e3d 0b9c e63d f193 393e
00000250: 04b2 c03c 3712 54bc 7662 2a3e 62d8 743b
00000260: 87ab 153e 17c5 0b3e 494f 583d a55f efbd
00000270: 8a44 b23d 0482 e53d ba2a 413d c5f3 e53c
00000280: 3cf0 be3d 52a5 c63d 2e84 adbd cf65 edbd
00000290: 0e58 803d c70a 90bd fb97 14be cdff 1d3e
000002a0: 86ec 1ebe ff54 4ebd a332 adbd 037d 063e
000002b0: 4edd d5bc 0b91 0dbe 35b9 183e a077 193e
000002c0: bd48 e43d 2f51 213e f81f 13be 0308 00be
000002d0: 39f0 c13d fba0 b0bc ce35 d83d cc87 333e
000002e0: f6a6 73bd e8a8 a5bd 2a62 0d3e 176c c0bd
000002f0: 2181 f5bd 98d3 0e3e 9e7a aa3c a559 fdbd
00000300: d1c9 cd3c 4044 34bd e9c9 513d af65 e7bd
00000310: 8e5f 7bbc 3570 283e e54b e73c e6bb 813c
00000320: 56e4 3e3e 9926 b33d e97b da3d 8134 8d3d
00000330: 93dd 53bd a6b1 0fbe 55ac 5bbd 6329 fcbd
00000340: 7f73 9d3d e2bb 063e 40e7 3f3e d088 d43d
00000350: 6959 8039 fc7b 5f3d 3977 c1bc df01 d7bb
00000360: 9566 fdbd 8b15 443e 1ad8 ae3d 139a fdbb
00000370: eae6 f63b b7d0 12bd 4cb5 5ebd 0819 c3bd
00000380: 2917 83bd 8bfe c5bd 25b8 c93c d35b eebd
00000390: 7014 a63d 8b6a ebbd 6c8c b53d fa68 a0bc
000003a0: 5339 56bd cdbc c03c 43a4 11bc a6a2 b63d
000003b0: 2aaa 87bc 939b 99bd 6eef cfbc d9f9 acbd
000003c0: 98c0 883d 3235 903c ed68 7f3d f99e cdbb
000003d0: 9ed6 453c 86c7 4fbd 70b2 73bd 015d 8b3d
000003e0: 6fd1 cd3d 7f04 b8bd 9f1a 0b3e 2339 3cbd
000003f0: d7bb b8bd 6ba1 393e 83dc 9239 1c04 a73d
-0.014453162 0.09412189 0.19204709 -0.11353165 0.08002734 0.1697059 -0.12341254 -0.07259359
0.11589325 -0.099702254 0.056731116 -0.09699018 0.033467796 -0.13711365 0.19721267 -0.15875702
-0.15339577 -0.09394947 0.04883338 0.11541544 0.0047201132 -0.091805495 -0.15336373 -0.03490405
-0.011077112 -0.015023538 -0.045256156 0.02170521 0.2066539 -0.18467057 -0.08274027 0.10711637
-0.16262858 0.029346736 0.17010896 0.13215156 -0.11600686 -0.0580706 0.026468923 0.15074068
-0.01449165 -0.1692649 0.0048966054 0.10246657 -0.07672841 -0.13222906 0.050382987 0.12786025
-0.12306189 0.031193385 0.13419858 -0.033854388 -0.11493131 -0.094840616 -0.15643784 -0.061528116
-0.08711356 0.036570873 -0.033893835 -0.13190052 0.2414121 -0.0126776025 0.04112415 0.12695289
0.116675794 -0.07461303 -0.08222638 -0.110635355 -0.17376402 -0.15763119 -0.078252174 0.13138953
-0.21781927 -0.103755146 -0.14084338 -0.11495878 0.14255083 -0.16582246 -0.17335711 -0.08488385
0.044989858 -0.038987804 -0.16077505 0.17819695 0.054899856 -0.075276576 -0.03545772 0.19746351
0.074788794 -0.13374959 -0.09288678 -0.07165661 0.008277266 -0.087787226 0.19119874 -0.009288353
0.005108911 0.06335735 0.19096483 -0.012809444 -0.046774503 -0.09590876 0.13061015 0.022136746
0.026220635 0.1396161 -0.017020635 -0.058698867 -0.064966336 0.12395212 0.0481514 -0.0991123
0.13527298 0.0452472 -0.017670445 0.012003534 -0.17979068 -0.119112715 -0.09947828 -0.008980411
-0.05671608 0.14590335 -0.16201915 0.13189554 -0.09156328 -0.104936555 0.14509127 -0.030670201
-0.049861237 0.082486644 -0.11017872 0.009391514 -0.055382673 0.051613245 -0.10006462 -0.09875755
-0.15051712 -0.035352692 0.12869865 0.10915217 -0.15166387 0.0725005 0.14382215 0.17422514
0.0031599237 0.038685136 0.112602316 0.18122841 0.023522384 -0.012943796 0.16639122 0.003736042
0.14616214 0.13649403 0.052809987 -0.116881646 0.08704479 0.11206439 0.047159888 0.02807034
0.09323165 0.09699501 -0.08472477 -0.11591684 0.06266795 -0.070333056 -0.14511101 0.15429612
-0.15519914 -0.050374027 -0.08456924 0.13133626 -0.026106503 -0.13824861 0.14914401 0.1498704
0.11146686 0.15753625 -0.14367664 -0.12503056 0.09469647 -0.021561136 0.105571374 0.17532271
-0.0594854 -0.08088857 0.13806978 -0.093956165 -0.1198752 0.13947904 0.020810422 -0.12370614
0.025120648 -0.0440104 0.051217947 -0.112986915 -0.015342606 0.16449054 0.028234432 0.015836667
0.18641791 0.08747596 0.10668165 0.0689478 -0.05172498 -0.14032611 -0.053631146 -0.123125814
0.07688045 0.13157609 0.18740559 0.103776574 0.00024480678 0.0545616 -0.02361642 -0.0065615023
-0.123730816 0.19148843 0.08537312 -0.0077393143 0.0075348513 -0.035843577 -0.054372117 -0.09526259
-0.06400902 -0.09667691 0.02462394 -0.11638608 0.08109367 -0.11494931 0.08864674 -0.019581307
-0.052300762 0.023527527 -0.008889261 0.089177415 -0.016560633 -0.075003766 -0.025382724 -0.08446092
0.06677359 0.01760349 0.062355924 -0.0062750545 0.0120750945 -0.05072739 -0.059496343 0.068048485
0.10049712 -0.089852326 0.13584374 -0.045952927 -0.090202026 0.18127982 0.00028011584 0.08155081
