image_encoder/trained_models/vit_20241108_161649.pth (torch, 561019 bytes, 77 tensors)

cls_token f4 [1, 1, 32]
000000 54 9b 14 bc 39 8d 8f 3c 6c 12 24 3c 43 06 6b 3c
       -0.009070236 0.017523395 0.010014158 0.014344755
000010 93 8c b5 bc 2d 3a 5b bc 53 8b 47 3c b1 d4 ab 3c
       -0.022161758 -0.013380569 0.012179214 0.020975443
000020 ca 4a df bc 7c 39 8b bc 96 a2 07 3b b3 78 92 bb
       -0.027257342 -0.016995184 0.0020696274 -0.004469955
000030 3f 5f 2e bb 9d 5b d2 3c ac 44 bc bc d4 f9 e3 bc
       -0.0026607064 0.02567845 -0.022981964 -0.027829088
000040 68 f9 91 3a b9 c6 a9 ba de 72 e9 3c a7 cd 05 3d
       0.0011136951 -0.0012952901 0.028497156 0.03266683
000050 ac 4a b3 3c 80 e5 1c bc 41 67 c8 bc 81 0e ff 3c
       0.021886192 -0.009576201 -0.024463298 0.031134846
000060 01 07 01 bd 4a ec 50 bc f4 f8 11 3b 0b 60 17 3b
       -0.03150082 -0.012751648 0.0022273632 0.0023098018
000070 52 da e1 3c 33 2a 91 bc 2d 45 75 ba 4a 18 aa bc
       0.027569924 -0.017720317 -0.00093563163 -0.020763535

pos_enc f4 [32, 32, 32]
000000 00 00 00 00 00 00 80 3f 00 00 00 00 00 00 80 3f
       0.0 1.0 0.0 1.0
000010 00 00 00 00 00 00 80 3f 00 00 00 00 00 00 80 3f
       0.0 1.0 0.0 1.0
000020 00 00 00 00 00 00 80 3f 00 00 00 00 00 00 80 3f
       0.0 1.0 0.0 1.0
000030 00 00 00 00 00 00 80 3f 00 00 00 00 00 00 80 3f
       0.0 1.0 0.0 1.0
000040 00 00 00 00 00 00 80 3f 00 00 00 00 00 00 80 3f
       0.0 1.0 0.0 1.0
000050 00 00 00 00 00 00 80 3f 00 00 00 00 00 00 80 3f
       0.0 1.0 0.0 1.0
000060 00 00 00 00 00 00 80 3f 00 00 00 00 00 00 80 3f
       0.0 1.0 0.0 1.0
000070 00 00 00 00 00 00 80 3f 00 00 00 00 00 00 80 3f
       0.0 1.0 0.0 1.0
000080 00 00 00 00 00 00 80 3f 00 00 00 00 00 00 80 3f
       0.0 1.0 0.0 1.0
000090 00 00 00 00 00 00 80 3f 00 00 00 00 00 00 80 3f
       0.0 1.0 0.0 1.0
0000a0 00 00 00 00 00 00 80 3f 00 00 00 00 00 00 80 3f
       0.0 1.0 0.0 1.0
0000b0 00 00 00 00 00 00 80 3f 00 00 00 00 00 00 80 3f
       0.0 1.0 0.0 1.0
0000c0 a4 6a 57 3f 41 51 0a 3f ba 7d 08 3f 0d 94 58 3f
       0.84147096 0.54030234 0.53316844 0.8460091
0000d0 3e 39 9f 3e 6b 4e 73 3f 3a 23 35 3e 83 f6 7b 3f
       0.3109836 0.9504153 0.17689219 0.9842302
0000e0 77 75 cc 3d 98 b8 7e 3f af 36 66 3d 68 98 7f 3f
       0.09983342 0.9950042 0.056204494 0.9984193
0000f0 5c 81 01 3d 3c df 7f 3f 42 ab 91 3c a3 f5 7f 3f
       0.031617507 0.99950004 0.017781857 0.99984187
000100 00 00 00 00 00 00 80 3f 00 00 00 00 00 00 80 3f
       0.0 1.0 0.0 1.0
000110 00 00 00 00 00 00 80 3f 00 00 00 00 00 00 80 3f
       0.0 1.0 0.0 1.0
000120 00 00 00 00 00 00 80 3f 00 00 00 00 00 00 80 3f
       0.0 1.0 0.0 1.0
000130 00 00 00 00 00 00 80 3f 00 00 00 00 00 00 80 3f
       0.0 1.0 0.0 1.0
000140 b7 c7 68 3f 33 11 d5 be 0a f2 66 3f b2 e8 dc 3e
       0.9092974 -0.41614684 0.9021307 0.43146282
000150 1b 54 17 3f ec 7b 4e 3f f6 47 b2 3e a6 fa 6f 3f
       0.5911271 0.8065784 0.34820527 0.93741834
000160 f9 6f 4b 3e a5 e5 7a 3f 87 d9 e5 3d f3 61 7e 3f
       0.19866933 0.9800666 0.11223131 0.9936821
000170 c9 70 81 3d f9 7c 7f 3f 5c a5 11 3d 8e d6 7f 3f
       0.0632034 0.9980007 0.03555809 0.9993676
000180 00 00 00 00 00 00 80 3f 00 00 00 00 00 00 80 3f
       0.0 1.0 0.0 1.0
000190 00 00 00 00 00 00 80 3f 00 00 00 00 00 00 80 3f
       0.0 1.0 0.0 1.0
0001a0 00 00 00 00 00 00 80 3f 00 00 00 00 00 00 80 3f
       0.0 1.0 0.0 1.0
0001b0 00 00 00 00 00 00 80 3f 00 00 00 00 00 00 80 3f
       0.0 1.0 0.0 1.0
0001c0 c3 81 10 3e 26 70 7d bf d7 45 7e 3f ab 7f ed bd
       0.14112 -0.9899925 0.9932532 -0.11596616
0001d0 c2 09 50 3f 58 2f 15 3f 6d 2f 02 3f 29 6d 5c 3f
       0.8126489 0.58275366 0.50853616 0.86104065
0001e0 6d 4e 97 3e ef 90 74 3f d8 ee 2b 3e 9e 5d 7c 3f
       0.29552022 0.9553365 0.1679033 0.9858035
0001f0 c1 ff c1 3d 4f d9 7e 3f 4e 69 5a 3d c3 a2 7f 3f
       0.09472609 0.99550337 0.053323083 0.9985773
000200 00 00 00 00 00 00 80 3f 00 00 00 00 00 00 80 3f
       0.0 1.0 0.0 1.0
000210 00 00 00 00 00 00 80 3f 00 00 00 00 00 00 80 3f
       0.0 1.0 0.0 1.0
000220 00 00 00 00 00 00 80 3f 00 00 00 00 00 00 80 3f
       0.0 1.0 0.0 1.0
000230 00 00 00 00 00 00 80 3f 00 00 00 00 00 00 80 3f
       0.0 1.0 0.0 1.0
000240 cf bd 41 bf 30 55 27 bf ec 49 47 3f 9e af 20 bf
       -0.7568025 -0.6536436 0.7784717 -0.6276797
000250 de 1d 74 3f b1 2e 9a 3e bc 1f 27 3f ed eb 41 3f
       0.95358074 0.30113748 0.652828 0.7575062
000260 d8 61 c7 3e a7 ca 6b 3f c6 65 64 3e 09 8d 79 3f
       0.38941836 0.921061 0.22304448 0.9748083
000270 89 2e 01 3e 69 f4 7d 3f c8 8d 91 3d 46 5a 7f 3f
       0.12615408 0.99201065 0.07107121 0.9974712
000280 00 00 00 00 00 00 80 3f 00 00 00 00 00 00 80 3f
       0.0 1.0 0.0 1.0
000290 00 00 00 00 00 00 80 3f 00 00 00 00 00 00 80 3f
       0.0 1.0 0.0 1.0
0002a0 00 00 00 00 00 00 80 3f 00 00 00 00 00 00 80 3f
       0.0 1.0 0.0 1.0
0002b0 00 00 00 00 00 00 80 3f 00 00 00 00 00 00 80 3f
       0.0 1.0 0.0 1.0
0002c0 10 7c 75 bf 2c 3c 91 3e d8 da a5 3e 40 32 72 bf
       -0.9589243 0.2836622 0.32393527 -0.94607925
0002d0 7f fc 7f 3f e9 72 29 bc ab ca 46 3f f1 4c 21 3f
       0.99994653 -0.010342338 0.77652997 0.6300803
0002e0 44 77 f5 3e 40 a9 60 3f ed 11 8e 3e 7c f2 75 3f
       0.47942555 0.87758255 0.2774805 0.96073127
0002f0 1e 3c 21 3e 81 ce 7c 3f 21 db b5 3d 1e fd 7e 3f
       0.15745589 0.987526 0.08879686 0.99604976
000300 00 00 00 00 00 00 80 3f 00 00 00 00 00 00 80 3f
       0.0 1.0 0.0 1.0
000310 00 00 00 00 00 00 80 3f 00 00 00 00 00 00 80 3f
       0.0 1.0 0.0 1.0
000320 00 00 00 00 00 00 80 3f 00 00 00 00 00 00 80 3f
       0.0 1.0 0.0 1.0
000330 00 00 00 00 00 00 80 3f 00 00 00 00 00 00 80 3f
       0.0 1.0 0.0 1.0
000340 8c 0f 8f be b8 cd 75 3f 76 e5 6b be 53 1d 79 bf
       -0.2794155 0.96017027 -0.23036751 -0.9731037
000350 4e 78 72 3f 6d 3f a4 be 89 30 60 3f 32 2f f7 3e
       0.9471482 -0.3207964 0.8757406 0.48278195
000360 69 8c 10 3f 32 49 53 3f fd 7d a9 3e e2 90 71 3f
       0.5646425 0.8253356 0.33103934 0.943617
000370 6f 20 41 3e e3 67 7b 3f c2 19 da 3d 51 8b 7e 3f
       0.18860029 0.98205394 0.10649444 0.9943133
000380 00 00 00 00 00 00 80 3f 00 00 00 00 00 00 80 3f
       0.0 1.0 0.0 1.0
000390 00 00 00 00 00 00 80 3f 00 00 00 00 00 00 80 3f
       0.0 1.0 0.0 1.0
0003a0 00 00 00 00 00 00 80 3f 00 00 00 00 00 00 80 3f
       0.0 1.0 0.0 1.0
0003b0 00 00 00 00 00 00 80 3f 00 00 00 00 00 00 80 3f
       0.0 1.0 0.0 1.0
0003c0 46 30 28 3f bd ff 40 3f 6d b6 36 bf 61 4f 33 bf
       0.6569866 0.75390226 -0.7137211 -0.70043
0003d0 6e e8 4c 3f bc 74 19 bf 44 84 72 3f b6 f8 a3 3e
       0.8004216 -0.5994375 0.9473307 0.3202569
0003e0 73 eb 24 3f b3 cc 43 3f de 60 c4 3e c6 6b 6c 3f
       0.64421767 0.7648422 0.38355154 0.9235195
0003f0 51 d3 60 3e ea c0 79 3f ba 46 fe 3d e9 04 7e 3f
       0.21955611 0.9755999 0.12415834 0.9922624

norm.weight f4 [32]
000000 16 a5 aa 3f 20 86 b4 3f 50 24 af 3f 38 97 a7 3f
       1.333163 1.4103432 1.3682957 1.3093023
000010 46 bf b4 3f a8 4b ab 3f 1f 85 ae 3f 00 17 ad 3f
       1.4120872 1.3382463 1.3634375 1.3522644
000020 b5 38 bc 3f 05 4a af 3f 89 32 bb 3f f1 89 ac 3f
       1.4704806 1.3694464 1.4624797 1.3479596
000030 81 f3 ad 3f 94 89 af 3f 78 36 b7 3f 43 a6 ad 3f
       1.3589936 1.371386 1.4313498 1.3566364
000040 65 ca a3 3f 83 79 b9 3f ed a2 bb 3f af f7 b2 3f
       1.2796141 1.4490207 1.4659096 1.3981837
000050 62 c6 b0 3f a7 ab ba 3f f2 e0 b7 3f c6 d2 a1 3f
       1.3810542 1.4583634 1.4365523 1.2642448
000060 d6 30 b3 3f 7e b3 ba 3f a2 30 be 3f 4a 3d aa 3f
       1.3999279 1.4586027 1.4858592 1.3299954
000070 94 44 b7 3f 5b b3 b3 3f 34 a7 af 3f 53 db ae 3f
       1.4317803 1.403911 1.3722901 1.3660682

norm.bias f4 [32]
000000 09 51 2f 3d fc 8e 29 3e 65 27 33 3e 88 7a b0 bd
       0.04280189 0.1655845 0.17495497 -0.08617121
000010 2c 39 93 bb 88 ff 67 3d 85 08 cc 3c 4b 59 3c 3e
       -0.0044928994 0.056640178 0.024906406 0.18393438
000020 ee c4 aa bd 3e 9a 41 be 22 e8 46 bd 03 e6 0f 3e
       -0.083383426 -0.18906495 -0.048561223 0.14052586
000030 bd 47 2f be da 02 5b be a1 5a 99 bc ad 47 48 3c
       -0.1711721 -0.21387807 -0.018719973 0.01222412
000040 51 4c 98 be 9f 7e 9a 3b 00 4b 2b 3e c4 00 85 3e
       -0.29745725 0.0047148014 0.16727829 0.25977147
000050 17 3e 0f 3d 25 c7 59 3d d3 57 3b be 6f 01 61 3d
       0.034971323 0.053168435 -0.18295221 0.054933008
000060 c4 31 1a 3d f6 2b 8c be 7f a3 32 3e d1 58 33 bd
       0.037645116 -0.2737729 0.17445181 -0.043785874
000070 41 7b 1b 3e 60 8e 5b be c7 af 3d 3e af 4b af bd
       0.15183736 -0.2144103 0.18524085 -0.085593574

patch_embeddings.weight f4 [14, 32]
000000 99 1d 7a 3e 24 cb b7 bd d0 e3 c7 be e4 92 5d bf
       0.24425353 -0.08974293 -0.39040995 -0.8655226
000010 e5 d4 27 3f bf b0 26 bc 47 f1 6d 3f d3 f0 af 3d
       0.65559226 -0.0101739755 0.92946285 0.085908554
000020 93 83 c1 3e e6 b4 97 3f 50 98 b3 bf 34 13 03 bf
       0.37795696 1.1852081 -1.4030857 -0.51201177
000030 a6 c7 46 3e 17 2a 83 be a5 4a 6e bf 11 3e ca 3f
       0.19412097 -0.2561805 -0.9308265 1.5800191
000040 55 d7 a9 3f ee 22 d4 bd 8a 98 96 3e ed 31 6c 3f
       1.3268839 -0.10358225 0.29413253 0.9226368
000050 b6 b3 03 c0 d4 85 ff 3e 1e 89 c1 3f 2b a0 1f 3f
       -2.0578437 0.4990679 1.511997 0.6235377
000060 24 73 b2 3d 7f a3 c7 bf a2 eb 90 bf 9b 63 ba be
       0.087133676 -1.559677 -1.132191 -0.36404118
000070 0e 44 d5 3e 53 17 48 bf 5a 6f bb 3f 9f 1a 1f 40
       0.41653484 -0.7816059 1.4643357 2.4859998
000080 0c cc 31 bf 50 c0 9d be 88 45 86 3f 2d f1 d6 3d
       -0.69451976 -0.30810785 1.0489969 0.104952194
000090 97 9d 09 3e e8 f7 93 3f 2c 47 97 bf 56 00 ad be
       0.13439022 1.156003 -1.1818595 -0.3378932
0000a0 56 1f 07 bf 1c a3 64 bf 6a 1a 13 3f 43 75 b8 bf
       -0.5278219 -0.89311385 0.5746218 -1.4410785
0000b0 8c 1b 96 bf 92 11 1c 3f ce 7a 12 bf 17 ce 40 bf
       -1.1727157 0.6096431 -0.57218635 -0.7531447
0000c0 53 82 d6 3f 8e 51 53 bf a7 26 ae 3f 24 d5 73 be
       1.6758522 -0.8254632 1.3605546 -0.23811775
0000d0 2a 7e c4 bf ca 17 04 40 8b 91 30 40 c5 21 da bf
       -1.5351002 2.063952 2.7588832 -1.7041556
0000e0 ff 8f ba 3f 47 50 c1 bf 45 30 54 3f 43 03 59 be
       1.4575194 -1.5102624 0.82886153 -0.2119265
0000f0 e0 47 45 3f 2a 9c c1 3f 8a 14 d7 3f 95 c1 e7 be
       0.770628 1.5125782 1.6803143 -0.4526488
000100 01 fe 52 bf 3f 40 10 3f 17 39 ce bd 5e 44 a7 bc
       -0.8241883 0.5634803 -0.10069483 -0.020418342
000110 1c 1e 02 bf d6 b1 fa 3e 79 0b 8f be 6f f1 89 bf
       -0.50827193 0.48963803 -0.2793844 -1.0776805
000120 12 55 04 40 9f e0 fc be 7d 88 85 3e d9 5c 34 3f
       2.0676923 -0.49390122 0.26080695 0.70454174
000130 25 a5 af bf f4 c5 64 3f 2c 31 ca 3d 0a fc 72 3e
       -1.3722273 0.8936455 0.0987266 0.23728958
000140 7c 36 1f 40 de 5f a0 bf 3e fd 84 3f b6 55 0a 3f
       2.4877005 -1.2529256 1.0389783 0.54037035
000150 16 20 cb bf b5 96 a4 bf 80 62 2f 3f d5 b3 46 be
       -1.5869167 -1.2858492 0.68509674 -0.19404538
000160 20 16 b5 3e 67 2b b3 be 21 dd ce 3e 78 93 48 bf
       0.35368443 -0.3499405 0.40403083 -0.7835002
000170 67 9a df be c7 b0 bc be d1 08 7c bf ba 6f dd be
       -0.43672487 -0.3685362 -0.9845095 -0.43249303
000180 c3 7a d5 bf 42 9c b0 bf 41 23 30 be 28 a4 77 3f
       -1.6678089 -1.3797686 -0.17200948 0.9673486
000190 ec 80 a3 3c 21 e8 3e bf 27 39 88 be 30 40 d6 3c
       0.019958936 -0.7457295 -0.26606104 0.026153654
0001a0 fe a8 38 be ab d6 08 be 73 ca 9c 3e de e5 ae 3f
       -0.18033215 -0.1336314 0.30623206 1.36639
0001b0 4e 1d 19 3e 37 64 22 40 cc 32 17 bf ea 29 00 c0
       0.14952585 2.5373666 -0.59061885 -2.0025582
0001c0 4b c8 b9 be a7 62 1c 3d 06 cc 69 3f aa 00 ec bf
       -0.36285624 0.03818002 0.9132694 -1.8437703
0001d0 32 73 05 3e 45 3e fa 3e 72 63 dd bf 26 88 13 3f
       0.13032225 0.48875633 -1.7295973 0.5762962
0001e0 8c 3b e1 3f 55 f2 9f 3e a6 b6 9d 3e c5 b8 28 bf
       1.7596297 0.31239572 0.30803412 -0.65906936
0001f0 88 4e 2f bf bb 8e 9b 3e 8b cd 1b bf 75 97 bc bf
       -0.68479204 0.30382332 -0.6086051 -1.4733721
000200 12 eb 02 c0 8e 9d ec 3f 81 f9 ab 3f ae bf fc be
       -2.0455976 1.8485582 1.3435518 -0.4936499
000210 1b c2 ab 3f 24 c7 d7 3f 41 a3 d5 bd cf 54 dd bf
       1.3418611 1.6857648 -0.10431529 -1.7291507
000220 bf 4f de bc 7e a9 ea 3d 12 4d 7f 3f b5 5a 2d 3f
       -0.027137635 0.11458109 0.99726975 0.6771653
000230 9d 20 9a 3e bc 06 37 bf b4 76 43 3f 26 8a 63 3f
       0.30103007 -0.7149465 0.76353 0.8888267
000240 65 1b 0f 40 32 8b 7e 3f e5 26 be bf 36 6d 7d be
       2.236047 0.99431145 -1.485562 -0.24748692
000250 3b b3 86 bd 55 a0 88 be 59 c1 1f bf d0 50 8f 3f
       -0.06577154 -0.26684824 -0.624044 1.1196537
000260 2a 91 7e bf 67 41 2c 3e f2 a7 a0 3f 34 eb 89 be
       -0.9944025 0.16821824 1.2551253 -0.26937258
000270 e3 a6 8c bf ee 80 33 bf 83 0b c7 3f 68 a1 33 bf
       -1.098843 -0.70118606 1.5550388 -0.7016816
000280 c9 b4 64 bf b6 58 88 3d 9b 43 76 bd 07 30 17 40
       -0.89338356 0.06657545 -0.060123067 2.3623064
000290 9c bb 2c c0 cb 05 05 3f 3f b8 5b bf 43 e6 87 be
       -2.6989508 0.51961964 -0.8582801 -0.26542863
0002a0 78 6b 8f ba c0 be 02 40 bc c2 20 be 4a b4 81 be
       -0.0010942062 2.0428925 -0.15699285 -0.25332862
0002b0 66 fb a6 bf a5 59 b3 bd 12 fc ee bf 12 d7 b0 bf
       -1.3045471 -0.08757333 -1.8670676 -1.3815634
0002c0 3c f6 ae be 92 00 97 bf 5c e1 9b 3d 1d c6 55 3e
       -0.34172237 -1.1797049 0.07611343 0.20876355
0002d0 89 27 48 3f 6f 44 5c 3f 96 05 dc bf 63 f2 a2 3f
       0.78185326 0.8604192 -1.7189205 1.273022
0002e0 59 c8 76 3f 99 92 88 3f 89 52 1f 3f d1 64 a0 bf
       0.96399456 1.0669738 0.62235314 -1.2530767
0002f0 c4 9e 27 bf 5b 58 07 40 f0 6f 09 3f 81 d5 9b 3f
       -0.6547663 2.1147678 0.5368643 1.2174531
000300 ba 0e 66 3e 7a 51 b0 be 24 e8 ec 3f d6 35 b4 3f
       0.22466555 -0.34437162 1.8508344 1.407893
000310 c5 93 8e 3f d8 b4 27 bf 11 ed fa be 33 e1 17 3f
       1.1138846 -0.6551032 -0.49008992 0.59328
000320 0f 9e 5e 3c 0c 6f d6 bf 0e 8e 87 3f 65 06 f8 3e
       0.013587489 -1.6752639 1.0590227 0.4844238
000330 6c 7a 9e bf ee 44 77 bf 50 50 f0 bd 67 f3 0b 3e
       -1.238111 -0.96589553 -0.117340684 0.1366707
000340 5a 41 86 3e fd 3c 34 bf c8 64 b9 be 0d 2e f6 be
       0.26221734 -0.7040556 -0.36209702 -0.4808201
000350 78 dc 1b 3f 89 6a 25 3f 72 37 9d 3f fa 07 47 3f
       0.60883284 0.64615685 1.2282546 0.77746546
000360 2a 21 f2 3e 8a 30 5f 3f 3c 3c 74 be f1 70 45 bf
       0.47290927 0.8718344 -0.23851103 -0.7712546
000370 cb 8b 14 bf c6 51 b6 3e 85 c7 06 bf 5f ee b3 be
       -0.5802581 0.35609263 -0.5264819 -0.351428
000380 f2 21 1f bf e7 57 57 be 47 48 67 bb 77 9e 9b be
       -0.6216117 -0.21029626 -0.0035290883 -0.30394337
000390 ec fa 94 bd 69 67 47 3f 0a 44 02 3c c0 ab d4 be
       -0.07274422 0.77892166 0.007950792 -0.41537285
0003a0 53 d2 58 3f 42 7f c2 bf d0 21 1d 3f c9 c6 f4 bf
       0.8469593 -1.5195086 0.6137972 -1.9123164
0003b0 12 40 7a bf 1d 9d c8 3d bd ae e1 be 4c 1a e5 be
       -0.97754014 0.09795592 -0.44078627 -0.44746625
0003c0 8d f8 bb 3f e4 28 ba 3c 3d 90 3d bf b1 0d 95 bf
       1.4685227 0.022724576 -0.74048215 -1.1644803
0003d0 6f 1d ff 3e 2a 4b 6f be 75 1c f2 bb 15 28 54 bf
       0.49827144 -0.23368517 -0.0073886462 -0.8287366
0003e0 d6 fa ad be 1d 70 70 3e 12 ee 70 bf 61 fc 9d bf
       -0.33980435 0.23480268 -0.94113266 -1.2342645
0003f0 c9 03 8e 3f 14 e9 fb bf 00 3e 13 bf 25 e6 8b 3f
       1.1094905 -1.9680505 -0.5751648 1.092961

blocks.0.norm1.weight f4 [32]
000000 d9 49 87 3f 5f b2 87 3f 24 e1 82 3f 95 1f 81 3f
       1.0569412 1.060131 1.0224957 1.0087763
000010 0f 64 80 3f 1d 55 81 3f c8 bb 87 3f be c1 82 3f
       1.0030535 1.01041 1.0604181 1.0215375
000020 75 99 87 3f 27 5f 80 3f e4 f2 7e 3f ff fe 81 3f
       1.0593706 1.0029038 0.9958937 1.0155944
000030 19 d7 7e 3f 23 b8 82 3f ab 81 83 3f de 2f 82 3f
       0.9954696 1.0212444 1.0273947 1.0170858
000040 8a 51 7e 3f 3b 27 82 3f 22 fd 7e 3f 1f 28 7c 3f
       0.9934317 1.0168222 0.99605 0.9849872
000050 9f 04 87 3f e5 92 83 3f a3 3e 8c 3f b3 4b 84 3f
       1.0548285 1.0279204 1.0956615 1.0335602
000060 33 c5 80 3f 85 7f 83 3f ce dd 80 3f 17 78 7f 3f
       1.006018 1.0273291 1.006769 0.9979262
000070 7a 46 83 3f 7d e3 83 3f 31 6e 82 3f df 4f 80 3f
       1.0255883 1.0303799 1.0189878 1.0024375

blocks.0.norm1.bias f4 [32]
000000 dd 6b 46 ba 2a eb 4b bc f4 de d8 bc b4 7c 4b bb
       -0.00075691735 -0.012446204 -0.0264735 -0.003104967
000010 e7 a2 8b 3a 18 3d c8 3b 28 bf 25 bc 31 90 b5 bc
       0.0010653407 0.0061107986 -0.010116376 -0.022163482
000020 bc 95 97 bb e6 01 9c 3b 84 3f 48 3c 05 0b 06 bc
       -0.004626004 0.0047609685 0.012222175 -0.008181338
000030 ae b6 9a 3b 62 68 33 bc 45 c0 9f 3b 30 1b ab 3b
       0.004721484 -0.01095018 0.0048752152 0.005221747
000040 7c 78 d4 bb e9 23 a0 3c ec e4 57 bc 8e 05 59 3b
       -0.0064840894 0.019548373 -0.013177138 0.0033114883
000050 4a 56 0c bc 74 4a 83 bb 1a 1c 0d bb c6 86 90 bc
       -0.008565495 -0.0040066782 -0.0021531642 -0.01764239
000060 44 d5 39 bc 54 1c bb 3c 37 0b 70 bb be f4 92 3c
       -0.01134235 0.022840656 -0.0036627778 0.017938968
000070 93 85 c7 3c 2a 64 3f 3c a2 96 db 3b 81 8b c6 3b
       0.024355685 0.011681596 0.0067013064 0.0060591106

blocks.0.attn.qkv.weight f4 [96, 32]
000000 f6 38 cc 3d 99 1f f8 bd 10 86 88 bd 64 4c b8 3b
       0.09971802 -0.12115402 -0.066661954 0.005624341
000010 dc ca db 3d f0 23 89 bd 3a f2 49 3d 88 83 27 be
       0.10732052 -0.06696308 0.04930327 -0.16358769
000020 05 c0 db 3d 38 c8 34 bd 71 73 28 be 2b 69 8f 3d
       0.10729984 -0.044136256 -0.16450287 0.07002481
000030 0b e4 6a 3c 3c d6 97 3c d1 1a 55 bc ac ef 22 be
       0.014336596 0.018534772 -0.013006882 -0.1591174
000040 c3 b0 31 be cf 6b 96 3d 74 04 23 3e 49 3a ca 3d
       -0.17352585 0.073447816 0.15919667 0.09874398
000050 67 27 a1 bc 74 ad d9 3d 07 78 81 3d e3 8b af bd
       -0.019672109 0.10628787 0.063217215 -0.08571603
000060 00 fa 28 be 58 ed 7c bb 85 64 01 3c 05 4b 50 3c
       -0.16501617 -0.0038593616 0.007897501 0.012713199
000070 4d fe 94 bd f4 ba e5 3d 52 f5 af bd 5a e6 aa bd
       -0.072750665 0.11217299 -0.08591713 -0.08344717
000080 a0 a0 89 3c c0 f1 1a be b3 7a 9b 3c 44 3e db 3d
       0.016800225 -0.15131283 0.018979406 0.107052356
000090 6c f9 81 3d c1 c4 02 be 95 bf 0d bd 59 29 9c 3d
       0.063464016 -0.12770368 -0.034606535 0.07625074
0000a0 63 54 48 be 92 7f 9e 3d 51 44 81 3d 9b be ca 3d
       -0.19563441 0.07739176 0.063118584 0.09899636
0000b0 27 08 e6 bd 55 f0 35 be 17 1b 19 3d 4b d0 99 bd
       -0.11232024 -0.1776746 0.03737935 -0.07510432
0000c0 72 c2 9e bd ee 5e 4c be 36 e6 2f be 53 6f 22 3e
       -0.07751931 -0.19958088 -0.17177662 0.1586278
0000d0 a8 98 76 3e b3 6a 6c be f2 d3 5a be 67 b4 8a 3c
       0.24081671 -0.23087578 -0.21369913 0.016931726
0000e0 e6 16 80 bc c7 39 34 be a7 f8 2f be 9a cd 63 3d
       -0.015635919 -0.17600165 -0.17184697 0.055616
0000f0 9b 35 42 be c1 0e 2d bd 28 2d 86 3d 72 c8 24 3e
       -0.18965761 -0.0422504 0.065515816 0.16092089
000100 f5 da 3d 3d 5c 28 1c 3e ed 08 c8 3d 88 31 43 3c
       0.04635139 0.15249771 0.097673275 0.011913665
000110 38 c5 50 3e 76 3e 46 3e a8 32 ed 3c 4e 8d 9b bd
       0.20387733 0.19359764 0.028954819 -0.07595311
000120 20 83 a2 bd da 1e 35 be cc 0c 9d 3d b2 57 9b 3d
       -0.07935166 -0.1768755 0.076684564 0.07585086
000130 8b 0b 47 3e 98 e9 88 3c a4 d5 3f 3d 72 a0 f3 3d
       0.19437997 0.016712949 0.046834603 0.11895837
000140 46 66 bd b9 1f 61 b6 3d d8 64 ac bc 1c 56 6f 3d
       -0.0003612509 0.08905243 -0.02104418 0.05843173
000150 22 37 01 3e 56 04 13 3d 4d 14 27 bd c8 43 3c be
       0.12618688 0.035892807 -0.040790845 -0.18385231
000160 ca 59 ad bd 32 00 a3 3b d0 4e 3b 3d 3a 7c 28 3d
       -0.084643915 0.0049743885 0.04572946 0.041134097
000170 4a 78 62 3e 16 ee a1 bc b9 4e 1f bd 57 75 d7 3b
       0.22116199 -0.019766849 -0.038893435 0.0065752673
000180 d9 7b 4a be 5d 4d 1c 3c a9 db fd bd 24 e0 2f bd
       -0.19773807 0.009539929 -0.123954125 -0.042938367
000190 f8 8b 85 3d 01 ce 33 be 1a a7 ee bb 1b 4e 57 3d
       0.065208375 -0.17559053 -0.0072831037 0.05256472
0001a0 0e e8 c2 3d c7 53 9e 3d 50 13 9c bd ac a8 fc bd
       0.09516917 0.07730823 -0.07620871 -0.12336859
0001b0 1c bf a9 3d 68 97 e0 3d 3e ef 33 be b7 65 33 be
       0.08288404 0.109663785 -0.17571732 -0.1751927
0001c0 80 9f af 3d 12 ec 36 be 86 d7 ea bd b4 45 0f be
       0.08575344 -0.17863491 -0.11466889 -0.13991433
0001d0 41 a5 20 be 04 1a f0 bd 8d d5 4f 3d 2d 9a ef 3d
       -0.1568804 -0.11723712 0.050740767 0.116993286
0001e0 52 12 17 be 92 6d 12 be 08 48 9d bd fd 21 b0 bd
       -0.14753082 -0.1429961 -0.076797545 -0.08600233
0001f0 ed 1b db 3d 47 88 e5 bd 4c 5b 90 bd 49 ad 1e 3e
       0.10698686 -0.112076335 -0.070486635 0.1549579
000200 09 20 a3 3d 76 4d 09 3d 5d b3 ed bd 59 17 1a be
       0.079650946 0.033521138 -0.116064765 -0.15047969
000210 63 61 e1 bd 63 50 6e 3e 7e e5 66 be e8 e6 48 3d
       -0.11004903 0.23272853 -0.22548482 0.049048334
000220 c7 7c bf 3d 8d 57 8e 3d 0d d9 6c bc 1c 21 e5 bd
       0.09349971 0.06950293 -0.014456046 -0.11187956
000230 38 2f cb bd 75 5c b1 bb 85 3c ad bd b5 4f 5d 3e
       -0.09921116 -0.005412633 -0.08458809 0.21612437
000240 32 60 b5 bd cd a1 99 bd 12 af 2f be f2 c7 53 3d
       -0.088562384 -0.07501564 -0.17156628 0.051704355
000250 3e 32 cb 3d 08 19 71 3e 7e f9 d6 3c d4 3b 34 be
       0.09921692 0.23544705 0.026242014 -0.17600948
000260 e8 03 c8 bc d8 3d 5f bc 72 b9 83 bd c3 b6 27 be
       -0.024415925 -0.013625585 -0.06431855 -0.16378312
000270 f0 1c 0b 3e de 7c c0 3c 6d af c2 bb da 34 20 3e
       0.13585258 0.023497041 -0.0059413225 0.15645161
000280 6c 68 7a 3e 23 04 49 3e 94 a8 df bd bd e7 d6 3c
       0.24453896 0.19630484 -0.109208256 0.026233548
000290 67 1b ff bd ed ac 5e 3c 37 8b bc 3d c1 49 ec bd
       -0.124563985 0.013591033 0.092062406 -0.11537505
0002a0 94 0c ca bd 5a 29 27 bd e1 8f 99 3d b4 ed 4a bc
       -0.0986568 -0.04081092 0.07498146 -0.012385774
0002b0 36 11 28 be 3b 84 15 bd ec 34 4d 3e 6d 60 07 3d
       -0.16412815 -0.036503058 0.2003972 0.033050943
0002c0 02 19 81 be 1b e9 fc 3d 4c 75 1d be c3 75 4d be
       -0.25214392 0.12349149 -0.15376776 -0.20064454
0002d0 40 57 c4 bd 95 7d 6e 3e 1a d3 a5 3d cb dc 07 be
       -0.09586954 0.23290093 0.08096905 -0.1326782
0002e0 aa de fa 3d d6 c2 eb 3d 09 37 2c 3e 97 09 28 3e
       0.12249501 0.115117714 0.16817869 0.16409908
0002f0 e0 f0 2a 3e 07 c1 1a be 05 81 62 3d b1 1a 2c bd
       0.16693449 -0.15112697 0.055298824 -0.042017642
000300 3b 8a db bd fd ab 23 3e 20 51 18 3e db 6a 60 bd
       -0.10719725 0.15983577 0.14874697 -0.054789405
000310 12 29 03 be bb de 11 be d0 f1 44 3e 29 c8 d9 bd
       -0.12808636 -0.14245121 0.19232869 -0.10633881
000320 61 39 f4 3b 7f 3b fb 3d 8a 51 02 3e da 63 87 3d
       0.007453129 0.12267207 0.12726417 0.06610842
000330 b9 ac 6a ba cc 27 50 3e 3b 4a a5 bd fb 87 1e be
       -0.0008952129 0.20327681 -0.08070799 -0.1548156
000340 f1 c2 e3 bd 2b 9f 04 3e 30 c3 b1 3d 83 1d 2b 3e
       -0.111211665 0.12951343 0.08679807 0.16710477
000350 db 99 a7 3d 42 f2 f1 bb ee c8 81 3d db 32 42 bd
       0.081836425 -0.0073836157 0.063371524 -0.04741178
000360 80 49 4a be 95 a2 6a bd b8 53 61 3e fc db e8 3d
       -0.197546 -0.057283957 0.22004592 0.11370084
000370 4c 2a 9e 3d 43 06 31 bd 56 0a 27 bc fd 43 30 be
       0.07722911 -0.043218862 -0.010195335 -0.17213435
000380 8f d8 fb 3d 4d 4c 3b 3e 9f 6b 00 be 89 06 fe bd
       0.12297165 0.18290825 -0.12541054 -0.1240359
000390 1f de 1e bd 01 7a 9d 3d d9 76 f5 bd d6 5c a0 3d
       -0.03878605 0.07689286 -0.11985559 0.07830207
0003a0 ac 83 22 3e 52 98 d1 3c e6 1b c7 bd 26 4d 21 3e
       0.15870541 0.025585327 -0.09722118 0.15752086
0003b0 1e 6c e2 bd b3 4b 3d 3d 7b e7 4e 3e 42 ef c3 3d
       -0.11055778 0.04621477 0.2020549 0.09567119
0003c0 30 e1 bc bd 66 f3 b0 bd b3 47 c7 bd 64 f2 80 bd
       -0.092226386 -0.086401746 -0.097304724 -0.06296232
0003d0 da 75 29 be 22 5f 37 3e 43 12 62 3e 99 1e 9d bd
       -0.16548863 0.17907384 0.22077279 -0.07671852
0003e0 21 59 b3 bd 1e 3e b3 bd cf b6 1e 3e df ac b2 bc
       -0.08757234 -0.08752082 0.15499423 -0.021810947
0003f0 71 fe ab bd dd a9 c0 3d 93 62 6b 3d ad f2 32 3e
       -0.0839814 0.09407399 0.057467055 0.17475386

blocks.0.attn.proj.weight f4 [32, 32]
000000 da d4 d0 3d 09 18 01 bd aa c7 22 bd 1d c3 bd bd
       0.10196848 -0.031517062 -0.039741196 -0.092657305
000010 8f 28 6f 3d 1d d6 88 bd b6 da ab bd 3d 31 27 bb
       0.05838829 -0.06681464 -0.08391325 -0.0025511526
000020 cf ca 0b 3c 56 0c 2c bd 1b cc 8d bd e8 91 45 be
       0.00853224 -0.042003952 -0.06923696 -0.1929394
000030 10 9c d6 bd 60 dc e4 3d e1 55 07 3e e2 a9 dd bd
       -0.10478985 0.11174846 0.13216354 -0.10823418
000040 d4 9b 28 be 04 5e 03 be 1a b8 89 bc 2a 2d 90 3d
       -0.16465694 -0.12828833 -0.01681142 0.07039864
000050 af 63 29 be a6 44 0b be 3e e6 69 bd 54 35 d7 bd
       -0.16541933 -0.13600406 -0.05710434 -0.105082184
000060 70 9f 05 3e 65 0c 4e bd e5 98 a2 3c 77 c2 02 be
       0.13049102 -0.05030479 0.019848296 -0.12769495
000070 65 36 1d be 5b 4a 38 be 9d 5a 72 bd 9e 3f 25 be
       -0.15352781 -0.17997114 -0.059168447 -0.1613755
000080 a6 eb 64 bd 92 f2 91 3d 75 aa d8 bc 00 3c ef 3b
       -0.055888794 0.07126345 -0.026448468 0.0073008537
000090 ac af 02 3e 68 dc d6 3d 65 ab ab bd 35 f0 d6 3c
       0.12762326 0.10491258 -0.083823 0.026237587
0000a0 59 5a cc 3d 42 ac b6 bd 4d 55 3c 3d fc e3 37 3e
       0.0997817 -0.08919574 0.045979787 0.17958063
0000b0 32 0d 2c be 2c 55 a3 3d 8f 2b 68 bd 71 07 ab 3d
       -0.16801909 0.079752296 -0.056682166 0.08351029
0000c0 2f 1a d2 3c 50 af e0 3d 45 39 4f bd 18 5a 37 3e
       0.025647251 0.10970938 -0.050591726 0.17905462
0000d0 95 a4 2d 3e 5d e9 07 3e 34 91 25 3e 25 15 b2 3d
       0.16957314 0.13272615 0.16168672 0.08695439
0000e0 f5 82 37 be a6 ec e6 3d a1 da 37 bd e8 0a c4 3d
       -0.1792105 0.11275606 -0.044886235 0.09572393
0000f0 24 95 0e 3e bf 28 82 bd 80 f3 b6 bd 95 12 19 bd
       0.1392408 -0.06355428 -0.08933163 -0.037371237
000100 ec 2b 12 3e 72 53 96 3d 2b a2 13 be 25 ea c3 3d
       0.14274567 0.07340135 -0.14417331 0.09566144
000110 2b fc ce bd 7b 1e f0 3d 48 d1 6c 3c 68 f8 13 3e
       -0.10106691 0.11724564 0.014454193 0.14450228
000120 fa f9 a0 3b 57 db 6c 3d 44 80 b6 3c cb 61 fd bd
       0.004912612 0.057826366 0.022277959 -0.12372168
000130 6e 09 18 3e 3e e1 b0 3d a7 c2 c3 bc 51 89 03 3d
       0.14847347 0.086367115 -0.023896528 0.032113377
000140 75 97 b0 bd 72 1c a8 3d 7c ea fb 3d 63 bd bf bd
       -0.08622638 0.082085505 0.12300584 -0.093622945
000150 cd 24 25 be bf bc 5d bd 02 7d e1 bd 60 4f c0 bd
       -0.1612732 -0.05413508 -0.110101715 -0.093901396
000160 7d f6 00 be e7 46 d3 bc 35 d1 f7 3c b6 15 27 3d
       -0.12594028 -0.025790645 0.030251125 0.04079219
000170 1d 69 18 be 80 ff 3c be 07 86 10 3e 57 26 83 bd
       -0.14883848 -0.1845684 0.14113627 -0.06403797
000180 8c 76 f4 3b 2c 97 11 be 09 69 64 bd 34 4d d8 3d
       0.007460421 -0.14217824 -0.05576423 0.105616
000190 52 92 a7 bd 0b db 35 bd 96 f5 25 be 2b ad 2f 3e
       -0.08182205 -0.04439835 -0.16206965 0.17155902
0001a0 ba 56 c9 3c 82 8d b9 3d 4e 90 d6 bd e2 10 18 3e
       0.024577487 0.090601936 -0.10476743 0.1485019
0001b0 db 72 b0 bc c2 b1 c5 bd 2f a7 2c 3d f0 c2 38 3c
       -0.021539142 -0.09653045 0.042151626 0.0112769455
0001c0 54 c9 6d 3d 11 a8 a5 bd 3d 24 7c bd 9c 4b f3 3d
       0.05805333 -0.08088697 -0.061557997 0.11879656
0001d0 b0 20 1c 3e b5 df 22 3d 80 66 af 3d 54 7e ef bd
       0.15246844 0.039764125 0.08564472 -0.11694017
0001e0 ef 01 0c 3d 54 ef 12 be 8d e4 1a 3c 3a 4b 74 3b
       0.03418153 -0.14349109 0.009453905 0.0037276284
0001f0 59 97 2c bd 4e ea 01 bd 51 42 37 bc 95 71 91 3c
       -0.042136524 -0.03171759 -0.011185245 0.017754355
000200 ea ac 13 3d a8 e7 8f bd fd 09 d4 bd 40 4a 70 3c
       0.036053576 -0.07026607 -0.103534676 0.01466614
000210 0b 56 bd 3d a0 50 9b bc 2e 46 e7 3c 1a ff 3e bd
       0.09244927 -0.018959343 0.028231706 -0.046630003
000220 27 61 c0 bd f6 ed cd 3d 1c 5b bf bd ae 78 0d 3e
       -0.0939353 0.10055153 -0.093435496 0.13815567
000230 7e 21 bc 3d 9d c9 9b bd 4a bb 73 bd 2f fc 45 3d
       0.09186076 -0.07606814 -0.059504785 0.048336204
000240 42 04 e0 3c 3d 68 10 be 3b 16 b9 3c 73 57 fd bd
       0.02734578 -0.14102264 0.022593608 -0.12370195
000250 84 cd 17 bc ae 1a 84 bd c0 84 0b be 7b 6b 30 be
       -0.009265307 -0.06450401 -0.13624859 -0.172285
000260 e9 0e f5 3d 3d 15 fd bc f9 17 4a bd 97 f9 cd bd
       0.119657345 -0.030893916 -0.04933927 -0.10057371
000270 f3 80 92 3d f9 e6 c9 3d d4 52 a7 ba 80 3b aa 3c
       0.07153501 0.09858508 -0.0012765774 0.020780325
000280 99 7f 02 be dd d8 05 be 8f 17 2c 3e a7 5a b2 bd
       -0.12743987 -0.13071008 0.16805862 -0.08708697
000290 79 26 8c bc 68 ba 31 3e 4d 0d 7f 3d cd 06 fe bd
       -0.017108189 0.17356265 0.062268544 -0.12403641
0002a0 d4 e7 09 3e 50 65 43 3d 56 73 18 be 0b 49 31 3e
       0.13467342 0.04770404 -0.14887747 0.1731302
0002b0 b0 b7 c5 bc 31 5f 0d 3e 1b 85 fa 3d ed 5c 18 be
       -0.02413544 0.13805844 0.12232419 -0.14879198
0002c0 60 89 08 3d d7 ac 8d bd 0f 63 cc 3c 9c 44 19 bd
       0.033334136 -0.06917732 0.024949579 -0.037418947
0002d0 84 c4 0d 3e 3d 90 be bd fe 3c be bd 5a 92 29 3b
       0.13844496 -0.09304855 -0.09288977 0.0025874586
0002e0 94 03 65 bc e4 ef 01 3d 1a d6 d1 bc c7 ab ec bd
       -0.013977904 0.03172292 -0.025614787 -0.115562014
0002f0 38 b0 d9 bd f1 d8 53 bd 7a 56 91 3d 9e e2 08 be
       -0.10629314 -0.051720563 0.07096572 -0.13367698
000300 96 73 76 3d 21 a4 52 bd 81 cf 22 3e fc c9 39 3d
       0.060168825 -0.051426057 0.15899469 0.045358643
000310 65 17 ea bc 2a 7d 00 3e 7f f9 0b 3b 65 29 34 3e
       -0.028575609 0.12547746 0.0021358428 0.17593916
000320 8c b5 fe bd 30 d6 3f 3d 95 11 a5 bd fa 5e c5 3d
       -0.12436971 0.046835124 -0.08059994 0.09637256
000330 80 8f 76 3c 6e a0 11 bd 2d cb f5 3d 5c 7b 10 be
       0.0150488615 -0.03555339 0.12001643 -0.14109558
000340 64 b7 6c 3d 98 fb 05 3b f3 cb bc 3b 28 71 35 3d
       0.057792082 0.002044415 0.0057616173 0.044297367
000350 0e 82 18 bd 78 55 37 be 6c 37 38 3e 56 59 a2 bd
       -0.037233405 -0.17903697 0.17989892 -0.07927196
000360 ea 4c 00 bc c5 74 3f bc 23 11 9e 3d b4 47 00 bd
       -0.007830838 -0.011685555 0.07718112 -0.03131838
000370 ed 45 cf 3c 5c 44 99 bc 80 d1 c0 3d 7a 58 7e 3b
       0.025301898 -0.018709354 0.09414959 0.003881006
000380 0a 41 63 bd 92 a5 13 bd 2c 84 20 3d 67 5a 44 bd
       -0.055481948 -0.036046572 0.03918855 -0.047937777
000390 a9 ab 01 be 17 cd 38 3e 19 63 14 be 5d d0 b6 3d
       -0.1266314 0.18046986 -0.14490928 0.08926461
0003a0 91 f1 6b bd f4 14 2a 3d 71 84 f6 bd 7a 09 eb bd
       -0.057603423 0.04152389 -0.1203698 -0.11476417
0003b0 c9 0a 60 bd 7f 3f a2 3d d4 c4 83 3d f3 9a d3 3c
       -0.054697786 0.07922267 0.06434026 0.025830721
0003c0 7a db 3c bd b0 b5 40 3e fd 73 e4 bc db e1 f9 bc
       -0.046107747 0.18819308 -0.027887339 -0.030503204
0003d0 e4 8c 29 3e 4a fb 04 3d 63 96 32 be 06 4f 0c be
       0.16557652 0.03246621 -0.1744018 -0.1370202
0003e0 3e 93 f1 bd fd bd 10 be f8 ac 27 be d7 34 13 3e
       -0.11795662 -0.14134975 -0.16374576 0.14375626
0003f0 28 48 0a 3e 35 5a ca bd d3 97 52 bd 05 ba 90 3d
       0.13504088 -0.09880487 -0.051414322 0.070667304

blocks.0.attn.proj.bias f4 [32]
000000 c2 95 6c bd d1 b9 9a 3d fc fb cb 3d 99 0e ae bd
       -0.057760008 0.07554973 0.099601716 -0.08498878
000010 3e 6a 5d 3d c7 82 e4 3d f3 53 ec bd 23 b1 f3 3d
       0.0540564 0.11157756 -0.115394495 0.118990205
000020 09 f3 ba bd 5b 67 af bd 06 86 bc 3d 05 4f 37 bd
       -0.091283865 -0.08564635 0.092052504 -0.044753093
000030 76 be 0a 3d 4f 4a e1 3d eb 9e 77 bd 9e dc 5b bd
       0.033873044 0.11000501 -0.06045429 -0.053677194
000040 12 92 11 be 27 f5 b1 3d f7 1a 12 3d 39 d1 25 3e
       -0.14215878 0.08689337 0.035670247 0.16193093
000050 3b 93 fa 3d 6f 7f 41 3d af 6f 14 3d 09 ea 16 3e
       0.12235113 0.04724067 0.036239322 0.14737715
000060 31 31 10 be 39 11 0e be 63 3c 1e 3e 7f 53 5d bd
       -0.14081265 -0.13873757 0.15452723 -0.054034706
000070 a2 03 40 3d bc ea 4e bd 98 43 11 be 4c 24 08 be
       0.046878465 -0.05051683 -0.14185941 -0.13295096

blocks.0.norm2.weight f4 [32]
000000 0f 6d 80 3f 7d 93 7e 3f 91 ed 79 3f 8c e8 7e 3f
       1.0033282 0.994438 0.9762812 0.9957359
000010 a4 3c 7d 3f f0 bf 7a 3f 39 4d 73 3f 29 15 7f 3f
       0.98920655 0.97949123 0.9503971 0.9964166
000020 c7 eb 84 3f e0 75 7c 3f 77 ed 80 3f 7c 23 81 3f
       1.0384454 0.9861736 1.0072469 1.0088954
000030 3a a6 82 3f 23 e1 81 3f 55 9b 80 3f 11 fe 84 3f
       1.0206978 1.0146831 1.0047404 1.0390035
000040 98 9f 81 3f c1 1a 80 3f 69 e9 7e 3f 10 f5 6f 3f
       1.0126829 1.0008165 0.99574906 0.9373331
000050 e1 6e 7a 3f 2b 60 77 3f 6e f9 80 3f 9f 6b 79 3f
       0.9782544 0.96631116 1.007612 0.9742984
000060 e2 7c 7c 3f b4 55 84 3f 40 e4 82 3f d1 5c 82 3f
       0.98628056 1.0338655 1.0225906 1.0184575
000070 79 31 7d 3f ba c9 80 3f fe bd 82 3f 1f 5c 7e 3f
       0.98903614 1.0061562 1.0214231 0.99359316

blocks.0.norm2.bias f4 [32]
000000 0a cb bd 3b c1 f1 06 3b cc 46 c6 3b 5b 40 bb 3c
       0.0057920264 0.0020590874 0.00605092 0.022857836
000010 c4 6e 10 bd c5 f5 a9 bc 84 8b ae 3c 28 7a 9c 3b
       -0.035261884 -0.020747075 0.02130676 0.0047753043
000020 12 a4 92 3c 0a c3 a3 3c 81 92 e4 3a da d3 14 ba
       0.0179005 0.019990463 0.0017438681 -0.00056773203
000030 e0 34 57 39 b0 c9 20 3c 69 9f e4 3b 6f 49 29 3c
       0.00020523695 0.009813711 0.006977011 0.010332449
000040 c8 e2 5b 3b 88 97 e2 ba 64 6d c7 3b a5 03 3a 3d
       0.003355192 -0.0017287591 0.0060860384 0.045413632
000050 c4 6b 77 3c 67 80 28 bb 45 f1 0a bc 9e d5 18 3d
       0.015101377 -0.00257113 -0.008480375 0.037313096
000060 9e 19 6a bc be f9 06 3c 24 9d b1 3b 6c 43 51 3a
       -0.014288334 0.008238254 0.005420344 0.0007982764
000070 7d 02 01 bc 42 6a b8 3a a2 39 40 bc db a8 36 bd
       -0.007874128 0.0014069753 -0.011732491 -0.044594627

blocks.0.mlp.fc1.weight f4 [128, 32]
000000 c9 47 8c 3c 04 cc a8 bc 0c 68 9c 3d c5 0d 12 be
       0.017124074 -0.020605095 0.07637033 -0.14263065
000010 50 68 11 bc 85 6f f0 3b df 64 f6 bd cb 6f 4e 3e
       -0.008874968 0.007337513 -0.120309584 0.20159833
000020 03 13 59 bd 46 5f 6e ba 4f 94 c3 3d 2f ed 26 be
       -0.052996647 -0.00090931763 0.09549772 -0.16301416
000030 31 56 48 be ba c8 c7 3d f7 f5 1e 3e 75 93 07 be
       -0.1956413 0.097550824 0.15523516 -0.13239844
000040 60 c7 0f be 47 6c 22 3e e8 85 1a 3e 44 5e 2e 3e
       -0.140409 0.15861617 0.15090144 0.17028147
000050 9a 86 0b bd a1 c1 25 bd a9 d3 aa 3d ab 9d b9 bc
       -0.034063913 -0.040467862 0.08341152 -0.02265819
000060 fa 53 1d 3e ea fc c7 bd a3 8c 25 3e 2f d1 ec 3d
       0.15364066 -0.097650364 0.1616693 0.11563336
000070 f3 99 45 3d 43 79 25 3e d5 b9 80 bd 5b c4 f6 bc
       0.04824252 0.16159539 -0.06285445 -0.030122926
000080 97 f2 cc 3d 9e 6e 45 3e 7e 52 cc 3d fa cd c1 3d
       0.10007208 0.19280478 0.09976672 0.09463115
000090 c6 37 23 be 41 e2 1d be c8 06 62 bd f1 a9 b2 bd
       -0.15939245 -0.1541834 -0.05518225 -0.0872382
0000a0 3c 00 3c 3e dc 58 7e 3d 79 ab 9e 3d d8 34 de 3c
       0.18359464 0.06209646 0.077475496 0.027124807
0000b0 96 77 fd 3d f9 ab 32 be ea 4b 91 bd 05 3a 1f 3e
       0.12376325 -0.17448415 -0.070945576 0.15549476
0000c0 91 51 e6 3c 16 0a f5 bd 9a 50 06 3e 17 89 e9 3d
       0.028115066 -0.11964814 0.13116685 0.11403101
0000d0 3c 99 d9 bc a2 52 70 3d 52 42 44 3e 14 d3 ec b9
       -0.026562326 0.058672555 0.19165924 -0.00045170693
0000e0 b7 2f 39 bc 15 94 cf 3d 4a df d8 bc 5c 1a dc 3d
       -0.01130288 0.10135666 -0.02647366 0.10747215
0000f0 b4 2a bd bd dd f3 0f 3c b8 33 17 3e 7a e8 94 3d
       -0.092366606 0.008786169 0.14765823 0.07270904
000100 d3 1b 07 be 38 10 6e 3d 82 6c de 3d e4 db 13 be
       -0.13194208 0.058120936 0.1086054 -0.1443935
000110 6a 06 2c 3e 53 19 ed 3c 39 34 2c be ce f8 16 be
       0.16799322 0.02894274 -0.16816796 -0.14743349
000120 f1 41 11 3e 7f 5f 0f 3e 3a b0 ef bc 7f a0 3b bd
       0.14185311 0.14001273 -0.029258836 -0.045807358
000130 b5 54 69 3d 9c ba 9a 3d 83 e7 7e 38 91 19 1f 3e
       0.05696555 0.07555124 6.077393e-05 0.15537097
000140 30 eb f3 bd 3f ca 20 3e ec d0 0c be c2 4f 5c 3c
       -0.11910093 0.15702151 -0.13751572 0.01344675
000150 cf 6e a6 3c 2c bd 78 bc 80 6f 8f 3d 5d 3f 07 be
       0.02031651 -0.015181821 0.07003689 -0.13207765
000160 6e c6 35 3d ba a8 b7 bc 4c 14 1e 3e 82 16 d4 bd
       0.04437869 -0.022419322 0.1543743 -0.103558555
000170 b0 fb 10 be e5 fc f0 bd 98 b6 4d bd 60 fd e3 bd
       -0.14158511 -0.11766986 -0.050222963 -0.11132312
000180 98 c9 01 3e a6 78 56 bd 42 34 f5 3d 45 7c cf bd
       0.12674558 -0.052361153 0.11972858 -0.101311244
000190 95 b6 20 3e 3d a9 1e 3e b6 bd 10 be c7 fc 21 3e
       0.1569465 0.15494247 -0.14134869 0.15819083
0001a0 3b 3e 98 bb ff 74 d4 3d e9 56 6d bd 43 4d 07 3e
       -0.0046460903 0.10373878 -0.057944212 0.13213067
0001b0 38 23 04 bd a0 34 ca bb 55 72 10 bd 59 ba 92 3d
       -0.03226015 -0.006170824 -0.035265286 0.07164449
0001c0 81 08 06 3d ba 20 1c be a0 6c 17 3b 64 c1 62 3d
       0.032722954 -0.15246859 0.0023105517 0.055360213
0001d0 c0 50 29 3d 62 e3 aa bd 82 3b 64 3d a4 78 0d ba
       0.041336775 -0.08344151 0.055720814 -0.00053967
0001e0 b8 c8 e7 3d 28 72 fd 3d 7e 05 b9 3c 12 6a d4 bd
       0.11317581 0.12375289 0.022585627 -0.10371794
0001f0 81 36 ec 3d b6 c0 7e 3d 40 10 6e 3d 25 32 17 bd
       0.11533833 0.062195502 0.058120966 -0.036913056
000200 26 67 68 3d ff 95 a7 bd 64 f4 35 be 14 96 2a 3e
       0.056738995 -0.08182906 -0.17769009 0.16658813
000210 e2 bb 2d 3d 31 eb 05 3e e9 6b 34 be 0f c8 26 bd
       0.042415507 0.13078 -0.1761929 -0.040718134
000220 b0 07 22 bd 91 bf 0e 3e bd 03 de 3c bb c6 c4 bd
       -0.039558113 0.13940264 0.027101392 -0.09608217
000230 53 5d 18 be aa 2f b6 3d 3c d3 31 3e 17 2e 99 3d
       -0.1487935 0.0889581 0.17365736 0.07479494
000240 1c a3 1d 3e 3f a6 40 be bd fa 12 3e 42 2a 0f bc
       0.15394253 -0.18813418 0.14353462 -0.008738102
000250 76 f4 82 bd fb 1c 2a be db 17 64 3d d4 05 c6 3d
       -0.063942835 -0.16612618 0.055686813 0.096690804
000260 2d 02 d4 3d f9 d6 a4 3d 33 69 ea bc 99 55 58 bd
       0.103519775 0.08048815 -0.028614616 -0.052816007
000270 9e 8c ac bd 48 c8 a2 3d fe d3 42 3d c0 9a fa 3d
       -0.08425258 0.07948357 0.047565453 0.122365475
000280 a2 84 15 3d 85 a6 bf 3d 1e 82 56 bd 07 2c 42 be
       0.03650344 0.09357933 -0.052370183 -0.18962108
000290 ed 71 a8 3b 7f 8f c1 3d 75 b0 19 be 3d ec 8d 3d
       0.005140534 0.09451198 -0.1500872 0.069298245
0002a0 9a 83 3c 3d 08 a5 65 3d be 1b 3f 3c 43 89 fc bd
       0.046023943 0.05606559 0.011664329 -0.12330868
0002b0 8d 31 1f be 3c 9c 15 3d df 17 74 3d 32 e6 8b 3d
       -0.15546246 0.03652595 0.059593078 0.06831016
0002c0 69 58 17 3e f7 0a a2 bd 22 72 a6 bd a7 c6 d5 bd
       0.1477982 -0.07912248 -0.08127238 -0.104382806
0002d0 dd 96 13 3e bb ad 9e 3c 16 bd 12 be 74 c4 af 3d
       0.14413019 0.01936995 -0.14329943 0.08582392
0002e0 d2 47 2e be 75 76 12 be a2 72 11 be 94 2e b0 3d
       -0.17019585 -0.14303 -0.14203885 0.08602634
0002f0 9a a9 90 3c 1b 1e 38 3e af ff ff 3c 5d 7a 8a bd
       0.017658997 0.17980234 0.03124985 -0.0676162
000300 0a eb b0 bd 3a f7 00 3e 6f 6e f0 3c de 00 2c be
       -0.0863858 0.1259431 0.029349534 -0.16797206
000310 5f eb 96 3c 42 47 f2 3d 49 1d 6a bd a3 3c 8d 3d
       0.01842278 0.118299976 -0.057156835 0.06896331
000320 52 2d d7 bd 75 c2 bc 3d 6b 93 57 3d 1d e5 08 3e
       -0.10506691 0.09216777 0.052630823 0.1336865
000330 df 59 27 3e 10 fe a5 3b 60 09 88 bc aa 6c db bd
       0.16342877 0.005065687 -0.016606033 -0.107140854
000340 fc ef 10 3d b5 84 9a 3d 4d 18 16 be 99 33 a5 3d
       0.035385117 0.07544843 -0.14657708 0.08066482
000350 b3 73 27 3e 3a e0 b8 bc d1 1d c5 3d 63 de b5 bd
       0.1635273 -0.022567857 0.09624828 -0.088803075
000360 59 14 e0 3c 66 bc 16 be c7 e2 a2 3d d6 b8 17 3e
       0.027353453 -0.14720306 0.079534106 0.14816603
000370 7d 75 c9 bd 9c 90 08 be 27 54 e1 3d 83 f3 94 3c
       -0.09836862 -0.13336414 0.11002379 0.018182522
000380 1d b7 9c bd 98 c6 f2 bd 78 6b 3a 3e 73 fb 85 bd
       -0.076521136 -0.11854285 0.18205059 -0.06542101
000390 0b 53 f2 3d 8b 08 ba bc d4 41 10 bc 77 f1 ad bd
       0.118322454 -0.022709152 -0.008804757 -0.084933214
0003a0 2c 72 2f bd f1 c0 9f 3b 91 c5 28 3e 73 a5 41 3e
       -0.042833492 0.0048752953 0.16481616 0.1891077
0003b0 81 5c f5 bc 47 32 0a 3e 10 1f 02 3e 91 42 73 3b
       -0.029951336 0.13495742 0.12707162 0.0037118534
0003c0 c6 9b c3 3d b5 0f 77 3d f0 8a 25 3d 24 37 46 bd
       0.09551196 0.060317714 0.040415704 -0.04839243
0003d0 f6 08 ca bc e5 e1 5d bd 77 28 35 3d c3 05 25 bd
       -0.024662476 -0.054170508 0.044228043 -0.040288698
0003e0 db 9a 0d 3d ad f3 09 3e d9 c7 c2 3d 61 ee 19 3c
       0.03457151 0.13471861 0.09510774 0.009395213
0003f0 b4 a5 2b be fd 63 82 bd fc 0d 7a bd a7 b8 d6 bd
       -0.1676243 -0.063667275 -0.061048493 -0.104844384

blocks.0.mlp.fc2.weight f4 [32, 128]
000000 fb ba b3 bd 98 a9 4d bd 09 b2 e6 3c 0c 8b a3 bc
       -0.08775898 -0.050210565 0.028161066 -0.019963764
000010 f2 3e 07 3a 85 89 8a 3d c6 78 82 3c 68 d0 10 bd
       0.0005159221 0.06764511 0.01592673 -0.035355
000020 ba 92 65 bc e5 65 7e bc df 9d 9d 3d 02 0c 17 3c
       -0.014012033 -0.015527223 0.07696127 0.0092191715
000030 83 77 1e 3d c0 a7 06 3e 66 58 87 bc 21 e4 43 bd
       0.038688194 0.13149929 -0.016521644 -0.047824983
000040 5b ff 1a 3d 43 af b9 bd 9f 71 42 bd 93 61 d4 bc
       0.037841182 -0.09066632 -0.04747164 -0.025925433
000050 a6 9f 02 bd b2 35 c2 bc 35 6d 60 3c a4 34 7e 3d
       -0.031890534 -0.023707245 0.013697912 0.06206192
000060 ec bd 97 bd 8a dc a0 bc a3 76 5c bd f3 53 37 3d
       -0.074092716 -0.019636411 -0.05382408 0.044757795
000070 2d bd 44 3d 06 1a 83 3d 88 59 a6 3d cb 97 41 3d
       0.048031975 0.06401448 0.081225455 0.0472639
000080 41 c4 d0 bc fb d5 65 bd 2c bd 92 bd 5f 3e 3c 3d
       -0.025484206 -0.05611227 -0.07164988 0.04595792
000090 0a ed 20 bd ce 58 2f 3d 56 77 ee bd 8d 0f f7 3c
       -0.039288558 0.0428093 -0.11643855 0.030158782
0000a0 74 b3 1b 3d 0a 85 e0 3c 42 4a 46 bd 9c 26 b9 3d
       0.038012937 0.027407188 -0.04841066 0.09040567
0000b0 16 c5 90 3c a3 fc 38 3d 3c 70 8d bb c8 51 ab ba
       0.017672103 0.04516281 -0.004316358 -0.0013070637
0000c0 ee 15 15 3d d8 b7 5b bc 2b 68 96 bd e2 08 65 3c
       0.036397867 -0.013410531 -0.07344087 0.013979169
0000d0 ae d9 cd bb bd d4 91 bd f6 29 0f 3d e8 e8 8d 3b
       -0.006282053 -0.07120655 0.034952126 0.004330743
0000e0 e7 8b 2e bc a0 63 f9 3c 83 20 95 3d 55 71 97 bd
       -0.0106534725 0.030443013 0.07281592 -0.07394663
0000f0 6c eb d3 3d 94 b8 9f 3d d5 01 be bc 60 90 8f 3d
       0.103476375 0.07798877 -0.023194233 0.07009959
000100 40 41 0d bb dc a9 1f 3d a2 c7 a7 3c 75 18 db bd
       -0.0021553785 0.03898035 0.020480935 -0.10698024
000110 36 8a 67 3d 04 34 9c 3d 81 51 62 3d 1d d0 89 3d
       0.056528293 0.07627109 0.05525351 0.067291476
000120 63 24 a6 bd 50 06 88 3d c5 6b 93 3c 5f b1 a3 bd
       -0.08112409 0.06641829 0.017995724 -0.07992815
000130 44 6f 7f bd f5 f3 00 bd ee b0 2e 3d e9 cc a7 bd
       -0.06236197 -0.031482656 0.042649202 -0.081933804
000140 d2 2e d1 3d 4c 22 98 3d 62 23 30 3d 59 02 cd 3d
       0.102140084 0.074284166 0.043002494 0.100102134
000150 c0 04 1f bd 64 61 60 bd 75 6e 00 bd dc a9 f6 bc
       -0.03882289 -0.05478038 -0.03135534 -0.030110292
000160 a5 33 60 3d 96 db 25 bd 5c 4d bc 3d 0e f9 82 3b
       0.054736752 -0.040492617 0.09194443 0.003996975
000170 96 0d 03 bc 75 ce 83 3c 5f 5b 96 3d 69 6e 60 bd
       -0.007998845 0.016089657 0.073416464 -0.054792795
000180 d4 cc 8b 3d 37 00 5a bc a9 f3 09 3c 9e 9b 95 bd
       0.06826177 -0.013305715 0.0084199095 -0.07305072
000190 ed 95 30 3c 80 e6 26 bd da 20 9c bd 6b 81 8d 3b
       0.010777933 -0.040747166 -0.076234534 0.0043184063
0001a0 d7 9c 9a 3d 28 f1 73 bc d0 95 f4 3c de a2 38 bd
       0.07549446 -0.014889039 0.029856592 -0.045077197
0001b0 ca e7 15 bd 71 24 5d 3d 10 8b 37 bd cd 1b 67 bd
       -0.036598004 0.05398983 -0.044810355 -0.056422997
0001c0 03 12 18 bd 20 05 c6 3c 78 f1 a4 bd 0d 61 81 3d
       -0.037126552 0.024172366 -0.08053869 0.06317339
0001d0 c1 1b 9d bd de dd 87 3d d2 fb 4a bd c1 d7 a6 bc
       -0.07671309 0.06634115 -0.04955656 -0.020366551
0001e0 24 ce a5 3d b0 af da 3c 68 a2 94 bc 1a e4 44 bd
       0.08095959 0.026695102 -0.018143848 -0.048069097
0001f0 64 83 c4 3d 08 10 9a bc 61 75 c8 3c 09 b8 4f 3d
       0.09595373 -0.018806472 0.024470033 0.05071262
000200 d0 23 11 bd 96 61 86 bd cb 9c 85 3d 5d e9 e3 bb
       -0.035434544 -0.06561582 0.065240465 -0.0069553093
000210 d4 7d 80 3c 51 5b 5c 3d ee be 6d 3d ec df 56 3d
       0.015685 0.053798024 0.058043413 0.052459642
000220 31 0a 72 3b 77 45 dd 3c a3 f7 04 3d 14 2a 72 3c
       0.0036932344 0.027010662 0.032462727 0.01478054
000230 fe 4b 8a 3d 65 dc e6 bb 6a b7 dd 3b 9e 82 8b 3d
       0.067527756 -0.007045316 0.0067662494 0.068120226
000240 19 74 8c 3b 44 b1 17 3d 45 a7 03 bd 85 3d 9c bd
       0.004286301 0.037034288 -0.032141943 -0.076289214
000250 ac 6e 78 bd ac b9 a4 bd b4 45 8a bd 7d 9d 73 3c
       -0.06065242 -0.080432266 -0.06751576 0.014869091
000260 9a a2 02 3d 20 64 9c 3d b9 b1 af 3d 10 2b 04 bc
       0.03189335 0.07636285 0.0857882 -0.0080669075
000270 8d 2f cc bc 5c 16 52 bc 9a b3 d8 3b 09 63 cd bd
       -0.024925018 -0.012822714 0.006613207 -0.10028655
000280 a8 5b fd bc 3a c0 16 ba 17 1b a5 bd ce 72 ce bc
       -0.030927494 -0.000575069 -0.080618076 -0.025201228
000290 49 4c 03 3b 6d c4 ae bc be d8 ba 3c 14 e8 12 3d
       0.0020034483 -0.021333897 0.022808429 0.03586586
0002a0 76 36 5e 3d e3 26 07 bd 96 41 d0 3b 60 d5 39 3b
       0.054251157 -0.03299607 0.0063554747 0.0028355941
0002b0 21 40 80 3d 30 b5 67 bd 99 cc 52 3d 21 d7 95 bd
       0.062622316 -0.05656928 0.05146465 -0.07316423
0002c0 8d 08 b9 bd 29 50 63 3d 64 6d 6b bd 01 77 c7 3c
       -0.09034834 0.05549637 -0.05747737 0.024348738
0002d0 0d 8d 38 bc 59 4c 48 3c 60 de ab bd 66 5f b1 3d
       -0.011264098 0.012225234 -0.08392024 0.08660774
0002e0 df 73 30 3d eb 33 7f bd 56 51 4f bd 92 b8 9b bd
       0.043079253 -0.062305372 -0.050614677 -0.07603563
0002f0 c9 6c a0 3d c1 59 2b 3c dd b0 ad bc 86 74 17 bd
       0.07833249 0.010458411 -0.021202499 -0.03697636
000300 32 70 8b bc 3c 93 44 bd 8e d5 66 bd 87 19 3f 3d
       -0.017021272 -0.047991976 -0.056356005 0.046655204
000310 20 8f d8 3d b5 a1 13 3c a0 d4 bb 3d 93 12 93 3d
       0.10574174 0.009010722 0.091714144 0.07181277
000320 b7 3e db 3c 02 52 75 3d 66 50 61 bd 30 d4 b4 bc
       0.026763303 0.059892662 -0.055008315 -0.022073835
000330 ee 11 76 bd b3 fe e0 3b b8 ce 1c bd 6d a5 c1 3c
       -0.060075693 0.0068663 -0.03828308 0.023638451
000340 73 bd a9 b6 bf c8 4f bc 02 0e 4e 3d f2 38 32 bc
       -5.0586473e-06 -0.012682139 0.050306328 -0.010877835
000350 75 b9 ea 3b 85 34 42 3c 0e cd 79 bc ec d9 49 3d
       0.0071632215 0.011853342 -0.015246643 0.049280092
000360 7c b4 3b 3c 7c b7 9f bd 1d df 91 3d 84 07 5c bd
       0.011456605 -0.07798669 0.071226336 -0.053718105
000370 a1 e6 10 bd 08 bf 14 3d 50 1d cd ba c4 2d 5f bc
       -0.035376195 0.036314994 -0.0015648995 -0.013621751
000380 fc 58 b6 3b 74 ac c0 3d df 37 d8 bd 4d f9 df bd
       0.005564807 0.09407893 -0.105575316 -0.10936222
000390 11 e5 38 bd ba 44 d8 3c ee 8e 75 3d 13 4d b3 3d
       -0.04514033 0.026399959 0.05995076 0.08754935
0003a0 25 e5 8b 3c 1b f0 2f 3d f6 2b 75 bd 87 ef 93 3d
       0.017077038 0.04295359 -0.059856378 0.072234206
0003b0 65 9d 2a 3d c3 bc 55 bb 17 6b 94 bd bd a6 9d 3d
       0.04165401 -0.0032613731 -0.07246988 0.076978184
0003c0 1b c1 d6 3c 5b 34 99 3c e4 52 2f 3d 83 f5 f4 bc
       0.026215127 0.018701723 0.04280366 -0.029902225
0003d0 88 34 5e 3d 7a 55 51 bd 85 0f 28 3d 95 8d 9e 3d
       0.054249316 -0.051106907 0.041030426 0.077418484
0003e0 63 33 cc bd 4a ee 3b 3c 40 a6 63 bd 96 b6 b8 3c
       -0.09970739 0.011470387 -0.05557847 0.022548001
0003f0 e5 fa 97 3d a1 df ef 3d ea f7 3d 3c c7 82 af 3d
       0.07420901 0.11712576 0.011594752 0.08569866

blocks.1.norm1.weight f4 [32]
000000 fe f3 81 3f 3f 91 87 3f f9 a2 85 3f c2 9c 82 3f
       1.0152586 1.05912 1.044036 1.0204089
000010 6d e9 82 3f 4d 13 83 3f 77 40 89 3f 96 8e 7e 3f
       1.0227486 1.0240265 1.0722798 0.9943632
000020 d6 ee 86 3f 7e 38 83 3f 17 20 7f 3f d7 19 84 3f
       1.0541637 1.0251615 0.9965834 1.0320386
000030 5b bd 84 3f 63 95 81 3f dd d0 82 3f 8d 2c 85 3f
       1.0370287 1.0123714 1.021999 1.0404221
000040 74 ba 88 3f 5b d7 82 3f 63 c9 7f 3f 6c b5 7a 3f
       1.0681901 1.0221971 0.99916667 0.9793308
000050 bc 3e 86 3f 7b 0b 85 3f 32 b7 87 3f b8 eb 84 3f
       1.0487895 1.0394129 1.0602782 1.0384436
000060 e7 1c 7b 3f 75 60 84 3f 8e 10 84 3f b5 8e 80 3f
       0.98090976 1.0341936 1.0317552 1.0043551
000070 60 6e 87 3f 48 32 85 3f 72 df 84 3f fd e9 85 3f
       1.0580559 1.040597 1.038069 1.0462033

blocks.1.norm1.bias f4 [32]
000000 a9 d8 5e 3c 0d 58 78 3a b7 a2 3e bb ee 6e 95 3b
       0.0136014605 0.000947357 -0.0029088685 0.004560343
000010 c9 cf f9 3b 19 df 2b 3b 5c 27 a5 bc 0b 15 32 ba
       0.007623647 0.0026225506 -0.02016037 -0.0006793297
000020 c2 e7 29 bc 77 9b 7d bb 3c 1f 86 ba ab 8e e6 3b
       -0.010370197 -0.00386974 -0.0010232697 0.0070360503
000030 9b 9b ce 3b 08 bd 2f bc e2 62 28 3c 55 aa 74 b8
       0.0063051707 -0.010726221 0.010277482 -5.8332767e-05
000040 f8 0c 44 bc 01 e2 05 3c 2d 81 a9 3b 47 ec 26 3c
       -0.011965983 0.008171559 0.0051728697 0.010188169
000050 5d 7b 0a bd 87 69 03 3c 83 02 b7 bb 99 65 b4 3b
       -0.033809055 0.008020765 -0.005585016 0.0055052754
000060 ff 36 28 bc 60 1f b6 bb a9 90 08 3c ae f7 2c bc
       -0.010267018 -0.0055579394 0.008335271 -0.010557098
000070 23 c7 8a 3b 64 ff 9f 3c 6b 12 15 bc f1 01 ef bb
       0.0042351647 0.01953096 -0.0090986295 -0.0072939326
