image_encoder/trained_models/vit_20241108_163218.pth (torch, 561019 bytes, 77 tensors)

cls_token f4 [1, 1, 32]
0	0xbc0a81a2	-0.008453758
1	0x3d0062ea	0.03134433
2	0x3c6928ed	0.014230949
3	0x3cad49bf	0.021153329
4	0xbd30c53b	-0.043156844
5	0xbc09e8da	-0.008417333
6	0x3cabdab6	0.020978313
7	0x3d09c267	0.033632662
8	0xbd1d7e5e	-0.03845059
9	0xbd2a53e8	-0.041583925
10	0x3bc2a63b	0.0059402264
11	0xbc60defb	-0.013725038
12	0xbc180ea1	-0.009280832
13	0x3c952e6d	0.018210614
14	0xbd057653	-0.032583546
15	0xbd1d80dd	-0.03845297
16	0x3a94af68	0.0011343779
17	0xbadec9ed	-0.0016997434
18	0x3cff53eb	0.031167945
19	0x3d7fc2db	0.062441688
20	0x3ce19965	0.027538965
21	0xbc7aefd7	-0.015315971
22	0xbd2813af	-0.041034397
23	0x3d41551d	0.04720031
24	0xbd315489	-0.04329351
25	0xbc42bb79	-0.011885517
26	0x3beac7fd	0.0071649537
27	0x3bee614f	0.0072747837
28	0x3d4de41d	0.050266374
29	0xbcaf5c16	-0.021406215
30	0x3aaa9c7d	0.0013016608
31	0xbcc34c90	-0.023840219

pos_enc f4 [32, 32, 32]
0	0x00000000	0.0
1	0x3f800000	1.0
2	0x00000000	0.0
3	0x3f800000	1.0
4	0x00000000	0.0
5	0x3f800000	1.0
6	0x00000000	0.0
7	0x3f800000	1.0
8	0x00000000	0.0
9	0x3f800000	1.0
10	0x00000000	0.0
11	0x3f800000	1.0
12	0x00000000	0.0
13	0x3f800000	1.0
14	0x00000000	0.0
15	0x3f800000	1.0
16	0x00000000	0.0
17	0x3f800000	1.0
18	0x00000000	0.0
19	0x3f800000	1.0
20	0x00000000	0.0
21	0x3f800000	1.0
22	0x00000000	0.0
23	0x3f800000	1.0
24	0x00000000	0.0
25	0x3f800000	1.0
26	0x00000000	0.0
27	0x3f800000	1.0
28	0x00000000	0.0
29	0x3f800000	1.0
30	0x00000000	0.0
31	0x3f800000	1.0
32	0x00000000	0.0
33	0x3f800000	1.0
34	0x00000000	0.0
35	0x3f800000	1.0
36	0x00000000	0.0
37	0x3f800000	1.0
38	0x00000000	0.0
39	0x3f800000	1.0
40	0x00000000	0.0
41	0x3f800000	1.0
42	0x00000000	0.0
43	0x3f800000	1.0
44	0x00000000	0.0
45	0x3f800000	1.0
46	0x00000000	0.0
47	0x3f800000	1.0
48	0x3f576aa4	0.84147096
49	0x3f0a5141	0.54030234
50	0x3f087dba	0.53316844
51	0x3f58940d	0.8460091
52	0x3e9f393e	0.3109836
53	0x3f734e6b	0.9504153
54	0x3e35233a	0.17689219
55	0x3f7bf683	0.9842302
56	0x3dcc7577	0.09983342
57	0x3f7eb898	0.9950042
58	0x3d6636af	0.056204494
59	0x3f7f9868	0.9984193
60	0x3d01815c	0.031617507
61	0x3f7fdf3c	0.99950004
62	0x3c91ab42	0.017781857
63	0x3f7ff5a3	0.99984187
64	0x00000000	0.0
65	0x3f800000	1.0
66	0x00000000	0.0
67	0x3f800000	1.0
68	0x00000000	0.0
69	0x3f800000	1.0
70	0x00000000	0.0
71	0x3f800000	1.0
72	0x00000000	0.0
73	0x3f800000	1.0
74	0x00000000	0.0
75	0x3f800000	1.0
76	0x00000000	0.0
77	0x3f800000	1.0
78	0x00000000	0.0
79	0x3f800000	1.0
80	0x3f68c7b7	0.9092974
81	0xbed51133	-0.41614684
82	0x3f66f20a	0.9021307
83	0x3edce8b2	0.43146282
84	0x3f17541b	0.5911271
85	0x3f4e7bec	0.8065784
86	0x3eb247f6	0.34820527
87	0x3f6ffaa6	0.93741834
88	0x3e4b6ff9	0.19866933
89	0x3f7ae5a5	0.9800666
90	0x3de5d987	0.11223131
91	0x3f7e61f3	0.9936821
92	0x3d8170c9	0.0632034
93	0x3f7f7cf9	0.9980007
94	0x3d11a55c	0.03555809
95	0x3f7fd68e	0.9993676
96	0x00000000	0.0
97	0x3f800000	1.0
98	0x00000000	0.0
99	0x3f800000	1.0
100	0x00000000	0.0
101	0x3f800000	1.0
102	0x00000000	0.0
103	0x3f800000	1.0
104	0x00000000	0.0
105	0x3f800000	1.0
106	0x00000000	0.0
107	0x3f800000	1.0
108	0x00000000	0.0
109	0x3f800000	1.0
110	0x00000000	0.0
111	0x3f800000	1.0
112	0x3e1081c3	0.14112
113	0xbf7d7026	-0.9899925
114	0x3f7e45d7	0.9932532
115	0xbded7fab	-0.11596616
116	0x3f5009c2	0.8126489
117	0x3f152f58	0.58275366
118	0x3f022f6d	0.50853616
119	0x3f5c6d29	0.86104065
120	0x3e974e6d	0.29552022
121	0x3f7490ef	0.9553365
122	0x3e2beed8	0.1679033
123	0x3f7c5d9e	0.9858035
124	0x3dc1ffc1	0.09472609
125	0x3f7ed94f	0.99550337
126	0x3d5a694e	0.053323083
127	0x3f7fa2c3	0.9985773
128	0x00000000	0.0
129	0x3f800000	1.0
130	0x00000000	0.0
131	0x3f800000	1.0
132	0x00000000	0.0
133	0x3f800000	1.0
134	0x00000000	0.0
135	0x3f800000	1.0
136	0x00000000	0.0
137	0x3f800000	1.0
138	0x00000000	0.0
139	0x3f800000	1.0
140	0x00000000	0.0
141	0x3f800000	1.0
142	0x00000000	0.0
143	0x3f800000	1.0
144	0xbf41bdcf	-0.7568025
145	0xbf275530	-0.6536436
146	0x3f4749ec	0.7784717
147	0xbf20af9e	-0.6276797
148	0x3f741dde	0.95358074
149	0x3e9a2eb1	0.30113748
150	0x3f271fbc	0.652828
151	0x3f41ebed	0.7575062
152	0x3ec761d8	0.38941836
153	0x3f6bcaa7	0.921061
154	0x3e6465c6	0.22304448
155	0x3f798d09	0.9748083
156	0x3e012e89	0.12615408
157	0x3f7df469	0.99201065
158	0x3d918dc8	0.07107121
159	0x3f7f5a46	0.9974712
160	0x00000000	0.0
161	0x3f800000	1.0
162	0x00000000	0.0
163	0x3f800000	1.0
164	0x00000000	0.0
165	0x3f800000	1.0
166	0x00000000	0.0
167	0x3f800000	1.0
168	0x00000000	0.0
169	0x3f800000	1.0
170	0x00000000	0.0
171	0x3f800000	1.0
172	0x00000000	0.0
173	0x3f800000	1.0
174	0x00000000	0.0
175	0x3f800000	1.0
176	0xbf757c10	-0.9589243
177	0x3e913c2c	0.2836622
178	0x3ea5dad8	0.32393527
179	0xbf723240	-0.94607925
180	0x3f7ffc7f	0.99994653
181	0xbc2972e9	-0.010342338
182	0x3f46caab	0.77652997
183	0x3f214cf1	0.6300803
184	0x3ef57744	0.47942555
185	0x3f60a940	0.87758255
186	0x3e8e11ed	0.2774805
187	0x3f75f27c	0.96073127
188	0x3e213c1e	0.15745589
189	0x3f7cce81	0.987526
190	0x3db5db21	0.08879686
191	0x3f7efd1e	0.99604976
192	0x00000000	0.0
193	0x3f800000	1.0
194	0x00000000	0.0
195	0x3f800000	1.0
196	0x00000000	0.0
197	0x3f800000	1.0
198	0x00000000	0.0
199	0x3f800000	1.0
200	0x00000000	0.0
201	0x3f800000	1.0
202	0x00000000	0.0
203	0x3f800000	1.0
204	0x00000000	0.0
205	0x3f800000	1.0
206	0x00000000	0.0
207	0x3f800000	1.0
208	0xbe8f0f8c	-0.2794155
209	0x3f75cdb8	0.96017027
210	0xbe6be576	-0.23036751
211	0xbf791d53	-0.9731037
212	0x3f72784e	0.9471482
213	0xbea43f6d	-0.3207964
214	0x3f603089	0.8757406
215	0x3ef72f32	0.48278195
216	0x3f108c69	0.5646425
217	0x3f534932	0.8253356
218	0x3ea97dfd	0.33103934
219	0x3f7190e2	0.943617
220	0x3e41206f	0.18860029
221	0x3f7b67e3	0.98205394
222	0x3dda19c2	0.10649444
223	0x3f7e8b51	0.9943133
224	0x00000000	0.0
225	0x3f800000	1.0
226	0x00000000	0.0
227	0x3f800000	1.0
228	0x00000000	0.0
229	0x3f800000	1.0
230	0x00000000	0.0
231	0x3f800000	1.0
232	0x00000000	0.0
233	0x3f800000	1.0
234	0x00000000	0.0
235	0x3f800000	1.0
236	0x00000000	0.0
237	0x3f800000	1.0
238	0x00000000	0.0
239	0x3f800000	1.0
240	0x3f283046	0.6569866
241	0x3f40ffbd	0.75390226
242	0xbf36b66d	-0.7137211
243	0xbf334f61	-0.70043
244	0x3f4ce86e	0.8004216
245	0xbf1974bc	-0.5994375
246	0x3f728444	0.9473307
247	0x3ea3f8b6	0.3202569
248	0x3f24eb73	0.64421767
249	0x3f43ccb3	0.7648422
250	0x3ec460de	0.38355154
251	0x3f6c6bc6	0.9235195
252	0x3e60d351	0.21955611
253	0x3f79c0ea	0.9755999
254	0x3dfe46ba	0.12415834
255	0x3f7e04e9	0.9922624

norm.weight f4 [32]
0	0x3fc191ff	1.512268
1	0x3fd81d60	1.6883965
2	0x3fc9996b	1.5749944
3	0x3fc03633	1.501654
4	0x3fd58bda	1.6683304
5	0x3fca28cd	1.5793701
6	0x3fce8a30	1.6135921
7	0x3fcd59bd	1.6043011
8	0x3fdddf45	1.7333761
9	0x3fd1bfcf	1.638666
10	0x3fe06b5d	1.7532765
11	0x3fcb3c9b	1.587787
12	0x3fc937a3	1.5720104
13	0x3fcbb358	1.5914106
14	0x3fdb4f28	1.7133532
15	0x3fca251b	1.5792574
16	0x3fbb7ace	1.4646852
17	0x3fd92f0b	1.6967481
18	0x3fdf2174	1.7432084
19	0x3fd19ad0	1.637537
20	0x3fcd5fb2	1.6044829
21	0x3fde8dd6	1.7387035
22	0x3fdc5626	1.721379
23	0x3fba8252	1.4571021
24	0x3fd3d77a	1.6550133
25	0x3fdf20c3	1.7431873
26	0x3fe4ad18	1.7865324
27	0x3fc405d8	1.5314283
28	0x3fd56faa	1.6674702
29	0x3fd4b585	1.6617895
30	0x3fc98567	1.5743836
31	0x3fc85c65	1.5653197

norm.bias f4 [32]
0	0x3d88a403	0.06671908
1	0x3e912453	0.28348026
2	0x3e83b7fc	0.25726306
3	0xbe06af3f	-0.13152789
4	0xbd10692c	-0.03525655
5	0x3de086de	0.10963224
6	0x3cbe2a35	0.023213485
7	0x3e99e674	0.30058634
8	0xbde877ab	-0.1135095
9	0xbe908742	-0.28228194
10	0xbda7342f	-0.0816425
11	0x3e51da29	0.20493378
12	0xbe8b297e	-0.27180094
13	0xbea5792a	-0.32319003
14	0x3b26c9ef	0.0025449952
15	0x3cf46180	0.029831648
16	0xbeef54fe	-0.4674453
17	0x3cc37ca8	0.023863152
18	0x3e7f94cf	0.2495911
19	0x3ed19fe5	0.40942302
20	0x3d215119	0.03938398
21	0x3dc03696	0.093854114
22	0xbe8e8581	-0.2783623
23	0x3dcb26f7	0.09919541
24	0x3d8b3e27	0.06798964
25	0xbedc7de5	-0.430648
26	0x3e862b6e	0.2620501
27	0xbd843c28	-0.064567864
28	0x3e711a6b	0.23545234
29	0xbea5685f	-0.3230619
30	0x3e896da6	0.26841468
31	0xbdff4a0a	-0.12465294

patch_embeddings.weight f4 [14, 32]
0	0x3e81428f	0.25246093
1	0xbdd6a16f	-0.1048001
2	0xbeca3fd3	-0.3950182
3	0xbf5a1ff1	-0.8520499
4	0x3f283842	0.6571084
5	0xbcbf3427	-0.023340298
6	0x3f693538	0.9109683
7	0x3db4f8c5	0.088365115
8	0x3ebe6d34	0.3719269
9	0x3f97cf52	1.1860144
10	0xbfb42ecb	-1.407678
11	0xbf01fd3e	-0.5077704
12	0x3e3e6a66	0.18595275
13	0xbe81c718	-0.2534721
14	0xbf6d0989	-0.92592674
15	0x3fcb1209	1.5864879
16	0x3fa8fbcd	1.3201844
17	0xbdc878bf	-0.097886555
18	0x3e9a1619	0.30094984
19	0x3f6c4abb	0.9230153
20	0xc00417ff	-2.0639646
21	0x3efdbfb1	0.4956031
22	0x3fc18ad4	1.5120492
23	0x3f21f1e5	0.63259727
24	0x3da82fea	0.08212264
25	0xbfc741a7	-1.556691
26	0xbf8fd8d2	-1.1238043
27	0xbebd6197	-0.36988518
28	0x3ed370ea	0.41297084
29	0xbf467a88	-0.7753072
30	0x3fb9e498	1.4522886
31	0x401e3e33	2.4725463
32	0xbf318873	-0.6934883
33	0xbea16a58	-0.31526446
34	0x3f864584	1.0489964
35	0x3dcc10f4	0.09964171
36	0x3df45f45	0.11932234
37	0x3f93f2e3	1.1558498
38	0xbf96e768	-1.178937
39	0xbeadb7a4	-0.3392917
40	0xbf086d43	-0.5329172
41	0xbf621311	-0.88310343
42	0x3f1488b9	0.5802112
43	0xbfb7d55d	-1.4361988
44	0xbf95a16e	-1.168989
45	0x3f1bef60	0.6091213
46	0xbf108234	-0.56448674
47	0xbf4270fa	-0.7595364
48	0x3fd5ffa8	1.6718645
49	0xbf515073	-0.8176338
50	0x3fae2f57	1.3608197
51	0xbe65d284	-0.22443587
52	0xbfc31c19	-1.524295
53	0x400367b5	2.0532048
54	0x402fd62f	2.7474477
55	0xbfd8d0a6	-1.6938674
56	0x3fb85972	1.4402297
57	0xbfc2022c	-1.5156913
58	0x3f5444b5	0.8291734
59	0xbe558d16	-0.20854601
60	0x3f43c5b4	0.76473546
61	0x3fc02f07	1.5014352
62	0x3fd6e878	1.6789694
63	0xbeeef6d4	-0.4667269
64	0xbf502938	-0.81312895
65	0x3f0d744b	0.55255574
66	0xbdd2a24f	-0.10284864
67	0xbbc8b23a	-0.006124762
68	0xbf002f02	-0.5007173
69	0x3efa7ed0	0.48924875
70	0xbe91792c	-0.2841276
71	0xbf8862cc	-1.065515
72	0x4005108a	2.0791345
73	0xbefa9bf0	-0.48947096
74	0x3e849072	0.25891453
75	0x3f341f15	0.7035993
76	0xbfaed4d2	-1.3658698
77	0x3f63e6fe	0.8902434
78	0x3db2794b	0.08714541
79	0x3e70d8c6	0.23520193
80	0x401e9e70	2.4784203
81	0xbfa08391	-1.2540151
82	0x3f86142a	1.0474904
83	0x3f08b8c9	0.5340696
84	0xbfcbd838	-1.592536
85	0xbfa50614	-1.289248
86	0x3f2e31d8	0.68044806
87	0xbe476ad8	-0.19474351
88	0x3eb5f8d8	0.35541415
89	0xbeb4ebf8	-0.3533628
90	0x3ec9a1cb	0.3938125
91	0xbf466cf3	-0.77509993
92	0xbedf0aa5	-0.4356281
93	0xbeb4b38f	-0.35293242
94	0xbf7abc1e	-0.97943294
95	0xbedf3ff9	-0.43603495
96	0xbfd54120	-1.66605
97	0xbfb03674	-1.3766618
98	0xbe326b11	-0.17423655
99	0x3f757092	0.95874894
100	0x3cd24edd	0.02567237
101	0xbf3c65a1	-0.73592573
102	0xbe8a032a	-0.2695554
103	0x3cf1f14b	0.029534003
104	0xbe3b7758	-0.18307245
105	0xbe07b47e	-0.13252446
106	0x3e9d116a	0.30677348
107	0x3fae10ad	1.3598839
108	0x3e1f3bbd	0.15550132
109	0x4022563e	2.5365138
110	0xbf15b39b	-0.5847718
111	0xbfff189b	-1.9929384
112	0xbebff622	-0.37492472
113	0x3d3b8472	0.045780607
114	0x3f687829	0.9080835
115	0xbfebd856	-1.8425395
116	0x3e055306	0.13019952
117	0x3efe1264	0.49623406
118	0xbfdbc9af	-1.7170924
119	0x3f12d4b5	0.57355815
120	0x3fe0d600	1.7565308
121	0x3ea2aa2c	0.31770456
122	0x3e9a4946	0.30134028
123	0xbf281840	-0.65662
124	0xbf2ed12b	-0.68287915
125	0x3e976ec6	0.295767
126	0xbf1efd69	-0.62105423
127	0xbfbb634f	-1.4639682
128	0xc0029c21	-2.0407794
129	0x3fec36cf	1.8454226
130	0x3fac3261	1.3452874
131	0xbefee6dd	-0.4978551
132	0x3fac1a4c	1.3445525
133	0x3fd6f633	1.6793884
134	0xbdc106eb	-0.094251476
135	0xbfde6910	-1.7375813
136	0xbd0c6fcd	-0.03428631
137	0x3df41f24	0.11920002
138	0x3f7cb9ef	0.9872121
139	0x3f2d2605	0.6763614
140	0x3e998ffc	0.29992664
141	0xbf362303	-0.71147174
142	0x3f41af48	0.7565808
143	0x3f6433ec	0.89141726
144	0x400ddd27	2.216623
145	0x3f7f6da4	0.99776673
146	0xbfbd6f4e	-1.4799592
147	0xbe7bf7c0	-0.24606228
148	0xbd4cf0b1	-0.05003423
149	0xbe8669ca	-0.26252586
150	0xbf1ffe03	-0.62496966
151	0x3f8e9b8c	1.1141219
152	0xbf7e42a4	-0.99320436
153	0x3e2d58bc	0.1692838
154	0x3f9fade7	1.2474946
155	0xbe8a8068	-0.2705109
156	0xbf8cd063	-1.1001095
157	0xbf341860	-0.70349693
158	0x3fc6caf2	1.5530684
159	0xbf3243d9	-0.6963478
160	0xbf63871f	-0.88878053
161	0x3d96a3ce	0.07355462
162	0xbd62307d	-0.055222023
163	0x4016f02e	2.3584094
164	0xc02c1f3c	-2.6894064
165	0x3f04387b	0.5164868
166	0xbf5c1ad3	-0.8597843
167	0xbe85e398	-0.26150203
168	0x3b4c6657	0.003118893
169	0x4001ec8a	2.0300622
170	0xbe28e547	-0.16493712
171	0xbe834241	-0.25636485
172	0xbfa5d802	-1.2956545
173	0xbdd5bfc8	-0.1043697
174	0xbfee5305	-1.8619086
175	0xbfaff128	-1.374547
176	0xbeaaf0db	-0.33386883
177	0xbf974748	-1.1818628
178	0x3d674b4b	0.05646829
179	0x3e62611e	0.2210736
180	0x3f47d01d	0.7805193
181	0x3f586b21	0.84538466
182	0xbfdad9ef	-1.7097758
183	0x3fa309ea	1.27374
184	0x3f730479	0.949287
185	0x3f881551	1.0631505
186	0x3f1f8ec2	0.62327206
187	0xbf9ee324	-1.2413068
188	0xbf261164	-0.64870286
189	0x4006cc5e	2.1062236
190	0x3f09bc03	0.5380251
191	0x3f9b06ba	1.2111428
192	0x3e615ca1	0.22007991
193	0xbeb6a6ac	-0.35674036
194	0x3fee0e24	1.8598065
195	0x3fb43c54	1.4080911
196	0x3f8dc2a9	1.107503
197	0xbf2b177f	-0.6683273
198	0xbefdff7a	-0.49608976
199	0x3f1a0f14	0.6017926
200	0x3c583919	0.013197207
201	0xbfd5b8c7	-1.6697015
202	0x3f862739	1.048072
203	0x3ef342ee	0.47512
204	0xbf9dcdf8	-1.2328482
205	0xbf754adb	-0.95817345
206	0xbdfd4eb7	-0.12368529
207	0x3e085cfb	0.13316719
208	0x3e844f56	0.2584178
209	0xbf3462cf	-0.7046327
210	0xbebd8fc4	-0.37023747
211	0xbef4ea17	-0.47834846
212	0x3f14477c	0.57921576
213	0x3f24e0d0	0.64405537
214	0x3f9ce053	1.2255958
215	0x3f4b4603	0.79403704
216	0x3ef35703	0.47527322
217	0x3f5eed12	0.8708049
218	0xbe66eb27	-0.22550641
219	0xbf45723c	-0.7712743
220	0xbf139ee5	-0.5766433
221	0x3eb350e6	0.35022658
222	0xbf0435b0	-0.5164442
223	0xbeb10179	-0.34571436
224	0xbf2037aa	-0.62584937
225	0xbe4fb80f	-0.20285057
226	0xbc21edb9	-0.009883338
227	0xbe97d0c7	-0.29651472
228	0xbd9bc210	-0.07605374
229	0x3f45076f	0.7696447
230	0x3c5ee545	0.013604467
231	0xbed1a37a	-0.40945035
232	0x3f5784fb	0.8418729
233	0xbfc0bdd3	-1.505793
234	0x3f1f3f73	0.6220619
235	0xbff4c8c8	-1.9123774
236	0xbf79b092	-0.9753505
237	0x3dd69ce2	0.10479142
238	0xbee0fb17	-0.43941566
239	0xbeebad3c	-0.46030605
240	0x3fbb54b7	1.4635228
241	0x3d172c27	0.03690734
242	0xbf3ae084	-0.72998834
243	0xbf943f3d	-1.1581799
244	0x3f058931	0.5216246
245	0xbe651114	-0.22369796
246	0xbc2d2cf4	-0.0105698
247	0xbf529f7f	-0.8227462
248	0xbeb0104d	-0.34387437
249	0x3e764a31	0.2405174
250	0xbf6ffc3e	-0.93744266
251	0xbf9da2c3	-1.2315296
252	0x3f8d8be2	1.1058314
253	0xbffbe78b	-1.9680036
254	0xbf149c17	-0.58050674
255	0x3f8cff87	1.1015481

blocks.0.norm1.weight f4 [32]
0	0x3f87dcf1	1.0614301
1	0x3f87a9d9	1.0598708
2	0x3f827bf2	1.0194075
3	0x3f808aa0	1.0042305
4	0x3f7fa21c	0.99856734
5	0x3f812882	1.0090487
6	0x3f88cc1d	1.068729
7	0x3f82eb68	1.022809
8	0x3f882e70	1.0639172
9	0x3f7f7c25	0.99798805
10	0x3f7d1444	0.9885905
11	0x3f82e1ee	1.0225198
12	0x3f7eaded	0.9948414
13	0x3f8370ea	1.0268834
14	0x3f84807b	1.0351709
15	0x3f81ebba	1.0150063
16	0x3f7d1058	0.98853064
17	0x3f824715	1.0177943
18	0x3f7e05a8	0.9922738
19	0x3f7b79db	0.9823281
20	0x3f877a93	1.0584282
21	0x3f83e9fc	1.0305781
22	0x3f8dac65	1.1068236
23	0x3f842b8c	1.032579
24	0x3f81c02d	1.0136772
25	0x3f845ccd	1.034082
26	0x3f80c8e9	1.0061313
27	0x3f7dda5b	0.9916131
28	0x3f82c93f	1.0217665
29	0x3f83b7f5	1.0290514
30	0x3f822cc5	1.0169913
31	0x3f809631	1.0045835

blocks.0.norm1.bias f4 [32]
0	0xbb975bf4	-0.004619116
1	0xbc88e7f3	-0.016712165
2	0xbcddb8c4	-0.027065642
3	0xb8786178	-5.9218582e-05
4	0x398760d7	0.00025821358
5	0x3bbb862c	0.0057227816
6	0xbc464254	-0.012100775
7	0xbca7e7ca	-0.020496268
8	0xbb7963fe	-0.0038053985
9	0x3ad7b010	0.0016455669
10	0x3c3a5e00	0.01137495
11	0xbc45e362	-0.012078138
12	0x3b9707f9	0.0046091047
13	0xbc38f864	-0.01128969
14	0x3b590a3a	0.0033117668
15	0x3b89aa29	0.004201193
16	0xbc24a243	-0.010048452
17	0x3c9fe985	0.01952053
18	0xbc884b76	-0.016637545
19	0xba6f17c9	-0.0009120671
20	0xbc1e06e1	-0.009645195
21	0xb8e14ac2	-0.00010742761
22	0x3a7d6f7c	0.00096677965
23	0xbcbdde05	-0.023177156
24	0xbbdfaf33	-0.0068263053
25	0x3cbfe7eb	0.023426017
26	0xbb517a70	-0.0031963848
27	0x3ca12b46	0.019673955
28	0x3d0287e0	0.03186786
29	0x3c4b987d	0.012426493
30	0x3c61b406	0.013775831
31	0x3c04efe7	0.008113838

blocks.0.attn.qkv.weight f4 [96, 32]
0	0x3de3704e	0.11105405
1	0xbde67cdc	-0.11254284
2	0xbd76e8ea	-0.060280718
3	0x3c3e4bf2	0.011614786
4	0x3db9161f	0.090374224
5	0xbd9278b9	-0.07151932
6	0x3d59e1fa	0.053194024
7	0xbe11b817	-0.14230381
8	0x3dc1d9d5	0.09465376
9	0xbcf30e6a	-0.02966996
10	0xbe341568	-0.17586291
11	0x3d8ec1e2	0.06970574
12	0x3c414639	0.011796528
13	0x3cc02d66	0.023459148
14	0xbcb5a591	-0.022173675
15	0xbe30ead1	-0.17277075
16	0xbe357a84	-0.17722517
17	0x3d9f6346	0.07782607
18	0x3e31826f	0.17334913
19	0x3de605c8	0.112315714
20	0xbc990815	-0.018680612
21	0x3dd9552e	0.1061195
22	0x3d3f2a3c	0.046671137
23	0xbd984bf2	-0.074363604
24	0xbe32482a	-0.17410341
25	0xbb89eef1	-0.0042093922
26	0x3c58e86d	0.013239008
27	0x3c536e35	0.012904693
28	0xbda54237	-0.0806927
29	0x3dd3fc6e	0.103508815
30	0xbdbc1b46	-0.091848895
31	0xbdc1770c	-0.094465345
32	0x3c002472	0.007821189
33	0xbe205de1	-0.15660812
34	0x3cf7633a	0.030198682
35	0x3df1173d	0.117720105
36	0x3d91437b	0.07092949
37	0xbe08e7e4	-0.13369709
38	0xbcab33ea	-0.020898778
39	0x3da0da6c	0.07854161
40	0xbe5482df	-0.20753048
41	0x3d95d62d	0.073162414
42	0x3db40757	0.087904625
43	0x3dd50054	0.10400453
44	0xbdde7dd7	-0.10863846
45	0xbe38fe80	-0.18065834
46	0x3d11eca3	0.035626065
47	0xbd9b9db8	-0.07598442
48	0xbd82a2df	-0.063787214
49	0xbe583c8f	-0.21116851
50	0xbe460cd0	-0.19340825
51	0x3e2693aa	0.16267267
52	0x3e85578b	0.26043352
53	0xbe7dfe37	-0.24804007
54	0xbe610940	-0.21976185
55	0x3cac3cc1	0.021025063
56	0xbccd3d9f	-0.025053797
57	0xbe2d41bd	-0.16919608
58	0xbe44061f	-0.1914296
59	0x3d7b9b65	0.061427493
60	0xbe542292	-0.20716313
61	0xbd187a0f	-0.03722578
62	0x3d49b0c8	0.049240857
63	0x3e266ba4	0.16251999
64	0x3d0f06a0	0.034918427
65	0x3e1b2400	0.15150452
66	0x3db01c58	0.08599156
67	0x3b80cab9	0.0039304164
68	0x3e5a57d4	0.21322566
69	0x3e4c4ed7	0.1995195
70	0x3c99d8ef	0.0187802
71	0xbd8ac88b	-0.06776532
72	0xbdad56a6	-0.084637925
73	0xbe35997d	-0.17734332
74	0x3d715e8b	0.058928054
75	0x3da7f8ff	0.08201789
76	0x3e51b830	0.20480418
77	0x3c57eadd	0.013178554
78	0x3d661fbf	0.05618262
79	0x3df62499	0.12018699
80	0xbc7dfb25	-0.015501772
81	0x3db4e53b	0.08832785
82	0xbbfb082e	-0.007660887
83	0x3d38590c	0.045006797
84	0x3e08f488	0.13374531
85	0x3d4824d1	0.048863236
86	0xbd223728	-0.039603382
87	0xbe37a7ec	-0.17935151
88	0xbda8a865	-0.08235244
89	0x3cbcc1aa	0.023041565
90	0x3d1a564b	0.03767995
91	0x3d572e7f	0.052534577
92	0x3e665f6e	0.22497341
93	0xbc910ab0	-0.017705292
94	0xbd307438	-0.043079585
95	0x3bce5e86	0.006297889
96	0xbe471bfb	-0.19444267
97	0x3b01c2b2	0.0019799885
98	0xbde6a614	-0.11262146
99	0xbd1049cc	-0.03522663
100	0x3d72db52	0.05929119
101	0xbe39388f	-0.18087982
102	0x3b74c15a	0.0037346692
103	0x3d4939ce	0.049127392
104	0x3dc46aae	0.0959066
105	0x3da39b77	0.07988637
106	0xbd7f203b	-0.062286597
107	0xbe09e560	-0.13466406
108	0x3d88c7e5	0.06678752
109	0x3df4d60c	0.11954889
110	0xbe4595e3	-0.19295458
111	0xbe34169e	-0.17586753
112	0x3ddaac5f	0.106774084
113	0xbe3c3f02	-0.1838341
114	0xbdf6994e	-0.12040959
115	0xbe0546a4	-0.13015229
116	0xbe283c37	-0.1642922
117	0xbe018c73	-0.12651233
118	0x3d4ed42f	0.050495323
119	0x3de9553a	0.11393209
120	0xbe192b21	-0.14957859
121	0xbe28aa07	-0.1647111
122	0xbd996dec	-0.07491669
123	0xbdcd0244	-0.10010198
124	0x3dd681c1	0.10473967
125	0xbde8f60d	-0.113750555
126	0xbd824af2	-0.06361951
127	0x3e207d25	0.15672739
128	0x3d977784	0.07395843
129	0x3d105b1e	0.035243146
130	0xbe032d73	-0.12810306
131	0xbe219bb3	-0.15782051
132	0xbdd2111d	-0.1025717
133	0x3e74bada	0.23899403
134	0xbe716858	-0.2357496
135	0x3d7b3cba	0.06133721
136	0x3dae0814	0.084976345
137	0x3d917a54	0.0710341
138	0xbd2c74f4	-0.042103723
139	0xbddc28e8	-0.1074999
140	0xbdb7a752	-0.08967461
141	0xbbf5a3bb	-0.007496325
142	0xbd9a988b	-0.075486265
143	0x3e5a6189	0.21326269
144	0xbdd8f231	-0.10593069
145	0xbd8ec1ec	-0.069705814
146	0xbe185623	-0.14876609
147	0x3d282b82	0.041057117
148	0x3dcec153	0.100954674
149	0x3e80d009	0.25158718
150	0x3cdf2591	0.027239593
151	0xbe30a3e9	-0.17250027
152	0xbcac4180	-0.021027327
153	0xb9bce591	-0.00036029195
154	0xbd85b398	-0.065283954
155	0xbe1cd24a	-0.15314594
156	0x3e13f15f	0.14447545
157	0x3cc89408	0.02448465
158	0xbbc60ede	-0.006044253
159	0x3e1a42e4	0.15064579
160	0x3e7f3e8f	0.24926208
161	0x3e4ffd58	0.20311487
162	0xbdfc01d3	-0.123050354
163	0x3c4b2215	0.0123982625
164	0xbdf65691	-0.1202823
165	0x3cd8d32c	0.026467882
166	0x3d93d27a	0.072178796
167	0xbddbebee	-0.107383594
168	0xbdbd48d3	-0.09242406
169	0xbd264be7	-0.04059973
170	0x3d2ab980	0.041680813
171	0xbbbf3779	-0.0058354703
172	0xbe1a29ce	-0.1505501
173	0xbd38018f	-0.04492336
174	0x3e5d9388	0.2163831
175	0x3d1dc1a6	0.038514756
176	0xbe8e50d0	-0.2779603
177	0x3e094c32	0.13407972
178	0xbe0e6b4e	-0.13908121
179	0xbe5973b6	-0.21235546
180	0xbdd19255	-0.10232989
181	0x3e7bec03	0.2460175
182	0x3db43747	0.08799606
183	0xbe09b45f	-0.13447712
184	0x3e0667e9	0.13125576
185	0x3e05f5f3	0.13082103
186	0x3e390344	0.18067652
187	0x3e31a4cc	0.17348021
188	0x3e37377e	0.17892262
189	0xbe1a4e1b	-0.15068857
190	0x3d811dfe	0.06304549
191	0xbd2c51be	-0.042070143
192	0xbdc45c50	-0.0958792
193	0x3e1ee5c5	0.15517338
194	0x3e234cec	0.15947312
195	0xbd3c9d01	-0.046048168
196	0xbe0d8dd4	-0.13823634
197	0xbe16b3f1	-0.1471708
198	0x3e4eb3db	0.20185797
199	0xbdd4d338	-0.10391849
200	0x3bd97a94	0.006636927
201	0x3dfc5f7b	0.12322899
202	0x3e1327bd	0.14370628
203	0x3d56cb94	0.05244024
204	0xbc45251b	-0.012032772
205	0x3e5a9f87	0.21349917
206	0xbdc62c3e	-0.09676407
207	0xbe23fdeb	-0.16014831
208	0xbdbf78bb	-0.093491994
209	0x3dfcccdc	0.12343761
210	0x3d9fca87	0.07802301
211	0x3e38e9d8	0.18057954
212	0x3d9946ef	0.07484233
213	0xbca004de	-0.01953357
214	0x3d749cfb	0.05972002
215	0xbd536f53	-0.05161984
216	0xbe4cc6e6	-0.19997749
217	0xbda31a17	-0.079639606
218	0x3e628d12	0.22124127
219	0x3dd1fdac	0.10253462
220	0x3d9a54e2	0.07535721
221	0xbd3b836f	-0.04577964
222	0xbc0f4897	-0.008745334
223	0xbe2da82a	-0.16958681
224	0x3de7e090	0.11322129
225	0x3e429b77	0.19004618
226	0xbe1173b9	-0.14204301
227	0xbe135796	-0.1438888
228	0xbd0a90af	-0.033829387
229	0x3dbf23e4	0.093330175
230	0xbe0b8fe7	-0.13629113
231	0x3d8f2d7d	0.06991098
232	0x3e340f0b	0.17583863
233	0x3cc2e16d	0.023789132
234	0xbdd9d640	-0.10636568
235	0x3e1a9143	0.15094475
236	0xbdd6c01d	-0.104858615
237	0x3d41eaae	0.04734295
238	0x3e588273	0.21143512
239	0x3dd0d18a	0.101962164
240	0xbde86346	-0.1134706
241	0xbda23840	-0.07920885
242	0xbdb18027	-0.08667021
243	0xbda7ee18	-0.0819971
244	0xbe38f72c	-0.18063039
245	0x3e45eb8a	0.19328132
246	0x3e68110a	0.2266275
247	0xbdb6405b	-0.088989936
248	0xbd84f8bc	-0.06492755
249	0xbdbfa945	-0.093584575
250	0x3e27d89c	0.16391224
251	0xbca7e765	-0.02049608
252	0xbd6fb48c	-0.058521792
253	0x3dbe6e3e	0.09298371
254	0x3d970f0c	0.07375917
255	0x3e342370	0.17591643

blocks.0.attn.proj.weight f4 [32, 32]
0	0x3dfb31b0	0.122653365
1	0xbd0e8c0e	-0.034801535
2	0xbc8f971a	-0.017528106
3	0xbdd1fd4e	-0.10253392
4	0x3d502f33	0.050826263
5	0xbd5fb0ff	-0.054612156
6	0xbda6d90c	-0.08146867
7	0x3c3973b9	0.011319094
8	0x3b87e6bb	0.0041473783
9	0xbd2061f0	-0.0391559
10	0xbd9163b4	-0.07099095
11	0xbe419787	-0.1890546
12	0xbddb4de8	-0.10708219
13	0x3df7007a	0.12060638
14	0x3e057193	0.13031606
15	0xbde78720	-0.1130507
16	0xbe1f0c07	-0.15531932
17	0xbdf7547c	-0.12076661
18	0xbcbabf96	-0.022796433
19	0x3dbdf4d9	0.092752166
20	0xbe2ad387	-0.16682254
21	0xbe03f344	-0.12885767
22	0xbd5f4e61	-0.054518107
23	0xbdea44ec	-0.11438927
24	0x3df35005	0.11880497
25	0xbd1201c1	-0.035646204
26	0x3cab054c	0.02087655
27	0xbe0c4fda	-0.13702336
28	0xbe2a52f5	-0.16633208
29	0xbe4349d7	-0.19071136
30	0xbd3adef8	-0.045622796
31	0xbe2e6201	-0.17029573
32	0xbd5f8325	-0.05456843
33	0x3d9e8b50	0.077414155
34	0xbc9c9ba1	-0.019117178
35	0x3c1c0e38	0.009524874
36	0x3e0ff94b	0.14059941
37	0x3deaa2fb	0.11456867
38	0xbd9e5f12	-0.07732977
39	0x3cc7e311	0.024400266
40	0x3dc1ba53	0.09459367
41	0xbdb0c1fd	-0.0863075
42	0x3d44597d	0.047936905
43	0x3e49c3e5	0.19703634
44	0xbe3633b8	-0.17793167
45	0x3da2964e	0.079388246
46	0xbd4b37d8	-0.049613804
47	0x3dabe5e7	0.0839346
48	0x3d0c7428	0.034290463
49	0x3def60f5	0.11688415
50	0xbd61914c	-0.055070207
51	0x3e3fc517	0.18727528
52	0x3e2bd03a	0.16778651
53	0x3e0879ab	0.13327663
54	0x3e26a017	0.16272007
55	0x3dafaedc	0.08578274
56	0xbe3700c8	-0.17871392
57	0x3deef4a9	0.11667759
58	0xbd3d5dd0	-0.046232045
59	0x3dbf6340	0.09345102
60	0x3e0bc3e6	0.13648948
61	0xbd870323	-0.06592395
62	0xbdb1397d	-0.08653543
63	0xbd03a9d4	-0.032144383
64	0x3e17814f	0.14795421
65	0x3d98e967	0.07466393
66	0xbe0a63ff	-0.13514708
67	0x3db32c2d	0.0874866
68	0xbdc4d890	-0.096116185
69	0x3e0398bb	0.12851231
70	0x3c963173	0.018334126
71	0x3e105fa9	0.14098991
72	0x394c053e	0.00019456909
73	0x3d70a68f	0.058752593
74	0x3cc6961c	0.0242415
75	0xbe026133	-0.12732391
76	0x3e0c4b67	0.13700639
77	0x3dbace71	0.09121407
78	0xbca833b0	-0.020532459
79	0x3d0b1bc9	0.033962045
80	0xbda3762f	-0.07981526
81	0x3dbd4126	0.09240942
82	0x3df1a151	0.11798347
83	0xbda70785	-0.08155731
84	0xbe20a7c5	-0.15688999
85	0xbd34785d	-0.0440601
86	0xbde2a8e5	-0.1106737
87	0xbdbe6746	-0.092970416
88	0xbe013353	-0.12617235
89	0xbc2f8ae7	-0.010714269
90	0x3cdb3bb0	0.02676186
91	0x3d0a4fcd	0.03376751
92	0xbe2877ee	-0.16452
93	0xbe451f6d	-0.19250269
94	0x3e12ca86	0.14335069
95	0xbd72ffa1	-0.059325818
96	0x3bb631a6	0.005560118
97	0xbe0f1604	-0.13973242
98	0xbd7d2187	-0.061799552
99	0x3dcef585	0.10105423
100	0xbda456d4	-0.08024374
101	0xbd2b68b4	-0.0418479
102	0xbe249460	-0.16072226
103	0x3e290e92	0.16509464
104	0x3ce0a36b	0.027421674
105	0x3dc87210	0.09787381
106	0xbdd34538	-0.10315937
107	0x3e0e76de	0.13912532
108	0xbcb5f399	-0.022210883
109	0xbdba7571	-0.091044314
110	0x3d2fbddb	0.04290567
111	0x396b4c22	0.00022439708
112	0x3d718314	0.058962896
113	0xbd952208	-0.072818816
114	0xbd9dc899	-0.077042766
115	0x3de3ebe4	0.11128977
116	0x3e183b5f	0.14866398
117	0x3d1cf6c1	0.03832126
118	0x3db17cf9	0.08666415
119	0xbddb72e6	-0.107152745
120	0x3d184599	0.03717575
121	0xbe140082	-0.14453319
122	0x3c23b14b	0.009991
123	0x3c8f14a4	0.017465897
124	0xbd1587cb	-0.036506455
125	0xbcc021d8	-0.023453638
126	0xbc002771	-0.007821904
127	0x3c8aa85c	0.016925983
128	0x3ca297e7	0.019847823
129	0xbd7e88df	-0.06214225
130	0xbdff44d3	-0.12464299
131	0x3cbcda99	0.023053454
132	0x3dbe15ad	0.09281478
133	0xbd17a3df	-0.037021514
134	0x3cc4c600	0.024020195
135	0xbd4e37c2	-0.050346144
136	0xbdb54e7f	-0.088528626
137	0x3dd6482c	0.104629844
138	0xbdc1a577	-0.09455388
139	0x3e14f8b2	0.14547995
140	0x3db3542e	0.087562904
141	0xbdb42148	-0.087954104
142	0xbd622bc0	-0.055217505
143	0x3d1fa3c3	0.038974535
144	0x3cd6e769	0.026233392
145	0xbe17d193	-0.1482604
146	0x3d06658e	0.032811694
147	0xbe02d7d6	-0.12777647
148	0xbc57326a	-0.013134578
149	0xbd8ef0b5	-0.06979505
150	0xbe0320e3	-0.12805514
151	0xbe371a1f	-0.17881058
152	0x3df52681	0.11970235
153	0xbd06a761	-0.03287447
154	0xbd53e9c8	-0.051736623
155	0xbdd9cc8e	-0.10634719
156	0x3d9b028b	0.075688444
157	0x3dc061e3	0.093936704
158	0xbc44dff0	-0.0120162815
159	0x3cfb6227	0.030686451
160	0xbdffe92a	-0.124956444
161	0xbdfe7839	-0.124252744
162	0x3e396268	0.18103945
163	0xbd9a8640	-0.075451374
164	0xbc87049e	-0.016481694
165	0x3e2fe639	0.17177667
166	0x3d870fd1	0.065948136
167	0xbdea7880	-0.11448765
168	0x3e05002b	0.12988345
169	0x3d27189a	0.040794946
170	0xbe19359f	-0.14961861
171	0x3e3e3ef8	0.18578708
172	0xbccb09ea	-0.024785
173	0x3e066b0a	0.1312677
174	0x3e026336	0.12733158
175	0xbe0b4cda	-0.13603535
176	0x3d0d8eb1	0.03455991
177	0xbd92a9ec	-0.07161316
178	0x3cfef1fa	0.031121243
179	0xbd2c9b95	-0.042140562
180	0x3e1327d0	0.14370656
181	0xbdbac56c	-0.091196865
182	0xbdc52550	-0.096262574
183	0x3b8a6815	0.0042238333
184	0xbc99f080	-0.018791437
185	0x3cb6b24b	0.022301814
186	0xbd08e69b	-0.033423048
187	0xbde5fc9f	-0.11229824
188	0xbdd66a31	-0.10469473
189	0xbd5c9b51	-0.05385906
190	0x3d86d4af	0.06583535
191	0xbe0be2df	-0.13660763
192	0x3d789e0b	0.060697597
193	0xbd4be414	-0.04977806
194	0x3e234655	0.15944798
195	0x3d50ccc6	0.050976537
196	0xbcf18036	-0.029480081
197	0x3dfa6c3e	0.12227677
198	0x3b092d40	0.0020931512
199	0x3e3ceca3	0.18449645
200	0xbddda251	-0.10821975
201	0x3d5c21b5	0.053743083
202	0xbd9a80ad	-0.07544074
203	0x3db0703d	0.08615158
204	0x3c517630	0.012784526
205	0xbd20b2b8	-0.03923294
206	0x3df4b158	0.11947888
207	0xbe139de4	-0.14415699
208	0x3d43bfec	0.047790453
209	0xbbc696a4	-0.006060438
210	0xbb4803da	-0.0030519874
211	0x3d0dbec6	0.034605764
212	0xbd2967ff	-0.041358944
213	0xbe42a545	-0.19008358
214	0x3e3d2c2a	0.18473879
215	0xbda72b92	-0.08162607
216	0xbc368a0c	-0.011141311
217	0xbb9c73bf	-0.00477454
218	0x3d96d526	0.073648736
219	0xbd08b3ce	-0.0333746
220	0x3caefc43	0.021360522
221	0xbcb6beda	-0.022307802
222	0x3dcd920b	0.10037621
223	0xba3fd97a	-0.00073184783
224	0xbd376487	-0.044773605
225	0xbd0670fb	-0.03282259
226	0x3d3b07d2	0.045661755
227	0xbd7ec968	-0.062203795
228	0xbe01e9b5	-0.12686808
229	0x3e41285c	0.18863052
230	0xbe0f2c45	-0.13981731
231	0x3dc7f239	0.09762997
232	0xbd7052bd	-0.058672655
233	0x3d266ef0	0.040633142
234	0xbdef2790	-0.11677468
235	0xbdf9bfab	-0.12194761
236	0xbd4a7b36	-0.04943391
237	0x3db5678f	0.08857643
238	0x3d7cd5c6	0.061727308
239	0x3cd2cb68	0.025731757
240	0xbd255c7c	-0.040371403
241	0x3e451cfb	0.19249336
242	0xbd1df501	-0.038563732
243	0xbced3bdb	-0.028959205
244	0x3e25a5a9	0.16176476
245	0x3d030112	0.031983443
246	0xbe31814a	-0.17334476
247	0xbe048368	-0.12940753
248	0xbde738ea	-0.11290152
249	0xbe003e0e	-0.12523672
250	0xbe2764fa	-0.16347113
251	0x3e0960d6	0.13415846
252	0x3dfd7970	0.12376678
253	0xbdcb3425	-0.09922055
254	0xbd2d6940	-0.042336702
255	0x3d9109dc	0.07081959

blocks.0.attn.proj.bias f4 [32]
0	0xbd5b37c6	-0.053519987
1	0x3d99f6ff	0.07517814
2	0x3dcaa42d	0.09894595
3	0xbda6cab4	-0.08144131
4	0x3d498526	0.049199246
5	0x3dd46156	0.10370128
6	0xbde7c232	-0.11316337
7	0x3df77522	0.12082888
8	0xbdb693f5	-0.08914939
9	0xbdac1143	-0.0840173
10	0x3dbceddc	0.092250556
11	0xbd35ced6	-0.044386707
12	0x3cdf65f0	0.027270287
13	0x3ddb703c	0.107147664
14	0xbd7776e5	-0.06041612
15	0xbd4fc92f	-0.050728973
16	0xbe0d667f	-0.1380863
17	0x3db49615	0.088176884
18	0x3d1b6b90	0.037944376
19	0x3e2b3bc8	0.16722023
20	0x3df9dca7	0.12200289
21	0x3d3a3789	0.04546312
22	0x3d0624b6	0.032749854
23	0x3e1660ef	0.14685415
24	0xbe0d21b3	-0.13782386
25	0xbe0d1dd5	-0.13780911
26	0x3e1bba2d	0.15207739
27	0xbd56659c	-0.052342996
28	0x3d422dea	0.04740707
29	0xbd585f0c	-0.05282502
30	0xbe122b40	-0.14274311
31	0xbe061f93	-0.13097982

blocks.0.norm2.weight f4 [32]
0	0x3f7fe6b7	0.9996142
1	0x3f7ee747	0.9957165
2	0x3f77e3bc	0.9683187
3	0x3f7cd608	0.98764086
4	0x3f7bf5a2	0.9842168
5	0x3f78812b	0.97072095
6	0x3f6d7ba0	0.9276676
7	0x3f7ceb67	0.98796695
8	0x3f854efb	1.0414728
9	0x3f7b61c1	0.98196036
10	0x3f812342	1.0088885
11	0x3f80fd01	1.0077211
12	0x3f82390d	1.017366
13	0x3f82ac02	1.0208743
14	0x3f802ddd	1.0013996
15	0x3f84e4ae	1.0382288
16	0x3f813831	1.0095273
17	0x3f7fb9f3	0.9989311
18	0x3f7cbcce	0.98725593
19	0x3f6b7eec	0.9199054
20	0x3f78f06e	0.97241867
21	0x3f770f6b	0.965079
22	0x3f80cc48	1.0062342
23	0x3f78a8b1	0.971324
24	0x3f7a6deb	0.9782397
25	0x3f85222e	1.0401056
26	0x3f835dec	1.0263038
27	0x3f82fc13	1.0233177
28	0x3f7c1e50	0.98483753
29	0x3f80b827	1.0056199
30	0x3f834681	1.0255891
31	0x3f7d561c	0.9895952

blocks.0.norm2.bias f4 [32]
0	0x3c2e34a0	0.010632664
1	0x3b97bc5d	0.004630609
2	0x3bb55350	0.0055336133
3	0x3cd36b36	0.025807958
4	0xbd37ffdb	-0.044921737
5	0xbcdeded5	-0.027205864
6	0x3d0215d1	0.031759087
7	0x3c1d434a	0.0095985625
8	0x3c867525	0.01641328
9	0x3cd8a345	0.02644504
10	0x3b4403bd	0.0029909455
11	0x3a8d327e	0.0010772494
12	0xbb4c0655	-0.0031131704
13	0x3c8e392f	0.017361252
14	0x3bd8e39b	0.0066189296
15	0x3c0754b8	0.008259945
16	0x3b04e8cf	0.0020280366
17	0xbad0925f	-0.0015912763
18	0x3c171535	0.009221365
19	0x3d8a8a32	0.0676464
20	0x3c9ebe88	0.019377962
21	0xbb694e99	-0.0035599826
22	0xbc3d0832	-0.011537598
23	0x3d37fc99	0.04491863
24	0xbc926a64	-0.017872997
25	0x3c3cecf9	0.011531108
26	0x3bd5d338	0.0065254234
27	0x39afd51d	0.00033537383
28	0xbc476ecc	-0.012172412
29	0xbb006e53	-0.0019597008
30	0xbc81a7df	-0.015827117
31	0xbd6bd5e7	-0.05757704

blocks.0.mlp.fc1.weight f4 [128, 32]
0	0x3cef3255	0.029198805
1	0xbb5623ab	-0.0032675068
2	0x3d9a3fbb	0.07531687
3	0xbe1222f0	-0.1427114
4	0xbc2c44b2	-0.010514425
5	0x3b721846	0.0036940738
6	0xbdef448d	-0.11682997
7	0x3e4f7601	0.20259859
8	0xbd6af0ab	-0.057358425
9	0xba95a0be	-0.0011415703
10	0x3ddc44b8	0.107552946
11	0xbe2bd2ae	-0.16779587
12	0xbe4ba047	-0.1988536
13	0x3dbac95c	0.091204375
14	0x3e1e498e	0.15457746
15	0xbe0b4f6d	-0.13604517
16	0xbe0f8152	-0.14014176
17	0x3e2b8822	0.1675115
18	0x3e0b11e5	0.13581045
19	0x3e30f718	0.17281759
20	0xbd240506	-0.040043853
21	0xbd24e709	-0.040259395
22	0x3da84567	0.082163624
23	0xbcb05329	-0.021524029
24	0x3e1a5f7a	0.15075484
25	0xbdd9f445	-0.10642294
26	0x3e29fd6b	0.16600578
27	0x3df9dad9	0.12199945
28	0x3d3308a6	0.04370942
29	0x3e2a7fa1	0.16650249
30	0xbd738822	-0.059456
31	0xbd106580	-0.035253048
32	0x3ddc2970	0.10750091
33	0x3e432ca6	0.19060001
34	0x3dcd5e38	0.100277364
35	0x3db88602	0.09009935
36	0xbe2012d3	-0.15632181
37	0xbe1f26c5	-0.15542133
38	0xbd673c82	-0.05645419
39	0xbdb735d5	-0.089458145
40	0x3e392027	0.18078671
41	0x3d805c5c	0.06267616
42	0x3d94258e	0.072337255
43	0x3d060f8e	0.032729678
44	0x3df39407	0.11893468
45	0xbe347334	-0.17622072
46	0xbd8272f7	-0.06369584
47	0x3e1c92b4	0.15290338
48	0x3d0714fb	0.032978993
49	0xbdf3ed67	-0.11910515
50	0x3e0896db	0.13338797
51	0x3dde9f42	0.1087022
52	0xbcc2d433	-0.023782825
53	0x3d7c9fb5	0.061675746
54	0x3e4a3c8d	0.19749661
55	0xbbb43384	-0.005499305
56	0xbc54aee2	-0.012981148
57	0x3dd95b89	0.10613162
58	0xbccece27	-0.025244785
59	0x3dd9e2a4	0.106389314
60	0xbdc7fc0f	-0.09764873
61	0x3be75eb4	0.00706085
62	0x3e166af0	0.14689231
63	0x3d96b757	0.07359188
64	0xbe02a810	-0.12759423
65	0x3d497809	0.04918674
66	0x3de00523	0.1093848
67	0xbe0f97ee	-0.140228
68	0x3e264f44	0.16241175
69	0x3c90f006	0.017692577
70	0xbe204cfd	-0.15654369
71	0xbe0c6b9a	-0.13712922
72	0x3e16e997	0.14737545
73	0x3e138673	0.14406757
74	0xbcdd55d5	-0.027018467
75	0xbd55324d	-0.052049924
76	0x3d3c0f43	0.045912992
77	0x3dab174a	0.083540514
78	0xbc57fc49	-0.013182708
79	0x3e1a0f1a	0.15044823
80	0xbdf0de16	-0.117611095
81	0x3e21185a	0.15731946
82	0xbe0daff7	-0.13836657
83	0x3cc47dc4	0.023985751
84	0x3c9e2b6d	0.019307816
85	0xbca6cecd	-0.020362282
86	0x3d89a71c	0.06721327
87	0xbe048588	-0.12941563
88	0x3d26cdf4	0.040723756
89	0xbcb9d84e	-0.02268615
90	0x3e1d8da9	0.1538607
91	0xbddcbb3f	-0.10777902
92	0xbe0e8b87	-0.13920413
93	0xbdff2555	-0.124582924
94	0xbd59d863	-0.053184878
95	0xbdd9d7a1	-0.10636831
96	0x3e01ae65	0.12664182
97	0xbd96c327	-0.07361441
98	0x3dfce34f	0.12348043
99	0xbdc9821c	-0.098392695
100	0x3e227524	0.15864998
101	0x3e186327	0.14881574
102	0xbe0b80f1	-0.13623406
103	0x3e205547	0.1565753
104	0xbbd68955	-0.006547133
105	0x3dd83ccb	0.1055847
106	0xbd83e0d6	-0.064393684
107	0x3e0523ef	0.13001989
108	0xbd15989d	-0.036522496
109	0xbb631d84	-0.0034655044
110	0xbd0fbb21	-0.03509057
111	0x3d88fa06	0.06688313
112	0x3cf89e03	0.030348783
113	0xbe1e4d7e	-0.15459248
114	0x3c887356	0.016656559
115	0x3d5ee6fb	0.0544195
116	0x3d68f0ff	0.056870457
117	0xbda8612e	-0.082216606
118	0x3d612718	0.054968923
119	0x3b885e07	0.0041615996
120	0x3ddcebb5	0.10787145
121	0x3e02cd65	0.12773664
122	0x3ca7f2b2	0.020501468
123	0xbdd1da18	-0.10246676
124	0x3de413c5	0.11136583
125	0x3d6a0e91	0.057142798
126	0x3d693ef3	0.0569448
127	0xbd27d307	-0.040972736
128	0x3d61eb2e	0.055155925
129	0xbd94e7b3	-0.072707556
130	0xbe321449	-0.1739055
131	0x3e2f53b5	0.17121775
132	0x3d22c978	0.039742917
133	0x3e046c97	0.12932049
134	0xbe2ba041	-0.16760351
135	0xbd0269c7	-0.03183916
136	0xbd3893bf	-0.045062777
137	0x3e1324c9	0.14369501
138	0x3cfa70f5	0.03057144
139	0xbdc4d2a0	-0.09610486
140	0xbe1de451	-0.15419127
141	0x3dd7f453	0.10544648
142	0x3e2ccb4d	0.16874428
143	0x3d8dd5da	0.069255546
144	0x3e1f3bdf	0.15550183
145	0xbe3b9b08	-0.18320858
146	0x3e0b09b1	0.13577916
147	0xbbc7bafc	-0.0060952883
148	0xbd80d227	-0.062900834
149	0xbe3c7bf5	-0.18406661
150	0x3d5ca18c	0.053865
151	0x3dbfa99e	0.09358524
152	0x3dc671a4	0.09689644
153	0x3d964de0	0.07339072
154	0xbcabbab0	-0.020963043
155	0xbd6d542f	-0.05794161
156	0xbdabd12a	-0.08389504
157	0x3d96a97e	0.07356547
158	0x3d497bf4	0.049190477
159	0x3df38cd8	0.11892098
160	0x3d0a8804	0.03382112
161	0x3dc49beb	0.096000515
162	0xbd47f713	-0.048819613
163	0xbe3ed37d	-0.18635364
164	0x3ac788c9	0.001522326
165	0x3db6d65d	0.08927605
166	0xbe1745cf	-0.14772724
167	0x3d949b01	0.07256127
168	0x3d4f3e0d	0.050596286
169	0x3d6b24ea	0.05740825
170	0x3c4908bb	0.012270148
171	0xbdebe58b	-0.11518391
172	0xbe1b55c5	-0.15169437
173	0x3d0b5eb5	0.034025867
174	0x3d71219b	0.05886994
175	0x3d85c1b4	0.065310866
176	0x3e184169	0.14868702
177	0xbd9d3f96	-0.07678144
178	0xbdad9293	-0.084752224
179	0xbdc437c4	-0.09580949
180	0x3e093209	0.13397993
181	0x3c7ffb6d	0.015623909
182	0xbe16adf8	-0.14714801
183	0x3db2859c	0.0871689
184	0xbe2da656	-0.16957983
185	0xbe15cf68	-0.146299
186	0xbe0f31ee	-0.1398389
187	0x3db968cd	0.09053192
188	0x3c78d240	0.015186846
189	0x3e38955b	0.18025725
190	0x3d04bbf0	0.032405794
191	0xbd8bc099	-0.068238445
192	0xbda2d1cb	-0.07950171
193	0x3e013ee6	0.1262165
194	0x3cfa4ab5	0.030553201
195	0xbe24a67f	-0.16079138
196	0x3c4dba71	0.012556658
197	0x3de81499	0.11332054
198	0xbd5aa8dd	-0.053383697
199	0x3da34efd	0.0797405
200	0xbdde0560	-0.10840869
201	0x3dbb5c20	0.09148431
202	0x3d692d41	0.056927923
203	0x3e067535	0.13130648
204	0x3e23657d	0.15956683
205	0x3bd082a2	0.006363229
206	0xbc8ae72a	-0.01695593
207	0xbde55ceb	-0.11199363
208	0x3d0d05af	0.03442925
209	0x3da74743	0.08167889
210	0xbe16b986	-0.14719209
211	0x3db878b9	0.09007401
212	0x3e1ccfb8	0.15313613
213	0xbcc8b4c7	-0.024500264
214	0x3dbab2ca	0.091161326
215	0xbdb79bbc	-0.08965251
216	0x3cd2fde3	0.025755828
217	0xbe186858	-0.14883554
218	0x3d9ddb9e	0.07707904
219	0x3e197f92	0.1499007
220	0xbdc736d1	-0.09727252
221	0xbe074210	-0.13208795
222	0x3dc8b7bf	0.09800672
223	0x3c64fd7c	0.013976451
224	0xbd987035	-0.07443277
225	0xbdf0b7be	-0.11753796
226	0x3e3da586	0.18520173
227	0xbd86ff15	-0.06591622
228	0x3e038867	0.12845002
229	0xbccfeaa5	-0.025380442
230	0xbc82b290	-0.015954286
231	0xbda85e8a	-0.08221157
232	0xbd2c8783	-0.04212142
233	0xba84f15b	-0.001014273
234	0x3e290412	0.16505459
235	0x3e491e33	0.19640426
236	0xbd108c36	-0.035289966
237	0x3e0747ad	0.13210936
238	0x3df888b3	0.12135448
239	0x3c37d7c4	0.011220876
240	0x3dbf8a9f	0.09352612
241	0x3d6994b7	0.05702659
242	0x3d17ec8b	0.03709082
243	0xbd658d7b	-0.05604313
244	0xbcc69de4	-0.02424521
245	0xbd6adb8d	-0.057338286
246	0x3d42b344	0.047534242
247	0xbd059d18	-0.03262052
248	0x3d21dea4	0.039518967
249	0x3e1021f7	0.14075457
250	0x3dccb998	0.09996337
251	0x3b31dbd6	0.002713909
252	0xbe3259fb	-0.17417137
253	0xbd759458	-0.059955925
254	0xbd80e257	-0.06293171
255	0xbde34465	-0.110970296

blocks.0.mlp.fc2.weight f4 [32, 128]
0	0xbdc4331e	-0.09580062
1	0xbd478037	-0.04870626
2	0x3ceda962	0.029011432
3	0xbc8b59f2	-0.017010663
4	0xba6396cd	-0.0008681834
5	0x3d8c1305	0.06839565
6	0x3c855b05	0.016278753
7	0xbd284d7b	-0.041089516
8	0xbc6223d1	-0.013802485
9	0xbc32c98f	-0.010912313
10	0x3d9ff14a	0.07809694
11	0x3c5a568d	0.013326299
12	0x3d5b9476	0.05360838
13	0x3e0dc246	0.1384364
14	0xbbc07528	-0.005873341
15	0xbd3c4400	-0.045963287
16	0x3d07ac9c	0.033123598
17	0xbdcc583f	-0.09977769
18	0xbd4a5dba	-0.04940579
19	0xbccf46e6	-0.025302362
20	0xbd044c95	-0.032299597
21	0xbcc021c1	-0.023453595
22	0x3a8c684c	0.0010712235
23	0x3d73dee5	0.05953874
24	0xbd999d5c	-0.07500717
25	0xbcc0e548	-0.02354683
26	0xbd704fcc	-0.05866985
27	0x3d33b7c7	0.043876436
28	0x3d2c9dc1	0.042142633
29	0x3d8b55c6	0.06803469
30	0x3da97262	0.0827377
31	0x3d507869	0.050896082
32	0xbcae8cae	-0.021307316
33	0xbd602117	-0.054719057
34	0xbdaef889	-0.08543498
35	0x3d4ea336	0.05044862
36	0xbd20d31a	-0.039263822
37	0x3d2cece5	0.042218108
38	0xbe004965	-0.12527998
39	0x3ccb5189	0.024819152
40	0x3d137c43	0.036007177
41	0x3cbee3d2	0.023301993
42	0xbd375c4a	-0.044765748
43	0x3dbc1567	0.0918377
44	0x3d0fd2f2	0.035113283
45	0x3d26cbb2	0.040721603
46	0xbbc1ee34	-0.0059182886
47	0xbb6e17c5	-0.0036330086
48	0x3d1b9dbf	0.037992235
49	0xbc5176d2	-0.012784677
50	0xbd926ac1	-0.07149268
51	0x3caf452c	0.021395288
52	0xbabf14c0	-0.0014578328
53	0xbd9e34ce	-0.077249154
54	0x3d10bc87	0.035336044
55	0x3bab5a4b	0.0052292696
56	0xbc5e8a72	-0.013582813
57	0x3ce69445	0.028146872
58	0x3d8ed176	0.06973545
59	0xbd9ca521	-0.07648683
60	0x3ddc1b0f	0.107473485
61	0x3db371e1	0.08761955
62	0xbc81cc1c	-0.015844397
63	0x3d87c02b	0.0662845
64	0x3b5ae618	0.0033401307
65	0x3d1c0b64	0.0380968
66	0x3cc1e42b	0.02366837
67	0xbdea361d	-0.114361025
68	0x3d1bc5b5	0.038030345
69	0x3da00386	0.07813172
70	0x3d699935	0.057030875
71	0x3d8a759a	0.06760712
72	0xbdb1a58b	-0.08674153
73	0x3d8cfe6a	0.06884463
74	0x3cb8b6e2	0.022548143
75	0xbd9fc7b4	-0.07801762
76	0xbd82b597	-0.06382292
77	0xbcf3c256	-0.029755753
78	0x3d3de868	0.046364218
79	0xbdb1635c	-0.086615294
80	0x3ddf075c	0.108900756
81	0x3d906505	0.07050518
82	0x3d2c8670	0.042120397
83	0x3dd7d69d	0.10538981
84	0xbd266b58	-0.040629715
85	0xbd5a0003	-0.053222667
86	0xbd13cc33	-0.03608341
87	0xbcaff3d0	-0.021478564
88	0x3d58f06b	0.052963655
89	0xbd4e1fdc	-0.050323352
90	0x3dce31c6	0.10068087
91	0x3c9d626d	0.019211972
92	0x3a680ee8	0.0008852319
93	0x3c5da4cc	0.01352806
94	0x3d909099	0.0705883
95	0xbd530b34	-0.051524356
96	0x3d81a478	0.06330198
97	0xbcb020bd	-0.021499986
98	0xbc1ce492	-0.00957598
99	0xbda77a86	-0.08177666
100	0x3c2d9323	0.010594162
101	0xbd1b8ee2	-0.03797806
102	0xbda4e992	-0.080523625
103	0x3b6cbcf2	0.0036123362
104	0x3d99df52	0.07513298
105	0xbc8f3210	-0.017479926
106	0x3cf7cf7b	0.030250302
107	0xbd4b5f7f	-0.04965162
108	0xbd008f9e	-0.031386964
109	0x3d5c2f0a	0.053755797
110	0xbd36774b	-0.04454736
111	0xbd54db73	-0.051967096
112	0xbd2744e9	-0.040837202
113	0x3cd2cc71	0.02573225
114	0xbda6713a	-0.08127065
115	0x3d8e6d77	0.069544725
116	0xbd9ed293	-0.077550076
117	0x3d8138e0	0.06309676
118	0xbd548546	-0.051884912
119	0xbcd33e38	-0.025786504
120	0x3daf7d42	0.08568813
121	0x3cee3e31	0.02908239
122	0xbcf5807c	-0.029968493
123	0xbd4f1fd0	-0.05056745
124	0x3dd1980b	0.10234078
125	0xbcdbca3b	-0.02682983
126	0x3ccda869	0.025104718
127	0x3d533240	0.051561594
128	0xbd1783c6	-0.036990903
129	0xbda049a5	-0.078265466
130	0x3d8db94e	0.0692011
131	0x3bae62ca	0.005321835
132	0x3c9c8b74	0.019109465
133	0x3d56f2a9	0.052477513
134	0x3d664436	0.056217395
135	0x3d6cf449	0.057850156
136	0xbb435c13	-0.002980952
137	0x3cd33301	0.025781156
138	0x3d10097e	0.035165302
139	0x3c02360f	0.007947459
140	0x3d841cf6	0.06450836
141	0xbbf8401e	-0.0075760027
142	0x3b34f56f	0.002761211
143	0x3d81fa0e	0.06346522
144	0x3b22cd66	0.0024841665
145	0x3d0aa872	0.03385205
146	0xbd0f875c	-0.035041198
147	0xbda5a9d5	-0.080890335
148	0xbd873fe9	-0.06603987
149	0xbda943cd	-0.08264885
150	0xbd990844	-0.0747228
151	0x3c499936	0.012304595
152	0x3cf610a2	0.030037228
153	0x3d9d929e	0.07693981
154	0x3db79251	0.089634545
155	0xbc1bb8f2	-0.009504544
156	0xbc9540ac	-0.018219315
157	0xbc7c8ae8	-0.015413977
158	0x3c0a67a4	0.008447561
159	0xbdd7d5e6	-0.10538845
160	0xbcf6410b	-0.030060312
161	0x3b8d2406	0.004307273
162	0xbda7fa0a	-0.08201988
163	0xbcccacc6	-0.024984729
164	0x3c09695b	0.008386935
165	0xbce26a82	-0.027638678
166	0x3ce5b98e	0.028042581
167	0x3d09f187	0.033677604
168	0x3d767188	0.060166866
169	0xbd0f13e8	-0.034931093
170	0xbbe755e6	-0.0070598004
171	0x3b85a3e1	0.004078374
172	0x3d7f6dc7	0.06236055
173	0xbd539109	-0.05165199
174	0x3d5c48bc	0.053780302
175	0xbd8ad239	-0.06778378
176	0xbdbe54fc	-0.09293553
177	0x3d5a2a70	0.053263128
178	0xbd80e199	-0.06293029
179	0x3c97b0c4	0.018516906
180	0xbbe7640b	-0.0070614866
181	0x3b813fad	0.0039443583
182	0xbdaa77db	-0.08323642
183	0x3db2d051	0.087311395
184	0x3d10e8bf	0.035378214
185	0xbd8df754	-0.0693194
186	0xbd52e1f1	-0.051485006
187	0xbd98c4a7	-0.074593835
188	0x3d9ff33b	0.078100644
189	0x3be71337	0.007051851
190	0xbcb09683	-0.021556145
191	0xbd1f453d	-0.03888439
192	0xbcb4da68	-0.0220768
193	0xbd3cd5dc	-0.04610239
194	0xbd8645c9	-0.06556279
195	0x3d401476	0.046894513
196	0x3e064133	0.13110809
197	0x3c431a60	0.011908144
198	0x3dbaada7	0.09115153
199	0x3d9473ad	0.07248626
200	0x3cc213b8	0.023691043
201	0x3d770fe7	0.0603179
202	0xbd5009ba	-0.050790526
203	0xbc9032d3	-0.01760236
204	0xbd693109	-0.05693153
205	0x3c4c08da	0.012453282
206	0xbd45c6f0	-0.048285425
207	0x3cb20f86	0.021735918
208	0xbb0dcf61	-0.00216385
209	0xbc8d0200	-0.017212868
210	0x3d5c6264	0.05380477
211	0xbc33f9e9	-0.010984876
212	0x3c368ea8	0.01114241
213	0x3c229e33	0.009925413
214	0xbccfa95d	-0.025349313
215	0x3d22bc62	0.039730437
216	0x3c02f743	0.007993522
217	0xbda8c535	-0.08240739
218	0x3d973425	0.07382993
219	0xbd91fb7d	-0.07128046
220	0xbd21cca4	-0.0395018
221	0x3d3742ac	0.044741318
222	0xbb0efbd5	-0.0021817584
223	0xbc901c7c	-0.017591707
224	0x3c2091fe	0.009800432
225	0x3df60286	0.120122
226	0xbdd19294	-0.10233036
227	0xbded2a8e	-0.11580382
228	0xbd1f0b2f	-0.038829025
229	0x3c885c5a	0.0166456
230	0x3d60dee7	0.054900076
231	0x3dd802a1	0.105473764
232	0x3c36a742	0.011148276
233	0x3d43b45f	0.047779437
234	0xbd60a0eb	-0.054840963
235	0x3d8cf6e1	0.06883026
236	0x3d278430	0.04089755
237	0xbb119da8	-0.0022219215
238	0xbd94697b	-0.07246681
239	0x3d989a05	0.07451252
240	0x3caed426	0.021341395
241	0x3c83d0d4	0.016090788
242	0x3d161da4	0.03664936
243	0xbd0194d3	-0.03163607
244	0x3d74830c	0.05969529
245	0xbd543d72	-0.05181641
246	0x3d28f624	0.041250363
247	0x3db269a0	0.087115526
248	0xbddda838	-0.10823101
249	0x3c986fe1	0.018608036
250	0xbd604b4b	-0.054759305
251	0x3ca9e6b0	0.020739883
252	0x3da9c1a4	0.08288887
253	0x3e017ed4	0.12646037
254	0x3c6a7b58	0.014311634
255	0x3daa97e1	0.0832975

blocks.1.norm1.weight f4 [32]
0	0x3f80cd30	1.0062618
1	0x3f872b1d	1.0560032
2	0x3f858605	1.0431525
3	0x3f81e2c2	1.0147326
4	0x3f832313	1.0245079
5	0x3f8335b7	1.0250767
6	0x3f891ad3	1.0711311
7	0x3f7b38bc	0.98133445
8	0x3f86182a	1.0476124
9	0x3f82fe87	1.0233926
10	0x3f7e8201	0.9941712
11	0x3f8403de	1.031368
12	0x3f83e2bf	1.0303572
13	0x3f80d543	1.0065082
14	0x3f820753	1.0158485
15	0x3f84bd12	1.03702
16	0x3f8807a6	1.0627334
17	0x3f8198d2	1.0124762
18	0x3f7eb20f	0.99490446
19	0x3f7af701	0.9803315
20	0x3f856f5a	1.0424607
21	0x3f84cd62	1.0375178
22	0x3f88ab2d	1.0677239
23	0x3f83ede0	1.0306969
24	0x3f787716	0.9705671
25	0x3f8432a2	1.0327952
26	0x3f82a9c9	1.0208064
27	0x3f7f2fc3	0.99682254
28	0x3f873884	1.0564122
29	0x3f856f11	1.042452
30	0x3f8464ca	1.0343258
31	0x3f85cca6	1.0453079

blocks.1.norm1.bias f4 [32]
0	0x3c82d563	0.015970891
1	0x3a025436	0.0004971655
2	0x3a9d198f	0.0011985766
3	0x3c5b86df	0.013398855
4	0x3c0021b1	0.007820533
5	0xba4d29a1	-0.00078263326
6	0xbcdf76c2	-0.027278308
7	0xbaa11943	-0.0012290854
8	0xbc35e17c	-0.011101123
9	0xbb6e8162	-0.0036393036
10	0x3adfe05c	0.0017080414
11	0x3c4b1451	0.0123949805
12	0x3c4dac63	0.012553307
13	0xbc53ff0d	-0.012939227
14	0x3c1f43da	0.009720767
15	0x3a9365cf	0.0011245551
16	0xbc73959a	-0.014867211
17	0x3bffc1aa	0.007805069
18	0x3b864b48	0.0040983297
19	0x3c5bc396	0.013413331
20	0xbd1f6e62	-0.03892363
21	0x3b84ba5f	0.0040505375
22	0xbbdc55c4	-0.0067240912
23	0x3c1f3529	0.009717264
24	0xbc48116f	-0.012211188
25	0xbc014d32	-0.00789194
26	0x3c6fd550	0.01463826
27	0xbc5f5c21	-0.013632805
28	0x3b2ed5d0	0.0026677735
29	0x3ce0df7f	0.027450321
30	0xbc165b2d	-0.009177011
31	0xbc5b8e5b	-0.013400639
