image_encoder/trained_models/vit_20241108_100k.pth (torch, 561019 bytes, 77 tensors)

cls_token f4 [1, 1, 32]
000000 d3 e2 aa 3c 4d 3c 8d 3c 25 82 37 3b bd be 57 bb
       0.020860111 0.017240668 0.0028001156 -0.0032920085
000010 ad d1 9a bb 86 8f 6b 3b a7 59 66 3b 20 e2 17 3c
       -0.0047247023 0.00359437 0.0035148652 0.009270221
000020 6a e0 2b bc 1f 03 d7 3a 98 6a fd bb 84 e3 ea 3c
       -0.010490516 0.0016404128 -0.007733654 0.028672941
000030 f2 fe 9d bc 97 ce a0 37 10 fa 48 bc 49 80 90 bc
       -0.019286606 1.9169687e-05 -0.012266651 -0.017639296
000040 00 1a 88 bb 2f b2 03 3c 57 6f c8 b8 d6 c1 81 bb
       -0.00415349 0.008038088 -9.557482e-05 -0.0039598746
000050 ab 14 35 3c 79 95 b8 bb 34 1d 01 bc be d7 16 3c
       0.011052291 -0.005633053 -0.007880498 0.00920671
000060 63 ca 98 bc 95 ba 6e 3c 24 dd d4 3c b2 0b 8e 3b
       -0.018651193 0.014570852 0.025984354 0.0043348903
000070 9f 8c a9 3c a0 e6 fd bc 86 9d 26 bc 0f c0 97 bc
       0.020696936 -0.03099376 -0.010169392 -0.018524198

pos_enc f4 [32, 32, 32]
000000 00 00 00 00 00 00 80 3f 00 00 00 00 00 00 80 3f
       0.0 1.0 0.0 1.0
000010 00 00 00 00 00 00 80 3f 00 00 00 00 00 00 80 3f
       0.0 1.0 0.0 1.0
000020 00 00 00 00 00 00 80 3f 00 00 00 00 00 00 80 3f
       0.0 1.0 0.0 1.0
000030 00 00 00 00 00 00 80 3f 00 00 00 00 00 00 80 3f
       0.0 1.0 0.0 1.0
000040 00 00 00 00 00 00 80 3f 00 00 00 00 00 00 80 3f
       0.0 1.0 0.0 1.0
000050 00 00 00 00 00 00 80 3f 00 00 00 00 00 00 80 3f
       0.0 1.0 0.0 1.0
000060 00 00 00 00 00 00 80 3f 00 00 00 00 00 00 80 3f
       0.0 1.0 0.0 1.0
000070 00 00 00 00 00 00 80 3f 00 00 00 00 00 00 80 3f
       0.0 1.0 0.0 1.0
000080 00 00 00 00 00 00 80 3f 00 00 00 00 00 00 80 3f
       0.0 1.0 0.0 1.0
000090 00 00 00 00 00 00 80 3f 00 00 00 00 00 00 80 3f
       0.0 1.0 0.0 1.0
0000a0 00 00 00 00 00 00 80 3f 00 00 00 00 00 00 80 3f
       0.0 1.0 0.0 1.0
0000b0 00 00 00 00 00 00 80 3f 00 00 00 00 00 00 80 3f
       0.0 1.0 0.0 1.0
0000c0 a4 6a 57 3f 41 51 0a 3f ba 7d 08 3f 0d 94 58 3f
       0.84147096 0.54030234 0.53316844 0.8460091
0000d0 3e 39 9f 3e 6b 4e 73 3f 3a 23 35 3e 83 f6 7b 3f
       0.3109836 0.9504153 0.17689219 0.9842302
0000e0 77 75 cc 3d 98 b8 7e 3f af 36 66 3d 68 98 7f 3f
       0.09983342 0.9950042 0.056204494 0.9984193
0000f0 5c 81 01 3d 3c df 7f 3f 42 ab 91 3c a3 f5 7f 3f
       0.031617507 0.99950004 0.017781857 0.99984187
000100 00 00 00 00 00 00 80 3f 00 00 00 00 00 00 80 3f
       0.0 1.0 0.0 1.0
000110 00 00 00 00 00 00 80 3f 00 00 00 00 00 00 80 3f
       0.0 1.0 0.0 1.0
000120 00 00 00 00 00 00 80 3f 00 00 00 00 00 00 80 3f
       0.0 1.0 0.0 1.0
000130 00 00 00 00 00 00 80 3f 00 00 00 00 00 00 80 3f
       0.0 1.0 0.0 1.0
000140 b7 c7 68 3f 33 11 d5 be 0a f2 66 3f b2 e8 dc 3e
       0.9092974 -0.41614684 0.9021307 0.43146282
000150 1b 54 17 3f ec 7b 4e 3f f6 47 b2 3e a6 fa 6f 3f
       0.5911271 0.8065784 0.34820527 0.93741834
000160 f9 6f 4b 3e a5 e5 7a 3f 87 d9 e5 3d f3 61 7e 3f
       0.19866933 0.9800666 0.11223131 0.9936821
000170 c9 70 81 3d f9 7c 7f 3f 5c a5 11 3d 8e d6 7f 3f
       0.0632034 0.9980007 0.03555809 0.9993676
000180 00 00 00 00 00 00 80 3f 00 00 00 00 00 00 80 3f
       0.0 1.0 0.0 1.0
000190 00 00 00 00 00 00 80 3f 00 00 00 00 00 00 80 3f
       0.0 1.0 0.0 1.0
0001a0 00 00 00 00 00 00 80 3f 00 00 00 00 00 00 80 3f
       0.0 1.0 0.0 1.0
0001b0 00 00 00 00 00 00 80 3f 00 00 00 00 00 00 80 3f
       0.0 1.0 0.0 1.0
0001c0 c3 81 10 3e 26 70 7d bf d7 45 7e 3f ab 7f ed bd
       0.14112 -0.9899925 0.9932532 -0.11596616
0001d0 c2 09 50 3f 58 2f 15 3f 6d 2f 02 3f 29 6d 5c 3f
       0.8126489 0.58275366 0.50853616 0.86104065
0001e0 6d 4e 97 3e ef 90 74 3f d8 ee 2b 3e 9e 5d 7c 3f
       0.29552022 0.9553365 0.1679033 0.9858035
0001f0 c1 ff c1 3d 4f d9 7e 3f 4e 69 5a 3d c3 a2 7f 3f
       0.09472609 0.99550337 0.053323083 0.9985773
000200 00 00 00 00 00 00 80 3f 00 00 00 00 00 00 80 3f
       0.0 1.0 0.0 1.0
000210 00 00 00 00 00 00 80 3f 00 00 00 00 00 00 80 3f
       0.0 1.0 0.0 1.0
000220 00 00 00 00 00 00 80 3f 00 00 00 00 00 00 80 3f
       0.0 1.0 0.0 1.0
000230 00 00 00 00 00 00 80 3f 00 00 00 00 00 00 80 3f
       0.0 1.0 0.0 1.0
000240 cf bd 41 bf 30 55 27 bf ec 49 47 3f 9e af 20 bf
       -0.7568025 -0.6536436 0.7784717 -0.6276797
000250 de 1d 74 3f b1 2e 9a 3e bc 1f 27 3f ed eb 41 3f
       0.95358074 0.30113748 0.652828 0.7575062
000260 d8 61 c7 3e a7 ca 6b 3f c6 65 64 3e 09 8d 79 3f
       0.38941836 0.921061 0.22304448 0.9748083
000270 89 2e 01 3e 69 f4 7d 3f c8 8d 91 3d 46 5a 7f 3f
       0.12615408 0.99201065 0.07107121 0.9974712
000280 00 00 00 00 00 00 80 3f 00 00 00 00 00 00 80 3f
       0.0 1.0 0.0 1.0
000290 00 00 00 00 00 00 80 3f 00 00 00 00 00 00 80 3f
       0.0 1.0 0.0 1.0
0002a0 00 00 00 00 00 00 80 3f 00 00 00 00 00 00 80 3f
       0.0 1.0 0.0 1.0
0002b0 00 00 00 00 00 00 80 3f 00 00 00 00 00 00 80 3f
       0.0 1.0 0.0 1.0
0002c0 10 7c 75 bf 2c 3c 91 3e d8 da a5 3e 40 32 72 bf
       -0.9589243 0.2836622 0.32393527 -0.94607925
0002d0 7f fc 7f 3f e9 72 29 bc ab ca 46 3f f1 4c 21 3f
       0.99994653 -0.010342338 0.77652997 0.6300803
0002e0 44 77 f5 3e 40 a9 60 3f ed 11 8e 3e 7c f2 75 3f
       0.47942555 0.87758255 0.2774805 0.96073127
0002f0 1e 3c 21 3e 81 ce 7c 3f 21 db b5 3d 1e fd 7e 3f
       0.15745589 0.987526 0.08879686 0.99604976
000300 00 00 00 00 00 00 80 3f 00 00 00 00 00 00 80 3f
       0.0 1.0 0.0 1.0
000310 00 00 00 00 00 00 80 3f 00 00 00 00 00 00 80 3f
       0.0 1.0 0.0 1.0
000320 00 00 00 00 00 00 80 3f 00 00 00 00 00 00 80 3f
       0.0 1.0 0.0 1.0
000330 00 00 00 00 00 00 80 3f 00 00 00 00 00 00 80 3f
       0.0 1.0 0.0 1.0
000340 8c 0f 8f be b8 cd 75 3f 76 e5 6b be 53 1d 79 bf
       -0.2794155 0.96017027 -0.23036751 -0.9731037
000350 4e 78 72 3f 6d 3f a4 be 89 30 60 3f 32 2f f7 3e
       0.9471482 -0.3207964 0.8757406 0.48278195
000360 69 8c 10 3f 32 49 53 3f fd 7d a9 3e e2 90 71 3f
       0.5646425 0.8253356 0.33103934 0.943617
000370 6f 20 41 3e e3 67 7b 3f c2 19 da 3d 51 8b 7e 3f
       0.18860029 0.98205394 0.10649444 0.9943133
000380 00 00 00 00 00 00 80 3f 00 00 00 00 00 00 80 3f
       0.0 1.0 0.0 1.0
000390 00 00 00 00 00 00 80 3f 00 00 00 00 00 00 80 3f
       0.0 1.0 0.0 1.0
0003a0 00 00 00 00 00 00 80 3f 00 00 00 00 00 00 80 3f
       0.0 1.0 0.0 1.0
0003b0 00 00 00 00 00 00 80 3f 00 00 00 00 00 00 80 3f
       0.0 1.0 0.0 1.0
0003c0 46 30 28 3f bd ff 40 3f 6d b6 36 bf 61 4f 33 bf
       0.6569866 0.75390226 -0.7137211 -0.70043
0003d0 6e e8 4c 3f bc 74 19 bf 44 84 72 3f b6 f8 a3 3e
       0.8004216 -0.5994375 0.9473307 0.3202569
0003e0 73 eb 24 3f b3 cc 43 3f de 60 c4 3e c6 6b 6c 3f
       0.64421767 0.7648422 0.38355154 0.9235195
0003f0 51 d3 60 3e ea c0 79 3f ba 46 fe 3d e9 04 7e 3f
       0.21955611 0.9755999 0.12415834 0.9922624

norm.weight f4 [32]
000000 f9 6e a2 3f 28 39 b5 3f 2c 44 b2 3f 39 c4 a4 3f
       1.2690116 1.4158068 1.3927054 1.2872382
000010 1a 29 bb 3f 03 24 af 3f 00 2a b1 3f d5 96 b4 3f
       1.4621918 1.3682865 1.3840942 1.410853
000020 18 0d bf 3f 3d 73 b4 3f 56 00 c0 3f d2 2c ac 3f
       1.4925871 1.4097668 1.5000103 1.3451178
000030 cd ad bb 3f 37 a6 a5 3f ba 68 bf 3f 94 67 b2 3f
       1.4662415 1.294135 1.4953835 1.393786
000040 df 4b 9c 3f 6d 97 b3 3f 09 c7 bd 3f 7c 95 a9 3f
       1.2210654 1.4030586 1.4826366 1.3248744
000050 3e e5 b3 3f aa 31 ba 3f 42 e8 bd 3f 68 f9 98 3f
       1.4054334 1.4546406 1.4836504 1.1951113
000060 be 79 bb 3f f9 c9 b4 3f 0f f6 b9 3f 48 5c a7 3f
       1.4646528 1.4124137 1.4528216 1.3075037
000070 c1 98 b0 3f bd 33 ba 3f f4 9a b0 3f 28 5b a4 3f
       1.3796617 1.4547039 1.3797288 1.2840319

norm.bias f4 [32]
000000 71 f8 1b be 73 61 93 3e c0 e1 a5 3e b5 46 f4 3d
       -0.15231492 0.28785285 0.32398796 0.11927549
000010 f0 8f a6 be 52 3c 3d 3e 84 8c d7 bc 36 53 98 be
       -0.3253169 0.18480042 -0.02631212 -0.29750985
000020 c6 93 e2 be ac 0f cc be 99 96 e8 be ca 2d 1b 3d
       -0.44253367 -0.39855707 -0.45427397 0.037885465
000030 d9 3d e1 be 19 a8 8c be 5f 5a 99 3e 06 13 98 3e
       -0.439925 -0.27471998 0.2995176 0.29702014
000040 62 2f b0 bd d6 ab fa bd 4d 5c dc 3e ba 3f 70 3e
       -0.086027876 -0.12239806 0.4303917 0.2346181
000050 68 7e 0c be 46 d1 11 3e d5 ab 0b 3e 32 27 39 be
       -0.13720095 0.14239988 0.13639767 -0.18081358
000060 d5 9e c0 3e 21 22 cb be 57 9d b2 3e 2b 24 1c be
       0.3762118 -0.39674476 0.34885666 -0.15248172
000070 fe 98 9a 3d fe 68 89 3e e6 e0 37 be d4 d9 71 be
       0.07548712 0.26837915 -0.17956886 -0.23618251

patch_embeddings.weight f4 [14, 32]
000000 aa 4d 69 3e 1f 16 3c bd 0e e5 c7 be 96 9a 65 bf
       0.22783533 -0.045919534 -0.39041942 -0.89689004
000010 ca 23 29 3f 3f f4 8f 3c 2d 43 76 3f d3 9a 92 3d
       0.66070235 0.01757252 0.9619625 0.071584366
000020 b5 2b c4 3e e1 a3 98 3f 3d 9b b1 bf 37 e7 06 bf
       0.38314596 1.1925012 -1.38755 -0.52696556
000030 90 8d 75 3e ed 81 83 be ab 27 6b bf 49 11 c6 3f
       0.23979783 -0.25685063 -0.91857404 1.5474025
000040 fb 8b a7 3f f7 55 d7 bd 2b e2 87 3e e4 b0 73 3f
       1.3089594 -0.10514443 0.2653974 0.9519179
000050 98 b0 01 c0 98 33 f1 3e e8 89 bb 3f 21 a7 19 3f
       -2.0264034 0.47109675 1.4651461 0.60020643
000060 1b a9 c9 3d d2 e5 c6 bf 47 88 94 bf 5c 7d ad be
       0.098467074 -1.5538886 -1.1604089 -0.33884704
000070 63 d6 db 3e de a8 4c bf 3c 17 be 3f 7e 8f 1f 40
       0.42937002 -0.7994517 1.485084 2.493133
000080 59 d5 2b bf 7e 0f 8b be d8 50 81 3f 63 7e 05 3e
       -0.6712242 -0.27160257 1.0102797 0.13036494
000090 7a 5f 37 3e 8e 19 8e 3f 57 05 97 bf 9b d0 9d be
       0.17907515 1.1101549 -1.1798505 -0.30823216
0000a0 c3 89 06 bf c6 fc 6d bf e6 16 13 3f ac c5 bc bf
       -0.5255396 -0.92963827 0.57456815 -1.4747825
0000b0 4e 42 98 bf 08 aa 15 3f f3 6c 1a bf 75 92 35 bf
       -1.1895235 0.5846257 -0.60322493 -0.709266
0000c0 ff 20 d7 3f 24 f6 4e bf 36 06 af 3f e8 58 7f be
       1.6806945 -0.8084433 1.367377 -0.24936259
0000d0 38 60 c1 bf fb e4 04 40 d0 f3 30 40 d3 ff db bf
       -1.5107489 2.0764759 2.7648811 -1.7187446
0000e0 3a 18 b8 3f fa 91 bf bf a1 dc 4b 3f 7d 98 70 be
       1.4382393 -1.4966424 0.7963353 -0.2349567
0000f0 17 9c 41 3f 76 71 c4 3f 0d 5a d2 3f 7b 03 d1 be
       0.756288 1.5347126 1.6433731 -0.40822968
000100 b2 e0 50 bf 63 76 1a 3f 7a aa b7 bd 12 1f 4d bd
       -0.8159286 0.60336894 -0.08968063 -0.05007846
000110 5a f6 04 bf fc 68 04 3f b0 76 85 be 2c cd 8d bf
       -0.519384 0.51722693 -0.26067114 -1.1078238
000120 e3 99 04 40 7a f2 00 bf 86 c0 84 3e 80 c5 29 3f
       2.0718925 -0.5036999 0.25928134 0.66316986
000130 d9 cb ab bf b5 dc 69 3f cb aa f2 3d 24 29 73 3e
       -1.3421584 0.913524 0.118489824 0.23746163
000140 4e 8e 1f 40 38 f5 a0 bf b3 71 7e 3f b0 ed 0d 3f
       2.4930606 -1.2574835 0.9939224 0.5544081
000150 28 bf cc bf d1 67 a3 bf d5 0e 2e 3f 9e 53 64 be
       -1.5995836 -1.2766057 0.6799138 -0.22297522
000160 22 3b c9 3e 66 93 b2 be 82 66 d2 3e d5 f6 47 bf
       0.39302927 -0.3487808 0.41093832 -0.7811101
000170 31 79 e6 be d6 38 c7 be ca 05 85 bf c6 c5 d5 be
       -0.45014337 -0.3891055 -1.0392392 -0.41752452
000180 9f 9d d5 bf 85 92 af bf 6a 39 27 be 3f da 7c 3f
       -1.6688727 -1.3716589 -0.16330495 0.9877052
000190 f1 89 98 3d eb 43 41 bf fb 99 90 be f7 e7 d1 3c
       0.07448185 -0.7549426 -0.28242478 0.025623305
0001a0 91 65 36 be b2 dc 19 be 64 d2 9a 3e c1 8f af 3f
       -0.17812182 -0.15025595 0.3023864 1.3715745
0001b0 af 5c 03 3e f1 10 22 40 0a c1 1d bf 55 09 00 c0
       0.12828325 2.532284 -0.6162268 -2.0005696
0001c0 15 c9 a9 be f0 d4 a3 3c 69 25 71 3f a0 3d ef bf
       -0.33161226 0.019998997 0.9419771 -1.8690681
0001d0 82 2e 0d 3e d6 f2 f2 3e 41 8c df bf 77 de 16 3f
       0.13787273 0.47450894 -1.7464677 0.58933204
0001e0 1a 75 df 3f 05 01 99 3e 8a 68 8c 3e 0f 38 26 bf
       1.7457612 0.2988359 0.27423507 -0.6492929
0001f0 ea 1d 2c bf c0 b1 9b 3e 7c e5 0c bf 55 68 bc bf
       -0.67233145 0.3040905 -0.55037665 -1.471934
000200 94 7f 04 c0 6c c5 e1 3f 0e c3 ac 3f 7e 4f f3 be
       -2.0702868 1.7638373 1.3497026 -0.47521585
000210 24 51 a4 3f 6a a0 d4 3f ff 37 16 be 20 47 d4 bf
       1.2837262 1.6611454 -0.14669798 -1.6584206
000220 a2 1b 5f bc 11 62 a8 3d bc a0 85 3f 45 7f 35 3f
       -0.013617428 0.0822183 1.0439677 0.7089732
000230 2e 57 8d 3e f6 59 35 bf 2b 0d 38 3f fd 86 58 3f
       0.27605575 -0.70840394 0.7189509 0.84580976
000240 ab 0c 11 40 b7 c0 80 3f 04 69 bc bf f7 56 84 be
       2.2663982 1.0058812 -1.4719548 -0.258476
000250 58 74 a4 bd 86 1c 87 be 99 27 22 bf b5 e0 8e 3f
       -0.08030003 -0.2638895 -0.6334167 1.1162325
000260 ff 55 82 bf be 88 41 3e 24 23 a2 3f 38 f6 81 be
       -1.0182494 0.18899819 1.2666974 -0.25383162
000270 7e e1 8b bf 4d 08 2f bf 1d 3c d3 3f 1d 21 39 bf
       -1.092819 -0.6837204 1.650272 -0.7231615
000280 56 c2 6a bf 9d 02 1e 3d be cd e3 bc 82 9b 16 40
       -0.91702783 0.03857671 -0.027808066 2.3532414
000290 d3 a5 2c c0 14 2e 00 3f ed f6 60 bf 75 51 8b be
       -2.697621 0.5007031 -0.8787678 -0.27210584
0002a0 ea 4c cf 3c 6f a8 02 40 19 e6 19 be 4f 16 79 be
       0.02530523 2.0415304 -0.15029182 -0.24324916
0002b0 8a 6c a7 bf b1 6f a7 bd 0a dc ee bf b5 da b3 bf
       -1.3079998 -0.081756 -1.86609 -1.4051119
0002c0 1a 3e b3 be b2 55 94 bf 80 18 a1 3d 79 7f 67 3e
       -0.35008317 -1.1588652 0.07866001 0.2260722
0002d0 fe 07 44 3f fb 5d 5f 3f 7e 2f db bf 42 25 a3 3f
       0.76574695 0.8725278 -1.7123868 1.2745745
0002e0 94 c6 71 3f 7e a3 8b 3f 13 82 23 3f 58 bd 9d bf
       0.9444363 1.0909269 0.6387035 -1.2323408
0002f0 f0 83 25 bf 36 f3 07 40 1a 4b 0d 3f 32 da 99 3f
       -0.64654446 2.1242194 0.5519272 1.2019713
000300 64 6a 5e 3e 82 fd c0 be 18 f2 ec 3f 8c 8e b2 3f
       0.21720272 -0.3769341 1.8511381 1.3949752
000310 c7 b2 8d 3f 29 de 34 bf 61 8c fa be e2 85 1c 3f
       1.1070184 -0.7065149 -0.48935226 0.6114179
000320 7f ac 9a 3c 06 23 d6 bf 8f 6c 81 3f cb a6 00 3f
       0.01888108 -1.6729438 1.0111254 0.50254506
000330 12 12 9c bf b5 96 70 bf 20 e8 c4 bd 95 bc f6 3d
       -1.2193015 -0.9397996 -0.09614587 0.12047688
000340 76 b0 6e 3e 63 f5 3f bf a7 f5 a9 be 31 2d d7 be
       0.23309502 -0.74983805 -0.3319523 -0.42026666
000350 40 87 1a 3f 9e 29 27 3f 33 bd 99 3f ac 51 4d 3f
       0.60362625 0.6529788 1.2010864 0.80202746
000360 58 7f de 3e f4 e7 5d 3f c8 77 59 be 4f 6d 3e bf
       0.4345653 0.8668206 -0.21237099 -0.7438554
000370 db c7 12 bf 42 81 aa 3e bb 5a 05 bf 5b 4d ad be
       -0.57336205 0.3330174 -0.5209157 -0.3384808
000380 6e a6 27 bf b2 3c 92 be b8 08 1d 3d 87 1f 84 be
       -0.65488327 -0.28561932 0.038338393 -0.25805303
000390 4a 38 72 bd 3f a5 40 3f bf 05 53 bd 24 1a c6 be
       -0.059135713 0.75252146 -0.05151915 -0.3869182
0003a0 3b ca 5a 3f 59 f5 c3 bf 0c 95 1f 3f 7e 9f e5 bf
       0.8546483 -1.5309249 0.623368 -1.7939298
0003b0 b5 50 84 bf ab f1 ff 3d 2e f0 c3 be 88 32 f8 be
       -1.033713 0.124972664 -0.3826918 -0.48476052
0003c0 9a a9 bc 3f 75 e6 64 bc 7d 46 3d bf 89 ed 8e bf
       1.4739258 -0.013970961 -0.7393568 -1.116624
0003d0 31 91 03 3f fc b6 73 be ce d0 24 bd c9 0d 54 bf
       0.5139342 -0.23800272 -0.040238194 -0.82833534
0003e0 29 30 cb be f8 4a 83 3e 49 8f 60 bf da 2a 9d bf
       -0.3968518 0.25643134 -0.87718636 -1.2278702
0003f0 13 50 8c 3f 6f d9 f8 bf e8 06 04 bf 99 35 83 3f
       1.0961937 -1.9441355 -0.5157304 1.0250732

blocks.0.norm1.weight f4 [32]
000000 67 31 82 3f 17 45 83 3f 28 51 82 3f bc 2c 80 3f
       1.0171326 1.025546 1.0181017 1.0013652
000010 b9 61 7c 3f ab 71 80 3f 0e 46 87 3f da b1 81 3f
       0.9858661 1.0034689 1.0568254 1.0132401
000020 b0 e1 84 3f 8d 01 82 3f 84 70 82 3f a5 3d 82 3f
       1.0381374 1.0156723 1.0190587 1.0175062
000030 e0 55 80 3f 6f b4 7f 3f 84 54 84 3f 0d c0 80 3f
       1.0026207 0.99884695 1.0338292 1.0058609
000040 d2 bf 7c 3f 9c 59 7f 3f 49 7c 81 3f 23 85 7e 3f
       0.98730195 0.9974611 1.0116054 0.994219
000050 49 33 81 3f 6c 90 82 3f 08 75 87 3f 72 f4 82 3f
       1.0093776 1.0200324 1.058259 1.0230849
000060 be b8 7f 3f ac 16 7c 3f 6e f9 7e 3f 76 ec 82 3f
       0.9989127 0.98472095 0.9959935 1.0228412
000070 7a 1f 83 3f 80 9e 84 3f b4 d6 80 3f 81 c6 80 3f
       1.0243981 1.036087 1.0065522 1.0060579

blocks.0.norm1.bias f4 [32]
000000 6b 04 b4 bb 34 ed 36 bc a6 f1 44 bc 48 3d 29 3c
       -0.0054936907 -0.011164952 -0.012020504 0.010329552
000010 c8 26 5e bc 55 fe 8a ba 8c 21 12 bc 85 be bc bc
       -0.013559051 -0.0010604361 -0.008919131 -0.023040066
000020 ec a8 c7 bb e3 eb 19 bb 27 21 3c 3c 48 7c a1 bc
       -0.006093135 -0.0023486547 0.0114825135 -0.019712582
000030 ce 25 87 3b fa 67 95 bb 7c ba bf bb 39 f7 5c ba
       0.0041243797 -0.004559514 -0.005851088 -0.0008429173
000040 69 35 2f bc 6f 4b 30 3c c1 0e 8b ba 99 e1 c4 b8
       -0.010693886 0.010760172 -0.0010609255 -9.388029e-05
000050 f1 fb 1e 3c 38 fa d6 bc 29 53 0e bc 8f 30 55 bc
       0.009703622 -0.02624236 -0.008686819 -0.013012066
000060 9a 38 47 bc 8a f5 fb 3c 14 2f 85 bc f7 28 ef 3b
       -0.012159491 0.03075673 -0.0162578 0.0072985846
000070 2e 19 91 3c 9c 1c 54 3c a8 c5 81 3b 7a 60 9f ba
       0.017712202 0.012946274 0.00396033 -0.001215949

blocks.0.attn.qkv.weight f4 [96, 32]
000000 2e be cb 3d 8e 2b 03 be 37 d2 ac bd 44 e3 8d bc
       0.09948383 -0.12809584 -0.08438533 -0.017320283
000010 fd c8 0b 3e a5 9c 4f bd c5 ed 17 3d 73 3a 1a be
       0.1365089 -0.050686497 0.03709199 -0.15061359
000020 12 31 a4 3d 65 d2 40 bd f0 32 2c be e1 fa f7 3c
       0.08017172 -0.047075648 -0.16816306 0.030270996
000030 a3 89 51 3d 9b 45 84 bc 5d bd 40 38 98 5b 13 be
       0.05115665 -0.016146472 4.5952725e-05 -0.14390409
000040 d7 99 59 be 21 ed bc 3d 47 60 0e 3e 3a eb 8d 3d
       -0.21250091 0.09224916 0.13903914 0.069296315
000050 80 d0 95 3a a8 3a fc 3d 16 92 5d 3d 5c 72 bf bd
       0.0011429936 0.12315875 0.054094397 -0.09347984
000060 e9 bd 1c be 05 71 42 bc c5 20 4f bc be a8 05 3d
       -0.1530682 -0.011867766 -0.01264209 0.03263163
000070 8f ef 57 bd 3a 93 fe 3d 49 3e fc bc fa f7 5f bd
       -0.052718695 0.12430425 -0.030791419 -0.05467985
000080 bf 34 2c bc 5f 4e fb bd db cf af bc 53 2c a6 3d
       -0.0105106225 -0.122708075 -0.021461418 0.08113923
000090 67 ec 36 3d 27 a3 e8 bd 82 29 88 bd 50 2d 1e 3d
       0.044659045 -0.11359244 -0.06648542 0.038617432
0000a0 d3 91 06 be 69 5c b2 3d bc 0c 8e 3c 47 a4 14 3e
       -0.13141565 0.08709032 0.017340057 0.14515792
0000b0 22 25 20 be c9 4e 17 be 1e a7 95 3c 61 2b 4d bd
       -0.15639165 -0.14776148 0.018268164 -0.050090197
0000c0 e9 d5 9d bd d4 47 3b be 13 43 03 be ed 6a 2a 3e
       -0.07706816 -0.18289119 -0.12818556 0.16642351
0000d0 c9 e5 2b 3e 45 80 40 be 43 13 40 be 41 88 d2 3c
       0.16786875 -0.18798931 -0.18757348 0.025699737
0000e0 1f f8 b7 bb 4f 9a 47 be d5 a6 22 be 84 26 ff 3a
       -0.005614295 -0.19492458 -0.15883954 0.0019466435
0000f0 47 9e 21 be 03 d0 35 bd 97 15 97 3d 29 6d 23 3e
       -0.15783034 -0.04438783 0.07377165 0.1595961
000100 98 97 9a 3d 9e 4a 1b 3e 08 e3 d4 3d 49 74 c8 bc
       0.075484455 0.15165183 0.10394865 -0.024469512
000110 a9 33 4b 3e 03 93 41 3e 7a 1d 56 3c cc a4 95 bd
       0.19843926 0.18903737 0.013068551 -0.07306823
000120 bf 6f e9 bc 31 48 4b be ad 50 84 3d eb 78 a4 3d
       -0.028495668 -0.19851758 0.064607 0.08030876
000130 aa 49 38 3e 60 5d 20 3d 5c 61 5b 3d d0 0f df 3d
       0.1799685 0.03915155 0.053559646 0.10891688
000140 13 64 3d 3b 67 4e c0 3d 25 07 0e 3a cf 32 60 3d
       0.002889876 0.09389954 0.0005417935 0.054735955
000150 9c 20 dd 3d a4 3e 2f 3d 18 cd 77 bc 86 eb 5e be
       0.10797235 0.042784348 -0.015124582 -0.21769533
000160 51 2a 99 bd 1a 39 ba 3c bb db d9 3d b7 de 33 3d
       -0.07478774 0.022732306 0.106376134 0.04391357
000170 68 93 73 3e 7d 41 10 bd db 33 6d bd 22 4f 88 3b
       0.237867 -0.035218704 -0.05791078 0.004159824
000180 9f 7a 03 be 0d 73 18 bb 37 9e d0 bd 2a 3c 03 bd
       -0.12839745 -0.0023261935 -0.10186427 -0.0320398
000190 38 04 8f 3d 53 6f 2e be 4a b7 27 39 af 49 af 3d
       0.069832265 -0.17034654 0.00015994642 0.08558976
0001a0 a2 c9 c8 3c 5b ee c5 3d 70 6d 9a bd 9d c9 2d be
       0.024510209 0.09664603 -0.07540405 -0.1697144
0001b0 93 09 d1 3d 6e 7d ad 3d d4 ef 31 be ba 55 48 be
       0.10206904 0.084711894 -0.17376643 -0.19563952
0001c0 f8 f8 9a 3d 81 e1 2c be 38 ae 14 be 16 71 09 be
       0.07567018 -0.16882898 -0.14519584 -0.13422045
0001d0 f9 0a f6 bd fc 72 03 be 01 4d 0c 3d c6 2a 09 3e
       -0.120138116 -0.12836832 0.034253124 0.13395223
0001e0 00 cf 28 be d4 20 08 be 33 d5 be bd 52 be 6b bd
       -0.16485214 -0.13293773 -0.09318008 -0.05755455
0001f0 16 76 b7 3d a6 d9 01 be 20 b0 43 bd 0a 49 16 3e
       0.0895807 -0.12680683 -0.047775388 0.146763
000200 7e 81 5e 3d 68 3d c0 3b 49 7c c0 bd a0 07 0b be
       0.054322712 0.005866695 -0.093987055 -0.13577127
000210 66 9d d6 bd 76 b2 55 3e 3a 83 4c be 81 af 93 3d
       -0.1047924 0.20868859 -0.19971934 0.07211209
000220 8e 91 99 3d 4e 60 ae 3d 01 b8 9a ba ae 0a e7 bd
       0.074984655 0.085144624 -0.0011804105 -0.11281334
000230 be 43 ae bd 35 34 2e bc 84 3f ce bd 85 f2 46 3e
       -0.085090145 -0.010632564 -0.100707084 0.19428451
000240 37 c7 6e bd fc 8b ea bd dc 05 30 be cb fc 92 3d
       -0.058295455 -0.11452481 -0.17189735 0.07177123
000250 3d b2 ff 3d 41 12 53 3e d1 3a 12 bc c0 4c 28 be
       0.12485168 0.20612432 -0.008925156 -0.16435528
000260 bc ba 03 bd 2c 92 89 bc 1d 80 4c bd 0b d6 0c be
       -0.032160506 -0.016793333 -0.049926866 -0.13753526
000270 1f 60 ba 3d 9f 6e ed 3c f8 d0 20 bc e9 36 1a 3e
       0.09100365 0.028983412 -0.009815447 0.15060009
000280 c7 d2 62 3e 30 a1 33 3e cb 98 9a bd 89 2e f1 3c
       0.22150718 0.17541957 -0.07548674 0.029441135
000290 b9 23 fb bd fd 7c 49 bc 52 a0 fa 3d 7a 41 d3 bd
       -0.12262673 -0.012297866 0.1223761 -0.10315223
0002a0 a6 db a7 bd 05 2e 85 bd 2c da 06 3e 7c 4d 99 bc
       -0.081961915 -0.06502918 0.13169163 -0.018713705
0002b0 75 3b 1f be c3 ee 88 bc 90 be 3e 3e d8 c0 77 3c
       -0.15550025 -0.016715413 0.18627381 0.015121661
0002c0 ef ee 65 be de 3c b4 3d 78 3b 2e be a6 32 50 be
       -0.22454427 0.08800672 -0.17014873 -0.20331821
0002d0 2e 26 80 bd 28 01 3c 3e 84 95 a0 3d 2c 6e 29 be
       -0.06257282 0.18359816 0.07841018 -0.16545933
0002e0 25 b5 f1 3d 00 01 ff 3d 14 0e 3c 3e cc 99 37 3e
       0.11802129 0.124513626 0.18364745 0.17929763
0002f0 30 5d 2c 3e 58 6d 21 be 2f f5 34 3c 86 6c 03 bd
       0.16832423 -0.15764368 0.011044784 -0.032085918
000300 ac 73 87 bd 2d ce 2e 3e b6 af 19 3e ab 56 9f bd
       -0.066138595 0.17070837 0.15008435 -0.077802025
000310 c5 96 a4 bd fa 02 d0 bd a0 ef 28 3e 07 69 e1 bd
       -0.080365695 -0.10156818 0.1649766 -0.110063605
000320 5c e2 63 bc 59 3b 99 3d 2a 4a 18 3e 80 5f 8a 3c
       -0.013908949 0.07482023 0.14872041 0.016891241
000330 0e fa 08 3d 7b 79 10 3e 5a 75 0a bc 95 81 05 be
       0.033441596 0.14108841 -0.00845083 -0.13037713
000340 f5 a8 1e be 16 29 2f 3e 7c 23 95 3c 46 54 fc 3d
       -0.1549414 0.17105517 0.018205397 0.123207614
000350 3b a2 c1 3d e6 73 e1 ba 7f 3c a0 3d d3 f1 90 bd
       0.09454771 -0.0017200678 0.07824039 -0.07077374
000360 6e c9 39 be 55 31 3a bd ad 45 42 3e ab 9e 17 3e
       -0.18143246 -0.045457203 0.18971892 0.14806621
000370 4e af c8 3d ba 84 15 bd 64 8b a5 3c af 96 1a be
       0.09799062 -0.03650353 0.020208068 -0.15096544
000380 78 29 11 3e 12 1b 19 3e 9e 3d de bd f8 da 8e bd
       0.14175975 0.14951733 -0.10851596 -0.06975359
000390 cd 36 d6 bc fb 29 2c 3d 86 a7 ae bd be 73 1b 3e
       -0.026149178 0.042032223 -0.08528046 0.15180871
0003a0 46 e6 9c 3d 91 83 5f 3d eb d2 ae bd 0a db 0a 3e
       0.07661109 0.05456883 -0.08536323 0.1356012
0003b0 03 8f 81 bd 2a 3b cf 3b 11 10 36 3e a9 22 80 3d
       -0.063261054 0.0063241916 0.17779566 0.06256611
0003c0 47 90 eb bd 1b 9c f0 bd 8e 29 c5 bd 3e 43 0f bd
       -0.11502128 -0.11748525 -0.096270666 -0.034976237
0003d0 9f 13 a2 bd 19 27 36 3e 57 b9 25 3e 88 3d c1 bc
       -0.07913899 0.17788352 0.16183983 -0.02358891
0003e0 8f 84 f2 bd b6 51 cc bd 00 1b b3 3d 22 5f dd 3c
       -0.1184169 -0.099765226 0.08745384 0.027022902
0003f0 90 07 13 be 10 48 d6 3d ca 28 b9 3c cf 37 24 3e
       -0.14358354 0.104629636 0.022602458 0.16036914

blocks.0.attn.proj.weight f4 [32, 32]
000000 f1 c9 cf 3d 6e 46 c8 bc 65 07 46 bd 91 c3 c1 bd
       0.10145939 -0.024447646 -0.048346896 -0.094611295
000010 10 1b 8b 3d 25 d7 a1 bd 0b ca 9d bd 8e f1 03 bc
       0.06792271 -0.07902364 -0.07704552 -0.008053197
000020 6c a1 19 3c 7d 93 35 bd 3c 84 84 bd 91 65 2f be
       0.009376865 -0.04433011 -0.06470534 -0.17128588
000030 1d d1 e1 bd 61 f4 c5 3d a7 9f 10 3e 2e 90 d8 bd
       -0.11026213 0.09665752 0.14123403 -0.10574375
000040 e3 d1 30 be e7 66 03 be a5 e9 d9 bc d1 a4 9f 3d
       -0.17267565 -0.12832223 -0.026600668 0.07795108
000050 17 45 11 be b6 e1 1c be 54 d3 74 bd 70 28 c8 bd
       -0.14186512 -0.15320477 -0.05977185 -0.09773338
000060 f2 ad 1d 3e ce 16 24 bd 1e 18 51 3c 4b e6 da bd
       0.15398386 -0.04006081 0.012762098 -0.10688456
000070 40 07 22 be e5 12 b8 bd 2f ba a4 bd 02 52 2d be
       -0.15823078 -0.08987979 -0.08043324 -0.16925815
000080 88 e4 2e bd 85 e5 81 3d c7 74 23 bd 86 c7 7e 3c
       -0.042698413 0.063426055 -0.03990629 0.0155505
000090 92 51 f1 3d 31 d7 ce 3d b7 56 b9 bd fd 82 ad 3c
       0.117831364 0.10099638 -0.09049743 0.021180624
0000a0 3b 62 a6 3d ff fb bb bd cb ae 31 3d cf ca 28 3e
       0.08124205 -0.09178924 0.043379586 0.16483615
0000b0 5c 16 28 be 49 1c 9d 3d 35 eb 79 bd c0 e7 ad 3d
       -0.1641478 0.076714106 -0.061015327 0.084914684
0000c0 18 e3 df ba a1 b6 dc 3d c6 38 54 bd c4 c1 33 3e
       -0.0017081229 0.10777021 -0.051811956 0.17554384
0000d0 76 a9 37 3e 48 64 02 3e 58 09 22 3e 66 58 ad 3d
       0.17935738 0.12733567 0.15823877 0.08464126
0000e0 1f 92 35 be 1d 3a f7 3d e0 f6 2d bd 48 60 bd 3d
       -0.17731522 0.12071631 -0.042471766 0.0924688
0000f0 91 03 00 3e 6c 6f 91 bd 65 e1 b8 bd 70 36 03 bd
       0.1250136 -0.0710133 -0.090273656 -0.032034338
000100 1f 3a 00 3e d9 a0 8a 3d da 3d 3a be c5 cb 9a 3d
       0.12522171 0.067689605 -0.18187657 0.07558397
000110 bf 2f d8 bd 1b 85 e3 3d c2 0f a8 3b 3b 37 1a 3e
       -0.10555982 0.11109372 0.0051288316 0.15060131
000120 eb 58 3c bc 98 1f 4e 3d 49 75 77 3c 7a a5 b9 bd
       -0.011495809 0.0503231 0.015103647 -0.09064765
000130 8d 04 22 3e fb 93 a0 3d 30 d1 0e bd d8 e3 12 3d
       0.15822048 0.07840725 -0.034867465 0.03586182
000140 60 ba 0c be c4 7a 90 3d ff 49 dd 3d 7f 7f b9 bd
       -0.13742971 0.07054666 0.10805129 -0.09057521
000150 2a a2 0d be 44 62 66 bd c8 e9 c2 bd 6c 14 b3 bd
       -0.13831392 -0.056246057 -0.095172465 -0.087441295
000160 97 cb f6 bd 4c bf 2d bc b1 52 15 3d 91 9c 01 3d
       -0.120505504 -0.010604691 0.036455814 0.031643454
000170 00 88 23 be 8b 8f fe bd e3 68 1d 3e 02 49 cc bd
       -0.15969849 -0.124297224 0.15372042 -0.09974863
000180 e3 74 f7 3c 86 3d 15 be 3f fd 4f bd 39 07 c1 3d
       0.030207103 -0.1457425 -0.050778624 0.09425206
000190 d4 1e ab bd 82 8b 47 bd d6 75 29 be a1 83 3d 3e
       -0.083554894 -0.04871703 -0.16548857 0.18507244
0001a0 2e 64 ad 3c 1e 30 9b 3d dd 0a da bd 86 6a 0c 3e
       0.021165933 0.07577537 -0.10646603 0.1371251
0001b0 e4 77 a2 bc f0 66 d8 bd ef 2b ff 3c 4c 41 e8 3c
       -0.019832559 -0.10566509 0.031148879 0.028351448
0001c0 00 d8 ff 3c dc 47 b1 bd 35 4e 8c bd c2 9e d1 3d
       0.031230927 -0.08656284 -0.06850854 0.10235359
0001d0 49 2d 2d 3e e4 8c 4d 3d b0 ef bc 3d 92 88 ed bd
       0.16911806 0.050183192 0.09225404 -0.11598314
0001e0 76 aa 1b 3d a2 86 fd bd 27 b5 cc 3b 7e 24 da bc
       0.03800436 -0.12379195 0.006247181 -0.026628729
0001f0 54 c1 87 bd 10 0c c2 bc b8 97 a4 3b d9 2e 36 bc
       -0.06628671 -0.023687392 0.005022969 -0.011119568
000200 33 4f 62 3c 3d 5e 86 bd 0f 0d b0 bd b5 ce bd 3c
       0.013812828 -0.06560943 -0.08596241 0.023169855
000210 50 38 dc 3d 19 05 f2 ba 8d 18 1e 3d 4d b4 6c bd
       0.10752928 -0.0018464654 0.038597632 -0.057789136
000220 6c ba f7 bd 60 10 c0 3d d4 0f be bd 3f 41 1a 3e
       -0.12096104 0.09378123 -0.09280363 0.15063952
000230 6f 29 d1 3d d6 65 6f bd ba 0d 75 bd c7 c0 78 3d
       0.10212981 -0.058446728 -0.059827544 0.06073072
000240 e3 3a 87 3d b4 65 0e be 61 88 39 3d 4f 82 24 be
       0.066030286 -0.13905984 0.045296077 -0.16065334
000250 13 a0 50 bd 04 da 30 bd 5a 7b 16 be 8f 7d 3d be
       -0.05093391 -0.043176666 -0.14695492 -0.18504928
000260 44 56 cb 3d 59 9d d8 bd 68 61 81 bd 6c 9e b2 bc
       0.09928563 -0.10576887 -0.06317407 -0.021804057
000270 3a 63 1e 3e 3d 23 d4 3d bc 11 0a bc df 6c c0 3c
       0.1546754 0.10358284 -0.00842708 0.023489414
000280 f6 c8 f3 bd f4 d9 06 be ca d3 2c 3e 52 d4 a3 bd
       -0.11903565 -0.1316908 0.16877666 -0.07999481
000290 8f 14 bf bc 86 65 26 3e 2c f3 80 3d df 28 f9 bd
       -0.023325233 0.16249666 0.06296381 -0.12165999
0002a0 58 5a 33 3e b0 c2 8a 3d 61 88 0a be a9 08 0b 3e
       0.17514932 0.06775415 -0.13528587 0.13577522
0002b0 6a b1 b9 bc f5 93 0f 3e b5 2d f9 3d f3 a3 31 be
       -0.022667605 0.14021285 0.12166921 -0.17347698
0002c0 f7 94 f9 3c b9 be 85 bd 2e 05 2a 3d bc d2 30 bd
       0.03046654 -0.06530518 0.041508846 -0.043169722
0002d0 af 5d ff 3d 7c 21 e8 bd b7 bd b1 bd 57 ec f9 ba
       0.124690406 -0.11334512 -0.08678763 -0.0019067627
0002e0 da 8b 67 bc ed 3e 34 3d 31 67 b7 bc f2 87 07 be
       -0.014132464 0.044005323 -0.022388073 -0.13235453
0002f0 26 c5 e6 bd 65 9f 99 bd 2c 51 a2 3d bb 38 01 be
       -0.11268072 -0.07501105 0.079256386 -0.12619297
000300 9e 7b be 3d 48 97 59 bd 61 ab 1a 3e c0 51 b1 3c
       0.09300922 -0.05312279 0.15104438 0.021645427
000310 eb 21 20 bd 7d cd ce 3d 19 6f a5 bb da b3 36 3e
       -0.039094847 0.100977875 -0.0050486443 0.17842045
000320 15 b9 f4 bd 69 ac 44 3d e7 c5 a6 bd 7c 52 c1 3d
       -0.11949364 0.048015986 -0.081432156 0.09439561
000330 a9 71 a7 3c 53 84 f2 bc 30 83 f6 3d b8 ae 1b be
       0.02043994 -0.029604113 0.12036741 -0.15203369
000340 ec 15 9a 3d 80 bd 42 3b 12 55 7f 3c 62 56 91 3d
       0.075237125 0.0029715002 0.015584247 0.07096554
000350 95 ac 00 bd 72 d3 29 be 57 50 3a 3e c4 42 b4 bd
       -0.031414587 -0.16584566 0.1819471 -0.08801797
000360 7f 3b 9f 39 d1 be 69 bc c5 52 9e 3d 7b b0 20 bc
       0.0003037117 -0.014266686 0.07730631 -0.009807701
000370 89 be 30 3d 71 a6 5e 3d bb 1c be 3d 35 9c 97 bb
       0.04315046 0.05435795 0.09282824 -0.0046267756
000380 98 01 71 bd 22 e3 0e bd 67 16 42 3c bf 47 68 bd
       -0.05883941 -0.03488458 0.011846161 -0.056709047
000390 5d 9d f2 bd 55 10 44 3e cb a2 13 be b3 4a 9c 3d
       -0.11846421 0.19146855 -0.1441757 0.07631435
0003a0 46 32 8b bd e5 a8 30 3d c6 bd f0 bd 3b f1 ce bd
       -0.06796698 0.04312982 -0.117549464 -0.10104605
0003b0 4e 92 6c bd 8d de 9a 3d 8f 92 8a 3d b5 de e0 3c
       -0.057756715 0.075619794 0.06766235 0.027449945
0003c0 ea 00 52 bd 44 d4 39 3e 18 6f f8 bc 22 01 47 bd
       -0.051270403 0.18147379 -0.030326411 -0.048585065
0003d0 e3 0a 2d 3e c8 55 5c 3d 27 08 3a be 6b 2b 00 be
       0.16898684 0.053792745 -0.18167172 -0.12516563
0003e0 4e df fb bd ae 9d 26 be 35 44 2d be 59 aa 18 3e
       -0.12298451 -0.16271088 -0.1692055 0.14908732
0003f0 52 d1 1d 3e 51 52 fa bd f4 b4 92 bd 11 2e af 3d
       0.1541188 -0.12222732 -0.0716342 0.08553708

blocks.0.attn.proj.bias f4 [32]
000000 f6 a4 8a bd be 2b 9a 3d 55 ed e1 3d 4d 58 a9 bd
       -0.06769745 0.075278744 0.110315956 -0.08268795
000010 ba 70 4b 3d 63 16 e3 3d a8 3f f1 bd 61 21 f3 3d
       0.04966805 0.11088254 -0.117797196 0.11871601
000020 69 17 b7 bd fa 8b b4 bd 96 cf bb 3d 49 62 36 bd
       -0.08940012 -0.08815761 0.09170453 -0.044527326
000030 91 fa fd 3c 49 8d ee 3d a2 2c 6f bd 93 1b 5d bd
       0.031003268 0.11648042 -0.058392175 -0.053981375
000040 2c 89 11 be bd 37 b1 3d 8d 67 04 3d d3 65 27 3e
       -0.14212483 0.08653209 0.032325316 0.16347437
000050 97 6a 05 3e ca 7e 22 3d bb 62 25 3d c9 e2 13 3e
       0.13028942 0.039671697 0.04037736 0.1444198
000060 54 fa 10 be d0 f7 09 be 46 18 15 3e 45 46 4d bd
       -0.14157993 -0.13473439 0.14560041 -0.050115842
000070 eb 78 48 3d 79 ff 56 bd 7d a9 0c be 13 08 12 be
       0.04894344 -0.05248973 -0.1373653 -0.14260893

blocks.0.norm2.weight f4 [32]
000000 07 d4 7e 3f 4d 2b 7c 3f 2d 9e 79 3f bc c7 7d 3f
       0.9954228 0.9850357 0.9750698 0.99132895
000010 d0 e0 7b 3f ef 49 7d 3f cd 68 77 3f 98 8b 7f 3f
       0.9838991 0.9894094 0.9664429 0.9982238
000020 44 1e 83 3f 19 46 7c 3f bc 0e 7f 3f c8 dc 80 3f
       1.0243611 0.9854446 0.9963186 1.0067377
000030 45 6f 83 3f 6f 8e 81 3f f2 ee 80 3f ba d6 82 3f
       1.0268332 1.0121592 1.007292 1.0221779
000040 a7 05 82 3f 18 34 80 3f 34 0a 80 3f 7a f1 76 3f
       1.0157975 1.0015898 1.0003114 0.96462214
000050 cc 8b 78 3f 79 a3 78 3f 53 32 81 3f 68 38 7b 3f
       0.97088313 0.9712444 1.0093483 0.98132944
000060 87 d0 7d 3f 25 41 82 3f 43 a1 82 3f d9 12 81 3f
       0.9914631 1.017613 1.0205463 1.0083877
000070 c6 f2 7d 3f fd 79 7c 3f 1d b7 83 3f 3f 44 81 3f
       0.9919857 0.9862364 1.0290257 1.0098952

blocks.0.norm2.bias f4 [32]
000000 9c ac c3 3a f0 c7 05 3b 8d b8 c3 3b bd ec 7f 3c
       0.0014928761 0.0020413361 0.005972928 0.015620408
000010 de 6b 31 bd f6 69 91 bc 9f ff 73 3c 54 4c f0 3b
       -0.04331576 -0.017750721 0.014892488 0.007333318
000020 08 1b 1d 3c 55 cb be 3c d6 0e e0 bb eb 1e 07 3a
       0.009588964 0.023290316 -0.006837706 0.00051544484
000030 42 ca 95 bb cb b6 d7 3b 7f 28 c1 3b 0e b1 40 3c
       -0.00457123 0.00658307 0.00589472 0.011760963
000040 ab 05 11 3c 45 7c 26 39 a0 71 e9 3b 4d 64 ac 3c
       0.008851449 0.00015877288 0.007124141 0.02104392
000050 a7 67 6d 3c fc d6 c8 bb 3e de 7d bb a5 c4 1a 3d
       0.014490045 -0.0061291438 -0.0038737203 0.03778519
000060 d8 8e 39 bc f8 45 16 3c 25 a5 15 3b 41 14 06 3c
       -0.0113255605 0.009171955 0.002283403 0.00818354
000070 aa 49 c3 bb d9 c9 46 bb 5d f3 a6 bc af a7 17 bd
       -0.005959709 -0.0030332713 -0.020379717 -0.03702515

blocks.0.mlp.fc1.weight f4 [128, 32]
000000 c9 cd 47 3c f5 f2 88 bc bc 06 9c 3d e8 cb 0c be
       0.012195059 -0.016717413 0.07618472 -0.13749659
000010 fc 5e 8a bc af 85 90 3c 92 49 01 be 1b 8f 42 3e
       -0.016890995 0.01764187 -0.12625721 0.18999903
000020 a5 35 c6 bc 22 66 09 bb 12 07 b5 3d ca e2 17 be
       -0.024195502 -0.0020965417 0.08839239 -0.14832607
000030 1f c9 47 be b1 ad c1 3d 45 0f 19 3e 5f a0 ea bd
       -0.19510315 0.09456957 0.14947231 -0.114563696
000040 9e ad 1f be 2d 92 40 3e 11 19 05 3e af 4c 31 3e
       -0.15593573 0.18805762 0.12997843 0.17314409
000050 f3 be f1 bc af b7 23 bd a9 df ab 3d f8 c5 ea bc
       -0.029509997 -0.039970096 0.08392269 -0.028658852
000060 f6 3a 1f 3e 70 8c 95 bd 12 63 14 3e 16 eb ca 3d
       0.15549836 -0.07302177 0.14490917 0.0990812
000070 ad 76 56 3d 61 c5 1b 3e a7 a0 aa bd eb b0 04 bc
       0.05235927 0.15212013 -0.08331423 -0.008098821
000080 e3 3b d1 3d 55 7f 2b 3e 0f 52 f2 3d 9e e2 bc 3d
       0.102165006 0.16747792 0.11832058 0.09222911
000090 f8 66 1c be 71 9e 27 be 27 e3 18 bd 87 8e 82 bd
       -0.15273654 -0.16369034 -0.037326004 -0.06374841
0000a0 52 e8 40 3e 25 15 71 3d ba b9 a5 3d 85 78 f0 3c
       0.18838623 0.058858056 0.08092065 0.029354343
0000b0 d6 2e 01 3e 54 5e 35 be 49 02 a1 bd 0f da 24 3e
       0.12615523 -0.17711765 -0.07861764 0.16098808
0000c0 83 3e f7 3c 69 11 09 be 80 e4 0a 3e f3 65 df 3d
       0.030181175 -0.13385548 0.13563728 0.10908117
0000d0 fe 02 28 bd 47 44 05 3d 9a 2f 3c 3e a9 ef 1c ba
       -0.04101848 0.032535817 0.18377534 -0.000598664
0000e0 69 b9 4c 3b e7 3a ab 3d da 5f be bc b9 41 dd 3d
       0.0031238443 0.08360844 -0.023239065 0.10803551
0000f0 a4 fc 86 bd fc 2c b9 3a 3d 5d 16 3e 2b e1 8d 3d
       -0.06591156 0.0014127786 0.14684005 0.06927713
000100 3a ad 06 be a3 01 7b 3d 0b 87 de 3d 42 94 19 be
       -0.13152018 0.061280858 0.10865601 -0.14997962
000110 2f 76 30 3e b0 82 18 3d 2e b9 36 be 6c f2 17 be
       0.17232583 0.03723401 -0.17844078 -0.1483857
000120 58 fa ff 3d bf b4 0c 3e 9b 5c 28 bd 1a c0 90 bd
       0.12498921 0.13740824 -0.04110394 -0.070678905
000130 c4 81 94 3d 3d 6c 92 3d cf 38 bb 3b 4c b2 18 3e
       0.07251313 0.07149551 0.005713559 0.14911765
000140 ab 21 09 be ba 49 1c 3e 5a ac 06 be ff 95 ae 3b
       -0.1339175 0.152625 -0.13151684 0.0053279395
000150 a5 4f b7 3c 29 32 ca 39 08 cb a7 3d 42 f2 07 be
       0.022376845 0.00038565815 0.08193022 -0.13276008
000160 56 3c 49 3d 61 8b 8d bc 22 5d 13 3e ff 51 ca bd
       0.049129806 -0.017278375 0.14390996 -0.09878921
000170 bb ae 12 be 95 f1 cb bd 51 57 44 bd e1 a0 e7 bd
       -0.14324467 -0.099581875 -0.047934834 -0.11309982
000180 88 be f9 3d 51 61 4f bd ce 31 ef 3d 1b ba d4 bd
       0.12194544 -0.050629918 0.11679421 -0.10387059
000190 f3 e0 27 3e 25 22 21 3e 1a 18 14 be 1f 14 26 3e
       0.16394405 0.15735681 -0.14462319 0.16218613
0001a0 a7 40 8f bc 93 c0 d5 3d a9 71 5b bd 13 6a 23 3e
       -0.017486883 0.10437121 -0.05357519 0.15958433
0001b0 c0 fb 75 bd f1 f4 dc bb a3 2b 09 bd 3e d0 84 3d
       -0.06005454 -0.0067430665 -0.03348888 0.064850315
0001c0 3b 01 2a 3d 2a 40 18 be 3d 15 00 bb 7e de 3f 3d
       0.04150508 -0.14868227 -0.001954391 0.046843044
0001d0 ad 8c 27 3d cb 8b a6 bd 91 f1 74 3d a7 04 12 3a
       0.040905643 -0.08132132 0.05980069 0.0005570151
0001e0 e8 1f ee 3d 27 5a 07 3e 3b 76 73 3c 3d 75 d1 bd
       0.116271794 0.13217984 0.014859731 -0.102274396
0001f0 89 32 e8 3d a4 79 93 3d 95 c3 74 3d d3 9b 1e bd
       0.11337764 0.072009355 0.059756834 -0.038722824
000200 65 c8 89 3d 71 fa b4 bd 92 d5 33 be 01 83 37 3e
       0.06727675 -0.088368304 -0.1756194 0.17921068
000210 a1 cb 1c 3d 8f a4 ff 3d 00 65 25 be e4 de 5f bd
       0.038280133 0.12482559 -0.1615181 -0.054655924
000220 8e 0a ab bc 8d 6c 07 3e ca 5c 3c 3d 64 28 be bd
       -0.020879056 0.13225003 0.045986928 -0.09285048
000230 11 a4 1d be 54 f2 a8 3d c2 88 3a 3e 82 53 89 3d
       -0.15394618 0.082493454 0.18216231 0.06705381
000240 68 30 1b 3e 75 b2 42 be 84 07 03 3e dd d3 73 39
       0.15155184 -0.19013388 0.12795836 0.00023253211
000250 f7 04 4b bd fc 1b 3b be 2e 67 44 3d 39 52 b3 3d
       -0.04956528 -0.18272394 0.047949962 0.08755917
000260 be f1 c2 3d d5 57 b9 3d 63 a1 13 bd 21 f4 95 bd
       0.09518765 0.09049956 -0.036042582 -0.073219545
000270 71 ac a2 bd 31 e6 9e 3d 8d 68 e3 3c eb 3a f0 3d
       -0.07943047 0.07758749 0.027759815 0.11729988
000280 6d 90 0f 3d e1 17 e0 3d 13 f5 75 bd d8 48 3a be
       0.035049845 0.109420545 -0.060048174 -0.1819185
000290 04 0c f5 3b 21 ad d6 3d da ba 1c be 16 b7 49 3d
       0.007478239 0.104822405 -0.15305653 0.04924687
0002a0 55 b6 48 3d 05 0a 5f 3d 89 12 ff 3b 88 cf 18 be
       0.04900201 0.054452915 0.007784192 -0.14922917
0002b0 89 98 22 be 94 6c 42 3d 5a cc 50 3d 5a fb 95 3d
       -0.158785 0.04746683 0.050976135 0.07323332
0002c0 85 68 10 3e c5 d7 84 bd ab 85 ce bd 2b d5 d3 bd
       0.14102371 -0.06486467 -0.10084089 -0.10343393
0002d0 5b 83 1d 3e b5 c2 f6 3c a0 49 06 be f6 20 af 3d
       0.1538214 0.03012214 -0.13114023 0.08551209
0002e0 e5 b4 36 be 5d d2 00 be 2f 86 16 be ef 39 86 3d
       -0.17842443 -0.12580247 -0.14699624 0.06554019
0002f0 f5 95 aa 3c fc 45 2a 3e ad bb a9 3c c2 3f 81 bd
       0.020823458 0.1662826 0.020719374 -0.06310989
000300 a5 2d ed bd b1 63 14 3e 57 87 f1 3c c8 8f 30 be
       -0.11580972 0.14491154 0.02948348 -0.17242348
000310 74 3c da 3c d5 49 ef 3d d8 46 74 bd cc e1 1e 3d
       0.026640154 0.11684004 -0.059637874 0.038789555
000320 b0 4e b4 bd c8 a0 c0 3d 91 5e 5d 3d b7 ae 2d 3e
       -0.08804071 0.094056666 0.054045264 0.1696118
000330 ff fd 17 3e 69 a8 5b 3c 63 15 7f bc 4a 4d c5 bd
       0.14842986 0.013406851 -0.015569064 -0.09633882
000340 99 46 75 3d c4 ee a0 3d 29 8c 22 be eb db 9f 3d
       0.05988178 0.07858041 -0.1587378 0.07805618
000350 37 5b 36 3e 3a 95 c6 bc 30 13 da 3d c1 cc b3 bd
       0.17808233 -0.024241079 0.10648191 -0.08779288
000360 d0 8d 3e 3c f9 92 f8 bd 15 cd b2 3d d5 ac 13 3e
       0.01163049 -0.12137408 0.087305225 0.14421399
000370 2c ae ec bd 7e 33 12 be 2e f9 f8 3d 4e eb 84 3c
       -0.11556658 -0.14277455 0.12156902 0.016225483
000380 30 ec 82 bd 54 78 e6 bd 3d f1 33 3e 29 45 9c bd
       -0.063927054 -0.112534195 0.17572494 -0.07630379
000390 da de e3 3d 13 db b8 bc 12 a8 75 bc 0a 4c b1 bd
       0.1112649 -0.0225654 -0.014993684 -0.086570814
0003a0 06 16 3e bd 0d d9 22 3c 76 a5 24 3e 0d e6 22 3e
       -0.046407722 0.009939444 0.16078743 0.1590807
0003b0 62 d3 a9 bc 6f e8 05 3e 46 fb 06 3e c6 cb 81 3b
       -0.020730678 0.13076948 0.1318179 0.0039610593
0003c0 4b 8e d0 3d 4b 82 85 3d 9a 07 2c 3d 9b 93 f3 bc
       0.1018339 0.06518992 0.041999437 -0.02973347
0003d0 ab 46 76 bc e7 80 4d bd 29 d1 2f 3d a7 9f 46 bd
       -0.015031497 -0.05017176 0.04292408 -0.0484921
0003e0 3c b8 95 3c 93 51 0b 3e b1 c6 b0 3d 1a 4a 26 3c
       0.018276326 0.13605337 0.086316474 0.010149503
0003f0 a5 23 32 be 18 4b 85 bd 22 85 8c bd bc 05 ad bd
       -0.1739641 -0.065084636 -0.068613306 -0.08448359

blocks.0.mlp.fc2.weight f4 [32, 128]
000000 17 8f ab bd 4b ec 0e bd 85 92 45 3c cc 22 f7 bc
       -0.083769016 -0.034893315 0.012058859 -0.03016796
000010 e6 4c 09 3c d7 b4 64 3d c3 ab fc 3b a4 ec 3b bd
       0.00838015 0.055836525 0.0077109053 -0.045879975
000020 14 6f 15 bc 41 e9 b4 bc aa bb 73 3d 1d 76 0a 3c
       -0.009120721 -0.02208388 0.059505142 0.008451012
000030 38 77 01 3d e7 37 fb 3d 98 4f cf bb 80 07 61 bd
       0.031607836 0.12266522 -0.006326627 -0.054938793
000040 fd d0 17 3d 18 a4 e9 bd be 5a 1e bd fe 08 93 bc
       0.03706454 -0.114082515 -0.038660757 -0.017948624
000050 b3 65 58 bc 6f 30 3d bc d6 fc 1c 3d 67 bd 26 3d
       -0.013207841 -0.011547192 0.03832706 0.040707972
000060 9f 08 b2 bd 05 b7 a9 bc eb ac 43 bd 0e f2 d9 3c
       -0.086930506 -0.020717153 -0.04777233 0.026604678
000070 b7 3c f7 3c f9 0a 8a 3d 0a c9 96 3d 20 cc 3f 3d
       0.030180318 0.06740374 0.07362564 0.04682553
000080 a7 91 11 bd 40 81 67 bd 0f 90 85 bd 92 7b 3a 3d
       -0.035539296 -0.056519747 -0.065216176 0.045528002
000090 da d8 17 bd dd 55 12 3d fd a2 c8 bd 96 eb 0b 3d
       -0.03707204 0.035726417 -0.097967125 0.03416022
0000a0 a7 78 2a 3d 0e cd 17 3c 19 28 40 bd 78 d5 aa 3d
       0.04161897 0.009265197 -0.04691324 0.08341497
0000b0 68 23 9b 3c d9 a2 6c 3d 91 1c 4b 3b 03 9a 15 bb
       0.018937781 0.05777249 0.0030992369 -0.0022827394
0000c0 21 b0 12 3d 20 ef 8f 3b d8 1d b5 bd 0a cb 81 3c
       0.0358125 0.0043925196 -0.08843583 0.015843887
0000d0 21 69 95 bc 9b 8e 7e bd 62 a0 c7 3c 5d f3 95 3b
       -0.018238606 -0.062147718 0.024368469 0.0045761303
0000e0 db 13 48 bc 9b 57 cd 3c a3 fe 7d 3d 95 d6 97 bd
       -0.012211765 0.025066188 0.06201042 -0.07413975
0000f0 66 c4 bb 3d 90 8c ab 3d 5a 0e 25 bd 80 d8 bc 3d
       0.091683194 0.083764195 -0.04029689 0.092209816
000100 65 f3 a6 3a d3 46 41 3d 97 66 e5 3b b4 de d7 bd
       0.0012737332 0.047186684 0.007000755 -0.10540524
000110 1f b4 5f 3d 0a 68 7f 3d 47 d4 1b 3d b6 7f 77 3d
       0.054615136 0.06235508 0.03804424 0.06042453
000120 46 07 a1 bd 2e b8 90 3d 69 cf 12 3d ec 14 b4 bd
       -0.078627154 0.070663795 0.035842333 -0.08793053
000130 b2 61 8c bd ae f5 a2 bc 03 06 70 3d 73 aa a0 bd
       -0.068545714 -0.01989254 0.058599483 -0.078450106
000140 6c 81 bc 3d d1 b2 9c 3d d2 2f 2c 3d 2b a7 e3 3d
       0.09204373 0.07651294 0.042037793 0.11115869
000150 27 70 33 bd f9 94 49 bd b5 6b d3 bc 19 55 c8 bc
       -0.04380813 -0.049214337 -0.025808195 -0.02445464
000160 78 9a a4 3d 5b c3 fc bc e8 a3 d4 3d 08 6a a8 3c
       0.08037275 -0.030854871 0.10382825 0.020558372
000170 6b 52 60 bc 4f 7c c7 3c b9 04 90 3d 22 1c 5d bd
       -0.013691525 0.024351267 0.07032151 -0.053981908
000180 59 e2 86 3d f0 e6 00 bc f7 b9 a6 3c 11 f0 46 bd
       0.06586141 -0.00786756 0.020352347 -0.04856879
000190 96 d7 c4 3b 24 69 55 bd 4d 52 8b bd ce 89 68 3c
       0.006007145 -0.052102223 -0.06802807 0.014193011
0001a0 01 0c c6 3d fb 5d 81 bc 1d 20 a6 3c 1c 3d 51 bd
       0.09670258 -0.015791884 0.020278985 -0.05108367
0001b0 0f e3 3e bd ef 28 7a 3d 51 19 18 bd 1a dc 60 bd
       -0.04660326 0.061074194 -0.03713352 -0.054897405
0001c0 de 50 3d bd 76 b5 a2 3c b0 62 a4 bd 36 24 b6 3d
       -0.0462197 0.019861918 -0.08026636 0.088936254
0001d0 37 d8 cb bd 29 90 88 3d 52 50 45 bd 71 2d 1c bc
       -0.09953349 0.06668121 -0.048172303 -0.009532318
0001e0 ba 73 7f 3d d0 11 e2 3c e1 c9 58 bb e6 64 3c bd
       0.062366225 0.027596384 -0.0033079314 -0.04599466
0001f0 1f bb 8c 3d 3e c4 cf bc c8 5a b4 3c 67 af 99 3d
       0.06871628 -0.02536213 0.022015944 0.075041585
000200 a7 5a d4 bc 48 6d 45 bd 6c 38 3c 3d a4 5b 47 bc
       -0.025922133 -0.04819992 0.045952246 -0.012167845
000210 a2 46 a8 3c 41 88 25 3d 8c 7b 4c 3d 38 a1 78 3c
       0.020541493 0.040413145 0.04992251 0.015175156
000220 ad 73 48 3c 51 ee d4 3c e5 93 79 3c 35 f2 91 3c
       0.0122346105 0.025992544 0.015233015 0.017815689
000230 63 35 b2 3d c7 f3 8f 3a b8 bf f7 3c 4d f9 89 3d
       0.08701589 0.0010982685 0.030242786 0.067370035
000240 8c b2 cd 3b 7f 19 96 3c 9b bb 01 bd 4a f1 43 bd
       0.006277388 0.018322704 -0.031673055 -0.047837533
000250 57 78 37 bd bc 13 72 bd 45 b8 6e bd 42 14 88 3c
       -0.0447925 -0.05910085 -0.058281202 0.016611222
000260 6d 33 08 3d cc 02 a1 3d 66 8d a1 3d f2 76 94 bc
       0.03325217 0.078618616 0.07888298 -0.018123124
000270 d1 21 3e bd 6b 43 38 bc 30 8a 79 3c b5 41 e3 bd
       -0.04641897 -0.011246542 0.0152307 -0.11096517
000280 0f 4e ee bc 0f e2 d2 bb 8c c7 84 bd 36 ce e3 bc
       -0.029089956 -0.0064356397 -0.06483373 -0.02780829
000290 b1 e4 48 3b a0 d8 9d bc 18 f2 22 3d e1 1a 17 3d
       0.0030653889 -0.019268334 0.03978166 0.036890868
0002a0 d2 5a 64 3d b1 ef 3b bd bc 8e 31 3c b9 7b 25 3a
       0.055750675 -0.045882884 0.010837253 0.00063126866
0002b0 9f 9e 65 3d 6d 82 67 bd ea 9b 3c 3d be 86 ad bd
       0.056059476 -0.056520868 0.04604713 -0.08472966
0002c0 8d 5a b8 bd 9b 0e 62 3d 4a 57 66 bd b6 d3 01 3d
       -0.09001646 0.05518971 -0.05623559 0.031696044
0002d0 2d 59 db bc 17 45 a6 3c c4 90 ab bd c8 12 bd 3d
       -0.02677592 0.020296616 -0.08377221 0.09232098
0002e0 c2 a8 86 3d cc 01 56 bd e1 da 51 bd 27 83 90 bd
       0.06575157 -0.052247807 -0.05123413 -0.07056265
0002f0 c9 49 a1 3d be 1f 94 3c a6 8b 07 bd 1c 1c 76 3b
       0.078754015 0.018081542 -0.033092164 0.0037553376
000300 ea 93 53 bb 76 84 4d bd cd d8 6b bd 6d 38 35 3d
       -0.0032284209 -0.050175153 -0.057579804 0.044243265
000310 bc 96 7e 3d c6 0b d8 bc 7f 5e b6 3d 2e 2c 87 3d
       0.06215547 -0.026372802 0.089047424 0.066002235
000320 50 c8 04 3d f9 98 87 3d a9 57 6b bd 48 37 b8 bc
       0.032417595 0.06620974 -0.057456646 -0.022487298
000330 5b 68 82 bd 7f 3a 50 3b b2 6d 86 bc d1 65 c5 3c
       -0.063675605 0.0031773148 -0.016409729 0.024096401
000340 0f e1 4f 3b 06 95 31 bc 06 80 45 3d d0 ad 04 bd
       0.0031719839 -0.010838753 0.048217796 -0.032392323
000350 ab e3 86 b7 54 e6 36 3c ec d1 a5 ba d7 39 8b 3d
       -1.6080061e-05 0.011163313 -0.0012651063 0.067981414
000360 cc 74 91 3c bb 67 6c bd 64 09 8e 3d 32 06 38 bc
       0.017755888 -0.057716113 0.06935385 -0.011231946
000370 c6 d0 f6 bc a4 55 a8 3c 9b 30 b4 b9 e7 03 46 bc
       -0.030128848 0.02054865 -0.0003436849 -0.012085891
000380 77 83 95 3c 3c e3 b3 3d 78 b9 fb bd 62 50 bf bd
       0.018251164 0.08783576 -0.12291235 -0.09341504
000390 91 07 78 bd 5d e1 20 3d bf f0 78 3d 9e e8 23 3d
       -0.06055409 0.039277423 0.06077647 0.040016763
0003a0 7b fc 0e 3d b0 b7 86 3c 95 75 9f bd f5 4f 99 3d
       0.034908753 0.01644501 -0.07786099 0.07485954
0003b0 a5 b4 1c 3d 7b a4 3a bc ff a9 89 bd 8e 12 a1 3d
       0.038258214 -0.011391754 -0.06721877 0.07864867
0003c0 61 50 01 3d cb 10 06 3d 0e a2 4d 3d 62 5c 31 bc
       0.031570796 0.03273086 0.050203376 -0.010825248
0003d0 d0 15 2c 3d 80 cf 43 bd fc b6 59 3d a9 e8 6d 3d
       0.04201299 -0.04780531 0.053153023 0.05808321
0003e0 ea 19 f2 bd 36 09 2e 3c c8 d8 4f bd 4c 21 bb 3c
       -0.11821349 0.010622313 -0.050743848 0.022843026
0003f0 7d a1 54 3d dd e6 da 3d bd 20 6d 3b 14 d8 ae 3d
       0.05191182 0.10688565 0.0036182844 0.085373074

blocks.1.norm1.weight f4 [32]
000000 56 7f 80 3f a9 cb 81 3f c9 04 86 3f c9 8a 84 3f
       1.003886 1.0140277 1.047021 1.0354854
000010 a2 e7 84 3f 0d 2c 81 3f ba 83 84 3f 9a eb 82 3f
       1.0383189 1.0091568 1.03527 1.022815
000020 87 80 86 3f ef 43 85 3f 8d 52 81 3f f9 73 80 3f
       1.0507973 1.0411357 1.0103317 1.0035392
000030 b6 ec 84 3f d6 51 7e 3f ac 38 83 3f 7e 0a 84 3f
       1.0384738 0.9934362 1.025167 1.0315702
000040 c8 f8 84 3f 3e 25 82 3f 64 8a 81 3f 8f b9 7a 3f
       1.0388422 1.0167615 1.0120358 0.9793939
000050 45 82 7c 3f ef 0d 84 3f 63 02 84 3f 6c 36 85 3f
       0.98636276 1.0316752 1.0313228 1.0407233
000060 9d 85 7e 3f 1d 6e 7f 3f 42 18 86 3f 6f 6a 7e 3f
       0.9942263 0.99777395 1.0476153 0.99381155
000070 a2 a8 86 3f 35 e0 81 3f 03 71 82 3f 4a 8a 83 3f
       1.0520213 1.0146548 1.0190738 1.0276577

blocks.1.norm1.bias f4 [32]
000000 65 0c 2f 3b f8 e3 a3 ba 94 48 ba 3b 7e 44 eb 3b
       0.0026710269 -0.0012503853 0.0056849215 0.0071797958
000010 f5 a4 2e 3c e2 a7 eb bb d1 4b 95 bc 7c f2 47 bc
       0.010659446 -0.007191644 -0.018224629 -0.012203809
000020 a5 dc 9a bc 4d 7b 13 bc 11 82 0a bb a1 68 bd 3b
       -0.01890404 -0.009001565 -0.0021134655 0.005780295
000030 ff d3 90 bb 10 e3 87 bb c7 f8 9c 3b 9e 91 c3 bb
       -0.004419803 -0.004146941 0.0047903988 -0.0059682867
000040 91 a8 85 ba 64 c6 d4 3b f5 20 45 3b 08 9e 71 3c
       -0.0010197331 0.0064933766 0.0030079458 0.01474715
000050 aa 7d 96 bb a0 f7 e5 ba 06 e7 99 bb a9 ab 66 3c
       -0.004592617 -0.0017545111 -0.0046967296 0.014079013
000060 12 69 71 ba 07 5c 22 38 5f cb 26 3c 83 23 91 bb
       -0.0009209077 3.8709517e-05 0.010180323 -0.004429282
000070 6d 98 1a 3c e3 b6 83 3c 13 46 0c bc 57 5e 83 bb
       0.009435755 0.016078418 -0.008561629 -0.004009049
