image_encoder/trained_models/vit_20241110_185843.pth (torch, 454617 bytes, 59 tensors)

cls_token f4 [1, 1, 32]
0.008265526 0.015984083 -0.0038380686 0.007664593 0.007493833 -0.0013307777 -0.01813983 -0.008973404
-0.00043638088 0.0016826849 0.008682977 -0.0064806435 -0.00011825573 0.0063208565 -0.008884055 0.00029922556
0.005938232 -0.011897137 0.0096620275 -0.009902279 0.0022826584 0.0065053143 0.0074126283 0.0115843015
-0.00093750237 0.0010685198 -0.0018313759 0.011987675 -0.0028717406 -0.0102387015 -0.007072409 -0.015313862
00000000: 216c 073c 0df1 823c 1b88 7bbb 4427 fb3b
00000010: d48e f53b 7d6d aeba fb99 94bc 2f05 13bc
00000020: 0dca e4b9 898d dc3a 0c43 0e3c 945b d4bb
00000030: 1000 f8b8 301f cf3b 6d8e 11bc 60e1 9c39
00000040: 8095 c23b 36ec 42bc 7b4d 1e3c 2b3d 22bc
00000050: a798 153b 882a d53b a2e5 f23b 15cc 3d3c
00000060: b8c2 75ba 930d 8c3a c70a f0ba f467 443c
00000070: d033 3cbb 3ac0 27bc abbf e7bb fee6 7abc

pos_enc f4 [32, 32, 32]
0.0 1.0 0.0 1.0 0.0 1.0 0.0 1.0
0.0 1.0 0.0 1.0 0.0 1.0 0.0 1.0
0.0 1.0 0.0 1.0 0.0 1.0 0.0 1.0
0.0 1.0 0.0 1.0 0.0 1.0 0.0 1.0
0.0 1.0 0.0 1.0 0.0 1.0 0.0 1.0
0.0 1.0 0.0 1.0 0.0 1.0 0.0 1.0
0.84147096 0.54030234 0.53316844 0.8460091 0.3109836 0.9504153 0.17689219 0.9842302
0.09983342 0.9950042 0.056204494 0.9984193 0.031617507 0.99950004 0.017781857 0.99984187
0.0 1.0 0.0 1.0 0.0 1.0 0.0 1.0
0.0 1.0 0.0 1.0 0.0 1.0 0.0 1.0
0.9092974 -0.41614684 0.9021307 0.43146282 0.5911271 0.8065784 0.34820527 0.93741834
0.19866933 0.9800666 0.11223131 0.9936821 0.0632034 0.9980007 0.03555809 0.9993676
0.0 1.0 0.0 1.0 0.0 1.0 0.0 1.0
0.0 1.0 0.0 1.0 0.0 1.0 0.0 1.0
0.14112 -0.9899925 0.9932532 -0.11596616 0.8126489 0.58275366 0.50853616 0.86104065
0.29552022 0.9553365 0.1679033 0.9858035 0.09472609 0.99550337 0.053323083 0.9985773
0.0 1.0 0.0 1.0 0.0 1.0 0.0 1.0
0.0 1.0 0.0 1.0 0.0 1.0 0.0 1.0
-0.7568025 -0.6536436 0.7784717 -0.6276797 0.95358074 0.30113748 0.652828 0.7575062
0.38941836 0.921061 0.22304448 0.9748083 0.12615408 0.99201065 0.07107121 0.9974712
0.0 1.0 0.0 1.0 0.0 1.0 0.0 1.0
0.0 1.0 0.0 1.0 0.0 1.0 0.0 1.0
-0.9589243 0.2836622 0.32393527 -0.94607925 0.99994653 -0.010342338 0.77652997 0.6300803
0.47942555 0.87758255 0.2774805 0.96073127 0.15745589 0.987526 0.08879686 0.99604976
0.0 1.0 0.0 1.0 0.0 1.0 0.0 1.0
0.0 1.0 0.0 1.0 0.0 1.0 0.0 1.0
-0.2794155 0.96017027 -0.23036751 -0.9731037 0.9471482 -0.3207964 0.8757406 0.48278195
0.5646425 0.8253356 0.33103934 0.943617 0.18860029 0.98205394 0.10649444 0.9943133
0.0 1.0 0.0 1.0 0.0 1.0 0.0 1.0
0.0 1.0 0.0 1.0 0.0 1.0 0.0 1.0
0.6569866 0.75390226 -0.7137211 -0.70043 0.8004216 -0.5994375 0.9473307 0.3202569
0.64421767 0.7648422 0.38355154 0.9235195 0.21955611 0.9755999 0.12415834 0.9922624
00000000: 0000 0000 0000 803f 0000 0000 0000 803f
00000010: 0000 0000 0000 803f 0000 0000 0000 803f
00000020: 0000 0000 0000 803f 0000 0000 0000 803f
00000030: 0000 0000 0000 803f 0000 0000 0000 803f
00000040: 0000 0000 0000 803f 0000 0000 0000 803f
00000050: 0000 0000 0000 803f 0000 0000 0000 803f
00000060: 0000 0000 0000 803f 0000 0000 0000 803f
00000070: 0000 0000 0000 803f 0000 0000 0000 803f
00000080: 0000 0000 0000 803f 0000 0000 0000 803f
00000090: 0000 0000 0000 803f 0000 0000 0000 803f
000000a0: 0000 0000 0000 803f 0000 0000 0000 803f
000000b0: 0000 0000 0000 803f 0000 0000 0000 803f
000000c0: a46a 573f 4151 0a3f ba7d 083f 0d94 583f
000000d0: 3e39 9f3e 6b4e 733f 3a23 353e 83f6 7b3f
000000e0: 7775 cc3d 98b8 7e3f af36 663d 6898 7f3f
000000f0: 5c81 013d 3cdf 7f3f 42ab 913c a3f5 7f3f
00000100: 0000 0000 0000 803f 0000 0000 0000 803f
00000110: 0000 0000 0000 803f 0000 0000 0000 803f
00000120: 0000 0000 0000 803f 0000 0000 0000 803f
00000130: 0000 0000 0000 803f 0000 0000 0000 803f
00000140: b7c7 683f 3311 d5be 0af2 663f b2e8 dc3e
00000150: 1b54 173f ec7b 4e3f f647 b23e a6fa 6f3f
00000160: f96f 4b3e a5e5 7a3f 87d9 e53d f361 7e3f
00000170: c970 813d f97c 7f3f 5ca5 113d 8ed6 7f3f
00000180: 0000 0000 0000 803f 0000 0000 0000 803f
00000190: 0000 0000 0000 803f 0000 0000 0000 803f
000001a0: 0000 0000 0000 803f 0000 0000 0000 803f
000001b0: 0000 0000 0000 803f 0000 0000 0000 803f
000001c0: c381 103e 2670 7dbf d745 7e3f ab7f edbd
000001d0: c209 503f 582f 153f 6d2f 023f 296d 5c3f
000001e0: 6d4e 973e ef90 743f d8ee 2b3e 9e5d 7c3f
000001f0: c1ff c13d 4fd9 7e3f 4e69 5a3d c3a2 7f3f
00000200: 0000 0000 0000 803f 0000 0000 0000 803f
00000210: 0000 0000 0000 803f 0000 0000 0000 803f
00000220: 0000 0000 0000 803f 0000 0000 0000 803f
00000230: 0000 0000 0000 803f 0000 0000 0000 803f
00000240: cfbd 41bf 3055 27bf ec49 473f 9eaf 20bf
00000250: de1d 743f b12e 9a3e bc1f 273f edeb 413f
00000260: d861 c73e a7ca 6b3f c665 643e 098d 793f
00000270: 892e 013e 69f4 7d3f c88d 913d 465a 7f3f
00000280: 0000 0000 0000 803f 0000 0000 0000 803f
00000290: 0000 0000 0000 803f 0000 0000 0000 803f
000002a0: 0000 0000 0000 803f 0000 0000 0000 803f
000002b0: 0000 0000 0000 803f 0000 0000 0000 803f
000002c0: 107c 75bf 2c3c 913e d8da a53e 4032 72bf
000002d0: 7ffc 7f3f e972 29bc abca 463f f14c 213f
000002e0: 4477 f53e 40a9 603f ed11 8e3e 7cf2 753f
000002f0: 1e3c 213e 81ce 7c3f 21db b53d 1efd 7e3f
00000300: 0000 0000 0000 803f 0000 0000 0000 803f
00000310: 0000 0000 0000 803f 0000 0000 0000 803f
00000320: 0000 0000 0000 803f 0000 0000 0000 803f
00000330: 0000 0000 0000 803f 0000 0000 0000 803f
00000340: 8c0f 8fbe b8cd 753f 76e5 6bbe 531d 79bf
00000350: 4e78 723f 6d3f a4be 8930 603f 322f f73e
00000360: 698c 103f 3249 533f fd7d a93e e290 713f
00000370: 6f20 413e e367 7b3f c219 da3d 518b 7e3f
00000380: 0000 0000 0000 803f 0000 0000 0000 803f
00000390: 0000 0000 0000 803f 0000 0000 0000 803f
000003a0: 0000 0000 0000 803f 0000 0000 0000 803f
000003b0: 0000 0000 0000 803f 0000 0000 0000 803f
000003c0: 4630 283f bdff 403f 6db6 36bf 614f 33bf
000003d0: 6ee8 4c3f bc74 19bf 4484 723f b6f8 a33e
000003e0: 73eb 243f b3cc 433f de60 c43e c66b 6c3f
000003f0: 51d3 603e eac0 793f ba46 fe3d e904 7e3f

norm.weight f4 [32]
0.75379777 0.89424676 0.8438995 0.7976265 0.8117037 0.86624444 0.7879572 0.82953316
0.74645674 0.7483608 0.76743436 0.79811585 0.8225135 0.8526798 0.80724895 0.8645969
0.81723195 0.8594811 0.76145583 0.7789137 0.85606325 0.8367113 0.7759618 0.84245485
0.7353534 0.83580935 0.8215551 0.837112 0.76287085 0.9130742 0.79364485 0.71550274
00000000: e4f8 403f 5bed 643f cc09 583f 4031 4c3f
00000010: d0cb 4f3f 32c2 5d3f 90b7 493f 495c 543f
00000020: ca17 3f3f 9394 3f3f 9476 443f 5251 4c3f
00000030: 3f90 523f 3949 5a3f dea7 4e3f 3956 5d3f
00000040: 1d36 513f f406 5c3f c5ee 423f e366 473f
00000050: f626 5b3f b632 563f 6fa5 463f 1fab 573f
00000060: 1f40 3c3f 9af7 553f 6f51 523f f94c 563f
00000070: 814b 433f 3bbf 693f 4f2c 4b3f 302b 373f

norm.bias f4 [32]
0.0078628715 0.022582455 -0.0152355535 0.1571529 0.059329577 0.052080087 -0.02632954 -0.031006703
-0.059935365 -0.16219798 0.06745007 0.07293178 0.120000035 0.029114794 -0.06776352 -0.022685174
-0.03998911 0.009203028 -0.06999615 0.06080722 0.08223701 0.019161165 0.11108082 -0.015356277
0.05551832 -0.10343445 -0.023676427 -0.12738268 -0.004579466 0.007134224 0.13259213 -0.2153522
00000000: 46d3 003c d7fe b83c 8b9e 79bc b1ec 203e
00000010: 9203 733d ee51 553d 0cb1 d7bc c501 febc
00000020: c97e 75bd 3a17 26be 4323 8a3d 425d 953d
00000030: 94c2 f53d 2682 ee3c 9ac7 8abd 42d6 b9bc
00000040: 9fcb 23bd 4cc8 163c 245a 8fbd fe10 793d
00000050: e16b a83d e0f7 9c3c 577e e33d e598 7bbc
00000060: 2e67 633d 71d5 d3bd 11f5 c1bc 9b70 02be
00000070: 580f 96bb 35c6 e93b 3bc6 073e 4a85 5cbe

patch_embeddings.weight f4 [14, 32]
1.9430404 1.473937 0.9233744 -2.102294 0.6860702 -1.248229 -0.07691801 -1.6105431
-0.75702226 1.6293811 -0.38122395 -1.4005935 -0.69956565 -0.5616092 -0.77526945 0.7542423
1.6517026 -0.12432938 -0.46482462 0.44904768 -0.7061033 1.0904186 0.7619445 1.6973222
1.2513543 1.328374 0.58723783 1.3078481 -0.24147502 0.026265878 -0.25480923 0.86162025
-1.419912 -0.8779139 -0.20173165 1.7376041 0.29271805 -0.38950524 0.32163358 -0.73552376
-1.524575 1.0087773 -0.8902815 -0.60668457 -1.2711222 2.101028 -1.2168487 -0.5094622
-0.9031952 -0.64520025 0.06128817 0.5152204 -0.5047948 1.1742136 -0.7970351 -0.733414
-1.4013098 -0.008604937 -0.054134842 0.65929484 -0.10042396 1.8380626 -1.1749628 1.3907311
1.405324 0.88946 2.1969938 0.5067185 0.3184921 -0.15012692 -1.0069305 1.293328
-0.11643498 0.5813989 0.06946318 0.39947882 0.5896568 -0.6450261 -2.1976328 -0.76017785
-0.00500023 -0.36640003 -1.378253 -0.5324732 0.49725536 0.51623726 1.1630559 0.004950938
0.6933965 -0.5138629 -1.0582528 0.5624273 -1.7565017 -0.7770646 1.3654375 0.46230727
-2.4887774 0.4724743 0.7907468 0.0032930637 0.62608874 0.5853758 1.059161 -0.4517689
-0.21517076 0.76289135 0.3936891 0.2150736 0.27406374 1.2960556 -0.0053609777 -0.34501997
-1.4458526 -0.097178034 -0.56489164 0.52631974 0.7215843 0.13138565 -0.41943806 0.52362704
-0.044374328 0.27144524 0.11168947 0.7075235 1.1131178 0.3671506 0.7096749 0.40937266
1.9518541 1.003574 -1.4368037 -1.1344143 -0.14139722 1.6155013 0.6666845 0.5850164
1.1295487 0.028869411 -1.792829 0.9125838 -0.3756334 1.0593821 -0.71463174 0.6171786
-0.9487557 0.94942415 1.5695997 1.4487437 0.2746573 -0.1850493 -0.7242078 0.103354104
0.32485035 0.9541916 -0.48544657 1.5876838 -2.459705 -0.3986033 -1.2013078 0.7915584
-1.9073706 0.22772793 0.009218698 -0.3306904 0.2800291 -0.7134904 0.20292325 -1.0595851
-1.5751925 1.3694711 1.2880248 0.033191912 -1.5598787 0.7260761 0.7918388 2.0098066
0.041544504 0.15207402 -0.80049676 -0.21301737 -0.9243938 -1.5947106 -1.0985187 -0.5597882
-0.505325 -1.4603738 -1.9538528 0.13355547 1.0213234 -0.5578018 0.668709 0.67923737
1.7987758 -0.915432 0.98250026 -0.35211325 -1.1350923 0.35220513 0.45859995 1.3380555
0.49018672 2.053808 -0.52441657 -0.9239988 0.2028998 1.0632508 1.2886051 0.41066512
-0.76587665 -1.0353972 -0.48380518 -0.64807415 0.16150858 0.46138456 -0.19150871 -2.3291204
-0.41184872 1.0774869 -1.7461271 1.4972494 0.3377566 -0.5253374 1.0752288 1.7373241
-0.040946674 1.714443 0.15294068 -1.0686656 -0.58899826 0.13150853 0.44217154 1.9685285
-0.050536357 -0.8843836 -2.0455718 -1.104421 0.073146515 0.11033313 0.21795905 0.38244748
-0.95651335 0.28944874 -0.5607914 0.51316077 -0.91384107 -0.021985859 -0.3237576 1.3930396
1.2191563 -0.711033 0.85051507 0.48678443 0.520857 0.580689 0.5560314 0.16489965
00000000: 8cb5 f83f f8a9 bc3f 4462 6c3f fc8b 06c0
00000010: 4ca2 2f3f f8c5 9fbf 3187 9dbd 4726 cebf
00000020: 36cc 41bf 8f8f d03f c92f c3be a646 b3bf
00000030: bc16 33bf 9fc5 0fbf 0f78 46bf 0616 413f
00000040: fe6a d33f 67a0 febd 7efd edbe 94e9 e53e
00000050: 30c3 34bf d692 8b3f cb0e 433f db41 d93f
00000060: 612c a03f 2908 aa3f 3855 163f 9167 a73f
00000070: 3a45 77be 8a2b d73c 5b76 82be 2593 5c3f
00000080: adbf b5bf f7be 60bf be92 4ebe d069 de3f
00000090: 24df 953e 3b6d c7be 28ad a43e 494b 3cbf
000000a0: 4625 c3bf 9d1f 813f 7de9 63bf ae4f 1bbf
000000b0: 22b4 a2bf 3e77 0640 b3c1 9bbf 1d6c 02bf
000000c0: cd37 67bf d82b 25bf 4e09 7b3d 7ce5 033f
000000d0: 3b3a 01bf a24c 963f 7e0a 4cbf 05c1 3bbf
000000e0: 1f5e b3bf b9fb 0cbc 7fbc 5dbd 8cc7 283f
000000f0: 14ab cdbd a345 eb3f 2e65 96bf 7a03 b23f
00000100: a8e1 b33f a7b3 633f 8c9b 0c40 4eb8 013f
00000110: 6611 a33e dfba 19be 19e3 80bf c68b a53f
00000120: 7675 eebd 8fd6 143f b642 8e3d 7d88 cc3e
00000130: bff3 163f 6e20 25bf 04a6 0cc0 049b 42bf
00000140: f8d8 a3bb c998 bbbe 986a b0bf 2a50 08bf
00000150: 4198 fe3e 2028 043f 04df 943f 7a3b a23b
00000160: 6f82 313f 858c 03bf d474 87bf 3cfb 0f3f
00000170: 0cd5 e0bf b5ed 46bf a8c6 ae3f 8ab3 ec3e
00000180: 2148 1fc0 27e8 f13e 626e 4a3f 71d0 573b
00000190: 5a47 203f 30db 153f 9692 873f 414e e7be
000001a0: b955 5cbe d94c 433f 9e91 c93e 413c 5c3e
000001b0: 1552 8c3e 26e5 a53f 24ab afbb 75a6 b0be
000001c0: b311 b9bf 4705 c7bd bd9c 10bf e4bc 063f
000001d0: c0b9 383f f689 063e 96c0 d6be 6c0c 063f
000001e0: dbc1 35bd dffa 8a3e 73bd e43d 4320 353f
000001f0: a57a 8e3f 2afb bb3e 41ad 353f 4b99 d13e
00000200: 5bd6 f93f 1d75 803f 2fe9 b7bf 7d34 91bf
00000210: 6fca 10be bfc8 ce3f d6ab 2a3f a3c3 153f
00000220: 0d95 903f 8b7f ec3c 6c7b e5bf 189f 693f
00000230: 0553 c0be d599 873f 1bf2 36bf 6bff 1d3f
00000240: a7e1 72bf 760d 733f a5e8 c83f 6f70 b93f
00000250: e29f 8c3e 907d 3dbe af65 39bf 51ab d33d
00000260: c952 a63e e745 743f 748c f8be 3939 cb3f
00000270: cf6b 1dc0 bb15 ccbe 74c4 99bf 92a3 4a3f
00000280: b824 f4bf 8331 693e 060a 173c 4150 a9be
00000290: f95f 8f3e 4fa7 36bf 1dcb 4f3e 7ca0 87bf
000002a0: e89f c9bf d44a af3f ffdd a43f 3ef4 073d
000002b0: 1baa c7bf 20e0 393f f3b5 4a3f aca0 0040
000002c0: 922a 2a3d 4bb9 1b3e 5bed 4cbf 3a21 5abe
000002d0: 12a5 6cbf 7a1f ccbf 439c 8cbf 484e 0fbf
000002e0: fb5c 01bf 87ed babf d917 fabf c4c2 083e
000002f0: baba 823f 19cc 0ebf 8330 2b3f 80e2 2d3f
00000300: 493e e63f c059 6abf 2385 7b3f 3048 b4be
00000310: b44a 91bf 3b54 b43e 9dcd ea3e 6745 ab3f
00000320: c1f9 fa3e 9771 0340 2a40 06bf 2f8b 6cbf
00000330: f7c4 4f3e 9a18 883f 03f1 a43f b342 d23e
00000340: 7e10 44bf e587 84bf 50b5 f7be 30e8 25bf
00000350: 8162 253e 993a ec3e dc1a 44be 4f10 15c0
00000360: d6dd d2be 17eb 893f 1881 dfbf dea5 bf3f
00000370: 6fee ac3e 837c 06bf 19a1 893f a360 de3f
00000380: b3b7 27bd de72 db3f 7b9c 1c3e 09ca 88bf
00000390: 97c8 16bf 2caa 063e 4f64 e23e bef8 fb3f
000003a0: 36ff 4ebd f766 62bf a6ea 02c0 ab5d 8dbf
000003b0: d7cd 953d 56f6 e13d a830 5f3e 28d0 c33e
000003c0: 0fde 74bf a032 943e 0690 0fbf 815e 033f
000003d0: 7df1 69bf b01b b4bc 8ec3 a5be 1f4f b23f
000003e0: 500d 9c3f 4206 36bf 5bbb 593f cf3b f93e
000003f0: e256 053f 09a8 143f 1358 0e3f 74db 283e

blocks.0.norm1.weight f4 [32]
1.0229222 1.0069094 0.98512906 0.9900849 1.0054878 0.9925265 1.0142727 0.9910179
1.0170361 1.0027652 0.9882886 1.001402 1.0021342 1.0046691 0.99290437 0.99781406
1.008501 0.99763834 1.0031623 1.0023158 0.99751985 1.0061481 1.0072944 0.9876768
1.0034963 0.9993176 1.0018059 0.9863529 0.98801893 1.0031077 0.99147487 1.0035558
00000000: 1def 823f 68e2 803f 6b31 7c3f 3476 7d3f
00000010: d3b3 803f 3716 7e3f b0d3 813f 59b3 7d3f
00000020: 3d2e 823f 9c5a 803f 7b00 7d3f f12d 803f
00000030: ef45 803f ff98 803f fb2e 7e3f be70 7f3f
00000040: 9016 813f 3a65 7f3f 9f67 803f e24b 803f
00000050: 765d 7f3f 76c9 803f 06ef 803f 63d8 7c3f
00000060: 9172 803f 47d3 7f3f 2d3b 803f a081 7c3f
00000070: cfee 7c3f d565 803f 4cd1 7d3f 8474 803f

blocks.0.norm1.bias f4 [32]
0.005913628 0.0051149516 -0.0032504548 0.003074247 -0.009837467 0.015597811 -0.0069860634 0.00035938784
-0.0056023793 0.0007817416 0.013071599 0.00019139823 -0.002798705 0.00759578 -0.0021354277 -0.0024885996
0.00961785 -0.0056499764 -0.0055059465 0.0033178395 -0.0038431163 0.004023082 -0.006027913 0.015445499
0.0035660092 -0.0039234175 -0.0078070853 -0.0029849885 0.0028600225 0.00079929363 -0.0037252053 0.0027833723
00000000: 1bc7 c13b 539b a73b 9505 55bb 4e79 493b
00000010: 542d 21bc f68d 7f3c 59eb e4bb 386c bc39
00000020: 2a94 b7bb caed 4c3a 432a 563c 12b2 4839
00000030: 7a6a 37bb 05e6 f83b 88f2 0bbb c617 23bb
00000040: 3094 1d3c 7023 b9bb 3a6b b4bb 1c70 593b
00000050: cbdc 7bbb 0fd4 833b cd85 c5bb 1e0f 7d3c
00000060: b5b3 693b 0390 80bb 94d2 ffbb cc9f 43bb
00000070: 376f 3b3b b087 513a 9322 74bb 3d69 363b

blocks.0.attn.qkv.weight f4 [96, 32]
0.14071606 -0.14589308 -0.020416358 -0.17645244 -0.1449992 0.018775577 0.04120917 0.024755562
-0.06991865 0.14935169 0.025490636 -0.08795712 0.0044706017 0.04518431 0.055188905 -0.09896658
0.04720568 -0.087598085 -0.15917668 -0.09516394 0.19550428 0.1476972 0.1648877 0.10590801
0.1364524 -0.04105808 -0.0996253 0.088916376 -0.10002163 -0.106780834 -0.053246617 0.04102492
0.08310034 -0.05094256 -0.07666324 0.016477339 -0.09719543 -0.08877188 0.09515528 0.0051108394
0.17451727 0.19058383 0.037713964 0.0417451 0.01832697 -0.00013169006 0.0051390575 -0.02873926
0.08970803 0.15419087 -0.031430364 -0.08619638 -0.08357699 -0.07557508 0.008034822 0.11397252
0.12236155 0.1045264 -0.12609422 -0.08896309 -0.0022889578 -0.053519443 0.007728661 -0.16032925
0.057549432 -0.12911533 -0.098754495 -0.15048362 0.16071051 -0.1682341 0.122864045 -0.00082266534
-0.029478837 0.110421844 -0.023959417 0.109861046 0.12201577 -0.14677183 0.06694327 0.02645096
0.040733855 0.019421078 0.048755903 -0.094523735 -0.019856378 0.17319462 0.11820828 -0.007673275
-0.17037842 0.012066626 -0.12432814 0.1504848 -0.0980796 -0.017693732 -0.046192363 0.032130204
0.1903299 0.027590355 0.051027555 0.15764554 0.15148778 -0.07820019 -0.059452076 0.043831587
-0.06975739 0.079371415 -0.012128259 -0.12920885 0.07460214 0.047998082 0.046250183 0.19440477
0.125766 0.15606979 0.021261837 -0.16302514 -0.08074954 -0.09188389 -0.1203709 -0.056245398
-0.14160614 -0.16374478 -0.11447197 -0.15732157 -0.15089574 0.062342208 0.13081776 -0.07351182
-0.04066471 0.104635604 -0.090887636 -0.080607004 0.1231485 -0.1625046 0.0038819257 0.14944318
0.018993042 0.043184802 -0.102072366 -0.005949641 0.0039835167 0.05596653 0.05839234 0.15572569
-0.13055919 -0.007833243 -0.080247745 -0.1541847 0.004018496 -0.141802 0.13076063 0.02855732
-0.09698263 0.09761815 -0.17522821 -0.05380571 -0.03536828 -0.15965818 -0.12579498 -0.035872463
0.13148944 0.17473596 0.16378996 -0.115373954 -0.10426698 0.16765517 0.05534602 0.031476002
0.040124554 -0.13695148 -0.06951603 0.17138352 -0.056035377 -0.008554944 -0.14164227 -0.11916585
0.0061238445 -0.114979126 -0.026680356 0.060301427 -0.20487402 0.052952733 -0.1263008 -0.094231546
0.063973896 0.15147069 -0.04854325 -0.06591116 -0.13273726 -0.099626236 -0.15773316 -0.03286957
0.032061454 -0.16423172 0.14337172 0.1136903 -0.16791333 -0.10126988 0.05506829 -0.033463325
-0.028623348 -0.080526516 0.13830782 -0.09906357 0.14792398 0.02098239 0.036705118 0.14626248
-0.038804058 -0.10667541 -0.026756836 0.14098777 -0.12248095 0.046162464 -0.18064308 0.08720818
0.06023748 0.0006358062 0.074117154 0.0053534163 0.104075804 -0.13813858 -0.02687644 0.08019337
0.1774922 0.08928727 -0.13671276 0.12732264 -0.035057545 -0.048267167 -0.16790418 -0.029790659
0.11173962 0.014354668 -0.110189855 0.060189363 -0.0521978 0.16532351 -0.15427601 -0.039396178
-0.1758017 -0.07330589 0.05332149 0.16410856 0.046009913 0.1763762 0.035985265 0.101865955
0.14041057 0.14445537 -0.10409541 0.16780955 0.10882444 -0.080956176 -0.08915354 -0.14496195
00000000: df17 103e ff64 15be 3540 a7bc f3af 34be
00000010: ac7a 14be 3dcf 993c f2ca 283d 2dcc ca3c
00000020: 8231 8fbd a6ef 183e bdd1 d03c dd22 b4bd
00000030: 207e 923b 2f13 393d c30d 623d feae cabd
00000040: be5a 413d a066 b3bd 36ff 22be 50e5 c2bd
00000050: 4632 483e ef3d 173e 52d8 283e 4ce6 d83d
00000060: 2eba 0b3e 842c 28bd 5908 ccbd ca19 b63d
00000070: 24d8 ccbd e9af dabd 2019 5abd bf09 283d
00000080: 8330 aa3d 25a9 50bd 9e01 9dbd 7cfb 863c
00000090: 660e c7bd 08ce b5bd c5e0 c23d d478 a73b
000000a0: a8b4 323e 6828 433e f579 1a3d e9fc 2a3d
000000b0: 7122 963c 4816 0ab9 8a65 a83b 996e ebbc
000000c0: d8b8 b73d 36e4 1d3e 20bd 00bd ba87 b0bd
000000d0: 6a2a abbd 1cc7 9abd 7ca4 033c 6d6a e93d
000000e0: b198 fa3d f011 d63d d81e 01be 4832 b6bd
000000f0: 5702 16bb 3437 5bbd b540 fd3b 5a2d 24be
00000100: f4b8 6b3d cf36 04be cc3f cabd 6118 1abe
00000110: 4c91 243e 8f45 2cbe 25a0 fb3d 23a8 57ba
00000120: 9a7d f1bc d924 e23d 8a46 c4bc d4fe e03d
00000130: 67e3 f93d 5b4b 16be 8e19 893d afaf d83c
00000140: 8bd8 263d f418 9f3c 45b4 473d a995 c1bd
00000150: d8a9 a2bc ee59 313e 2f17 f23d 1970 fbbb
00000160: ae77 2ebe 19b3 453c c09f febd b018 1a3e
00000170: f5dd c8bd 72f2 90bc 3434 3dbd f69a 033d
00000180: d7e5 423e 2b05 e23c 4502 513d d56d 213e
00000190: 9d1f 1b3e 6c27 a0bd 0584 73bd c088 333d
000001a0: f6dc 8ebd 7b8d a23d 9bb5 46bc 534f 04be
000001b0: 02c9 983d a399 443d d570 3d3d 0b12 473e
000001c0: cdc8 003e c2d0 1f3e 4e2d ae3c 10f0 26be
000001d0: 0460 a5bd 9f2d bcbd 0585 f6bd 9361 66bd
000001e0: 3301 11be b6ac 27be 4870 eabd e818 21be
000001f0: 6a84 1abe 8b5a 7f3d 17f5 053e 5d8d 96bd
00000200: 0a90 26bd 314b d63d 4c23 babd 4915 a5bd
00000210: 4835 fc3d 9b67 26be e867 7e3b a207 193e
00000220: 4c97 9b3c 8ce2 303d 510b d1bd 35f5 c2bb
00000230: 2988 823b 293d 653d ce2c 6f3d 8e76 1f3e
00000240: 4fb1 05be 0157 00bc ee58 a4bd 98e2 1dbe
00000250: 96ad 833b 8b34 11be 1de6 053e 0af1 e93c
00000260: d49e c6bd 06ec c73d 066f 33be 6063 5cbd
00000270: 54de 10bd 6f7d 23be 66d0 00be 01ef 12bd
00000280: 2ba5 063e fced 323e 8eb8 273e 2e49 ecbd
00000290: ed89 d5bd ccad 2b3e 82b2 623d fbec 003d
000002a0: a559 243d 023d 0cbe 6c5e 8ebd 297f 2f3e
000002b0: 5a85 65bd 092a 0cbc ac0a 11be 3a0d f4bd
000002c0: 88aa c83b 2d7a ebbd c390 dabc a1fe 763d
000002d0: 7fca 51be f7e4 583d ff54 01be 78fc c0bd
000002e0: bf04 833d 221b 1b3e 49d5 46bd 6efc 86bd
000002f0: 47ec 07be d708 ccbd cd84 21be 3ea2 06bd
00000300: df52 033d 5c2c 28be 09d0 123e 76d6 e83d
00000310: 79f1 2bbe 9566 cfbd 4a8f 613d d710 09bd
00000320: 837b eabc 16eb a4bd 91a0 0d3e d7e1 cabd
00000330: 6279 173e 43e3 ab3c 1b58 163d d5c5 153e
00000340: 01f1 1ebd a378 dabd 2731 dbbc 195f 103e
00000350: 4bd7 fabd da14 3d3d 80fa 38be 349a b23d
00000360: 93bb 763d 3bac 263a bcca 973d b66b af3b
00000370: b225 d53d 3374 0dbe fb2b dcbc 6c3c a43d
00000380: 84c0 353e 3fdc b63d 6efe 0bbe de60 023e
00000390: 8098 0fbd cbb3 45bd 13ef 2bbe 8a0b f4bc
000003a0: bed7 e43d d72f 6b3c 38ab e1bd 1f89 763d
000003b0: 5ccd 55bd 914a 293e 88fa 1dbe e35d 21bd
000003c0: 5c05 34be 6621 96bd a267 5a3d 130c 283e
000003d0: e474 3c3d f69b 343e 4965 133d 199f d03d
000003e0: cac7 0f3e 1cec 133e f92f d5bd 44d6 2b3e
000003f0: 59df de3d 5acc a5bd 2296 b6bd e870 14be

blocks.0.attn.proj.weight f4 [32, 32]
-0.06376361 0.11874391 -0.12712015 -0.1434818 -0.13374338 -0.10462664 0.16359603 0.028285364
-0.025063151 -0.05175466 -0.13693818 -0.052631818 0.09093133 0.12438792 0.12976135 0.012757898
-0.095190704 -0.10252734 0.16628471 -0.16270544 0.040831696 -0.019952562 0.17815414 0.105233364
-0.056479968 -0.14451969 0.04217524 -0.119920984 -0.025399186 0.04516886 0.09389761 -0.04197212
-0.10885262 -0.12986769 -0.18238796 0.020864477 -0.11794439 0.014135252 -0.08390335 -0.121394314
0.11499935 0.103391334 0.13045006 0.19588242 -0.13206786 -0.107926354 -0.1440599 0.111822
0.08706202 0.14667822 -0.130816 -0.104224674 0.165679 -0.1280048 -0.15118498 0.076640874
-0.14872256 -0.05261983 0.103484325 0.13657454 -0.011668754 -0.14615539 0.10823163 0.18314621
-0.13587579 0.005978769 -0.12589812 -0.11621133 0.07076441 0.07231096 0.06535083 -0.14078695
-0.031495117 0.049005095 -0.027415005 -0.09259127 -0.08621328 0.1690639 -0.14154068 -0.10710528
0.13373294 -0.12448656 0.11868025 -0.08836611 -0.006978005 -0.085433565 0.13717368 0.11321046
0.03947278 0.014160159 -0.069395 -0.08961194 -0.06793383 0.05667917 -0.023407888 0.10758506
0.022200003 -0.007702747 -0.09383566 0.07457892 -0.16010556 0.039617784 0.065473236 0.027896104
0.12079514 0.04527065 -0.047655612 -0.14598359 -0.16762061 0.09629143 0.10047778 -0.12962762
0.051394004 -0.06288897 0.14605114 -0.05818078 0.14821906 0.13077168 0.117951944 0.1214724
0.064839266 0.053992797 -0.17805308 -0.040041823 -0.019154502 0.08088385 -0.084015556 0.06887574
0.11877591 0.073203795 0.079779394 -0.020603996 0.09334811 -0.063662015 0.14053698 0.0067454246
-0.007709672 -0.15573733 0.16033751 -0.03199877 0.13194467 -0.12187213 -0.14296135 -0.021732733
-0.13781199 0.02970517 0.0041484437 -0.062386867 0.10766239 0.1177766 -0.15066968 -0.1419959
0.09576991 -0.10248342 0.023054441 -0.04423596 0.024819234 -0.095217265 -0.0067700176 -0.054445576
-0.08170806 -0.09576915 0.038943067 0.12246657 -0.0067254 -0.0041190158 0.1357862 0.13532668
-0.028925162 -0.1350137 0.04642539 0.06091977 -0.14134325 -0.16112855 0.023114003 0.16411722
-0.15185927 -0.08793782 -0.057883557 -0.15424748 -0.1062808 0.1371283 0.13781244 -0.13491042
-0.00034567865 -0.14247197 0.063597575 -0.117901154 -0.091679156 -0.0847161 0.02909554 0.1154562
-0.07060273 0.03334181 0.14606757 -0.0051689427 0.008287103 0.015213926 0.014816044 0.09647487
0.096053414 -0.098969854 0.16505495 0.09606602 -0.025559898 0.1549904 0.008666504 0.10837664
-0.15532923 0.15914927 0.16022147 -0.13016176 -0.16262749 -0.04494066 -0.13068193 0.060199816
0.095715754 -0.022026865 0.11707784 0.0105360225 -0.052356657 -0.15678595 0.03981561 -0.17463776
0.0063215895 0.025843717 -0.111003645 0.062637426 0.028393682 0.12491926 0.0878921 -0.15169853
-0.138586 -0.050697338 -0.11839989 0.061676808 -0.12344469 -0.12982455 0.045381486 0.09489679
-0.05587533 -0.17539722 0.021807706 0.08003685 0.13293524 0.012927122 0.13696091 -0.15756796
0.1562753 -0.123842925 -0.10911625 0.121412195 -0.031098772 0.11246479 -0.089985855 0.13151638
00000000: 7f96 82bd 0230 f33d c92b 02be e5ec 12be
00000010: 06f4 08be 7e46 d6bd b885 273e b5b6 e73c
00000020: 3d51 cdbc b2fc 53bd 8639 0cbe 7694 57bd
00000030: 353a ba3d 18bf fe3d 29e0 043e 8106 513c
00000040: 58f3 c2bd dbf9 d1bd 8a46 2a3e 419c 26be
00000050: 233f 273d 8e73 a3bc 0a6e 363e 9784 d73d
00000060: 8a57 67bd f8fc 13be f2bf 2c3d 2299 f5bd
00000070: f411 d0bc fc02 393d 644d c03d f5ea 2bbd
00000080: 1fee debd 09fc 04be e9c3 3abe fbeb aa3c
00000090: d48c f1bd 8b97 673c 85d5 abbd 959d f8bd
000000a0: c784 eb3d d6be d33d b394 053e 6795 483e
000000b0: cc3c 07be 7e08 ddbd 7084 13be ef02 e53d
000000c0: 934d b23d d132 163e a1f4 05be bf73 d5bd
000000d0: c1a7 293e b113 03be 3cd0 1abe e4f5 9c3d
000000e0: ba4a 18be e487 57bd 97ef d33d 32da 0b3e
000000f0: 4d2e 3fbc c2a9 15be 8ba8 dd3d ae8a 3b3e
00000100: 0623 0bbe 8de9 c33b 70eb 00be 3500 eebd
00000110: eeec 903d c517 943d a8d6 853d 742a 10be
00000120: 0601 01bd 91b9 483d 6f95 e0bc 7ea0 bdbd
00000130: 9790 b0bd 161f 2d3e 0af0 10be 035a dbbd
00000140: 4af1 083e cff2 febd a20e f33d 4bf9 b4bd
00000150: c0a7 e4bb cbf7 aebd 4277 0c3e e3da e73d
00000160: 36ae 213d 0300 683c f71e 8ebd 7786 b7bd
00000170: e420 8bbd 6b28 683d e6c1 bfbc 8e55 dc3d
00000180: c8dc b53c 5367 fcbb e92c c0bd d5bc 983d
00000190: b6f2 23be 4246 223d d516 863d 5f86 e43c
000001a0: 7163 f73d b86d 393d 8832 43bd b97c 15be
000001b0: bda4 2bbe 7134 c53d 4bc7 cd3d 1abd 04be
000001c0: 8582 523d efcb 80bd 6e8e 153e f84e 6ebd
000001d0: bdc6 173e 03e9 053e ca90 f13d 86c6 f83d
000001e0: 73ca 843d 8d27 5d3d 8c53 36be e502 24bd
000001f0: e7e9 9cbc 6fa6 a53d 5910 acbd b90e 8d3d
00000200: c940 f33d dfeb 953d 6163 a33d b6c9 a8bc
00000210: 4b2d bf3d 3b61 82bd ede8 0f3e b908 dd3b
00000220: 6ba1 fcbb 9b79 1fbe 842f 243e 2411 03bd
00000230: 811c 073e 1898 f9bd 7664 12be d808 b2bc
00000240: 961e 0dbe 4258 f33c abef 873b 5f89 7fbd
00000250: 197e dc3d dc34 f13d 2749 1abe 6067 11be
00000260: 0423 c43d d4e2 d1bd abdc bc3c c430 35bd
00000270: b551 cb3c 4501 c3bd 06d7 ddbb 5302 5fbd
00000280: 8e56 a7bd 9e22 c4bd c482 1f3d c1cf fa3d
00000290: bf60 dcbb cff8 86bb 8a0b 0b3e 1493 0a3e
000002a0: 76f4 ecbc 0841 0abe 8d28 3e3d 0287 793d
000002b0: 49bc 10be e2fe 24be 9459 bd3c 580e 283e
000002c0: ff80 1bbe be18 b4bd 4f17 6dbd 0df3 1dbe
000002d0: c0a9 d9bd 5c6b 0c3e b41e 0d3e f525 0abe
000002e0: 343c b5b9 2ce4 11be 723f 823d 2976 f1bd
000002f0: 48c2 bbbd a27f adbd c559 ee3c 4d74 ec3d
00000300: 2a98 90bd 6c91 083d bd92 153e 3c60 a9bb
00000310: a1c6 073c d543 793c febe 723c 9e94 c53d
00000320: a7b7 c43d b5b0 cabd 2a04 293e 43be c43d
00000330: fe62 d1bc ceb5 1e3e f4fd 0d3c 92f4 dd3d
00000340: a00e 1fbe 07f8 223e 1911 243e 2049 05be
00000350: d287 26be b313 38bd 7cd1 05be 1594 763d
00000360: 9f06 c43d af71 b4bc 82c6 ef3d 489f 2c3c
00000370: ef73 56bd 7f8c 20be b115 233d 3ed4 32be
00000380: 5625 cf3b 34b6 d33c e155 e3bd 0d48 803d
00000390: de99 e83c abd5 ff3d c600 b43d dc56 1bbe
000003a0: 7de9 0dbe 03a8 4fbd a47b f2bd d2a0 7c3d
000003b0: 92d0 fcbd baf0 04be f0e1 393d 4059 c23d
000003c0: 88dd 64bd 549b 33be 13a6 b23c 5cea a33d
000003d0: 2d20 083e 48cc 533c 7b3f 0c3e 7f59 21be
000003e0: a206 203e 5ca1 fdbd 5778 dfbd f5a6 f83d
000003f0: dac2 febc f153 e63d 814a b8bd 3bac 063e

blocks.0.attn.proj.bias f4 [32]
0.11992457 0.012904151 0.16269654 -0.09075769 -0.059212368 0.0030616375 0.095907 -0.14765534
-0.05056633 0.1354826 0.044294458 0.124328844 -0.0639481 -0.11326943 -0.109270565 -0.107440695
-0.12970583 0.07909393 0.05279541 -0.111688375 0.14640452 0.041990403 0.06549017 -0.07241183
0.11959683 -0.11643778 0.120628305 -0.08936439 0.07035074 -0.069777384 0.10875085 -0.13750125
00000000: 039b f53d ef6b 533c ec99 263e 2bdf b9bd
00000010: ab88 72bd c1a5 483b e46a c43d f632 17be
00000020: a41e 4fbd f3bb 0a3e 1b6e 353d 1fa0 fe3d
00000030: 39f7 82bd cef9 e7bd 3fc9 dfbd de09 dcbd
00000040: 9bd1 04be 00fc a13d 0040 583d e0bc e4bd
00000050: 11eb 153e 21fe 2b3d b61f 863d a74c 94bd
00000060: 2fef f43d ee76 eebd f90b f73d ad04 b7bd
00000070: 0c14 903d 72e7 8ebd c4b8 de3d 21cd 0cbe

blocks.0.norm2.weight f4 [32]
1.023839 1.0133942 1.0126396 1.007173 0.97000957 0.9751684 0.9944732 1.0081201
1.0066489 1.0035188 0.9933675 1.006764 1.0142967 0.9876621 0.993048 0.9942748
1.0146246 0.9938582 0.97496635 0.9940582 0.9938805 0.9815218 0.99458396 1.0161438
1.0021987 1.0089474 1.0008296 1.0004604 1.0088788 1.0176973 0.99776304 1.0149877
00000000: 280d 833f e7b6 813f 2d9e 813f 0beb 803f
00000010: 8c52 783f a3a4 793f cc95 7e3f 140a 813f
00000020: dfd9 803f 4e73 803f 554d 7e3f a5dd 803f
00000030: 79d4 813f 6cd7 7c3f 6538 7e3f cb88 7e3f
00000040: 38df 813f 7e6d 7e3f 6597 793f 997a 7e3f
00000050: f46e 7e3f 0345 7b3f 0e9d 7e3f 0011 823f
00000060: 0c48 803f 3025 813f 2f1b 803f 160f 803f
00000070: f122 813f e843 823f 666d 7f3f 1eeb 813f

blocks.0.norm2.bias f4 [32]
0.00251096 -0.005263383 -0.007887034 -0.020557454 -0.0056705354 0.0029503622 0.008244548 -0.006779067
0.001503894 0.004888124 0.008206083 -0.011451536 0.0016496349 -0.023570301 0.0072256355 -0.0030399512
0.0030907593 -0.0049436 0.015554561 -0.006166914 -0.0030049244 -0.0058181817 0.0030428332 0.002230372
0.007051045 -0.00012138235 -0.0038210761 -0.0010075233 -0.008231589 -0.00019989989 -0.005493997 0.010385917
00000000: eb8e 243b 7578 acbb 9e38 01bc 1b68 a8bc
00000010: e6cf b9bb dd5a 413b 2414 073c f022 debb
00000020: 4f1e c53a 8e2c a03b cf72 063c 399f 3bbc
00000030: 9038 d83a 8116 c1bc 06c5 ec3b eb39 47bb
00000040: 568e 4a3b ecfd a1bb 8fd8 7e3c d313 cabb
00000050: 44ee 44bb 72a6 bebb 456a 473b 6f2b 123b
00000060: 740c e73b a78e feb8 056b 7abb df0e 84ba
00000070: c9dd 06bc 389c 51b9 fd06 b4bb b129 2a3c

blocks.0.mlp.fc1.weight f4 [128, 32]
-0.024912434 -0.05660592 -0.1575155 -0.06421772 -0.05970123 0.013876556 0.13432676 -0.03665672
0.20400886 -0.07024722 -0.069267675 -0.010839522 -0.05127448 0.061224014 0.17828666 0.05776675
-0.13265978 -0.07925462 -0.020148197 -0.14665537 0.048822895 0.22502762 0.044377457 0.0024905384
-0.026365984 -0.08035203 -0.030169358 0.15738437 -0.12290501 0.036450587 -0.11025268 -0.049026586
0.016397303 -0.14847639 0.026720785 -0.16371858 -0.10398999 0.1095757 0.19344655 -0.027832894
-0.09415013 -0.1547454 -0.0270956 -0.08054576 0.1453966 -0.14019202 0.10443746 0.042890668
-0.041168783 0.13739568 0.0965351 0.014435154 -0.10943873 -0.031721786 0.023797596 0.16189966
-0.05174641 -0.09374121 -0.15585485 0.09475863 0.22490185 0.1297541 -0.09214208 0.12664774
-0.053538922 0.09515708 0.11593785 -0.14536099 0.046052232 0.075456634 -0.11581483 0.1706815
0.12643716 0.14901935 -0.012669609 -0.11464069 -0.09602313 0.07027215 -0.04042561 0.1314706
0.1548586 0.012192052 -0.14911786 0.063793115 0.1639584 -0.037961576 -0.1041397 -0.036267705
0.030718219 -0.12091623 0.10394359 0.0674404 -0.072873294 -0.06033727 -0.07161538 0.12731512
0.10715135 0.04830177 -0.021776324 0.041205592 0.15805277 0.0381402 -0.07520846 0.059747886
-0.07343279 -0.006482885 -0.1192396 0.0070909224 0.021447526 -0.09881513 0.10304148 0.16374092
-0.19024724 0.06199361 -0.12907252 -0.020162268 0.09208584 0.018077428 0.059090372 -0.050479658
0.17647243 -0.08960176 0.03520121 0.00807637 0.103830606 0.03505392 0.124367885 0.036010597
0.13168967 -0.015429004 0.07362595 0.17531916 -0.056736823 -0.06060833 0.12630789 0.07105844
-0.15776865 0.07539182 -0.16960827 -0.09637896 0.05973279 0.081459574 -0.036910936 0.14162703
0.17364633 0.13499008 -0.14291413 -0.064836144 0.0052175648 0.14785187 -0.033319503 0.043023217
0.08432505 -0.08557713 -0.11277678 0.16209915 -0.00026723355 0.12177488 -0.1876576 -0.07444772
0.14370312 -0.019443203 0.057030525 -0.14641243 0.16215347 -0.08590413 -0.0024077762 -0.1212942
-0.07729428 -0.1544614 -0.15137912 -0.023958758 -0.076022334 0.12133028 -0.0007151287 0.13413939
-0.034993418 0.040921807 0.1683801 -0.12806968 -0.08106998 0.1256814 -0.022436388 -0.05996323
0.015370685 -0.10105419 0.008214283 -0.06623845 0.059920847 -0.03899787 -0.064064935 -0.056441903
0.027853264 0.076945156 -0.18852061 -0.12623642 -0.17723097 0.09316748 0.11831609 -0.17060551
0.018251011 0.03207281 -0.08442908 0.045367308 0.15145393 0.18554921 0.06280808 -0.035252895
-0.11755647 -0.07262943 -0.0099934 -0.002000972 0.13411929 -0.13498832 0.013639429 -0.043447
0.017156575 0.17708537 0.011577846 -0.030380419 -0.052824076 -0.1419526 -0.15152118 0.07554572
-0.09843948 0.09919575 -0.0602437 0.03283111 0.1379504 -0.0036385204 0.078156084 0.13374205
-0.07194851 0.1281149 -0.16859397 0.18273166 -0.039611693 0.0071477634 0.08993977 0.033466503
0.11250024 -0.06305948 -0.106321596 0.16633396 -0.10758519 0.1081591 0.16780971 0.13600743
-0.05485949 -0.0035147679 -0.16294065 -0.08506491 -0.054805707 -0.10715141 0.07549683 0.10718456
00000000: 2915 ccbc 9cdb 67bd be4b 21be 9484 83bd
00000010: 4789 74bd 7f5a 633c f48c 093e 5b25 16bd
00000020: b3e7 503e c6dd 8fbd 36dc 8dbd 4098 31bc
00000030: 3005 52bd 08c6 7a3d c790 363e d49c 6c3d
00000040: f7d7 07be 3f50 a2bd d50d a5bc d32c 16be
00000050: 84fa 473d a46d 663e 23c5 353d 4d38 233b
00000060: 7afd d7bc 9b8f a4bd bb25 f7bc 5e29 213e
00000070: 9fb5 fbbd 364d 153d 28cc e1bd 1ad0 48bd
00000080: a353 863c 320a 18be 8ce5 da3c d8a5 27be
00000090: b4f8 d4bd 3969 e03d da16 463e cf01 e4bc
000000a0: c9d1 c0bd 9475 1ebe 97f7 ddbc 2df5 a4bd
000000b0: d9e2 143e 7f8e 0fbe 4fe3 d53d 20ae 2f3d
000000c0: 99a0 28bd 74b1 0c3e 32b4 c53d 6d81 6c3c
000000d0: 6a21 e0bd b4ee 01bd 2df3 c23c 06c9 253e
000000e0: 0bf4 53bd 64fb bfbd 6a98 1fbe d010 c23d
000000f0: ac4c 663e 42de 043e fdb4 bcbd f2af 013e
00000100: a14b 5bbd b7e1 c23d d370 ed3d 83d9 14be
00000110: 44a1 3c3d 0289 9a3d 5330 edbd 22c7 2e3e
00000120: be78 013e 8798 183e 3194 4fbc bdc8 eabd
00000130: c6a7 c4bd d8ea 8f3d 5395 25bd 3ba0 063e
00000140: 4193 1e3e 2cc1 473c 5ab2 18be f7a5 823d
00000150: b6e4 273e 997d 1bbd 3247 d5bd 728d 14bd
00000160: c6a4 fb3c eea2 f7bd 60e0 d43d 311e 8a3d
00000170: 983e 95bd 3724 77bd 16ab 92bd e55e 023e
00000180: 2b72 db3d 14d8 453d 4364 b2bc 32c7 283d
00000190: 96d8 213e e638 1c3d e506 9abd 33ba 743d
000001a0: ee63 96bd 626e d4bb e433 f4bd f85a e83b
000001b0: b9b2 af3c 965f cabd 6907 d33d b3ab 273e
000001c0: 2cd0 42be 03ed 7d3d 962b 04be 572b a5bc
000001d0: 8097 bc3d 1d17 943c bf08 723d c2c3 4ebd
000001e0: 30b5 343e 2181 b7bd 252f 103d c052 043c
000001f0: 24a5 d43d b394 0f3d 97b4 fe3d d97f 133d
00000200: a8d9 063e efc9 7cbc 34c9 963d de86 333e
00000210: df64 68bd 7140 78bd db56 013e 1687 913d
00000220: 1b8e 21be 0767 9a3d caad 2dbe 5562 c5bd
00000230: 5faa 743d 47d4 a63d ec2f 17bd ad06 113e
00000240: 58d0 313e d73a 0a3e 1558 12be d0c8 84bd
00000250: 1bf8 aa3b 7b66 173e 087a 08bd 1d39 303d
00000260: 9db2 ac3d 1043 afbd 83f7 e6bd 52fd 253e
00000270: 7b1b 8cb9 1c65 f93d 5029 40be 0c78 98bd
00000280: e926 133e 5a47 9fbc d798 693d 24ed 15be
00000290: 8f0b 263e 81ee afbd c8cb 1dbb 1869 f8bd
000002a0: 774c 9ebd 212b 1ebe 2103 1bbe 2845 c4bc
000002b0: 99b1 9bbd 037c f83d 7a77 3bba d65b 093e
000002c0: 4255 0fbd a09d 273d d56b 2c3e b324 03be
000002d0: 0508 a6bd a0b2 003e 84cc b7bc 019c 75bd
000002e0: 53d5 7b3c 80f5 cebd 3395 063c 06a8 87bd
000002f0: 906f 753d 3bbc 1fbd 7a34 83bd a02f 67bd
00000300: 872c e43c 6c95 9d3d 8c0b 41be 1f44 01be
00000310: 097c 35be 97ce be3d b54f f23d 36b3 2ebe
00000320: 2583 953c c75e 033d 27e9 acbd 12d3 393d
00000330: bd16 1b3e 9d00 3e3e 86a1 803d 5765 10bd
00000340: 72c1 f0bd bdbe 94bd 5cbb 23bc bd22 03bb
00000350: 9156 093e 613a 0abe e977 5f3c 7bf5 31bd
00000360: f28b 8c3c de55 353e 01b1 3d3c 5be0 f8bc
00000370: 0f5e 58bd 065c 11be 5e28 1bbe b7b7 9a3d
00000380: a39a c9bd 2427 cb3d 19c2 76bd ea79 063d
00000390: df42 0d3e 3e74 6ebb 4c10 a03d adf3 083e
000003a0: be59 93bd 8d30 033e e6a3 2cbe 021e 3b3e
000003b0: df3f 22bd c937 ea3b 5832 b83d 2c14 093d
000003c0: 8766 e63d 5425 81bd 23bf d9bd 7353 2a3e
000003d0: a055 dcbd 8582 dd3d 4fd6 2b3e 8845 0b3e
000003e0: 58b4 60bd 0558 66bb ead9 26be 8336 aebd
000003f0: f37b 60bd 3372 dbbd 159e 9a3d 9483 db3d

blocks.0.mlp.fc2.weight f4 [32, 128]
0.0034561648 -0.0055532805 -0.08094894 0.013237532 -0.07723593 0.0052061426 -0.004508175 0.0578637
-0.029476773 0.073859386 -0.009232148 -0.01616262 -0.086486384 0.07598356 0.009065336 -0.070146486
0.008991459 0.049172647 -0.02666066 0.05560318 0.03882447 -0.013730514 0.09830126 0.06970404
-0.008976537 -0.0025215433 0.053941336 -0.02554394 0.06282358 -0.07743097 -0.04069651 0.04298614
-0.10106749 -0.045758568 -0.042448644 0.041792013 -0.0060444134 -0.074728176 0.07736323 -0.041817315
-0.0032259137 0.0335253 -0.08447311 -0.007960167 -0.025026029 -0.03681465 -0.024730304 0.05406714
-0.05233287 -0.046743568 0.043723654 0.030785149 0.0027443469 0.008287566 0.08044508 -0.033827867
-0.07852303 -0.08239228 0.024337076 0.031478915 -0.016299948 -0.07135221 -0.06887032 -0.06969764
0.07482599 0.021205714 -0.0506289 -0.10318946 0.04950471 0.002505594 0.08357881 -0.058376957
-0.07224269 0.024236046 0.064225 0.09039548 0.09010676 0.056784313 0.030711 -0.04939582
0.0870903 -0.03334935 0.06975628 0.03976208 -0.04883317 -0.014028576 -0.0072708772 0.08658541
0.057165273 0.012939176 -0.0571206 0.015018625 0.06895621 -0.037241835 0.07438033 0.0006508876
0.058379512 0.03385989 0.04620561 -0.058498275 0.042835437 -0.08862753 -0.0076307515 0.07209807
-0.07561932 -0.07471583 -0.031491026 0.0056784204 -0.01821952 -0.06803462 0.018604085 -0.021365175
-0.043526642 0.00783426 0.031207616 0.014313738 -0.048871275 0.049902827 0.0074584573 -0.039642476
0.0792599 0.027816035 0.052108098 0.06895113 0.00028492307 0.06131486 0.03462491 0.06930101
0.007261984 0.09255362 0.04478748 -0.044027887 0.06831727 -0.002862262 -0.012283926 -0.08349709
-0.015116578 0.06409215 -0.06533283 0.037165537 0.061400533 -0.078345165 -0.008475406 0.019645305
0.07920925 0.013507731 -0.085672006 -0.042155992 0.040661342 -0.06045934 -0.0915532 -0.012182682
0.032328084 -0.0673783 -0.082527995 0.05321563 -0.056922514 -0.06487863 -0.02800074 0.07197796
-0.013297817 -0.059127867 -0.065444335 -0.02480855 0.080497466 0.055609137 -0.03525323 -0.08087649
-0.03196087 0.037793476 0.09127404 0.054454543 -0.07806506 0.02394015 0.0013721006 0.034311216
0.04468987 -0.032498203 0.008856386 0.02390055 0.015731439 -0.05227173 0.046607263 -0.08967715
0.044026673 -0.061770614 -0.03707437 -0.050369643 -0.008684061 -0.0058458364 -0.0913528 0.059623595
-0.0059021735 0.08462197 -0.04171272 -0.05348579 0.02198554 0.06800391 0.104083665 0.026441835
0.019235227 0.0047595217 -0.053884804 -0.070168674 -0.07293924 -0.067641385 0.004898842 0.06265057
0.07600109 -0.051461123 -0.018429166 0.0796768 0.0017101882 0.003616454 -0.04906008 0.0013401461
0.05363225 -0.048275884 -0.03115373 0.012821669 -0.034814995 -0.02831783 0.0061719576 0.05036245
-0.0052127996 0.017993983 -0.05607089 0.04868379 0.0052648806 -0.037240308 -0.10392134 -0.03699724
-0.076688655 -0.005341634 0.06933183 -0.005952678 0.074402004 -0.021462368 -0.020533068 -0.10191398
-0.05093719 0.06131163 0.048403632 0.05410792 -0.008586431 0.010585803 -0.024659544 0.07082524
-0.089527965 -0.052646786 -0.104349256 0.021553278 -0.029457573 -0.019765943 0.039856497 0.08072921
00000000: d380 623b 4bf8 b5bb 8fc8 a5bd 3ce2 583c
00000010: df2d 9ebd 4a98 aa3b 50b9 93bb 7d02 6d3d
00000020: 4679 f1bc 9743 973d 6f42 17bc 7967 84bc
00000030: c61f b1bd 459d 9b3d c686 143c f6a8 8fbd
00000040: ea50 133c 4269 493d 7567 dabc 29c0 633d
00000050: 6806 1f3d f3f5 60bc 2c52 c93d fec0 8e3d
00000060: 5312 13bc 7a40 25bb 97f1 5c3d 8641 d1bc
00000070: a6a9 803d 2194 9ebd 62b1 26bd 3c12 303d
00000080: 79fc cebd 566d 3bbd a1de 2dbd 1a2e 2b3d
00000090: 3710 c6bb 160b 99bd 9d70 9e3d a248 2bbd
000000a0: da69 53bb d351 093d 3d00 adbd 5c6b 02bc
000000b0: 6303 cdbc f5ca 16bd 3597 cabc 8175 5d3d
000000c0: fe5a 56bd 2f76 3fbd 9317 333d 2331 fc3c
000000d0: 80da 333b 92c8 073c 64c0 a43d 178f 0abd
000000e0: afd0 a0bd 49bd a8bd 8c5e c73c 09f0 003d
000000f0: 7887 85bc 1c21 92bd e20b 8dbd a3bd 8ebd
00000100: 5e3e 993d 9bb7 ad3c 4060 4fbd ff54 d3bd
00000110: 73c5 4a3d e434 243b 5e2b ab3d ad1c 6fbd
00000120: faf3 93bd ac8a c63c 6688 833d 4421 b93d
00000130: e589 b83d ab96 683d a395 fb3c 4553 4abd
00000140: 665c b23d 5499 08bd 61dc 8e3d 90dd 223d
00000150: 4a05 48bd 1dd8 65bc 8a40 eebb b153 b13d
00000160: 2226 6a3d d6fe 533c 4af7 69bd ae10 763c
00000170: ea38 8d3d e58a 18bd b754 983d 54a0 2a3a
00000180: 5b1f 6f3d abb0 0a3d 1842 3d3d e39b 6fbd
00000190: 3674 2f3d 5a82 b5bd 620b fabb 27a8 933d
000001a0: 4dde 9abd 9d04 99bd bcfc 00bd 0b12 ba3b
000001b0: 1a41 95bc bc55 8bbd 9867 983c 0506 afbc
000001c0: fe48 32bd 455b 003c 1da7 ff3c 2b84 6a3c
000001d0: 3f2d 48bd e866 4c3d 1366 f43b 2660 22bd
000001e0: 0453 a23d 74de e33c 4d6f 553d 4036 8d3d
000001f0: ba61 9539 4a25 7b3d dad2 0d3d b0ed 8d3d
00000200: f0f5 ed3b c18c bd3d 1473 373d 9656 34bd
00000210: ede9 8b3d ca94 3bbb 8542 49bc 8600 abbd
00000220: 86ab 77bc bf42 833d 38cd 85bd e43a 183d
00000230: 207f 7b3d 6e73 a0bd 6edc 0abc 31ef a03c
00000240: 7638 a23d 884f 5d3c ce74 afbd c3ab 2cbd
00000250: 828c 263d 37a4 77bd 3e80 bbbd df99 47bc
00000260: 746a 043d a2fd 89bd 7004 a9bd a2f8 593d
00000270: 9527 69bd 16df 84bd cf61 e5bc 2e69 933d
00000280: 16df 59bc 1030 72bd ae07 86bd 4d3b cbbc
00000290: dbdb a43d 68c6 633d b165 10bd 93a2 a5bd
000002a0: 67e9 02bd 55cd 1a3d e2ed ba3d ba0b 5f3d
000002b0: 93e0 9fbd 221e c43c 0ed8 b33a eb89 0c3d
000002c0: ba0c 373d d61c 05bd 601a 113c 16cb c33c
000002d0: 38df 803c e21a 56bd 42e7 3e3d a7a8 b7bd
000002e0: 5055 343d 2f03 7dbd 4bdb 17bd 6650 4ebd
000002f0: 9747 0ebc 6e8e bfbb 2d17 bbbd df37 743d
00000300: 0567 c1bb 494e ad3d f5da 2abd ea13 5bbd
00000310: 051b b43c a245 8b3d d129 d53d 8c9c d83c
00000320: 3293 9d3c c3f5 9b3b 50b6 5cbd 98b4 8fbd
00000330: 2b61 95bd 9187 8abd 7786 a03b f14e 803d
00000340: 76a6 9b3d e6c8 52bd c3f8 96bc 972d a33d
00000350: 6528 e03a 0802 6d3b 39f3 48bd d7a7 af3a
00000360: 7dad 5b3d efbc 45bd 1b36 ffbc fa11 523c
00000370: 2b9a 0ebd cbfa e7bc 223e ca3b db48 4e3d
00000380: 22d0 aabb 1e68 933c 97aa 65bd a768 473d
00000390: 0585 ac3b 4b89 18bd b6d4 d4bd 6b8a 17bd
000003a0: f10e 9dbd e008 afbb d9fd 8d3d af0e c3bb
000003b0: 1460 983d d9d1 afbc f734 a8bc 47b8 d0bd
000003c0: 84a3 50bd e721 7b3d e342 463d 44a0 5d3d
000003d0: 1aae 0cbc 1370 2d3c d002 cabc d30c 913d
000003e0: 705a b7bd 28a4 57bd 10b5 d5bd 8090 b03c
000003f0: 0251 f1bc 30ec a1bc 9140 233d 5b55 a53d

blocks.1.norm1.weight f4 [32]
1.014729 1.0426989 1.016921 0.9975192 0.99804974 0.9990304 1.0015455 0.9754802
1.0228547 0.9973057 1.0209928 0.9939126 0.9969115 0.995516 0.9910949 0.990882
1.0022564 1.0045478 0.99214745 0.9941829 0.99270356 0.9894638 1.0105813 1.0253032
0.9865629 0.9993287 0.98750454 0.9954641 1.0305899 1.0219433 1.0355392 0.9980704
00000000: a4e2 813f 2877 853f 782a 823f 6b5d 7f3f
00000010: 3080 7f3f 75c0 7f3f a532 803f 12b9 793f
00000020: e7ec 823f 6d4f 7f3f e4af 823f 0e71 7e3f
00000030: 9835 7f3f 23da 7e3f 65b8 7d3f 71aa 7d3f
00000040: f049 803f 0695 803f 60fd 7d3f c582 7e3f
00000050: d221 7e3f 804d 7d3f ba5a 813f 233d 833f
00000060: 638f 7c3f 01d4 7f3f 19cd 7c3f bcd6 7e3f
00000070: 5fea 833f 0acf 823f 8c8c 843f 8b81 7f3f

blocks.1.norm1.bias f4 [32]
0.002116287 -0.013230366 -0.00796384 -0.0029531745 0.0005972 0.0020203926 -0.006548458 0.010852368
-0.0012991297 0.008647281 -0.004003955 -0.0013928864 -0.0032502154 -0.005769328 0.0044840607 -0.007430979
0.004991081 -0.017051645 0.008393964 0.0037520954 -0.0019915022 -0.0015478095 -0.0031212931 -0.0013984133
-0.011249018 0.0002597693 -0.00015468436 0.00079452 -0.00038339177 -0.0006202606 -0.0055863033 -0.002437516
00000000: 67b1 0a3b 2dc4 58bc c47a 02bc 0c8a 41bb
00000010: 6a8d 1c3a 9068 043b 7294 d6bb 21ce 313c
00000020: 8f47 aaba 53ad 0d3c 9c33 83bb 8391 b6ba
00000030: 9101 55bb a20c bdbb 07ef 923b 927f f3bb
00000040: 398c a33b e4af 8bbc d686 093c b7e5 753b
00000050: dd83 02bb dedf caba 9c8e 4cbb f74a b7ba
00000060: cd4d 38bc a531 8839 c432 22b9 5647 503a
00000070: f901 c9b9 fc98 22ba 4f0d b7bb bcbe 1fbb

blocks.1.attn.qkv.weight f4 [96, 32]
-0.0056849187 0.09439988 0.19278935 -0.10312722 0.06751632 0.17772752 -0.13040054 -0.07301993
0.100363195 -0.091653205 0.050104238 -0.10366714 0.029283147 -0.14312007 0.19148763 -0.15703343
-0.15061569 -0.086923204 0.04277873 0.13067712 0.0041362084 -0.08575908 -0.1473327 -0.020807954
-0.013887653 -0.011924549 -0.055256307 0.016812878 0.1877087 -0.17695843 -0.072888225 0.097062305
-0.1568136 0.026766688 0.17153935 0.14613876 -0.13399206 -0.050789308 0.028245991 0.15067726
-0.023205549 -0.16117086 0.0020289046 0.09603557 -0.082865655 -0.14613804 0.0480777 0.12360495
-0.12322251 0.042282473 0.13595639 -0.020756792 -0.11562967 -0.0916097 -0.145839 -0.0529482
-0.090827435 0.038222656 -0.044366598 -0.140436 0.22896872 -0.008504408 0.05219228 0.11347211
0.10879061 -0.073520765 -0.07777181 -0.11240236 -0.16157945 -0.16612495 -0.0788818 0.12949808
-0.20249616 -0.11333546 -0.13308914 -0.111345634 0.14872085 -0.15727824 -0.16698086 -0.086817876
0.04319967 -0.047690816 -0.15334128 0.16394322 0.056319796 -0.084411904 -0.047781758 0.1836016
0.08106191 -0.13914835 -0.0817739 -0.06609955 0.0206631 -0.09840945 0.17948012 0.006672887
0.01925466 0.060702164 0.18672359 -0.020802248 -0.048589636 -0.094916075 0.13708755 0.017981144
0.01824007 0.14747187 -0.025776217 -0.061659902 -0.066250585 0.1142226 0.042841647 -0.103189744
0.13339053 0.05148595 -0.030615766 0.018189305 -0.17716032 -0.1235822 -0.08491744 0.0039144084
-0.051295232 0.1466505 -0.16508773 0.12973247 -0.10949129 -0.097336836 0.15126255 -0.04337337
-0.049980503 0.080885336 -0.11206097 0.009580745 -0.05223585 0.046882357 -0.10621892 -0.10500836
-0.14749005 -0.03848566 0.14031187 0.11390123 -0.14959136 0.079615705 0.14357345 0.18281618
0.0032276204 0.035578582 0.11112639 0.1786288 0.023357585 -0.015671996 0.15901409 -0.0015227007
0.15062308 0.1309607 0.05861001 -0.11678245 0.0958754 0.112541296 0.050159052 0.03801172
0.090072006 0.10131422 -0.08911513 -0.12307632 0.07518167 -0.07752421 -0.14757448 0.15147267
-0.15077618 -0.054767337 -0.087292194 0.1369025 -0.024713341 -0.12830707 0.15048835 0.15612431
0.10997533 0.14821306 -0.1470405 -0.13590862 0.094454385 -0.022039207 0.096896745 0.17328124
-0.0549912 -0.08382699 0.14755511 -0.088688366 -0.110627204 0.13878842 0.012560247 -0.11157973
0.028232122 -0.044594783 0.052525096 -0.10422629 -0.032169305 0.17663476 0.025510786 0.021364445
0.1792229 0.09461702 0.10242323 0.061775494 -0.054929163 -0.1451784 -0.057895925 -0.12788476
0.0795661 0.1410953 0.18796992 0.11398065 -0.0022629278 0.064306326 -0.018040277 0.00059904734
-0.13385329 0.20116787 0.072126016 -0.013363763 -0.0021712235 -0.032098774 -0.04850032 -0.10930183
-0.07385033 -0.09868768 0.017479917 -0.13135798 0.10193001 -0.12777749 0.09231987 -0.027438125
-0.042602725 0.015996804 -0.0072434647 0.100118525 -0.012193957 -0.06573294 -0.022982903 -0.08064951
0.063010104 0.007915309 0.06007601 -0.017991288 0.020254645 -0.051097766 -0.065850295 0.06354138
0.10790166 -0.09705673 0.14930265 -0.037340917 -0.0848556 0.18090211 -0.010820471 0.09537704
00000000: 8e48 babb b954 c13d 926a 453e 5d34 d3bd
00000010: ff45 8a3d 34fe 353e b887 05be 798b 95bd
00000020: 388b cd3d adb4 bbbd 1a3a 4d3d 704f d4bd
00000030: 36e3 ef3c 118e 12be 5515 443e 5fcd 20be
00000040: 003b 1abe cb04 b2bd c038 2f3d 39d0 053e
00000050: 0889 873b 75a2 afbd 62de 16be 7175 aabc
00000060: 0a89 63bc 2f5f 43bc 7054 62bd 29bb 893c
00000070: b636 403e 9734 35be 6c46 95bd 9ac8 c63d
00000080: bf93 20be d045 db3c 03a8 2f3e 66a5 153e
00000090: 3735 09be 7308 50bd 2364 e73c 244b 1a3e
000000a0: 9019 bebc f909 25be 5ff7 043b 4cae c43d
000000b0: 78b5 a9bd 36a5 15be 1fed 443d 9824 fd3d
000000c0: 155c fcbd 6330 2d3d 2738 0b3e 260a aabc
000000d0: 40cf ecbd de9d bbbd d256 15be 36e0 58bd
000000e0: bc03 babd 5c8f 1c3d c0b9 35bd 74ce 0fbe
000000f0: c776 6a3e 1356 0bbc 92c7 553d 1164 e83d
00000100: 9dcd de3d 0e92 96bd d446 9fbd 3533 e6bd
00000110: 1575 25be a91c 2abe c88c a1bd 259b 043e
00000120: 275b 4fbe 6c1c e8bd 8548 08be 2e09 e4bd
00000130: 474a 183e 8c0d 21be 08fd 2abe 92cd b1bd
00000140: 23f2 303d 7257 43bd 7f05 1dbe bbe0 273e
00000150: 96af 663d 26e0 acbd ceb6 43bd 0f02 3c3e
00000160: c903 a63d e87c 0ebe 1379 a7bd 335f 87bd
00000170: a945 a93c e58a c9bd a3c9 373e 3ca8 da3b
00000180: f3bb 9d3c d5a2 783d 7834 3f3e 7a69 aabc
00000190: ed05 47bd 5c63 c2bd ae60 0c3e 314d 933c
000001a0: 336c 953c de02 173e a528 d3bc 188f 7cbd
000001b0: 63ae 87bd 8aed e93d b97a 2f3d 2555 d3bd
000001c0: 8797 083e eee2 523d eacd fabc bd01 953c
000001d0: 8469 35be aa18 fdbd 32e9 adbd 7044 803b
000001e0: f31a 52bd 8c2b 163e c20c 29be 97d8 043e
000001f0: f83c e0bd 8958 c7bd 92e4 1a3e 46a8 31bd
00000200: 5bb8 4cbd 36a7 a53d 3980 e5bd 8ff8 1c3c
00000210: 42f5 55bd b707 403d 4e89 d9bd a00e d7bd
00000220: a207 17be 24a3 1dbd eaad 0f3e 0c45 e93d
00000230: 7a2e 19be 8f0d a33d eb04 133e 2a34 3b3e
00000240: 7c86 533b d9ba 113d 3c96 e33d 78ea 363e
00000250: 6858 bf3c 8f62 80bc 97d4 223e 5b95 c7ba
00000260: f03c 1a3e 901a 063e 0d11 703d a32b efbd
00000270: 525a c43d 0d7c e63d 9473 4d3d 2db2 1b3d
00000280: ac77 b83d d47d cf3d fe81 b6bd 700f fcbd
00000290: d9f8 993d 03c5 9ebd c41d 17be a71b 1b3e
000002a0: 1265 1abe b753 60bd 40c6 b2bd 2b30 0c3e
000002b0: a273 cabc ee62 03be 9e19 1a3e 0ddf 1f3e
000002c0: bf3a e13d 2ac5 173e c991 16be a12b 0bbe
000002d0: 4d71 c13d 918b b4bc cd71 c63d a370 313e
000002e0: 743e 61bd 7cad abbd b018 173e 3fa2 b5bd
000002f0: 8490 e2bd 8d1e 0e3e 7fc9 4d3c ea83 e4bd
00000300: 0d47 e73c 05a9 36bd 8e24 573d 9874 d5bd
00000310: f6c3 03bd bedf 343e fffb d03c 7d04 af3c
00000320: 3586 373e 91c6 c13d 45c3 d13d 4d08 7d3d
00000330: 67fd 60bd a6a9 14be 4724 6dbd 39f4 02be
00000340: 8df3 a23d 497b 103e 307b 403e b06e e93d
00000350: a14d 14bb 09b3 833d 34c9 93bc 6309 1d3a
00000360: d610 09be f3fe 4d3e ceb6 933d aff3 5abc
00000370: 164b 0ebb 017a 03bd 46a8 46bd a3d9 dfbd
00000380: d83e 97bd c41c cabd 0b32 8f3c b582 06be
00000390: aec0 d03d 1ad8 02be 3312 bd3d ebc5 e0bc
000003a0: 3280 2ebd bb0b 833c 965a edbb f10a cd3d
000003b0: 2ac9 47bc fe9e 86bd a446 bcbc 922b a5bd
000003c0: 710b 813d 36af 013c 4312 763d 7762 93bc
000003d0: 12ed a53c e44b 51bd 85dc 86bd fc21 823d
000003e0: 8cfb dc3d aec5 c6bd cbe2 183e caf2 18bd
000003f0: c6c8 adbd 673e 393e 5848 31bc 0a55 c33d
