image_encoder/trained_models/vit_20241108_162826.pth (torch, 561019 bytes, 77 tensors)

cls_token f4 [1, 1, 32]
00000000: 4d5d 2dbc 6972 cf3c 5986 673c 5788 b23c
00000010: 906f 15bd be7e 3fbc 9677 aa3c 3986 fe3c
00000020: d316 09bd 13d3 13bd 73f9 b33b 42e6 31bc
00000030: 9064 22bc 0687 a73c 6fff 07bd ac0b 17bd
00000040: ba49 ed3a c816 67bb 21e0 073d fd0b 683d
00000050: ed7b f33c 1901 61bc dfab 10bd 998f 2c3d
00000060: 03e5 24bd 025b 3dbc b661 ff3b 23a2 883b
00000070: 9f26 313d 8e68 aebc 4f90 233a bebe b2bc
-0.010581327 0.02532311 0.014131152 0.021793528 -0.036483347 -0.011687933 0.020808976 0.031069862
-0.033469032 -0.036089968 0.005492383 -0.01085812 -0.009911671 0.020450126 -0.033202585 -0.036876366
0.0018103637 -0.0035261381 0.03317273 0.056652058 0.029722178 -0.013733172 -0.03532016 0.042129133
-0.040257465 -0.0115573425 0.0077936305 0.004169719 0.043249723 -0.02129009 0.000623946 -0.021819469

pos_enc f4 [32, 32, 32]
00000000: 0000 0000 0000 803f 0000 0000 0000 803f
00000010: 0000 0000 0000 803f 0000 0000 0000 803f
00000020: 0000 0000 0000 803f 0000 0000 0000 803f
00000030: 0000 0000 0000 803f 0000 0000 0000 803f
00000040: 0000 0000 0000 803f 0000 0000 0000 803f
00000050: 0000 0000 0000 803f 0000 0000 0000 803f
00000060: 0000 0000 0000 803f 0000 0000 0000 803f
00000070: 0000 0000 0000 803f 0000 0000 0000 803f
00000080: 0000 0000 0000 803f 0000 0000 0000 803f
00000090: 0000 0000 0000 803f 0000 0000 0000 803f
000000a0: 0000 0000 0000 803f 0000 0000 0000 803f
000000b0: 0000 0000 0000 803f 0000 0000 0000 803f
000000c0: a46a 573f 4151 0a3f ba7d 083f 0d94 583f
000000d0: 3e39 9f3e 6b4e 733f 3a23 353e 83f6 7b3f
000000e0: 7775 cc3d 98b8 7e3f af36 663d 6898 7f3f
000000f0: 5c81 013d 3cdf 7f3f 42ab 913c a3f5 7f3f
00000100: 0000 0000 0000 803f 0000 0000 0000 803f
00000110: 0000 0000 0000 803f 0000 0000 0000 803f
00000120: 0000 0000 0000 803f 0000 0000 0000 803f
00000130: 0000 0000 0000 803f 0000 0000 0000 803f
00000140: b7c7 683f 3311 d5be 0af2 663f b2e8 dc3e
00000150: 1b54 173f ec7b 4e3f f647 b23e a6fa 6f3f
00000160: f96f 4b3e a5e5 7a3f 87d9 e53d f361 7e3f
00000170: c970 813d f97c 7f3f 5ca5 113d 8ed6 7f3f
00000180: 0000 0000 0000 803f 0000 0000 0000 803f
00000190: 0000 0000 0000 803f 0000 0000 0000 803f
000001a0: 0000 0000 0000 803f 0000 0000 0000 803f
000001b0: 0000 0000 0000 803f 0000 0000 0000 803f
000001c0: c381 103e 2670 7dbf d745 7e3f ab7f edbd
000001d0: c209 503f 582f 153f 6d2f 023f 296d 5c3f
000001e0: 6d4e 973e ef90 743f d8ee 2b3e 9e5d 7c3f
000001f0: c1ff c13d 4fd9 7e3f 4e69 5a3d c3a2 7f3f
00000200: 0000 0000 0000 803f 0000 0000 0000 803f
00000210: 0000 0000 0000 803f 0000 0000 0000 803f
00000220: 0000 0000 0000 803f 0000 0000 0000 803f
00000230: 0000 0000 0000 803f 0000 0000 0000 803f
00000240: cfbd 41bf 3055 27bf ec49 473f 9eaf 20bf
00000250: de1d 743f b12e 9a3e bc1f 273f edeb 413f
00000260: d861 c73e a7ca 6b3f c665 643e 098d 793f
00000270: 892e 013e 69f4 7d3f c88d 913d 465a 7f3f
00000280: 0000 0000 0000 803f 0000 0000 0000 803f
00000290: 0000 0000 0000 803f 0000 0000 0000 803f
000002a0: 0000 0000 0000 803f 0000 0000 0000 803f
000002b0: 0000 0000 0000 803f 0000 0000 0000 803f
000002c0: 107c 75bf 2c3c 913e d8da a53e 4032 72bf
000002d0: 7ffc 7f3f e972 29bc abca 463f f14c 213f
000002e0: 4477 f53e 40a9 603f ed11 8e3e 7cf2 753f
000002f0: 1e3c 213e 81ce 7c3f 21db b53d 1efd 7e3f
00000300: 0000 0000 0000 803f 0000 0000 0000 803f
00000310: 0000 0000 0000 803f 0000 0000 0000 803f
00000320: 0000 0000 0000 803f 0000 0000 0000 803f
00000330: 0000 0000 0000 803f 0000 0000 0000 803f
00000340: 8c0f 8fbe b8cd 753f 76e5 6bbe 531d 79bf
00000350: 4e78 723f 6d3f a4be 8930 603f 322f f73e
00000360: 698c 103f 3249 533f fd7d a93e e290 713f
00000370: 6f20 413e e367 7b3f c219 da3d 518b 7e3f
00000380: 0000 0000 0000 803f 0000 0000 0000 803f
00000390: 0000 0000 0000 803f 0000 0000 0000 803f
000003a0: 0000 0000 0000 803f 0000 0000 0000 803f
000003b0: 0000 0000 0000 803f 0000 0000 0000 803f
000003c0: 4630 283f bdff 403f 6db6 36bf 614f 33bf
000003d0: 6ee8 4c3f bc74 19bf 4484 723f b6f8 a33e
000003e0: 73eb 243f b3cc 433f de60 c43e c66b 6c3f
000003f0: 51d3 603e eac0 793f ba46 fe3d e904 7e3f
0.0 1.0 0.0 1.0 0.0 1.0 0.0 1.0
0.0 1.0 0.0 1.0 0.0 1.0 0.0 1.0
0.0 1.0 0.0 1.0 0.0 1.0 0.0 1.0
0.0 1.0 0.0 1.0 0.0 1.0 0.0 1.0
0.0 1.0 0.0 1.0 0.0 1.0 0.0 1.0
0.0 1.0 0.0 1.0 0.0 1.0 0.0 1.0
0.84147096 0.54030234 0.53316844 0.8460091 0.3109836 0.9504153 0.17689219 0.9842302
0.09983342 0.9950042 0.056204494 0.9984193 0.031617507 0.99950004 0.017781857 0.99984187
0.0 1.0 0.0 1.0 0.0 1.0 0.0 1.0
0.0 1.0 0.0 1.0 0.0 1.0 0.0 1.0
0.9092974 -0.41614684 0.9021307 0.43146282 0.5911271 0.8065784 0.34820527 0.93741834
0.19866933 0.9800666 0.11223131 0.9936821 0.0632034 0.9980007 0.03555809 0.9993676
0.0 1.0 0.0 1.0 0.0 1.0 0.0 1.0
0.0 1.0 0.0 1.0 0.0 1.0 0.0 1.0
0.14112 -0.9899925 0.9932532 -0.11596616 0.8126489 0.58275366 0.50853616 0.86104065
0.29552022 0.9553365 0.1679033 0.9858035 0.09472609 0.99550337 0.053323083 0.9985773
0.0 1.0 0.0 1.0 0.0 1.0 0.0 1.0
0.0 1.0 0.0 1.0 0.0 1.0 0.0 1.0
-0.7568025 -0.6536436 0.7784717 -0.6276797 0.95358074 0.30113748 0.652828 0.7575062
0.38941836 0.921061 0.22304448 0.9748083 0.12615408 0.99201065 0.07107121 0.9974712
0.0 1.0 0.0 1.0 0.0 1.0 0.0 1.0
0.0 1.0 0.0 1.0 0.0 1.0 0.0 1.0
-0.9589243 0.2836622 0.32393527 -0.94607925 0.99994653 -0.010342338 0.77652997 0.6300803
0.47942555 0.87758255 0.2774805 0.96073127 0.15745589 0.987526 0.08879686 0.99604976
0.0 1.0 0.0 1.0 0.0 1.0 0.0 1.0
0.0 1.0 0.0 1.0 0.0 1.0 0.0 1.0
-0.2794155 0.96017027 -0.23036751 -0.9731037 0.9471482 -0.3207964 0.8757406 0.48278195
0.5646425 0.8253356 0.33103934 0.943617 0.18860029 0.98205394 0.10649444 0.9943133
0.0 1.0 0.0 1.0 0.0 1.0 0.0 1.0
0.0 1.0 0.0 1.0 0.0 1.0 0.0 1.0
0.6569866 0.75390226 -0.7137211 -0.70043 0.8004216 -0.5994375 0.9473307 0.3202569
0.64421767 0.7648422 0.38355154 0.9235195 0.21955611 0.9755999 0.12415834 0.9922624

norm.weight f4 [32]
00000000: 111c bd3f 4811 d03f 5d4c c43f fb7d bb3f
00000010: 3512 ce3f 0508 c33f 130a c83f aee6 c53f
00000020: 7c6a d63f bcea c93f 05af d73f 96ee c43f
00000030: b440 c33f 11bc c53f 556f d33f 1fea c33f
00000040: 44b3 b63f 1ff5 d23f bc91 d73f b255 cb3f
00000050: 3ad5 c73f 4cb2 d63f 8b69 d43f 6789 b53f
00000060: cd53 cc3f 3d6b d73f 14f9 db3f 7192 be3f
00000070: ae1f cf3f 2f42 cd3f 9837 c43f 870b c33f
1.477419 1.6255274 1.5335804 1.4647821 1.6099306 1.5236822 1.5628074 1.5461023
1.6751246 1.577476 1.6850287 1.5385311 1.5254121 1.5448018 1.6518351 1.5305823
1.4273458 1.6481055 1.684135 1.5885527 1.5611947 1.6773162 1.6594709 1.4182557
1.5963074 1.6829602 1.7185388 1.488844 1.6181543 1.6035823 1.5329466 1.5237893

norm.bias f4 [32]
00000000: 8066 7f3d 3a5a 833e e0c1 763e 7399 fabd
00000010: 994b ccbc 1dc2 c73d 1506 cd3c 9889 8c3e
00000020: d877 dfbd 38d0 87be bee1 99bd f6d2 453e
00000030: ca1e 7fbe 3599 99be c156 77bb 9ebc c63c
00000040: e2b8 ddbe 7cae 9f3c 7a08 6f3e d86d c23e
00000050: b687 263d ebc5 ab3d 7283 84be 0a96 b53d
00000060: 9b9d 793d b4f8 cbbe fad4 783e a51b 74bd
00000070: 11ac 5f3e 85ea 99be b159 813e f6e5 f1bd
0.06235361 0.25654775 0.24097395 -0.12236299 -0.024938392 0.09753821 0.025027314 0.27448726
-0.1091153 -0.26526046 -0.0751376 0.19318756 -0.24914089 -0.299997 -0.0037740918 0.024259862
-0.43305117 0.01949238 0.23343077 0.3797443 0.040656768 0.08387359 -0.25881535 0.08866508
0.06094132 -0.39838183 0.24299994 -0.059596676 0.21842982 -0.30061737 0.25263742 -0.1181144

patch_embeddings.weight f4 [14, 32]
00000000: 1223 823e e7f0 d3bd 3b17 c9be 949d 5abf
00000010: 5878 283f 741e a7bc c755 6a3f c171 b33d
00000020: 4c30 c03e 4189 973f 5e01 b4bf e629 02bf
00000030: d07e 403e 1bcd 82be 5733 6dbf 3518 cb3f
00000040: b5fb a83f b357 d1bd 5acb 993e 80a9 6b3f
00000050: 9769 04c0 96b8 fd3e e3aa c13f af56 213f
00000060: cd55 ae3d 7993 c7bf 541b 90bf 98b1 bcbe
00000070: 456c d43e 643e 46bf db20 ba3f 9869 1e40
00000080: b781 31bf 4929 a1be f543 863f 25ba cc3d
00000090: 520d 023e cfd5 933f 3338 97bf 8a99 acbe
000000a0: 6018 08bf 8cc2 62bf c8c1 143f e4be b7bf
000000b0: c3d4 95bf 2e16 1c3f f38d 10bf 5727 42bf
000000c0: d337 d63f 82fb 51bf 7a49 ae3f 251a 6dbe
000000d0: c89e c3bf 3783 0340 b12e 3040 ff39 d9bf
000000e0: 5ca4 b83f 8b0c c2bf 5c2e 543f 9ca6 55be
000000f0: 5fd6 433f 7f72 c03f f41f d73f 0828 eebe
00000100: 5e11 52bf aa2a 0e3f 6e44 d3bd 7a8a 38bc
00000110: 93b6 00bf 7a9e fb3e 93e7 90be 7a48 89bf
00000120: 18d1 0440 ca66 f9be 3f67 843e dc41 343f
00000130: 2ef4 aebf c9f2 633f ee6c ba3d fff5 6f3e
00000140: c1be 1e40 aa23 a0bf bf13 863f 2b83 093f
00000150: 367f cbbf 56aa a4bf 2472 2e3f 5b78 47be
00000160: 7311 b53e ee2c b5be 36d4 ca3e a2d6 46bf
00000170: b645 dfbe a8c6 b5be fe06 7abf ac12 e0be
00000180: 5424 d5bf d8ab b0bf 074e 36be dfdb 763f
00000190: ada8 a93c 8c16 3dbf 6b7c 89be bc67 fe3c
000001a0: 99f8 38be 8117 08be 9773 9c3e 1510 ae3f
000001b0: 9c41 1e3e cc60 2240 d48b 16bf 6c8b ffbf
000001c0: c009 bdbe be84 293d c674 683f ae74 ebbf
000001d0: 0a79 063e cced fb3e 213a dcbf 80fc 123f
000001e0: 3500 e13f d37d a23e 87ba 9a3e 60e9 27bf
000001f0: 1d8e 2ebf f161 983e 9c06 1fbf d363 bbbf
00000200: 94db 02c0 782e ec3f e76b ac3f b550 febe
00000210: dd13 ac3f 356d d73f 7f70 c6bd 759c ddbf
00000220: f89e febc b2f3 ed3d 83bb 7d3f 88fc 2c3f
00000230: a2f4 993e 7937 36bf 037c 413f 7e19 633f
00000240: be1e 0e40 ab2d 7f3f 54bd bdbf 4c88 7dbe
00000250: 2a38 5bbd b816 88be f31d 20bf 079b 8e3f
00000260: 79d4 7dbf b97a 2c3e 2edd 9f3f 35fb 88be
00000270: 509d 8cbf 77db 33bf 56f1 c63f e710 33bf
00000280: 10b1 63bf 0888 993d 2c1a 73bd dafe 1640
00000290: 1660 2cc0 f3e0 043f 9f0b 5cbf 7ff5 86be
000002a0: e05b 9a3b cd4f 0240 a58c 26be 8900 82be
000002b0: d114 a6bf 724b ccbd 1b3d eebf 4d37 b0bf
000002c0: 0295 aabe 9a0c 97bf 7169 723d 0c6c 603e
000002d0: 538c 483f d95f 583f db36 dbbf f3c1 a23f
000002e0: 5b41 733f bd58 883f 0e8b 1f3f 3165 9fbf
000002f0: bbd2 26bf 7aec 0640 cfcd 083f 153c 9b3f
00000300: 195f 623e d487 b4be 4d42 ee3f aa48 b43f
00000310: d52e 8e3f d7aa 2abf b9b6 fdbe 0942 193f
00000320: f26a 613c 72e1 d5bf 8159 863f 46ae f33e
00000330: fb27 9ebf 8a5c 75bf 7764 fdbd b634 093e
00000340: 33dc 843e 3eb7 34bf 7975 bcbe e64c f6be
00000350: a034 163f 22f2 243f c60b 9d3f f6fa 4a3f
00000360: b31e f23e 326b 5f3f 866e 67be a0d4 45bf
00000370: f1ef 13bf a8f2 b23e dbcd 04bf c0c0 b0be
00000380: 1a98 1fbf 9bb2 4fbe a241 1fbc f676 99be
00000390: 2f2e 98bd a6d3 453f cf22 493c 846d d3be
000003a0: ac81 573f fa57 c1bf 014b 1f3f a62b f5bf
000003b0: 4394 79bf afb8 d33d 6dbf e0be 483b eabe
000003c0: fead bb3f ea93 0e3d 94d8 3abf 47b3 94bf
000003d0: 5539 053f 364c 66be bc40 36bc 420a 53bf
000003e0: 832f afbe 606c 743e f65a 70bf 45bb 9dbf
000003f0: 4cb4 8d3f e4f2 fbbf 3484 14bf 7a94 8c3f
0.25417382 -0.10348683 -0.39275536 -0.85396695 0.6580863 -0.020400263 0.91537136 0.08761931
0.37536848 1.1838762 -1.4062917 -0.5084518 0.18798375 -0.25547108 -0.92656463 1.5866762
1.3201815 -0.102218054 0.30037957 0.9205551 -2.0689447 0.4955489 1.5130275 0.63022894
0.08512459 -1.559188 -1.125834 -0.36854243 0.41488853 -0.7743895 1.4541277 2.475195
-0.69338554 -0.3147681 1.0489489 0.09996442 0.12700394 1.1549624 -1.1814026 -0.3371089
-0.53162193 -0.88578105 0.58108187 -1.435513 -1.1705555 0.60971344 -0.564666 -0.7584128
1.6735786 -0.82024395 1.3616173 -0.23154505 -1.5282831 2.0548837 2.7528498 -1.6970824
1.4425159 -1.5160078 0.8288324 -0.20864338 0.7649898 1.5034941 1.6806626 -0.46514916
-0.8205775 0.5553385 -0.10315786 -0.011263484 -0.50278586 0.49144346 -0.28301677 -1.0725243
2.075262 -0.48711234 0.2586002 0.70412993 -1.3668268 0.89042336 0.09102808 0.23433684
2.4803927 -1.2510884 1.0474776 0.5371577 -1.5898197 -1.2864482 0.68142915 -0.19479506
0.35364875 -0.3538584 0.3961503 -0.77671254 -0.43607873 -0.35503125 -0.9766692 -0.43764246
-1.6651711 -1.3802443 -0.17803203 0.96429247 0.020710314 -0.7386253 -0.26852736 0.031055324
-0.18063582 -0.13290216 0.30556938 1.3598658 0.15454715 2.537158 -0.5880711 -1.9964423
-0.369215 0.04138636 0.9080318 -1.8394983 0.1313211 0.49204862 -1.720524 0.57416534
1.7578188 0.3173662 0.30220434 -0.65590477 -0.681856 0.29762223 -0.6211946 -1.4639839
-2.044652 1.8451681 1.3470429 -0.4967095 1.3443562 1.6830202 -0.09689426 -1.7313372
-0.031081662 0.11618747 0.99114245 0.6757283 0.30069453 -0.71178395 0.7557985 0.88710773
2.2206264 0.9967906 -1.4823403 -0.24759024 -0.05352036 -0.26579833 -0.625457 1.114106
-0.9915233 0.1684369 1.2489374 -0.26754156 -1.0985508 -0.7025675 1.55424 -0.69947666
-0.8894205 0.07496649 -0.05935113 2.359305 -2.6933646 0.51905745 -0.8595523 -0.26359174
0.0047106594 2.0361207 -0.16264589 -0.25391033 -1.2975103 -0.099753276 -1.8612398 -1.3766876
-0.3331681 -1.1800721 0.059182588 0.21916217 0.7833912 0.8452125 -1.7126116 1.2715439
0.950216 1.0652081 0.62321556 -1.2452756 -0.651653 2.1081834 0.5343904 1.212771
0.2210659 -0.3525988 1.8613983 1.4084675 1.1108042 -0.6666693 -0.4955347 0.59866387
0.013758408 -1.6709425 1.0496064 0.47593898 -1.2355951 -0.9584433 -0.12372678 0.13399014
0.2594925 -0.70592105 -0.36808375 -0.48105544 0.5867405 0.64431965 1.2269218 0.79289186
0.47289047 0.8727294 -0.22600755 -0.77277565 -0.57787997 0.34950757 -0.5187661 -0.34522057
-0.62341464 -0.20282976 -0.009720238 -0.29973572 -0.07430684 0.77276075 0.012276365 -0.4129449
0.8418224 -1.5104973 0.6222382 -1.9153945 -0.97491854 0.1033796 -0.43896046 -0.45748353
1.4662473 0.03480903 -0.7298672 -1.1617211 0.52040607 -0.2249001 -0.011123832 -0.8243753
-0.34215936 0.23869467 -0.93888795 -1.2322775 1.1070647 -1.9683499 -0.58014226 1.0982811

blocks.0.norm1.weight f4 [32]
00000000: 3dc7 873f 7087 873f 1b96 823f 9372 803f
00000010: 9ce8 7f3f 3d62 813f 734f 883f 9b78 823f
00000020: c116 883f c9de 7f3f 7b26 7e3f 48b6 823f
00000030: dd1c 7f3f 7f4c 833f 0317 843f 0cca 813f
00000040: 36ab 7d3f b12c 823f 9303 7e3f c7da 7b3f
00000050: d6ac 873f 19ee 833f 196b 8d3f 2758 843f
00000060: bea0 813f 2a67 843f 96c7 803f 9156 7e3f
00000070: 37c0 823f 1fcb 833f 8c31 823f fbb9 803f
1.0607678 1.0588207 1.0202059 1.0034965 0.9996431 1.0108105 1.0649246 1.0193056
1.0631944 0.9994932 0.99277467 1.0211878 0.99653417 1.025772 1.0319523 1.0139785
0.9908937 1.0169889 0.99224204 0.983807 1.059962 1.0307037 1.1048309 1.0339402
1.012718 1.0343983 1.0060909 0.9935084 1.0214909 1.0296363 1.017137 1.0056757

blocks.0.norm1.bias f4 [32]
00000000: a0d4 8bbb 4484 87bc 67f0 dbbc 3ccd 1dba
00000010: 68b4 f939 4369 d53b fcc2 42bc f93e acbc
00000020: 0c87 7abb af35 9f3a 1fb2 583c cba5 3abc
00000030: b914 853b 3f46 25bc e060 443b fda9 623b
00000040: 51f5 1cbc a387 9c3c d0e3 74bc e16c 9db9
00000050: a212 0fbc a3c1 2abb e013 8d3a b5ad b2bc
00000060: 3cd0 01bc b43d b83c 5927 86bb b0d7 993c
00000070: 2722 f83c 26be 5e3c ebaf 493c 09f6 ea3b
-0.0042672902 -0.016542561 -0.026848031 -0.0006019657 0.00047627394 0.0065127923 -0.011887308 -0.021026121
-0.0038227467 0.0012146736 0.013226061 -0.011392067 0.004061308 -0.010087549 0.0029964969 0.0034586184
-0.009579972 0.019107645 -0.014946893 -0.00030026495 -0.00873247 -0.0026055358 0.001076337 -0.021811346
-0.007923182 0.02249036 -0.004094046 0.018779606 0.030289723 0.01359514 0.0123100085 0.007170443

blocks.0.attn.qkv.weight f4 [96, 32]
00000000: 614e dc3d 40a8 eabd 13e2 73bd f3fd 633c
00000010: 6eda b83d 2ced 94bd 6496 603d a8ae 13be
00000020: 751d c33d b79f e7bc f1d0 32be 6abb 963d
00000030: 40dd 163c 3721 db3c 7149 d6bc 02b5 31be
00000040: fe3a 33be 3a57 9a3d f2c7 2e3e 1c41 e43d
00000050: 6fc8 81bc f7e0 d33d d04f 3e3d e0d9 96bd
00000060: 2a60 31be f19c 89bb d897 5c3c f7e0 0d3c
00000070: 4e25 a8bd aebf d83d 0fde bebd e0fe c1bd
00000080: 0a6c 243c f958 1cbe 23e4 f63c 6151 e73d
00000090: e286 8b3d d493 06be 8a6e cdbc 9bc8 9e3d
000000a0: 4bba 52be 2769 963d a749 ae3d 5357 ce3d
000000b0: 8395 dabd 8bde 3abe e427 103d b8ae 9bbd
000000c0: 6ec7 85bd aa7f 58be 5e7b 42be 5697 233e
000000d0: 6b23 833e 91da 7abe 3346 60be d6ee 993c
000000e0: b3b1 b5bc 615b 2fbe 7430 3ebe 4cd8 843d
000000f0: a0f3 52be 18be 15bd 7949 623d 1354 283e
00000100: 96f5 173d 4c4b 1b3e 9d4a b93d c9bf bf3b
00000110: 2504 593e 6893 4c3e 01b4 af3c dc97 8dbd
00000120: fc50 aabd e541 36be 3d8d 883d b367 a33d
00000130: b1a2 513e 6a19 4c3c ca2c 613d 9a83 f63d
00000140: 3b71 5cbc 44ec b83d 59d8 61bc 02c1 3d3d
00000150: bedc 083e 0a90 313d f047 2bbd 9597 39be
00000160: 15f2 a7bd b567 993c 87bd 163d c25c 4f3d
00000170: 9f83 653e 0f16 93bc fd71 31bd 8f6b 053c
00000180: 1687 47be 6484 843b ec6c f0bd b1f1 19bd
00000190: 658f 753d f2b8 39be 602e 763a 5930 453d
000001a0: 5753 c83d 6929 a43d b7a3 8dbd b7eb 04be
000001b0: 053e 8d3d b1fb f13d ec2b 41be c863 33be
000001c0: 7c99 d33d f157 3dbe 89e4 edbd e957 05be
000001d0: e4ed 28be 0822 fbbd 286e 553d c0bc ed3d
000001e0: cdef 19be a088 22be bdd3 93bd 4763 c7bd
000001f0: 45f5 d63d b3ed eabd 7f5e 83bd 5e19 1e3e
00000200: ce79 963d 0fea 0b3d f844 00be 378d 1ebe
00000210: e81b d7bd 477e 743e 98c7 6ebe 84c8 713d
00000220: 1346 b33d 833a 933d 633a 11bd 9ec3 dbbd
00000230: f71d bbbd f49d ccbb a18c 9fbd 81d9 5a3e
00000240: 1ec3 d4bd 4d1b 8cbd 27cf 1ebe d4e3 2e3d
00000250: a9f3 d03d e13c 7c3e e615 cb3c 4a67 31be
00000260: a0e4 afbc e99b 1abb c933 88bd 533f 21be
00000270: 658d 123e 44ce c53c be51 f8bb c57e 1c3e
00000280: e9df 7e3e c02d 4c3e e291 f2bd c458 923c
00000290: 3506 f6bd a0ef c23c 165c a03d 4fa8 dabd
000002a0: 3e7d c2bd e9d2 26bd b50b 543d 7ad5 debb
000002b0: 544e 1dbe 5c4b 2fbd 1ed2 593e 401d 153d
000002c0: 1038 8cbe ad0c 093e c1ec 13be c555 57be
000002d0: b904 c8bd 3860 763e 869b ac3d 7dbd 08be
000002e0: 5ab3 043e eb6d 023e 62c2 313e 532f 2d3e
000002f0: bca4 343e 515e 1abe 1a8f 6c3d 4586 2bbd
00000300: 7a69 c8bd 61e4 203e b25d 203e 5284 44bd
00000310: 6f90 0bbe 81fb 16be 73e0 4c3e 13aa d7bd
00000320: c3e1 cc3b 5ae0 fc3d 511f 0d3e 6e94 623d
00000330: 43ca 4abc d51f 5a3e 2684 c0bd 233e 23be
00000340: 378d c2bd ac08 fd3d fb34 a83d 448e 373e
00000350: e84c 9b3d f44b 7bbc 544e 7c3d 059f 48bd
00000360: ff9f 4dbe 3173 9dbd 17ff 643e 4c5a d13d
00000370: e112 9c3d 026c 3dbd 811f efbb 3259 31be
00000380: c4eb ec3d 66d2 423e 9d64 0fbe 7c4b 0cbe
00000390: 4bff 0abd d099 bc3d 1827 08be 5446 8e3d
000003a0: b74e 313e c001 bf3c afe3 d7bd fe23 1d3e
000003b0: 13cc e0bd 0731 433d 0870 583e 7349 d53d
000003c0: 87e2 debd 529d 9ebd 0277 b9bd 3b39 9ebd
000003d0: 7538 35be 6958 423e 8cd2 693e c3d6 b1bd
000003e0: d66b 92bd 75f2 bebd 27a0 243e 0bca cdbc
000003f0: a85d 77bd f035 bd3d 0d3c 8d3d c80a 333e
0.10757137 -0.114578724 -0.059541773 0.013915527 0.09026037 -0.072717994 0.054830924 -0.14422095
0.09527103 -0.0282744 -0.17462517 0.07359965 0.009208024 0.026749237 -0.026158066 -0.17354205
-0.17502972 0.075361684 0.1706846 0.11145231 -0.015842644 0.10345643 0.046462834 -0.07365775
-0.1732184 -0.004199617 0.013463937 0.008659593 -0.0821024 0.10583435 -0.09319698 -0.09472442
0.010035524 -0.15268315 0.030138081 0.11294819 0.06812836 -0.1314233 -0.025077123 0.07753106
-0.20578878 0.07344275 0.08510142 0.100752495 -0.10673048 -0.18248956 0.035194293 -0.07601684
-0.06532179 -0.2114245 -0.18992373 0.15975699 0.2561296 -0.24497439 -0.21901779 0.018790644
-0.02217946 -0.17124702 -0.18573171 0.06486568 -0.20600748 -0.03655824 0.05524585 0.16438322
0.037099443 0.15165442 0.090474345 0.00585172 0.21192987 0.19978106 0.021448137 -0.069137305
-0.08316228 -0.17798574 0.06667564 0.079787634 0.20472218 0.012457231 0.054974355 0.1203682
-0.013454731 0.09029439 -0.013784491 0.046326645 0.13365456 0.043350257 -0.04181665 -0.1812423
-0.0820047 0.01872621 0.03680184 0.05062557 0.2241349 -0.017954854 -0.0433216 0.00814332
-0.19485125 0.0040441025 -0.11739525 -0.03758401 0.059951205 -0.18136957 0.00093910657 0.04814181
0.09781521 0.08015711 -0.06915992 -0.12980543 0.06896595 0.118155845 -0.18864411 -0.17518532
0.10332009 -0.18490578 -0.11615855 -0.13021816 -0.16496998 -0.1226235 0.052107006 0.11608267
-0.15032883 -0.15872431 -0.0721812 -0.097357325 0.10496 -0.11471119 -0.06414508 0.15439364
0.07347451 0.034158763 -0.1252631 -0.15483557 -0.105033696 0.23876296 -0.23318326 0.059029117
0.087536 0.071888946 -0.035456073 -0.107306704 -0.09136575 -0.0062444154 -0.07790495 0.21372034
-0.10388778 -0.06841145 -0.1550871 0.042697743 0.102027245 0.24632598 0.024790715 -0.17324558
-0.021471322 -0.0023591465 -0.06650502 -0.15746813 0.1431175 0.024146207 -0.007578104 0.15282734
0.24890102 0.19939327 -0.11844231 0.017864592 -0.12012903 0.023795903 0.07830064 -0.106766336
-0.09496544 -0.040728483 0.051768977 -0.0068003507 -0.15361911 -0.042796478 0.2127156 0.036404848
-0.27386522 0.13383742 -0.14445783 -0.21028812 -0.09766526 0.24060142 0.08428101 -0.13353534
0.12959042 0.12737243 0.17359307 0.16912584 0.17640966 -0.15075041 0.05775366 -0.041876096
-0.09785743 0.1571212 0.15660742 -0.047977753 -0.13629316 -0.14744379 0.20007496 -0.10530486
0.006252499 0.12347479 0.13781478 0.055317335 -0.0123773245 0.21301205 -0.09400205 -0.15941672
-0.09499591 0.1235517 0.0821323 0.17925364 0.07583028 -0.015337933 0.061598137 -0.048979778
-0.20080565 -0.07687987 0.22362934 0.10222301 0.07620788 -0.046245582 -0.0072974567 -0.17319182
0.11568406 0.19025573 -0.14003225 -0.1370067 -0.033934873 0.09209025 -0.13296163 0.06947008
0.17315184 0.023316264 -0.10541474 0.15345761 -0.10976424 0.047654178 0.21136487 0.104144
-0.108830504 -0.0774485 -0.09055902 -0.077257596 -0.17697318 0.18979038 0.22834224 -0.08683541
-0.07149474 -0.09323589 0.16076718 -0.025120756 -0.060392052 0.092388034 0.068962194 0.17484581

blocks.0.attn.proj.weight f4 [32, 32]
00000000: 5a9e f23d 76c0 0fbd edeb afbc 71e3 ccbd
00000010: c70f 553d cc12 6cbd 4851 a9bd 0321 113c
00000020: 6d5d 0c3b 4e9c 2abd 90a1 91bd a9ca 41be
00000030: 2a8a debd d5cf e83d 41b3 053e 34d0 debd
00000040: 4e8c 24be a895 fcbd d2b9 bcbc b152 b13d
00000050: 7ac4 29be dc78 04be 6248 5ebd a435 e6bd
00000060: a4a2 fc3d 2351 1abd 8b63 a93c e006 0bbe
00000070: d22d 28be df89 40be b34a 49bd 6bba 2abe
00000080: b623 5cbd 47a0 983d 650f aabc 4d76 df3b
00000090: 091b 0c3e 9103 e93d ae5c a1bd af89 c13c
000000a0: 5107 c73d 223d b4bd ccd0 3c3d d0ec 443e
000000b0: de94 30be b1f8 a43d a35f 59bd 25a7 ac3d
000000c0: 845c 083d 660b ef3d 2291 62bd 5f50 3f3e
000000d0: e861 2d3e ccb2 083e fc5a 273e d147 b43d
000000e0: b337 36be 47c6 eb3d 0332 36bd e6cf c13d
000000f0: f8e4 0d3e cdf3 81bd 290c b4bd 0887 0cbd
00000100: dca0 143e addf 973d 2e93 0ebe 9329 bb3d
00000110: 8766 c8bd 8046 fe3d 9ffa 883c c345 113e
00000120: 1ea1 04ba f0b9 6b3d d45e c13c fc9e 01be
00000130: a3cc 103e 37ea be3d 5d4e b4bc a8db 0d3d
00000140: 4120 a4bd b480 bc3d 0683 f03d f487 a6bd
00000150: b379 20be 0f92 3abd 5706 e3bd e106 bdbd
00000160: 12b7 00be 6fab 72bc 61c5 eb3c f885 1b3d
00000170: a2e9 23be 72cf 41be b3ee 123e 8fbf 7ebd
00000180: ac66 d93b 7c5b 0fbe 1e14 7abd 0a85 cd3d
00000190: a729 a8bd bbea 2dbd 373f 25be 0dad 2b3e
000001a0: f7e1 e53c 1f7e c53d b445 d4bd e16b 0f3e
000001b0: b71f b8bc 4380 bcbd 48b1 2a3d 09b5 043b
000001c0: 3767 6f3d c9b5 98bd e067 94bd d48e e63d
000001d0: 3f3f 183e 9f0f 1d3d 387d b13d f2a2 dfbd
000001e0: 2017 0a3d 77d6 13be db04 363c 3897 543c
000001f0: 96b3 1abd 4e34 ddbc f54e d5bb 3fe5 883c
00000200: c2c9 b13c 1e30 84bd 32e9 f9bd e46b bb3c
00000210: 0b77 bf3d 9b4b 0ebd e6af c73c 1778 56bd
00000220: 080f b9bd 7ba2 d23d 0972 c3bd e3c1 143e
00000230: a868 b33d 1757 b3bd 084f 5ebd 824a 2f3d
00000240: 565b c73c 4284 16be 0050 f13c 0e47 04be
00000250: 120f 2abc 0654 8cbd 7d26 06be fa65 33be
00000260: a5a8 fe3d ed0d f5bc 8149 52bd c734 ddbd
00000270: 9e56 953d bc50 c43d d8ad 52bc 799d 063d
00000280: a32c fcbd 900c 03be 1155 393e 744e a2bd
00000290: 47e1 94bc 1bb5 313e 55f2 833d 57ef e8bd
000002a0: 13f8 063e b412 2a3d 4857 1abe f275 3c3e
000002b0: 3380 c8bc 3378 053e 206b 003e eb68 0dbe
000002c0: de5b 063d c115 96bd ad65 083d 62e3 31bd
000002d0: 4a74 103e 6768 bdbd 6369 c0bd 8df7 853b
000002e0: d00f 9abc 62dd ac3c 3b6d f5bc f1c9 e3bd
000002f0: ac9c d0bd 0c6d 58bd d418 873d 3252 0bbe
00000300: f4d3 7b3d 5a46 4fbd b725 253e c230 4c3d
00000310: 6452 efbc 4b7f fe3d 597e 673b 08b4 3a3e
00000320: 6085 ecbd e8bf 503d 48f7 9cbd 1535 b53d
00000330: b0a3 373c b7ef 26bd 5217 f73d 33d9 10be
00000340: 4c58 473d 5a2f 9ebb 1f09 6db9 22ea 103d
00000350: c6e3 27bd a153 40be 9b84 3b3e b03f a4bd
00000360: f859 1bbc 664e cfbb 0b36 983d 824c 04bd
00000370: 500f be3c 799e b1bc 25fb c63d 2764 733b
00000380: b433 40bd fd3b 09bd dc5e 3b3d 4ff7 68bd
00000390: b557 01be b640 3f3e cab7 0fbe 6d21 c53d
000003a0: e231 6ebd 329f 2b3d e678 edbd d585 fdbd
000003b0: 97b0 46bd 7d3a b43d 761a 803d e3a4 c93c
000003c0: 56fa 22bd 256e 453e e469 18bd 14b7 f3bc
000003d0: 2916 273e fed5 fa3c 5129 34be 4fc2 04be
000003e0: e1da e7bd 4dfa 03be 6fd4 28be 136d 0d3e
000003f0: 24d5 003e e99f c8bd 3db8 31bd ce11 8e3d
0.118466094 -0.035095654 -0.021474803 -0.100043185 0.052017 -0.057635114 -0.08267456 0.008857968
0.002141799 -0.04165297 -0.07110894 -0.18924965 -0.108661965 0.11367766 0.13056661 -0.10879555
-0.16069147 -0.12333232 -0.023037825 0.0865835 -0.16578856 -0.12936729 -0.05426825 -0.112407
0.12335709 -0.037675034 0.020677349 -0.13576841 -0.16423729 -0.18802594 -0.049143504 -0.16672675
-0.053744994 0.074524455 -0.020759294 0.0068195225 0.13682188 0.11377633 -0.07879005 0.023625223
0.09718192 -0.08800723 0.04609756 0.19230962 -0.17244288 0.080552466 -0.053069722 0.08430318
0.033291355 0.11672096 -0.05531419 0.18683003 0.1693188 0.13349456 0.16343302 0.088027604
-0.17794685 0.11512428 -0.04448129 0.094634816 0.13856876 -0.063453294 -0.08791382 -0.034308463
0.14514488 0.0741571 -0.13923332 0.09138789 -0.097851805 0.124157906 0.016721068 0.14186768
-0.0005059409 0.05755037 0.023604788 -0.12658304 0.14140563 0.09322017 -0.022010023 0.03463331
-0.080139644 0.09204236 0.11743741 -0.081314 -0.15671425 -0.04554945 -0.110851936 -0.09229828
-0.12569836 -0.014811381 0.028780641 0.03796956 -0.16007093 -0.1892679 0.14348869 -0.062194403
0.006634554 -0.13999742 -0.06105434 0.10035141 -0.082110696 -0.042460185 -0.16137396 0.16765232
0.02806185 0.09643196 -0.10364857 0.14005996 -0.02247606 -0.092041515 0.041672975 0.0020249507
0.058448043 -0.07456548 -0.07246375 0.11257711 0.14867876 0.038344976 0.08666462 -0.10919751
0.03371346 -0.1443728 0.011109556 0.0129755065 -0.037768923 -0.02700248 -0.0065096566 0.016710876
0.021702651 -0.0645449 -0.122026816 0.022878595 0.093488775 -0.03474007 0.024375867 -0.05236062
-0.0903607 0.10284897 -0.09543235 0.14527087 0.08760196 -0.087568454 -0.05427459 0.042795666
0.024335545 -0.1469889 0.029457092 -0.1291773 -0.01037957 -0.06851964 -0.1310062 -0.1751937
0.1243451 -0.029913867 -0.05133963 -0.10801082 0.072919115 0.09585711 -0.01285883 0.03286502
-0.12313201 -0.12797761 0.18098857 -0.0792512 -0.018173827 0.17354243 0.064427055 -0.113737755
0.1318057 0.041521743 -0.15072358 0.18404368 -0.024475193 0.13034134 0.12540865 -0.13809554
0.032802455 -0.07328368 0.03330009 -0.04342974 0.14106861 -0.09248429 -0.09395101 0.0040883482
-0.018806368 0.021101657 -0.029959312 -0.11122502 -0.10186133 -0.05283837 0.065965325 -0.13605574
0.06148143 -0.0506042 0.16127668 0.049851187 -0.029214092 0.12426623 0.0035323112 0.18232739
-0.11548877 0.050964266 -0.07664353 0.08848015 0.01120846 -0.040755954 0.12064995 -0.14145355
0.04866819 -0.004827422 -0.00022605479 0.035379536 -0.040988706 -0.18781902 0.18312304 -0.0801996
-0.009481899 -0.0063264845 0.07432183 -0.032299526 0.023200661 -0.021682011 0.09715871 0.0037138553
-0.046924308 -0.033504475 0.04574476 -0.056876477 -0.12631114 0.18677029 -0.14034954 0.09625516
-0.05815304 0.041899867 -0.11595325 -0.12379042 -0.048508253 0.08800218 0.06255047 0.024614757
-0.03978952 0.19280298 -0.03721036 -0.029750384 0.16317047 0.030619618 -0.17593886 -0.12964748
-0.11321045 -0.12888451 -0.16487287 0.1381114 0.12581307 -0.097961254 -0.043388594 0.0693699

blocks.0.attn.proj.bias f4 [32]
00000000: 7bee 5fbd d194 9b3d 997a cb3d 9203 a6bd
00000010: 9768 473d 0363 d93d 3bfa e9bd dfeb f43d
00000020: b99a b7bd 7b6c adbd a051 be3d 16aa 36bd
00000030: 70c3 ec3c 385c db3d a2d8 77bd 4c56 52bd
00000040: 57ca 0cbe db89 b13d e8eb 163d f861 2a3e
00000050: f633 f73d be88 393d 88a7 063d 5d31 163e
00000060: b4e7 0dbe 0ae6 0dbe c993 1c3e c47c 51bd
00000070: 79b0 403d 8d76 58bd 6328 12be 9617 08be
-0.054670792 0.07596744 0.09935493 -0.0810615 0.04868373 0.10614588 -0.11424681 0.11959051
-0.08965058 -0.08467957 0.092929125 -0.0445958 0.028901786 0.10710949 -0.06050933 -0.05135183
-0.13749062 0.08668872 0.03684607 0.16638935 0.12070458 0.045296423 0.032874614 0.14667268
-0.13857919 -0.13857284 0.1529075 -0.051144376 0.047043297 -0.052847434 -0.14273219 -0.13290247

blocks.0.norm2.weight f4 [32]
00000000: d38f 7f3f 6a55 7f3f a221 783f 2bb4 7d3f
00000010: 0836 7c3f e9b9 783f f8cf 6e3f abd7 7d3f
00000020: 7ef3 843f 2bc0 7b3f df49 813f 1eb9 803f
00000030: e33f 823f dc8c 823f b93b 803f ae03 853f
00000040: c337 813f dfaf 7e3f 1f51 7d3f 3700 6c3f
00000050: 5e6e 793f 39e9 763f 7cd6 803f 1fa8 783f
00000060: 35bd 7a3f 1b0d 853f b51d 833f 75cf 823f
00000070: 5032 7c3f cddf 803f 47de 823f 8e78 7d3f
0.99828833 0.99739707 0.9692632 0.9910304 0.98519945 0.97158676 0.93286085 0.9915721
1.0386808 0.983401 1.0100669 1.0056493 1.0175747 1.0199237 1.0018226 1.0391748
1.0095142 0.9948711 0.98951906 0.9218783 0.9743403 0.9644962 1.0065455 0.9713153
0.97944957 1.0394624 1.0243441 1.0219561 0.9851427 1.0068299 1.0224084 0.99012077

blocks.0.norm2.bias f4 [32]
00000000: 4e37 213c fa32 8d3b 7240 9f3b b278 c63c
00000010: f95a 35bd 0d08 d8bc 15df f43c 8c67 003c
00000020: 1065 8e3c 42e5 cd3c a86b 573b dd14 bc38
00000030: ab7a 68bb 7b10 793c 6aa0 cc3b 7451 1a3c
00000040: ecae 333a 7959 60bb 0384 073c 1cfb 813d
00000050: 4652 8d3c 551f 9dbb 2436 49bc a7ad 303d
00000060: 42b3 88bc 3a74 1a3c 7552 df3b bad4 203b
00000070: 60aa 2bbc 3227 96ba 25af 67bc c270 62bd
0.009839846 0.0043090554 0.0048599774 0.024227474 -0.04427621 -0.026371026 0.02989153 0.0078371875
0.017382175 0.025133733 0.0032870565 8.968425e-05 -0.0035473506 0.015201683 0.006244709 0.009418834
0.00068543735 -0.0034233017 0.00827122 0.063467234 0.017251145 -0.004794995 -0.012280975 0.043134358
-0.01668704 0.009427125 0.0068152496 0.0024540857 -0.010477632 -0.0011455773 -0.014140879 -0.055283315

blocks.0.mlp.fc1.weight f4 [128, 32]
00000000: 6e42 d53c 3eb8 d2bb f985 9c3d a6e9 13be
00000010: 9c46 1ebc 5f71 913b 76d3 ecbd 295b 503e
00000020: ba9b 5dbd c071 6639 991b d83d 9c35 29be
00000030: ce75 48be 2871 bd3d f3c8 1f3e 2181 0abe
00000040: b655 0fbe 87f9 253e 854f 0b3e 5264 313e
00000050: 7aa3 14bd f5be 33bd 73b1 a43d c0ce a8bc
00000060: 81b8 1a3e 32a8 d5bd c828 263e 6dca f93d
00000070: 4c28 333d 6af1 273e ad7f 7fbd c6f4 08bd
00000080: ed94 d43d 9a84 433e f827 ca3d 03d8 b93d
00000090: 8308 20be df93 1fbe f464 65bd d662 babd
000000a0: 1057 3a3e 077a 813d cd80 963d c54e ff3c
000000b0: 26f3 f33d 0672 33be 557a 87bd a9cc 1b3e
000000c0: f6a8 fe3c 0cc8 f0bd d4f2 093e 2b50 db3d
000000d0: 1f6f b5bc e1bd 813d 363b 483e 2518 44bb
000000e0: d17a 46bc 3a2f d73d 3f9e c6bc 4331 d93d
000000f0: cf4e c7bd 042f 023c de0e 193e 901e 933d
00000100: 9ed4 05be 636a 4a3d 87fe e03d 7fa0 0ebe
00000110: 2928 273e e9b4 a33c 048f 22be de17 0cbe
00000120: 7654 153e 8838 133e fe0f e4bc bfc5 4abd
00000130: 57b6 3d3d e19a a73d 635d 3abc 4ab8 193e
00000140: 36af f1bd e25b 213e 0d9d 0dbe 3731 b73c
00000150: b061 ab3c 430d 8ebc 2562 843d fd49 04be
00000160: 3cad 283d 4e7b b1bc 68b1 1d3e 7038 dabd
00000170: 61e1 0dbe 5e55 ffbd df62 59bd 1911 debd
00000180: 9965 f93d 6906 91bd 294d 023e 8841 c9bd
00000190: e6bb 213e 5501 173e 6d3d 09be c246 213e
000001a0: 7807 cabb dea9 da3d 157a 73bd 7b43 043e
000001b0: 29a2 0bbd 0181 34bb 0be0 14bd d1fb 873d
000001c0: c4f7 063d 92d9 1fbe 5d6f 653c 7950 643d
000001d0: 13e6 5c3d 7072 b0bd 5c02 5e3d a34f 5d3b
000001e0: c0f7 db3d 3352 fb3d 2d1a b93c 5f1b d0bd
000001f0: 0d85 e03d 9ece 693d e7ee 773d 01a5 29bd
00000200: 88c7 5f3d 54fe 90bd 53bf 33be 5cd1 303e
00000210: 1983 1c3d 1a34 063e 8a36 2fbe db8b 09bd
00000220: 0772 34bd ab23 133e fa44 f03c f109 c3bd
00000230: 7b26 1fbe 1ed9 ce3d 9f62 2c3e 9acb 8c3d
00000240: d036 1d3e 1158 3bbe d43f 0c3e 51e1 e7bb
00000250: 781a 7bbd 1b40 37be 8700 583d 54b9 c33d
00000260: 6900 ca3d bcde 9c3d 52b4 b2bc 6bf4 6cbd
00000270: ca92 adbd 1911 9d3d e3b1 443d 8b5a f23d
00000280: e97a 053d 17bb c73d 8fb3 5abd ed9c 43be
00000290: 46c5 633b 798a be3d 3182 1bbe ef14 8d3d
000002a0: 8148 523d 57a2 653d 8841 2f3c efe8 f0bd
000002b0: 593a 1bbe 6147 0b3d 8acf 773d d7c2 8a3d
000002c0: 750a 163e 2f02 9bbd 7349 adbd dcff ccbd
000002d0: 3eda 083e 61fc 9b3c c51a 13be 198b ae3d
000002e0: f2af 2abe 43fa 13be 8dec 0ebe 3fb2 b83d
000002f0: 674a 953c 26de 3a3e 42b1 0a3d b9f6 87bd
00000300: ec1c a9bd 9b16 043e ff17 fc3c 9a64 27be
00000310: b9fd 763c 5270 ed3d 48a3 60bd 1297 993d
00000320: 2071 d8bd 6cb2 b73d 772c 6c3d 106d 073e
00000330: 8add 253e fade 823b 0cee 6abc d43b e1bd
00000340: 2a6c 0f3d 25c0 a03d 0497 1abe 8e8e b13d
00000350: 639d 1d3e 4c56 cfbc 3baf c03d d43d bcbd
00000360: b67c e53c 8acf 18be afc0 a03d 3df3 1a3e
00000370: 2a63 c7bd a2aa 05be 9c30 d43d 68b7 7b3c
00000380: 57b1 96bd 4429 efbd dbf9 3c3e af55 89bd
00000390: e5c1 003e 6ccb c4bc 531a 5fbc 2762 acbd
000003a0: c884 27bd 3400 203a 0e8f 273e 0672 463e
000003b0: 8111 0dbd fe35 063e 96b5 fc3d b082 413c
000003c0: e3ae bf3d 4295 6f3d 5e8c 193d 490c 55bd
000003d0: 0332 d6bc d457 6cbd b6f5 493d 1e11 0dbd
000003e0: 3a17 163d 0c2d 0d3e 7036 c93d 2f10 783b
000003f0: 537e 30be 2e13 7abd 8add 7bbd e6c9 dfbd
0.026032653 -0.006430655 0.07642741 -0.14444599 -0.009660389 0.0044385637 -0.115637705 0.20347275
-0.05410359 0.00021976884 0.10552139 -0.16524357 -0.19576189 0.092500985 0.15604 -0.13525821
-0.1399754 0.16208468 0.13604553 0.17323425 -0.036288716 -0.043883283 0.08041658 -0.020606399
0.15109445 -0.10432471 0.16226494 0.12196813 0.043739602 0.16400686 -0.06237762 -0.03343656
0.10379968 0.19093552 0.09870905 0.09074404 -0.15628247 -0.15583752 -0.05600448 -0.09100883
0.18197274 0.06322103 0.073487855 0.03116549 0.11911611 -0.17523965 -0.0661513 0.1521479
0.031086426 -0.11756906 0.13471538 0.1070865 -0.022147713 0.06335045 0.19553837 -0.0029921618
-0.012114243 0.105070546 -0.02424538 0.10605099 -0.097318284 0.00794578 0.14947078 0.07183564
-0.13069388 0.049417865 0.10986047 -0.13928412 0.16323914 0.019983726 -0.15874869 -0.1368098
0.14583 0.14377034 -0.027839657 -0.04950499 0.04631647 0.08183838 -0.011374804 0.15011707
-0.11800997 0.15757707 -0.13829441 0.022362335 0.020920604 -0.017340308 0.06464032 -0.1291885
0.041180834 -0.021665242 0.15399706 -0.10655296 -0.13855506 -0.124674544 -0.053072806 -0.10843105
0.12177581 -0.07081301 0.12724747 -0.09826952 0.15794334 0.14746602 -0.13402338 0.15749648
-0.006165441 0.10676931 -0.0594426 0.12916367 -0.034090195 -0.0027542713 -0.036346477 0.06639827
0.03295113 -0.1561034 0.014003602 0.055740807 0.053930353 -0.08615577 0.05420147 0.003376939
0.10740614 0.12271538 0.02259549 -0.101614706 0.109628774 0.05708181 0.06053057 -0.041417126
0.054633647 -0.07079759 -0.17553453 0.17267364 0.038210962 0.13105813 -0.17110649 -0.033580642
-0.044054057 0.14369075 0.029329766 -0.095233805 -0.15542023 0.101000056 0.16834496 0.068747714
0.1535294 -0.18295313 0.13696223 -0.0070764204 -0.06130454 -0.17895548 0.052734878 0.09556833
0.098633595 0.07659671 -0.021814499 -0.057850283 -0.084752634 0.07669277 0.04802121 0.11833676
0.03258792 0.097524814 -0.053393897 -0.19102831 0.0034755035 0.09303755 -0.15186383 0.068887584
0.051338676 0.056063022 0.010696776 -0.117631786 -0.15158977 0.03400362 0.06050066 0.06775444
0.14652427 -0.07568776 -0.08461275 -0.10009739 0.13364503 0.019041242 -0.1436568 0.085226245
-0.1666868 -0.14450936 -0.13957424 0.09018373 0.018223954 0.18248805 0.033860452 -0.066388555
-0.082574695 0.12899248 0.030773161 -0.1634697 0.015075141 0.11593689 -0.054843217 0.074995175
-0.10568452 0.08969578 0.057659592 0.13225198 0.16197792 0.003993866 -0.014338981 -0.109977394
0.035015263 0.07849149 -0.1509667 0.08669768 0.1539207 -0.025309704 0.094084226 -0.0919148
0.028013568 -0.1492292 0.078492515 0.1513185 -0.09735711 -0.13053373 0.10360834 0.015363552
-0.07358044 -0.11677793 0.18454687 -0.06705796 0.12573965 -0.02402278 -0.013617116 -0.084171586
-0.040898114 0.0006103546 0.16363165 0.19379434 -0.03444052 0.13106534 0.12339322 0.0118109435
0.09359529 0.058491953 0.03748738 -0.05201367 -0.026146894 -0.057700947 0.049306594 -0.034440152
0.036643244 0.13786715 0.09824836 0.0037851443 -0.17235689 -0.061053447 -0.061490573 -0.10927181

blocks.0.mlp.fc2.weight f4 [32, 128]
00000000: 990b bfbd 86ce 4cbd a182 d63c 95e7 88bc
00000010: 98cf a6b9 4ac3 873d cab7 623c d4a0 2cbd
00000020: 842c 4ebc e633 6dbc 6472 a03d 0e28 2f3c
00000030: de7d 523d 3a56 0c3e 7d5b b0bb 8ce7 42bd
00000040: 9e35 093d 22fc c2bd abea 44bd 7cda b9bc
00000050: a8fb 03bd 6089 bcbc 09f4 653b 3103 773d
00000060: 9a7a 9bbd a5e1 b6bc 461c 76bd b275 333d
00000070: 0e02 313d 3514 823d a445 ac3d d527 4e3d
00000080: c38f b1bc fc36 61bd d95b a9bd bc06 433d
00000090: d29f 2bbd bb5a 2d3d 709b fbbd 843a d63c
000000a0: 206a 123d 5755 ec3c fdc1 41bd a4de b83d
000000b0: 1ff1 ef3c 0cb6 273d a5a5 e3bb ff2e 91bb
000000c0: c47a 1f3d 454d 4cbc be6e 8ebd abe8 b63c
000000d0: 96f8 60bb a365 96bd bf60 113d 4fa6 d53b
000000e0: 2f6f 4bbc 9f92 e83c 0964 913d e56e 9bbd
000000f0: c4bf d63d f7c1 ab3d 837b 9bbc c4c6 893d
00000100: 734c f63a 7e9d 1a3d 569a c53c 7a09 e3bd
00000110: ea24 213d 106e a03d ce40 6c3d d944 8b3d
00000120: 3866 b0bd baba 8c3d 8beb b33c 2c78 a1bd
00000130: e032 82bd 9fd7 f3bc ab46 443d 4010 b0bd
00000140: 89dd e23d 7d50 913d 43fc 313d 37ad d63d
00000150: 4714 1cbd eac7 59bd 9732 11bd b11b bdbc
00000160: 4466 4a3d 540e 47bd f03c ca3d 09d5 8a3c
00000170: 9e72 3b3a e162 373c a188 8d3d 541f 59bd
00000180: a4d1 893d 61c5 95bc c4d6 14bc 4933 a4bd
00000190: 5bd9 2a3c ee71 23bd d2e4 a0bd 9a40 733a
000001a0: 6e13 9c3d 51ca 9ebc d003 ea3c e18e 49bd
000001b0: f614 0abd e13b 583d c5a9 33bd 6158 59bd
000001c0: b2ca 24bd 8cf9 d53c 2a3f a7bd 0914 8d3d
000001d0: d710 a3bd a289 843d ab78 51bd a1b8 c4bc
000001e0: eb48 a93d 492a e73c 0210 e3bc a01e 40bd
000001f0: 9921 cd3d 026d c5bc bb94 c43c 89c0 543d
00000200: 1c10 12bd 844f 9cbd b802 8e3d ee71 653b
00000210: e470 a43c d3b0 583d 7c76 6a3d b983 663d
00000220: 74df ecba 02c5 cd3c 9283 0a3d a6c0 d73b
00000230: ac0f 843d 5d88 cdbb a905 6d3b 7d4e 843d
00000240: be66 4d3b c714 0c3d 5e62 0cbd 86f0 a3bd
00000250: 0191 89bd 4967 a8bd d06d 95bd b2f9 583c
00000260: ec8c f93c bcc8 9d3d 5e65 b43d 00a0 14bc
00000270: 33aa b3bc 0afa 5dbc 33e8 1c3c f0cd d4bd
00000280: a936 f0bc da39 213b da15 a5bd da87 c2bc
00000290: 6804 d03b 386c e0bc e232 e53c 0c8c 0c3d
000002a0: fcb6 783d 6e7a 0ebd 1f24 93bb 0230 b63b
000002b0: 58c4 7f3d 1b73 56bd e546 543d b6ae 88bd
000002c0: ce50 bbbd e98b 633d 647e 7abd 59c9 ac3c
000002d0: 4bd0 eabb ab5d 383b 511e a2bd 8abd b13d
000002e0: 88a3 113d 054e 88bd b9d7 48bd b903 9abd
000002f0: 33e8 a43d ce9c 163c dae3 b2bc b1fe 0ebd
00000300: 8171 8bbc 2ca5 3cbd ed0d 83bd 79c2 3c3d
00000310: 1812 023e 3f31 333c ad76 b83d d94d 973d
00000320: e5ed ae3c fabe 7d3d 9809 5bbd 67e9 9cbc
00000330: 323d 67bd 7965 463c 747f 38bd db20 c83c
00000340: 10f0 46bb c7c2 82bc 755b 483d 2856 31bc
00000350: ef98 313c 8631 2a3c 2abb b7bc d00e 2c3d
00000360: c0b0 2b3c 9489 a0bd fdb4 903d 0e32 8ebd
00000370: 413d 17bd c96a 353d 6332 56ba f4be 81bc
00000380: 19dd ec3b 92ae e73d fe8c d0bd 5e86 e9bd
00000390: fcde 26bd 475a a63c 2bca 5f3d 5871 d13d
000003a0: d99e 473c 49dc 403d e785 5abd 62e6 903d
000003b0: fee7 233d 2438 88ba 57fa 94bd 8cc1 993d
000003c0: b832 b33c fc89 8f3c 453a 153d 7876 f2bc
000003d0: 0919 6d3d f8f4 55bd a8d9 263d 4745 ad3d
000003e0: 115e d6bd e741 8a3c b4ba 5cbd 493c b63c
000003f0: 32a1 a53d 4df1 fe3d 4462 883c a9d4 a93d
-0.09328384 -0.050001644 0.026185336 -0.01671199 -0.00031816657 0.06629045 0.013837764 -0.042145565
-0.012583856 -0.014477706 0.07834318 0.010690702 0.051389568 0.13704768 -0.005382 -0.0475841
0.0334984 -0.09520747 -0.04807536 -0.02268719 -0.03222242 -0.023014724 0.0035088083 0.060305778
-0.07591744 -0.022324393 -0.060085557 0.043813415 0.04321485 0.063515104 0.084117204 0.050330956
-0.021674996 -0.054984078 -0.08269472 0.047613844 -0.041900463 0.042322855 -0.12285507 0.02615095
0.03574574 0.028849287 -0.047304142 0.0902684 0.02928978 0.040945098 -0.0069472366 -0.004430651
0.038935438 -0.012469594 -0.06954716 0.022327742 -0.0034327856 -0.073436044 0.035492655 0.0065200697
-0.012416645 0.028390227 0.07099158 -0.07589511 0.10485795 0.08386605 -0.018979793 0.06727365
0.0018791094 0.037747853 0.024121445 -0.11085792 0.039341845 0.07833493 0.05767899 0.06800241
-0.08613247 0.06871553 0.021962902 -0.07884249 -0.0635736 -0.029765902 0.047918957 -0.085968494
0.11077411 0.0709543 0.043453466 0.10482257 -0.038105275 -0.05316917 -0.035448637 -0.023084493
0.049413934 -0.04859765 0.09874904 0.016947286 0.0007150563 0.011193008 0.069108255 -0.053008392
0.06729439 -0.018282594 -0.009084407 -0.08017594 0.010427798 -0.039903574 -0.07856144 0.0009279341
0.076208934 -0.019383581 0.028566271 -0.049208526 -0.033711396 0.05279148 -0.043863077 -0.0530628
-0.040232368 0.02611997 -0.081663445 0.06888587 -0.07962196 0.06471564 -0.05114047 -0.02401382
0.08265861 0.028218405 -0.027717594 -0.046904206 0.10016174 -0.02409983 0.023996701 0.05194143
-0.035659894 -0.07632354 0.06934112 0.0035010534 0.020073362 0.052903008 0.0572419 0.056277964
-0.0018071965 0.025118355 0.03381688 0.006584245 0.06448302 -0.0062723593 0.0036166704 0.06460283
0.0031341757 0.034199502 -0.034273498 -0.080048606 -0.067171104 -0.08222825 -0.07296336 0.013243126
0.030462705 0.07704303 0.08808397 -0.00907135 -0.021931743 -0.0135483835 0.009576845 -0.10390842
-0.029322939 0.0024601133 -0.080608085 -0.02374642 0.0063481815 -0.027395353 0.027978364 0.034313247
0.060721382 -0.034784727 -0.00449039 0.005559922 0.062443107 -0.052355867 0.051825423 -0.066739485
-0.09146272 0.05555335 -0.06115569 0.021092104 -0.0071659437 0.0028132002 -0.07915939 0.0867873
0.035556346 -0.06655506 -0.049033854 -0.07520241 0.08052101 0.009192659 -0.021837164 -0.03491086
-0.017021896 -0.046055958 -0.063991405 0.0460839 0.12702215 0.010937034 0.090070106 0.07387895
0.021353671 0.061949708 -0.053475946 -0.019154264 -0.056454845 0.012109154 -0.045043424 0.02442973
-0.003035549 -0.015962018 0.048915345 -0.010823764 0.010839685 0.010387784 -0.022428114 0.042006314
0.010479152 -0.07838741 0.07065771 -0.06943141 -0.03692365 0.04429129 -0.00081709604 -0.015838124
0.0072285053 0.113125935 -0.10183142 -0.11402582 -0.04074 0.02030672 0.05463616 0.10226697
0.012183868 0.04708508 -0.053350355 0.07075192 0.040016167 -0.0010392708 -0.07274311 0.07507619
0.02187477 0.01752185 0.036432523 -0.029597506 0.057885204 -0.052235574 0.040734917 0.08460479
-0.104671605 0.016877128 -0.05388899 0.022245543 0.08087386 0.12448368 0.01664842 0.08292515

blocks.1.norm1.weight f4 [32]
00000000: e912 813f 0529 873f cd94 853f 086c 823f
00000010: ca73 833f ae30 833f db21 893f 8ba8 7b3f
00000020: 1954 863f 5e30 833f 19e5 7e3f 4723 843f
00000030: 083c 843f faff 803f a44c 823f bae3 843f
00000040: f747 883f 6052 823f 679b 7e3f 0df7 7a3f
00000050: 34c4 853f afab 843f 2559 883f 3156 843f
00000060: 8860 793f 715d 843f edc2 823f 863e 803f
00000070: c333 873f ec82 853f c665 843f dfc3 853f
1.0083896 1.0559393 1.0436035 1.0189219 1.0269711 1.0249231 1.0713457 0.9830405
1.0494415 1.0249135 0.99568325 1.0323266 1.033082 1.0078118 1.0179639 1.0381997
1.0646962 1.0181389 0.99455875 0.9803322 1.0450501 1.0364894 1.0652205 1.0338804
0.9741292 1.0341016 1.0215737 1.0019081 1.0562671 1.0430579 1.0343559 1.04504

blocks.1.norm1.bias f4 [32]
00000000: 5f8a 813c e4de 473a b185 aeb9 6d63 523c
00000010: 20d8 fc3b f9a9 8d3a 7374 d9bc 759b 16ba
00000020: e96b 3ebc ceae 6bbb f03b f73a f829 483c
00000030: 1ed3 3d3c f2ff 61bc b0ba 1f3c 414f 073b
00000040: 0f88 6bbc aff5 003c 60c1 883b 7d88 5c3c
00000050: 8843 20bd e613 b13b a728 babb 05f8 0a3c
00000060: 5c08 32bc e22b f6bb a58f 5b3c 4f30 3dbc
00000070: 5ce8 673b 3ec2 dd3c 970f 1dbc 5331 49bc
0.01581305 0.0007624461 -0.00033287474 0.012841088 0.007716194 0.0010808102 -0.026544785 -0.0005745211
-0.0116224075 -0.0035962346 0.0018862467 0.012217037 0.011585979 -0.013793932 0.0097491 0.0020646604
-0.014375701 0.0078710755 0.0041734427 0.013460276 -0.039126903 0.0054039834 -0.0056811157 0.008481984
-0.010866251 -0.0075125555 0.013400947 -0.011547162 0.00353863 0.027070161 -0.009586236 -0.012279826

blocks.1.attn.qkv.weight f4 [96, 32]
00000000: 8bda 033d fe5e dcbc e7f5 36ba 7243 24be
00000010: 9c09 b33d 70c3 0a3d 9490 03be 6277 04be
00000020: c0a5 a1bd 21b6 093e b009 543d 2a89 5ebd
00000030: 8fba ac3d 636d a3bc e3b4 13be f59e 853d
00000040: 6030 593d a3cb 893d 61fd 223e b226 6a3c
00000050: 6ab3 973c 25da 93bd be36 263e 259b 97bd
00000060: 242f cabd 8f0b 67bd 1b71 9abd 572f d93d
00000070: 840f 0e3e 2cce 1b3d 6e0f 5fbd 1b3c 0e3e
00000080: 79d9 5b3c f979 b6bd 6e63 efbc 27d0 ac3c
00000090: af97 2d3e da43 0abd 0e46 39be 5b6d 56be
000000a0: e8af b0bd 6112 acbd 57f1 63bd ee9e a03d
000000b0: 6357 543c d385 84bd 55ff 0e3e 87ff f0bd
000000c0: 6a2d 43bc f2f1 5b3c 6633 7bbd d9ea d1bd
000000d0: f903 8bbc 35a8 323e a77d 413e 2c57 ed3c
000000e0: 9b3b d2bb a50e eb3d 8976 833d 43d6 66bd
000000f0: 5803 46bd b0ef ee3d b1d9 99bd 9fd9 a53c
00000100: 3c5c 593d 86d1 0e3d 761b 32be 1f98 8ebc
00000110: 6a69 4a3e 720f 693e 6658 a9bc 0462 d33d
00000120: 2d86 4b3d 5d7c c53c ad24 8a3c 7846 3f3b
00000130: 9165 debd bccd 23be 2126 733e f38f a63b
00000140: 1612 5abe e429 57bd 81a0 003e 6339 b3bd
00000150: f841 ffbd 775e 1a3e 1508 76bc 4d2a 83bd
00000160: 3ee3 0b3c 5081 f93d d080 e33d 1198 babd
00000170: d700 1a3e 646c a63d 9191 413e 3ec1 eebd
00000180: aedc 053e 0a98 af3d 2c5d 38be d882 23bc
00000190: 7598 13be 3ca5 4d3d 85c0 023e b161 183e
000001a0: 3579 dcbd 341f d43d ecb2 7cbd 0e6a 1ebe
000001b0: 5f26 7d3c 166f 033e 63e1 d0bd 3b5d 94bd
000001c0: d4bc e53d a1b2 063e 47af 94bd 3422 a0bd
000001d0: 35f2 4d3d 763c 393e 5780 3fbe 778c 13bd
000001e0: 1ae7 a0bd 6fca 19be 4752 a53c c542 4d3d
000001f0: 24af 173d 9121 afbd d6ed 14be e718 af3c
00000200: 8236 ffbd c103 9abc b091 053e 46a0 62bd
00000210: 2739 373e 5cb0 17be 46c7 0d3e d444 0e3e
00000220: 8c73 0fbe 451c c9bd a63e 1c3e fda6 56bb
00000230: 986e 46be 41af 96bd b321 2a3e 0920 f13d
00000240: 659d 733d d50c 113e 6fce 313d 4a64 76bd
00000250: 06df 093e 242b b43d 36f7 93bd 6b25 243e
00000260: 0b3c 193e b67b 2abd 0377 22be 14b0 0ebe
00000270: 2d02 c73d 5ea5 a3ba aba0 c8bd 640c 13bc
00000280: fc6e adba 93b8 6e3c 52aa 483e 0efb 573e
00000290: a7cc debd 7cc4 1dbe da88 4a3d 5566 703d
000002a0: 24f7 153e f123 4c3e ae13 6b3e 0c57 00be
000002b0: f333 923d 93b1 f7bc 9cdc 37be c2dd 8dbd
000002c0: 2c16 523d 0d1a a7bd 3041 113e e6bd 8f3c
000002d0: 5e34 25bd 385a efbd 62d7 f93d 4ccf bb3c
000002e0: 488a cebc abce c5bc c4d5 1cbe b501 fcbd
000002f0: b706 2dbe 3634 4bbe 5700 983d dfaa 15be
00000300: 27aa 39be 9c32 ac3d 0d66 cc3c 4eaa 3a3e
00000310: c6a5 59be f6a2 2e3d 1c7d 353e e4ae 32bd
00000320: 0707 8bbd 4bb5 fabc e12b 603c 163b 2bbe
00000330: a34e 493c d60d c23d eb93 1bbe e4f5 d23d
00000340: 574f 993c 0e38 cfbd 9580 afbd 23c6 ecbd
00000350: 3b26 64bd 13a7 59be 6b65 9e3d 4e67 b4bd
00000360: 79e4 f53d 14d4 083d 1736 3e3e fc0c be3d
00000370: fb9a 423d 1e4f 95bc 9f2e fe3d 136c 3dbd
00000380: 3b75 963d be83 2bbe 2c16 3dbc 031d 2f3e
00000390: 9694 81bd b867 3dbe 5e4a 183e ebeb 483d
000003a0: c8f2 89bd 3779 703d 9fd3 123e 7275 10be
000003b0: e245 0d3c c70a ce3c ec4d cf3d c067 73bd
000003c0: 8b33 593e 5ae2 38be 6bce b23d 98cf 64bd
000003d0: e9d5 653d 5961 c3bd 06f6 0bbe e5fd 3b3a
000003e0: 6823 1cbd 74f7 48bd e506 74ba 7567 803d
000003f0: 858e b0bc 1696 c2bd 315c 863d 1eeb 3b3d
0.03219084 -0.026900765 -0.00069793913 -0.16041353 0.08742067 0.03387779 -0.12848121 -0.12936166
-0.078929424 0.13448383 0.05176705 -0.05433003 0.08434021 -0.01994962 -0.14424472 0.06524459
0.05302465 0.06728294 0.15916969 0.014291452 0.018518168 -0.07219342 0.1623182 -0.07402638
-0.098722726 -0.056407508 -0.075411044 0.106047325 0.13873106 0.038038418 -0.054458074 0.13890116
0.013418549 -0.08909983 -0.029222216 0.021095349 0.16952394 -0.033756115 -0.1809313 -0.20940153
-0.086273015 -0.08401943 -0.05565008 0.078428134 0.012960288 -0.064708374 0.13964589 -0.11767488
-0.011912683 0.0134243835 -0.061328314 -0.10249872 -0.016969668 0.17446978 0.18895589 0.02897223
-0.006415797 0.114774026 0.06419093 -0.05635668 -0.048343033 0.116668105 -0.075122245 0.020245371
0.053066477 0.034867786 -0.17393288 -0.017406521 0.19766775 0.22759798 -0.020672034 0.10321429
0.049688507 0.024107153 0.016863192 0.002918629 -0.10859216 -0.1599645 0.23745014 0.005083078
-0.21295962 -0.052530184 0.12561227 -0.0875118 -0.124637544 0.15075098 -0.015016575 -0.064045526
0.0085380655 0.121828675 0.111085534 -0.091110356 0.15039383 0.081261426 0.18903185 -0.11657952
0.13072464 0.08573921 -0.18004292 -0.009979926 -0.14413626 0.050206408 0.12768753 0.14881016
-0.10765306 0.10357514 -0.06169407 -0.15470144 0.015451043 0.12835345 -0.10199239 -0.07244345
0.11217657 0.13154079 -0.07259994 -0.07819024 0.050279815 0.1808947 -0.18701302 -0.03602263
-0.07856579 -0.15018629 0.020180834 0.050112505 0.03703226 -0.08551324 -0.14543852 0.021374179
-0.124615684 -0.018800618 0.13043857 -0.05532863 0.17892896 -0.1481337 0.13845548 0.13893443
-0.14008921 -0.09819845 0.15258273 -0.0032753341 -0.19378126 -0.07357646 0.16614418 0.11773688
0.059476275 0.14165051 0.04340976 -0.060154237 0.13463983 0.08797291 -0.07224886 0.16029899
0.14964311 -0.041621886 -0.15865712 -0.13934356 0.09717212 -0.0012485196 -0.0979627 -0.008975122
-0.0013231928 0.014570373 0.19596222 0.21091864 -0.10878878 -0.15406984 0.049446918 0.05869134
0.14645058 0.19935586 0.22956726 -0.12533206 0.07138815 -0.030236041 -0.1795525 -0.069270626
0.051290676 -0.08159266 0.14185023 0.017546605 -0.040333144 -0.1168713 0.12199284 0.022925995
-0.025212422 -0.024146399 -0.1531592 -0.12305013 -0.16897093 -0.19844136 0.0742194 -0.14615963
-0.18131314 0.084080905 0.024951005 0.18229029 -0.21254644 0.04263588 0.17723507 -0.04362382
-0.0678845 -0.030604025 0.013682337 -0.16721758 0.012286815 0.09475295 -0.15193145 0.10300806
0.01871459 -0.101181135 -0.08569447 -0.11561229 -0.055700522 -0.2125514 0.07734188 -0.08808766
0.12006468 0.03340538 0.18575321 0.0927982 0.047511082 -0.018226203 0.12411236 -0.046245646
0.07346579 -0.16749474 -0.011540931 0.17100911 -0.06327169 -0.18496597 0.14872119 0.049053114
-0.0673576 0.05870935 0.1433854 -0.14107302 0.008622618 0.025151623 0.10122284 -0.059425116
0.21211068 -0.18055096 0.08730777 -0.05586204 0.056112204 -0.09540052 -0.13668069 0.0007171317
-0.038119704 -0.049064115 -0.00093088887 0.06269733 -0.021552334 -0.09501283 0.06560553 0.045878522
