image_encoder/trained_models/vit_20241110_191327.pth (torch, 454617 bytes, 59 tensors)

cls_token f4 [1, 1, 32]
00000000: 48a9 123c 5b7f 8b3c f24c a8bb 8398 093c
00000010: 0979 153c 3768 7abb f2df 95bc 05dd 11bc
00000020: bce3 013a 7187 103b 1ca1 153c 46c6 e8bb
00000030: 5348 9939 4b97 f73b 2f32 16bc 282c 863a
00000040: b5f4 ba3b 4d2f 63bc 458b 183c c4ac 1bbc
00000050: 7a70 823b bc45 073c db52 083c 076f 493c
00000060: b037 20b9 9633 4c3a 6fe2 35bb 6b48 4f3c
00000070: e43a 10bb 0ea9 39bc fe8a 07bc 2fb3 87bc
0.008951493 0.017028501 -0.0051361257 0.008398178 0.009123095 -0.003820909 -0.018295262 -0.008902793
0.00049548945 0.0022053386 0.00913265 -0.007103714 0.0002923632 0.0075558773 -0.009167238 0.0010236548
0.005705441 -0.013866258 0.009310548 -0.00950164 0.0039806934 0.008256372 0.0083205355 0.012294537
-0.00015279534 0.00077896693 -0.0027753373 0.012651543 -0.0022007758 -0.01133181 -0.008272884 -0.016564934

pos_enc f4 [32, 32, 32]
00000000: 0000 0000 0000 803f 0000 0000 0000 803f
00000010: 0000 0000 0000 803f 0000 0000 0000 803f
00000020: 0000 0000 0000 803f 0000 0000 0000 803f
00000030: 0000 0000 0000 803f 0000 0000 0000 803f
00000040: 0000 0000 0000 803f 0000 0000 0000 803f
00000050: 0000 0000 0000 803f 0000 0000 0000 803f
00000060: 0000 0000 0000 803f 0000 0000 0000 803f
00000070: 0000 0000 0000 803f 0000 0000 0000 803f
00000080: 0000 0000 0000 803f 0000 0000 0000 803f
00000090: 0000 0000 0000 803f 0000 0000 0000 803f
000000a0: 0000 0000 0000 803f 0000 0000 0000 803f
000000b0: 0000 0000 0000 803f 0000 0000 0000 803f
000000c0: a46a 573f 4151 0a3f ba7d 083f 0d94 583f
000000d0: 3e39 9f3e 6b4e 733f 3a23 353e 83f6 7b3f
000000e0: 7775 cc3d 98b8 7e3f af36 663d 6898 7f3f
000000f0: 5c81 013d 3cdf 7f3f 42ab 913c a3f5 7f3f
00000100: 0000 0000 0000 803f 0000 0000 0000 803f
00000110: 0000 0000 0000 803f 0000 0000 0000 803f
00000120: 0000 0000 0000 803f 0000 0000 0000 803f
00000130: 0000 0000 0000 803f 0000 0000 0000 803f
00000140: b7c7 683f 3311 d5be 0af2 663f b2e8 dc3e
00000150: 1b54 173f ec7b 4e3f f647 b23e a6fa 6f3f
00000160: f96f 4b3e a5e5 7a3f 87d9 e53d f361 7e3f
00000170: c970 813d f97c 7f3f 5ca5 113d 8ed6 7f3f
00000180: 0000 0000 0000 803f 0000 0000 0000 803f
00000190: 0000 0000 0000 803f 0000 0000 0000 803f
000001a0: 0000 0000 0000 803f 0000 0000 0000 803f
000001b0: 0000 0000 0000 803f 0000 0000 0000 803f
000001c0: c381 103e 2670 7dbf d745 7e3f ab7f edbd
000001d0: c209 503f 582f 153f 6d2f 023f 296d 5c3f
000001e0: 6d4e 973e ef90 743f d8ee 2b3e 9e5d 7c3f
000001f0: c1ff c13d 4fd9 7e3f 4e69 5a3d c3a2 7f3f
00000200: 0000 0000 0000 803f 0000 0000 0000 803f
00000210: 0000 0000 0000 803f 0000 0000 0000 803f
00000220: 0000 0000 0000 803f 0000 0000 0000 803f
00000230: 0000 0000 0000 803f 0000 0000 0000 803f
00000240: cfbd 41bf 3055 27bf ec49 473f 9eaf 20bf
00000250: de1d 743f b12e 9a3e bc1f 273f edeb 413f
00000260: d861 c73e a7ca 6b3f c665 643e 098d 793f
00000270: 892e 013e 69f4 7d3f c88d 913d 465a 7f3f
00000280: 0000 0000 0000 803f 0000 0000 0000 803f
00000290: 0000 0000 0000 803f 0000 0000 0000 803f
000002a0: 0000 0000 0000 803f 0000 0000 0000 803f
000002b0: 0000 0000 0000 803f 0000 0000 0000 803f
000002c0: 107c 75bf 2c3c 913e d8da a53e 4032 72bf
000002d0: 7ffc 7f3f e972 29bc abca 463f f14c 213f
000002e0: 4477 f53e 40a9 603f ed11 8e3e 7cf2 753f
000002f0: 1e3c 213e 81ce 7c3f 21db b53d 1efd 7e3f
00000300: 0000 0000 0000 803f 0000 0000 0000 803f
00000310: 0000 0000 0000 803f 0000 0000 0000 803f
00000320: 0000 0000 0000 803f 0000 0000 0000 803f
00000330: 0000 0000 0000 803f 0000 0000 0000 803f
00000340: 8c0f 8fbe b8cd 753f 76e5 6bbe 531d 79bf
00000350: 4e78 723f 6d3f a4be 8930 603f 322f f73e
00000360: 698c 103f 3249 533f fd7d a93e e290 713f
00000370: 6f20 413e e367 7b3f c219 da3d 518b 7e3f
00000380: 0000 0000 0000 803f 0000 0000 0000 803f
00000390: 0000 0000 0000 803f 0000 0000 0000 803f
000003a0: 0000 0000 0000 803f 0000 0000 0000 803f
000003b0: 0000 0000 0000 803f 0000 0000 0000 803f
000003c0: 4630 283f bdff 403f 6db6 36bf 614f 33bf
000003d0: 6ee8 4c3f bc74 19bf 4484 723f b6f8 a33e
000003e0: 73eb 243f b3cc 433f de60 c43e c66b 6c3f
000003f0: 51d3 603e eac0 793f ba46 fe3d e904 7e3f
0.0 1.0 0.0 1.0 0.0 1.0 0.0 1.0
0.0 1.0 0.0 1.0 0.0 1.0 0.0 1.0
0.0 1.0 0.0 1.0 0.0 1.0 0.0 1.0
0.0 1.0 0.0 1.0 0.0 1.0 0.0 1.0
0.0 1.0 0.0 1.0 0.0 1.0 0.0 1.0
0.0 1.0 0.0 1.0 0.0 1.0 0.0 1.0
0.84147096 0.54030234 0.53316844 0.8460091 0.3109836 0.9504153 0.17689219 0.9842302
0.09983342 0.9950042 0.056204494 0.9984193 0.031617507 0.99950004 0.017781857 0.99984187
0.0 1.0 0.0 1.0 0.0 1.0 0.0 1.0
0.0 1.0 0.0 1.0 0.0 1.0 0.0 1.0
0.9092974 -0.41614684 0.9021307 0.43146282 0.5911271 0.8065784 0.34820527 0.93741834
0.19866933 0.9800666 0.11223131 0.9936821 0.0632034 0.9980007 0.03555809 0.9993676
0.0 1.0 0.0 1.0 0.0 1.0 0.0 1.0
0.0 1.0 0.0 1.0 0.0 1.0 0.0 1.0
0.14112 -0.9899925 0.9932532 -0.11596616 0.8126489 0.58275366 0.50853616 0.86104065
0.29552022 0.9553365 0.1679033 0.9858035 0.09472609 0.99550337 0.053323083 0.9985773
0.0 1.0 0.0 1.0 0.0 1.0 0.0 1.0
0.0 1.0 0.0 1.0 0.0 1.0 0.0 1.0
-0.7568025 -0.6536436 0.7784717 -0.6276797 0.95358074 0.30113748 0.652828 0.7575062
0.38941836 0.921061 0.22304448 0.9748083 0.12615408 0.99201065 0.07107121 0.9974712
0.0 1.0 0.0 1.0 0.0 1.0 0.0 1.0
0.0 1.0 0.0 1.0 0.0 1.0 0.0 1.0
-0.9589243 0.2836622 0.32393527 -0.94607925 0.99994653 -0.010342338 0.77652997 0.6300803
0.47942555 0.87758255 0.2774805 0.96073127 0.15745589 0.987526 0.08879686 0.99604976
0.0 1.0 0.0 1.0 0.0 1.0 0.0 1.0
0.0 1.0 0.0 1.0 0.0 1.0 0.0 1.0
-0.2794155 0.96017027 -0.23036751 -0.9731037 0.9471482 -0.3207964 0.8757406 0.48278195
0.5646425 0.8253356 0.33103934 0.943617 0.18860029 0.98205394 0.10649444 0.9943133
0.0 1.0 0.0 1.0 0.0 1.0 0.0 1.0
0.0 1.0 0.0 1.0 0.0 1.0 0.0 1.0
0.6569866 0.75390226 -0.7137211 -0.70043 0.8004216 -0.5994375 0.9473307 0.3202569
0.64421767 0.7648422 0.38355154 0.9235195 0.21955611 0.9755999 0.12415834 0.9922624

norm.weight f4 [32]
00000000: 550b 323f dfcc 5e3f 3fcb 4d3f 272a 403f
00000010: 2738 453f d93e 5a3f 06d1 3d3f 4df7 4a3f
00000020: 5926 2a3f b180 293f 0cd2 323f bada 3c3f
00000030: abb8 483f e00d 513f f973 3d3f 6f04 513f
00000040: d228 493f b79f 593f 5f7c 313f 2269 383f
00000050: 3b10 543f a154 493f 3371 363f a379 4f3f
00000060: d845 263f 880d 4d3f 072a 3e3f 90ab 4b3f
00000070: 79f6 323f f0e2 603f 010c 3b3f 2a36 213f
0.6954854 0.8703136 0.80388254 0.7506432 0.77038807 0.8525215 0.7414707 0.792836
0.66464764 0.6621199 0.69851756 0.7377125 0.7840678 0.81661797 0.74005085 0.8164739
0.7857791 0.8500933 0.693304 0.7203542 0.82837266 0.7864476 0.7126648 0.8104498
0.64950323 0.8009877 0.7428288 0.7955866 0.6990734 0.8784628 0.7306519 0.6297327

norm.bias f4 [32]
00000000: 20d4 c73b aeb5 f83c eecd cebc 4c40 413e
00000010: d1a3 5e3d 38b9 823d 8122 ddbc b707 1fbd
00000020: 46af d4bd a02d 5abe a2e9 b93d 5f1d d23d
00000030: eecc 0f3e 2d27 5a3d 987f c2bd 6e0d 64bc
00000040: 7387 40bd ed6e a63a 8c8a bfbd 6eed 923d
00000050: d1b2 b73d a8a4 bf3c 3f93 1a3e 1a48 2cbc
00000060: 7eb3 c13d 4b53 03be 2d26 d5bc 983d 06be
00000070: 54ed bc3b 69bf 7a3c 47bc 2c3e 38d5 8fbe
0.0060982853 0.03036007 -0.02524468 0.18872184 0.054355446 0.06382984 -0.026993992 -0.038825717
-0.10384993 -0.21306467 0.09077765 0.10259508 0.14043018 0.053260017 -0.09496993 -0.0139192175
-0.047004174 0.0012697853 -0.093525976 0.07174192 0.089696534 0.023393944 0.15095232 -0.010515237
0.094580635 -0.12824742 -0.02601918 -0.13109434 0.0057655964 0.015304425 0.16868697 -0.2809236

patch_embeddings.weight f4 [14, 32]
00000000: bf51 f83f 3994 bc3f 374e 6c3f d782 06c0
00000010: 2370 2f3f ab36 9fbf 8eeb a9bd 07ff cdbf
00000020: 432e 42bf d138 d03f e267 c3be 6c1d b3bf
00000030: 994f 31bf 5483 0ebf 6fd7 46bf 522f 3f3f
00000040: fd67 d33f 785f fcbd 6c95 ecbe bb76 e53e
00000050: 890b 34bf b4bc 8b3f 550a 423f 300f d93f
00000060: 1ed0 9f3f 1513 aa3f 8331 163f 0926 a73f
00000070: 737e 76be 2e2f b43c 52b6 81be 5a0e 5c3f
00000080: cb29 b6bf 73ca 5fbf 0dd2 4abe 8c89 de3f
00000090: d5c1 933e 9900 c7be ef36 a63e 2df1 3abf
000000a0: dc84 c2bf 9b61 813f 6eea 63bf b2fc 1abf
000000b0: 44f4 a2bf a424 0640 9220 9bbf 72d6 02bf
000000c0: 6aa3 67bf 2696 24bf b96b 783d 8ad5 043f
000000d0: 7a69 02bf 1680 953f e5d1 4abf c6aa 3bbf
000000e0: 172b b3bf 6d9c 27bc 6d3a 63bd de9c 283f
000000f0: cafa cdbd 1378 eb3f 5505 96bf 861b b13f
00000100: 5ac3 b23f c643 653f 9bb5 0c40 6779 013f
00000110: 9c3e a13e f88d 14be f06f 7fbf 384e a53f
00000120: 4609 d3bd 068d 163f cd70 8e3d 9f55 c93e
00000130: 21a4 163f 3adb 23bf 8db9 0cc0 28df 42bf
00000140: c4a2 d0bb b09f b8be 1416 b0bf 8a69 06bf
00000150: d8e9 fb3e 1f81 043f 8c10 953f 3316 9cbb
00000160: bb8c 2e3f 8cc9 03bf 4baa 87bf bd82 0f3f
00000170: 15f5 e1bf 7b81 45bf f11e af3f d5cd e93e
00000180: 9edd 1ec0 02a7 ef3e 25f6 493f d87d a03a
00000190: fbd6 203f abdc 153f 2f0b 873f a57c e5be
000001a0: 6280 61be 7af2 423f 1e3c c83e ea79 5f3e
000001b0: 8a5e 8b3e 292b a63f 6284 9cbb 1bfb b1be
000001c0: ae7a b8bf 2c0b d0bd bbbb 10bf 5e6a 073f
000001d0: cf04 383f ad00 0c3e d34a d9be 5449 063f
000001e0: a7ea 3ebd 2d2c 8e3e 640a e23d 81ea 333f
000001f0: b837 8f3f 77c2 bd3e e18a 333f 5c98 d33e
00000200: a3c8 f93f 3ef3 7f3f 6dcc b7bf 321a 91bf
00000210: 21dc 10be 4f4a ce3f 55cb 2a3f 57b4 153f
00000220: 2022 913f e708 f83c c79d e4bf 7e3e 693f
00000230: 4693 bfbe e683 873f 7c48 35bf bf4a 1d3f
00000240: f82a 72bf 5205 733f 7bf4 c63f a3ad b83f
00000250: e9ae 8c3e bd8c 3ebe d8b6 38bf 527e c53d
00000260: 375b a83e ae90 723f c424 f9be 0baf ca3f
00000270: 0723 1dc0 0c12 ccbe 0d4d 99bf ef26 4a3f
00000280: e40d f4bf 5a50 683e 6849 523c cebf a7be
00000290: e5eb 8f3e 3f49 35bf 4f3a 523e 1c5f 87bf
000002a0: 285a c9bf d4f9 ae3f dc05 a53f b1cd 093d
000002b0: 02fd c6bf e10f 3a3f 33c5 493f 0854 0040
000002c0: d19b 383d ac46 193e 4253 4dbf ed91 60be
000002d0: 98d6 6bbf beb6 cbbf ec86 8cbf df26 11bf
000002e0: ab0b 03bf e0ef babf 98ed f9bf f07b 0a3e
000002f0: 983d 823f 3787 0ebf f729 2d3f ed40 2d3f
00000300: 9af1 e63f 5faf 6abf 3890 7c3f f99c b5be
00000310: 64c1 8fbf 4008 b33e ba31 e73e 52c8 aa3f
00000320: d7d3 f73e 1506 0340 902a 06bf b1bf 6bbf
00000330: 03be 523e d8d6 873f 8e85 a43f e2ea d03e
00000340: 4cd2 41bf 4fab 84bf 4628 f7be 3e6c 27bf
00000350: cdd7 283e 1578 ed3e f3aa 4ebe 3dd9 14c0
00000360: 2238 d3be 606d 893f 77c8 debf 34c2 be3f
00000370: de73 af3e 132a 08bf 2f43 8a3f 6bf4 de3f
00000380: f640 38bd 5b84 db3f 236c 1f3e b36d 88bf
00000390: d259 17bf bc31 0b3e fd2b e43e 3f19 fc3f
000003a0: 62b6 54bd c128 62bf b3bd 02c0 61a3 8dbf
000003b0: da9c 9a3d 5610 ed3d b0f3 5b3e 5858 c23e
000003c0: c0b6 75bf 1f30 963e b2e7 0ebf e6d8 043f
000003d0: 928f 69bf a4c0 c9bc e44a a5be 6a54 b13f
000003e0: 5510 9b3f 6313 35bf 5e81 593f 3216 fc3e
000003f0: 06ad 043f 8d06 153f 1905 0f3f 467c 223e
1.9399947 1.4732734 0.92306846 -2.1017358 0.6853048 -1.2438558 -0.082968816 -1.6093453
-0.7585184 1.6267339 -0.38165194 -1.3993354 -0.6926208 -0.5566914 -0.77672476 0.7468158
1.651611 -0.12322897 -0.4620775 0.44817147 -0.703301 1.0916963 0.75797015 1.695776
1.2485387 1.3287073 0.586693 1.3058482 -0.24071674 0.021995153 -0.25334412 0.859594
-1.4231504 -0.8741829 -0.1980669 1.7385726 0.2885882 -0.38867643 0.32463786 -0.73024255
-1.5196795 1.0107912 -0.89029586 -0.6054183 -1.2730794 2.0959864 -1.2119315 -0.5110847
-0.90483725 -0.6429161 0.060649607 0.51888335 -0.50942194 1.1679714 -0.79226524 -0.73307455
-1.3997525 -0.010230166 -0.05547564 0.6586436 -0.100576 1.8396019 -1.1720377 1.3836524
1.3965867 0.8955654 2.1985843 0.5057587 0.3149308 -0.14507282 -0.9978018 1.2914495
-0.10304503 0.58808935 0.06955109 0.39323136 0.5884419 -0.6400639 -2.1988251 -0.7612176
-0.0063670594 -0.36059332 -1.3756738 -0.5250479 0.49201846 0.51759523 1.1645675 -0.0047633885
0.6818349 -0.5147941 -1.0598844 0.56058866 -1.7652918 -0.77150697 1.3681318 0.4566485
-2.4822764 0.46807104 0.7889121 0.0012244536 0.62828034 0.5853984 1.0550288 -0.4482166
-0.2202163 0.7615124 0.39108366 0.2182385 0.27220565 1.2981921 -0.0047765234 -0.3476189
-1.4412439 -0.10158381 -0.56536454 0.5289668 0.7188234 0.13672133 -0.424399 0.5245564
-0.0466105 0.27768078 0.11037138 0.702797 1.1188879 0.37062427 0.7013379 0.41327178
1.9514354 0.99980533 -1.4359261 -1.1336119 -0.14146473 1.6116427 0.6671651 0.584783
1.1338539 0.030277682 -1.786065 0.9111098 -0.37417048 1.0587127 -0.7081373 0.6144218
-0.94596815 0.94929993 1.554336 1.442799 0.27477196 -0.18608375 -0.72154 0.09643234
0.3288209 0.94752014 -0.48660862 1.5834669 -2.455263 -0.3985752 -1.1976639 0.7896566
-1.9066739 0.22686902 0.012834884 -0.32763523 0.2810966 -0.7081489 0.20530055 -1.05759
-1.5730639 1.3669991 1.2892413 0.03364343 -1.5545962 0.7268048 0.7881653 2.0051289
0.045070473 0.14968365 -0.80205166 -0.21930666 -0.9212432 -1.5915143 -1.0978675 -0.5669994
-0.5118968 -1.4604454 -1.9525633 0.13523841 1.0175047 -0.5567507 0.6764216 0.67677194
1.8042481 -0.91673845 0.9865756 -0.35471323 -1.1230893 0.34967232 0.45155126 1.3342383
0.48403808 2.0472462 -0.52408695 -0.9208937 0.20580296 1.061244 1.2853258 0.408042
-0.7571151 -1.0364779 -0.48272914 -0.6539954 0.16488571 0.46380678 -0.201824 -2.3257592
-0.41253763 1.0736504 -1.7404927 1.4903016 0.34268087 -0.531892 1.0801753 1.741834
-0.044983827 1.7149767 0.15568595 -1.0658478 -0.5912143 0.13593191 0.4456481 1.9695204
-0.051931746 -0.88343436 -2.0428283 -1.1065484 0.07549448 0.115753815 0.21479678 0.37958026
-0.9598198 0.29333588 -0.5582229 0.5189346 -0.91234696 -0.024627991 -0.322837 1.3853886
1.2114359 -0.70732707 0.84963024 0.49235684 0.5182651 0.5821312 0.55867153 0.15867719

blocks.0.norm1.weight f4 [32]
00000000: 27fe 823f f890 803f 3dec 7b3f 7d2a 7d3f
00000010: 068d 803f 04f4 7d3f 8aaf 813f 930d 7d3f
00000020: a159 823f e30c 803f 2636 7c3f 5ada 7f3f
00000030: 910d 803f b367 803f 8896 7d3f b900 7f3f
00000040: 1a47 813f e405 7f3f 6415 803f 552a 803f
00000050: 48f3 7e3f e44d 803f 7a07 813f cc01 7c3f
00000060: 161c 803f c555 7f3f 6ff9 7f3f ccec 7b3f
00000070: 7866 7c3f a22e 803f 847f 7d3f c835 803f
1.0233811 1.0044241 0.98407346 0.98892957 1.0043037 0.99200463 1.0131695 0.9884884
1.0183603 1.0003933 0.98520124 0.99942553 1.000414 1.0031646 0.9905782 0.9961048
1.0099823 0.99618363 1.0006528 1.0012919 0.9958997 1.002377 1.0080407 0.9844024
1.0008571 0.9974025 0.9998998 0.984082 0.98593855 1.0014231 0.990227 1.0016413

blocks.0.norm1.bias f4 [32]
00000000: e3ea bf3b af37 cc3b d842 54bb af4b 673b
00000010: 1d49 22bc 4869 833c 4906 dbbb fc40 5b39
00000020: ecfc a8bb 5657 c33a 44c5 4e3c 3685 24b9
00000030: dab1 62bb 47aa f13b 6d55 02bb 5620 58bb
00000040: 2f4a 283c c08f c8bb 8266 aabb 49aa 6a3b
00000050: 7c08 8bbb 9705 923b 86f1 c7bb 0376 833c
00000060: 78e1 2a3b 1b18 70bb b99f 0bbc 1d77 32bb
00000070: 7824 5f3b 6da1 0e3a c49c 6cbb 59b0 123b
0.005856858 0.006232224 -0.0032388475 0.0035292914 -0.009905127 0.016041413 -0.006684099 0.00020909676
-0.0051571038 0.0014903347 0.012620274 -0.00015689884 -0.003459087 0.007375035 -0.0019887344 -0.0032978258
0.010271593 -0.006120652 -0.005200208 0.0035807064 -0.004242955 0.004456233 -0.00610179 0.016047483
0.0026074331 -0.0036635462 -0.008521968 -0.0027231642 0.0034048837 0.00054409244 -0.0036104182 0.0022382943

blocks.0.attn.qkv.weight f4 [96, 32]
00000000: 07be 0f3e bf52 15be 6313 9dbc ff39 33be
00000010: 6b98 14be d0bb 953c c8ff 273d 3f73 c53c
00000020: 064e 93bd 6eb0 183e f713 d33c 1ddf b2bd
00000030: 1100 073c e235 373d 9286 623d ba61 cebd
00000040: dd02 443d fbf5 b1bd c9d7 22be e81a c2bd
00000050: a6f8 483e af72 163e f075 283e 3ccf d73d
00000060: 9485 073e b5e0 3cbd 1266 ccbd d3dc b43d
00000070: 1269 cfbd 9c82 d9bd 7d68 57bd 60e3 273d
00000080: 9e79 ae3d ec87 43bd c991 a3bd f194 8f3c
00000090: eea1 c1bd 3209 b8bd 1bce bd3d 0d83 983b
000000a0: e751 2b3e 44f4 433e 4a48 203d 7d26 1f3d
000000b0: 1298 903c b11a 093b 9135 1d3b 2e48 e7bc
000000c0: a3ad bb3d e392 1a3e fad1 f7bc 6eb9 b6bd
000000d0: 9853 a9bd 3f3c 96bd 6183 383c e202 ee3d
000000e0: 51c6 003e 14f3 db3d 5cc4 00be 69e3 afbd
000000f0: 43c4 15bb 026e 65bd cb1f a53b 7c08 26be
00000100: 594f 6f3d c27d 02be f9fe c8bd 604f 18be
00000110: 33a1 253e 6559 2dbe 0fd7 f83d 0e27 e0ba
00000120: 6512 08bd f5c0 e63d e6f4 bbbc b659 de3d
00000130: 1765 fa3d b225 15be 6039 873d 4fbf c53c
00000140: 7337 2e3d a755 963c 344b 4a3d 4059 c4bd
00000150: 9a9a a0bc 026d 313e 155a f43d a811 eabb
00000160: a949 30be 0428 2b3c 9c21 ffbd 84f1 1a3e
00000170: 4b04 cbbd 108c 99bc 936a 40bd e500 003d
00000180: 6f7c 453e c75b f63c d569 393d 9b00 253e
00000190: 0789 1c3e 5524 a8bd 4f0a 7fbd 782e 273d
000001a0: 6cef 94bd 6020 a33d b7dd 16bc a1bf 06be
000001b0: db02 a03d 2160 4f3d 270a 303d 47de 483e
000001c0: 726e 033e 747d 1d3e 54b5 bf3c b7d6 28be
000001d0: 2413 9abd df42 b5bd 8f5b f0bd 3bb7 59bd
000001e0: 2853 11be ecbb 29be 3ed0 eebd a67c 1ebe
000001f0: e568 1dbe 81b8 773d 97fd 023e ff8b 9cbd
00000200: 7d7f 1ebd 93af da3d 745a bdbd a83f 9fbd
00000210: b550 003e 3fb9 28be cd28 ca3a dc42 163e
00000220: 4183 653c 407b 383d 64dc cbbd c0a4 00bc
00000230: a856 e33b 22a3 6d3d 7d42 663d 30c1 1e3e
00000240: b4b9 02be 606c 20bc 4534 a0bd 01ed 1fbe
00000250: 8dde de3b 435f 0fbe 1504 083e 78eb f83c
00000260: b397 cebd ffef c23d 9a41 35be 3489 53bd
00000270: 485a 1cbd 2016 25be f79b 02be a502 1bbd
00000280: 0055 063e 177c 323e 851e 2a3e 2753 efbd
00000290: 834f d3bd 0628 2b3e 947b 643d a538 063d
000002a0: f5fd 193d fafb 0bbe 3ff7 8fbd 51e3 2f3e
000002b0: bd6b 6cbd e80b 15bc ae9b 10be d112 f0bd
000002c0: 909e ab3b 17c9 ebbd d371 e2bc 6d03 753d
000002d0: 85c0 54be a9f6 523d 4a64 01be 7f70 c3bd
000002e0: b402 8b3d 7c41 1b3e 917d 40bd 574c 86bd
000002f0: 64da 06be 76a7 cbbd d2e9 20be f81a 01bd
00000300: cb62 043d 2d01 27be af34 113e 385a ea3d
00000310: 26db 2abe 45f2 d3bd 8540 5d3d 6d2c 0ebd
00000320: afad fcbc 0847 a7bd c877 0e3e ccb9 cbbd
00000330: 24bc 1a3e dbca b53c e2b4 123d 8b1a 163e
00000340: f0df 1bbd 9b63 dbbd 44ca d8bc 4ae3 0e3e
00000350: 3b81 f6bd 80b3 3e3d 0172 37be fee1 b33d
00000360: 0ad8 713d 6cf4 baba fec7 963d ca14 ca3b
00000370: 3a51 d33d 9f40 0dbe 2360 dfbc 0800 a33d
00000380: ed63 353e fa40 b73d 1475 0bbe fc15 033e
00000390: 3a84 0fbd 63a2 46bd c40c 2cbe cce6 f8bc
000003a0: 96ce df3d 5165 703c 628a e0bd f9b2 753d
000003b0: 093c 48bd 38f6 283e a0af 1dbe fd2f 2fbd
000003c0: 27d5 32be ec7d 95bd c5c2 5a3d d395 273e
000003d0: 6d4a 403d 6fe9 333e c634 153d 90c8 d03d
000003e0: 12d7 0a3e d787 113e dfe6 d5bd 318e 2b3e
000003f0: 796e dc3d 585f a5bd 3c24 b6bd ff84 14be
0.14037333 -0.14582346 -0.019174283 -0.17502593 -0.14511268 0.018278033 0.041015416 0.024102805
-0.07192616 0.14911053 0.025766356 -0.08733962 0.008239762 0.04472912 0.055304118 -0.100772336
0.047854293 -0.08689495 -0.15902628 -0.09477788 0.19626102 0.14692186 0.1645124 0.10537574
0.1323455 -0.046112735 -0.09980406 0.088311814 -0.101274624 -0.10620615 -0.052589882 0.040988326
0.085192904 -0.047737047 -0.07986791 0.017527075 -0.09454714 -0.08986129 0.09267827 0.0046542943
0.16730462 0.19136149 0.03913144 0.038855065 0.017650638 0.002092045 0.0023988227 -0.02823266
0.09163978 0.15095095 -0.030251492 -0.08922087 -0.08267897 -0.0733571 0.011261792 0.116216436
0.12575652 0.10739723 -0.12574905 -0.08588297 -0.0022852577 -0.056013115 0.0050391904 -0.16214174
0.05842528 -0.12743285 -0.09814257 -0.14874029 0.16174774 -0.16928633 0.12150394 -0.0017101483
-0.033220667 0.112672724 -0.022943925 0.10856955 0.122263126 -0.14565161 0.0660274 0.024139075
0.04253335 0.01835139 0.049388126 -0.095873356 -0.01960497 0.1732674 0.11931244 -0.007143218
-0.17215599 0.010446552 -0.12457582 0.15131193 -0.09912928 -0.018743545 -0.046976637 0.031250853
0.19285749 0.03007306 0.045266945 0.16113512 0.15286647 -0.08210055 -0.06226569 0.0408158
-0.072722286 0.079651594 -0.009208134 -0.13159038 0.07813045 0.050628785 0.042978432 0.19616042
0.128351 0.15379888 0.023401894 -0.16488157 -0.07523182 -0.08850645 -0.117362134 -0.053153258
-0.14191878 -0.16575593 -0.11660813 -0.15477237 -0.15372045 0.06047869 0.1279205 -0.0764389
-0.0386958 0.106780194 -0.09245768 -0.07775813 0.12530787 -0.16476916 0.0015423537 0.14673942
0.014008344 0.045039415 -0.099541456 -0.007851779 0.0069378205 0.058016904 0.056215752 0.15503383
-0.12766153 -0.009791464 -0.078224696 -0.15617754 0.0068014325 -0.14001183 0.13282807 0.030385718
-0.10087528 0.09518432 -0.17700806 -0.05164452 -0.038172036 -0.16121721 -0.12754808 -0.03784432
0.13118362 0.17430149 0.16613205 -0.11685782 -0.103179 0.16714486 0.055781916 0.032768864
0.037595708 -0.1367034 -0.0702958 0.17176558 -0.057719935 -0.009097077 -0.14121887 -0.11722339
0.005237408 -0.11512964 -0.027642166 0.05981772 -0.20776565 0.051504765 -0.12635913 -0.09542941
0.06787625 0.15161699 -0.04699475 -0.065575294 -0.13169247 -0.0994405 -0.15714195 -0.03151986
0.03232078 -0.16309042 0.14180253 0.11442989 -0.16685161 -0.103489436 0.05401661 -0.034710336
-0.030844538 -0.08167845 0.1391288 -0.09947547 0.15110832 0.022191456 0.035817035 0.14658563
-0.03805536 -0.107123576 -0.026463635 0.13953891 -0.120363675 0.046557903 -0.17914583 0.08783339
0.05904392 -0.0014263517 0.07362364 0.006167029 0.10318227 -0.13794182 -0.027267521 0.0795899
0.177139 0.0894794 -0.1361888 0.12801355 -0.03503821 -0.048494708 -0.16801745 -0.03038349
0.10928075 0.014672593 -0.109638944 0.059985135 -0.04888538 0.16500175 -0.15399027 -0.042770375
-0.17464124 -0.07299408 0.053408403 0.16365747 0.046945978 0.17569517 0.03642728 0.10194504
0.13558605 0.14211975 -0.10444426 0.1675346 0.107632585 -0.08074826 -0.0889363 -0.14503859

blocks.0.attn.proj.weight f4 [32, 32]
00000000: 3f44 82bd 28c7 f13d 7713 02be 7076 12be
00000010: 73ad 08be d839 d6bd 2cf9 263e adbf e63c
00000020: 5df9 c9bc 17c3 53bd c117 0cbe 4d8a 56bd
00000030: 8628 b93d d002 ff3d 4606 053e b22f 703c
00000040: 6c8e c1bd 9aed d0bd 4ebc 283e d084 26be
00000050: b42b 263d 4a6b a4bc 210a 363e 0b7c d93d
00000060: 4fb6 63bd 369a 13be 02d4 293d cfc2 f4bd
00000070: 73d2 d1bc 8d1e 363d d119 c13d 20d9 2cbd
00000080: 6f53 dfbd 9887 05be 4155 38be a43c ac3c
00000090: 5efc f0bd fd86 633c 05d4 9fbd 81d9 f9bd
000000a0: a55c ea3d 0178 d33d 9579 053e af48 4a3e
000000b0: bd36 06be 78e6 dfbd aa1f 13be 064a de3d
000000c0: e232 ad3d 0258 173e 8b80 05be 48d6 d4bd
000000d0: 2c2b 283e a5be 01be ddd4 1dbe dd36 9d3d
000000e0: d324 13be ecf2 55bd 69b7 d23d 05b8 0b3e
000000f0: f3d4 3bbc b2d2 15be eab0 df3d ce64 3a3e
00000100: 1425 0bbe b368 d43b 83bb fdbd fc72 efbd
00000110: 6022 923d 61a7 923d eb73 7e3d 260d 0ebe
00000120: 68ef f7bc f6e3 443d 4753 e4bc cf63 bdbd
00000130: b30e b0bd befa 2d3e f4a1 10be d37a d5bd
00000140: d4f9 083e 617d febd e492 f03d ec1a b5bd
00000150: 628b edbb e411 b2bd 1790 0e3e e76c ea3d
00000160: 8067 313d c25d 723c 827f 8abd 20ff b6bd
00000170: 081a 8bbd 3cdd 643d c888 d0bc df80 d93d
00000180: a6a8 b43c 6195 e0bb 40fb c8bd df05 983d
00000190: 5b01 23be 7ba6 223d 5fda 713d 0a14 eb3c
000001a0: 168e f63d fdc2 3d3d 1740 42bd dbb9 16be
000001b0: ae83 2bbe d4bf c73d c6d6 cc3d 3cb1 04be
000001c0: 4f4c 563d 0aea 7ebd c755 143e b988 73bd
000001d0: 0664 173e 9098 083e 548d f73d 301f fa3d
000001e0: 3c08 793d 3e80 5c3d 521b 37be 5c99 22bd
000001f0: fa4a 9bbc 073c a63d 1999 a6bd 7792 8b3d
00000200: 865b f53d 53f8 973d 8131 9b3d 46c8 a0bc
00000210: b25e be3d 063a 7fbd 8066 103e 1867 b73b
00000220: ebaf 12bc 3427 1ebe 46b9 243e c3bf febc
00000230: 6ef4 053e 3f5b fabd c3ac 12be 5716 b9bc
00000240: c416 0ebe 441b f83c 635d 693b 9d55 80bd
00000250: ac35 db3d c0e5 e73d 0d6d 1abe 45d3 11be
00000260: 5949 c83d 6793 d3bd 8ea1 c53c ba82 3abd
00000270: 336a d43c e5ae c0bd 97fe 0abc 0b26 59bd
00000280: c6d1 a6bd 8288 c1bd 9a0a 173d 2641 f93d
00000290: 5f15 cdbb aebb 84bb b768 093e 72b9 0a3e
000002a0: ee2b ecbc 9ccd 09be 149e 3d3d 5825 7d3d
000002b0: 503b 10be 86d2 24be 382b bb3c 2d8b 263e
000002c0: dd4a 1bbe 8abd b4bd 6df7 67bd 54fb 1dbe
000002d0: 2eb6 d7bd 258a 0a3e 4035 0b3e 5c67 0bbe
000002e0: b9e9 c8ba 9383 11be 2fb6 823d 924b f1bd
000002f0: 5ddb babd 8bd2 acbd 2a12 fa3c c7fd eb3d
00000300: 4038 8fbd db4c 093d e21b 163e 83be 82bb
00000310: 748e d03b 7473 823c 2644 963c 515b c13d
00000320: 4848 c23d da4a c8bd 4298 293e 9c6e c53d
00000330: ff1a d6bc 73b9 1c3e c97c 013c ee85 d73d
00000340: 05bf 21be d91c 243e db1e 233e 9c42 07be
00000350: ba6b 27be 8b67 2fbd 9683 0abe a1d2 793d
00000360: d79b bf3d 5146 b7bc 2f99 ee3d 8ce5 283c
00000370: 8fda 54bd 85cb 1fbe 7045 1b3d 84a1 32be
00000380: 9f0b c93b 45ca d43c c533 e1bd 7d05 7d3d
00000390: 4621 ee3c 1e3e fe3d 884f ae3d 4908 1abe
000003a0: 3411 0dbe 5be5 50bd 98e3 f2bd 92c0 7b3d
000003b0: 77b1 fbbd 0206 04be b134 393d 9ee4 c53d
000003c0: 28bb 5fbd 0da9 33be 20da b63c f2f4 a33d
000003d0: b4b5 083e d56d 213c b1dc 0e3e 42e6 21be
000003e0: a99d 213e d83e fcbd e1a6 dfbd 8bd8 f83d
000003f0: 8710 00bd 2800 e53d 1f8e b5bd 79a7 053e
-0.06360673 0.11805564 -0.12702738 -0.14302993 -0.13347416 -0.104602516 0.16305989 0.02816757
-0.024655038 -0.051699724 -0.13680936 -0.052377988 0.09040932 0.12451708 0.12990674 0.014659809
-0.09450993 -0.10201569 0.16478083 -0.16261601 0.040569022 -0.02007069 0.17777301 0.106193624
-0.055593785 -0.14414296 0.041461952 -0.11951219 -0.025613045 0.04446273 0.09428752 -0.042199254
-0.109045856 -0.13040006 -0.18001272 0.02102501 -0.11766885 0.013887164 -0.078041114 -0.12199689
0.11443452 0.10325623 0.13034661 0.19754289 -0.13106818 -0.1093263 -0.14367548 0.108539626
0.08456971 0.14779666 -0.13037317 -0.103924334 0.16422719 -0.12670381 -0.15413232 0.0767648
-0.14369516 -0.05223362 0.10288889 0.13644417 -0.011464345 -0.14631155 0.109224156 0.18202516
-0.13588363 0.0064822077 -0.12389281 -0.116918534 0.07135463 0.07160831 0.062122267 -0.13872203
-0.030265525 0.048068963 -0.027871741 -0.092475526 -0.08596554 0.16990182 -0.1412428 -0.104238175
0.13376552 -0.12426258 0.11746767 -0.088430256 -0.0072492817 -0.086948186 0.13922153 0.11446553
0.043311596 0.014792861 -0.067626014 -0.0893538 -0.067920744 0.055875048 -0.025455847 0.10620283
0.022053074 -0.006853745 -0.09813547 0.07422995 -0.15918486 0.03970955 0.059046146 0.028696079
0.120388195 0.046328533 -0.047424402 -0.14719336 -0.1674945 0.09753385 0.10001902 -0.12958235
0.052318867 -0.062234916 0.14485846 -0.05945656 0.1478425 0.13339448 0.12087503 0.1221298
0.06079887 0.05383324 -0.17881516 -0.039697036 -0.01895665 0.08116918 -0.0813467 0.06815045
0.11980347 0.07420411 0.075778015 -0.019626748 0.092954054 -0.062311195 0.141016 0.0055970065
-0.008953075 -0.15444642 0.16086301 -0.031097298 0.13081524 -0.12224435 -0.14323716 -0.02259366
-0.13875872 0.030286439 0.0035608641 -0.062663294 0.107035965 0.11323118 -0.15080662 -0.14240749
0.09779615 -0.10330849 0.024124887 -0.045534827 0.025929546 -0.094083585 -0.0084835505 -0.053014796
-0.0814548 -0.09449865 0.036875345 0.12170629 -0.006258651 -0.0040506935 0.13418852 0.13547304
-0.028829541 -0.1345734 0.046293333 0.061803192 -0.14085126 -0.16095933 0.022847757 0.16264029
-0.15165277 -0.08825214 -0.056632448 -0.15427905 -0.10532795 0.1352926 0.13594532 -0.13613647
-0.0015328444 -0.14210348 0.06382405 -0.11781992 -0.091238715 -0.084385954 0.03052624 0.115230136
-0.06993151 0.03352056 0.14659074 -0.003989996 0.006364638 0.015924193 0.018343043 0.09441245
0.09486443 -0.09779902 0.16561988 0.09640238 -0.02613592 0.15305118 0.007903286 0.10523592
-0.15795524 0.1602663 0.15929739 -0.13209003 -0.16349688 -0.042823356 -0.13526759 0.060991887
0.09355896 -0.022372397 0.11650311 0.0103086345 -0.051966246 -0.1560498 0.037908018 -0.17444426
0.0061354185 0.025975356 -0.109962024 0.061772812 0.0290686 0.12414192 0.08511263 -0.15042223
-0.13776094 -0.05099998 -0.11859816 0.061462946 -0.12289708 -0.12892917 0.045216266 0.09662746
-0.054621845 -0.17544957 0.022320807 0.08005704 0.13350564 0.009852846 0.13951375 -0.15810493
0.15782799 -0.12316674 -0.109205015 0.12150677 -0.03126576 0.111816704 -0.08864998 0.13052167

blocks.0.attn.proj.bias f4 [32]
00000000: 259c f43d e007 4d3c d908 263e 55c5 b8bd
00000010: bbf3 6cbd f67c 4f3b 980d c53d 0549 17be
00000020: 66ae 4dbd 4114 0b3e 6c75 343d d80c ff3d
00000030: 8a7c 82bd d293 e7bd 6e4d dfbd 74df dabd
00000040: 4dd4 04be a73f a13d c552 573d 8f4b e1bd
00000050: 5e9f 143e ee82 283d 29f9 853d 0502 94bd
00000060: 2a2f f43d d5c0 eebd 733c f63d 912f b6bd
00000070: 8bc4 8d3d bc12 8fbd 8c7c dd3d d38f 0bbe
0.11943845 0.012514085 0.16214313 -0.09022013 -0.057849627 0.0031660176 0.096217334 -0.14773948
-0.050215147 0.13581945 0.044057295 0.124536216 -0.0637141 -0.11307491 -0.109034404 -0.106871516
-0.12971611 0.07873469 0.05256917 -0.1100074 0.14513919 0.04114049 0.06541664 -0.07226948
0.11923058 -0.116578735 0.120232485 -0.08895791 0.06922253 -0.06985995 0.10814771 -0.13629083

blocks.0.norm2.weight f4 [32]
00000000: 3ade 823f ab49 813f 2de3 803f 66f0 803f
00000010: b1ba 773f 851c 793f 5923 7e3f bfc7 803f
00000020: 7772 803f 0145 803f bdfb 7d3f bed8 803f
00000030: c6a7 813f 90db 7c3f 49bb 7d3f bacf 7d3f
00000040: 96a1 813f 640f 7e3f f001 793f f8d2 7d3f
00000050: 45b5 7d3f 92ff 7a3f 4069 7e3f 040b 823f
00000060: 39d7 7f3f e1e0 803f 2dc9 7f3f 22c5 7f3f
00000070: 4f5b 813f 4623 823f 7f26 7f3f 8bbf 813f
1.0224068 1.0100607 1.0069329 1.0073364 0.96769243 0.9730914 0.99272686 1.0060958
1.0034932 1.0021058 0.9921225 1.0066144 1.0129325 0.98772526 0.991139 0.9914509
1.0127437 0.99242234 0.9726858 0.9915004 0.9910472 0.9804622 0.9937935 1.0159612
0.9993778 1.0068628 0.99916345 0.99910176 1.010599 1.0167015 0.99668115 1.0136579

blocks.0.norm2.bias f4 [32]
00000000: 2442 053b 35ba abbb 7c97 0cbc 2746 acbc
00000010: 4d8d bfbb 0ec5 203b 2532 173c 8732 e9bb
00000020: 2dda 093b a53e d33b 32bd f83b 9c05 32bc
00000030: 3fb1 c13a da8d c5bc 832d 013c 7f02 75bb
00000040: 9cde 713b 6bad a0bb 92d4 843c c191 aabb
00000050: 5a05 8ebb 07ef cdbb 4878 6b3b 724c d63a
00000060: e273 cb3b 1ae5 eeb9 0260 9cbb 4d4b 39ba
00000070: a151 fcbb a092 20bb 6667 c0bb 5f85 393c
0.0020333612 -0.0052407035 -0.008581039 -0.021029545 -0.005845702 0.0024531516 0.009228264 -0.007116619
0.0021034584 0.006446677 0.007590913 -0.010865595 0.0014777555 -0.024115492 0.007884386 -0.003738552
0.0036906367 -0.0049034855 0.016214643 -0.0052053635 -0.004334134 -0.006284598 0.0035929848 0.0016349687
0.0062088827 -0.0004556559 -0.004772187 -0.00070684106 -0.0077001606 -0.0024501458 -0.005871701 0.011323302

blocks.0.mlp.fc1.weight f4 [128, 32]
00000000: 3db4 babc 7474 69bd b903 28be ff0a 80bd
00000010: 0db0 81bd dc78 813c 16df 0c3e 1469 21bd
00000020: 25bb 513e bcef 8cbd c401 92bd 9772 45bc
00000030: b61c 56bd 669d 6e3d 6a00 383e 6387 6a3d
00000040: 5cda 06be 3529 a3bd fafa 9cbc 9b5b 13be
00000050: e572 403d 7854 6a3e 1bc1 303d 6d25 233b
00000060: d910 dabc 6967 a2bd 2ea4 fabc 3284 213e
00000070: f9e8 00be ed2d 1a3d 83f8 dfbd ba4f 45bd
00000080: 2a61 733c c7ae 17be c68f c03c ac0a 29be
00000090: 4b18 dfbd fcdd e13d c11f 473e 1fde eabc
000000a0: de04 bbbd aaaf 1fbe 483f d2bc 54ac a7bd
000000b0: 08e1 133e 0c96 0fbe f62b d93d 4827 343d
000000c0: ac3f 28bd 145b 083e ce6a c63d 613a 623c
000000d0: 76b0 debd 3258 07bd 48b3 be3c faa9 253e
000000e0: 12d0 4fbd 2b3b c1bd 1e39 1ebe a80e c63d
000000f0: fec5 703e 8a43 053e 2167 bbbd 3f1c 053e
00000100: 9860 58bd 0417 c13d 3bbe ef3d 6d0e 15be
00000110: dcef 3f3d 6194 9a3d 06ae ecbd b5c0 2e3e
00000120: edfd 013e ccf0 193e ec88 5fbc cb31 ebbd
00000130: 14d7 c3bd 5081 913d 74a6 24bd a264 033e
00000140: f489 1d3e d63b 563c fb26 18be 44dd 803d
00000150: ec46 283e 5bd3 1dbd cc5a d5bd 0204 12bd
00000160: a43c 003d bdb3 f6bd fb1a d53d c3b7 883d
00000170: 1398 97bd 502c 7fbd 0d4a 95bd aaa0 013e
00000180: 6e2e d33d 9f8f 453d e788 b1bc 98ee 2c3d
00000190: 2c8d 203e eade 203d 91dd 98bd e3c7 753d
000001a0: b0fb 97bd 6d33 d8bb c926 f6bd a22d 083c
000001b0: 79eb ba3c 2c38 c8bd db55 d23d 7058 263e
000001c0: caeb 43be d66d 803d 767d 03be 2df0 99bc
000001d0: bad3 ba3d 0661 b93c 660b 723d 9b65 55bd
000001e0: 482b 343e d239 b6bd 5fe8 0c3d c32a fe3b
000001f0: 6755 d43d 967b 0f3d 18ff fe3d 68f9 103d
00000200: cbcf 073e 8a28 6cbc 9a02 983d 5ea3 313e
00000210: a601 72bd b206 7dbd 73b9 003e a6bc 8f3d
00000220: 8f0c 1dbe f8e8 9c3d 7406 2dbe 0de9 c2bd
00000230: 8b22 6e3d 45f6 a23d e8fa 18bd 89c5 103e
00000240: 7fdc 2f3e e94d 0b3e 5988 12be 251b 86bd
00000250: 83b6 b63b 0668 173e 147c 03bd 67f3 3b3d
00000260: d099 ad3d a725 b0bd 645b e7bd 9bc5 243e
00000270: 2619 e43a 5d82 f93d 8be4 40be 28e1 98bd
00000280: 36c7 173e d47f 92bc d7c1 6b3d 709f 10be
00000290: 3482 253e 3eee b0bd 33a7 3dbb c39b f8bd
000002a0: 7732 a7bd bd77 1fbe 7f0f 1abe 9009 b1bc
000002b0: 5dee 97bd b4f7 f43d 72fc 4fba 8902 0a3e
000002c0: da2f 18bd a7f9 253d 5fdd 2c3e 93a5 01be
000002d0: cd0d a6bd 6b78 f63d c7fb aabc 32dd 77bd
000002e0: 355e 6e3c a354 cebd af1e f03b ab13 86bd
000002f0: aec8 6f3d f3b9 24bd c604 89bd 921d 62bd
00000300: 5521 dd3c d63e 963d 282d 44be 111e 04be
00000310: dcc2 37be d7cd be3d 4c00 f33d 57d5 2fbe
00000320: 8856 a43c 7ba1 023d bab7 abbd 89b6 3e3d
00000330: 3b17 1d3e 80d4 403e 40ad 7c3d d1b6 0fbd
00000340: ad3c f5bd 0991 92bd ca78 4fbc 14f2 bbb8
00000350: 64a2 0b3e 9b64 07be e685 473c b872 24bd
00000360: 465c 983c 58e9 333e 214e 4f3c 8f5c f7bc
00000370: fc42 5dbd 7478 0ebe d8ec 1abe 44bd 9a3d
00000380: 3740 c7bd b057 d53d 16f2 79bd 0e27 043d
00000390: 05f6 0a3e f203 82bb 8e81 9e3d b297 0a3e
000003a0: 2811 9dbd 65d5 043e 2897 31be da9d 3a3e
000003b0: f2e5 24bd d449 033c bf32 b33d 506d 143d
000003c0: 724a e03d 7d7e 7ebd 8482 debd 1d15 293e
000003d0: 1be1 e1bd 8e7a dc3d fe00 2c3e 19fa 0d3e
000003e0: 0e45 59bd 8c5c aeba be4e 28be 5746 a7bd
000003f0: fd92 68bd 7b8c dabd e03a 953d 8e58 e43d
-0.022791022 -0.056995824 -0.1640767 -0.06252097 -0.06332407 0.0158047 0.13756976 -0.03940685
0.20481546 -0.06881663 -0.07129243 -0.012051246 -0.052273475 0.058255576 0.17968908 0.05725802
-0.13169235 -0.07966844 -0.019162644 -0.14390413 0.046984572 0.22883785 0.04315291 0.0024894134
-0.026619362 -0.0792988 -0.030595865 0.15773085 -0.12588872 0.037641454 -0.10936072 -0.048171736
0.014854709 -0.14812766 0.023506057 -0.16507977 -0.108933054 0.11028668 0.19445707 -0.028670369
-0.09131788 -0.15594354 -0.02566494 -0.08187166 0.14441311 -0.14022082 0.10604088 0.043982774
-0.041076347 0.13315994 0.0968834 0.013807864 -0.10873501 -0.033043094 0.023278847 0.16178122
-0.05073554 -0.094351135 -0.15451476 0.09670764 0.23513028 0.13014045 -0.0915053 0.12999056
-0.052826494 0.09428218 0.117062055 -0.14556284 0.046859607 0.07547832 -0.1155663 0.170657
0.12694521 0.15033263 -0.013643485 -0.11484107 -0.09562507 0.071047425 -0.040197805 0.12831357
0.15384656 0.013075789 -0.1485862 0.06292203 0.16433305 -0.038531642 -0.10417709 -0.035648353
0.03130783 -0.12046001 0.10405537 0.06675675 -0.07402053 -0.06229812 -0.07289515 0.12658945
0.1031159 0.04823267 -0.021671725 0.04221973 0.15678853 0.039275087 -0.074641354 0.06000508
-0.074210525 -0.0065979273 -0.120191164 0.008311661 0.02281736 -0.09776339 0.10270282 0.16244674
-0.19132915 0.062709495 -0.12840828 -0.018791283 0.09122415 0.022629272 0.0590929 -0.05209885
0.17594635 -0.08897747 0.034401294 0.0077565624 0.10367852 0.03502997 0.12450999 0.035394102
0.1326286 -0.014413962 0.07422371 0.17347476 -0.059083603 -0.061773963 0.12570743 0.07018404
-0.15336822 0.07661623 -0.16896993 -0.09517107 0.05813841 0.079571284 -0.037348658 0.14137854
0.17173956 0.13603939 -0.14309825 -0.06548146 0.0055759563 0.14785776 -0.032100752 0.045886423
0.08476603 -0.086009316 -0.11296728 0.16091006 0.0017402514 0.12183068 -0.18837182 -0.0746482
0.14822087 -0.017883219 0.057557907 -0.1412332 0.1616295 -0.08639191 -0.002893877 -0.12139084
-0.08163922 -0.1557302 -0.15044974 -0.021611005 -0.07418511 0.11961308 -0.00079340406 0.1347753
-0.03715501 0.04052129 0.16881321 -0.12660818 -0.08108101 0.12034687 -0.02087201 -0.060513683
0.014548828 -0.10074737 0.0073278765 -0.0654672 0.058540992 -0.040216397 -0.066903636 -0.05520398
0.026993433 0.07336204 -0.1915785 -0.12902094 -0.17945427 0.093166046 0.11865291 -0.17171226
0.020060793 0.03189228 -0.083846524 0.046560798 0.15340893 0.18831062 0.06168866 -0.035086457
-0.119744636 -0.071565695 -0.012663076 -8.9619454e-05 0.13636166 -0.13221972 0.01217792 -0.040148467
0.018598687 0.17569482 0.012652905 -0.030195503 -0.05401896 -0.13913137 -0.15129411 0.07555631
-0.09729045 0.10417116 -0.061021887 0.032263808 0.13570412 -0.0039677555 0.07739554 0.1353443
-0.07669288 0.12972029 -0.17342818 0.18224278 -0.040258355 0.008013207 0.087499134 0.03623706
0.10951699 -0.062132347 -0.10864738 0.1651196 -0.110292636 0.10765563 0.16797253 0.13864936
-0.05304437 -0.0013302728 -0.16436288 -0.08167713 -0.056780804 -0.10671326 0.0728662 0.11149703

blocks.0.mlp.fc2.weight f4 [32, 128]
00000000: feee 583b 1152 87bb ae87 a5bd 622a 5e3c
00000010: b70e 9bbd 3b6d aa3b 8e40 7fbb c3ee 6b3d
00000020: 5f56 ebbc bace 973d 4444 1cbc ca04 8cbc
00000030: a9f8 afbd c57f 9a3d 10d0 243c c6ea 91bd
00000040: 497c 263c 513e 543d 50de c3bc a499 5d3d
00000050: fd72 1e3d a35e 6abc 6e13 c83d 56db 8e3d
00000060: e17d 2abc b361 31bb 3e74 5f3d 3cc6 d6bc
00000070: 6824 813d e581 a2bd 20b6 26bd 8b4d 313d
00000080: ecae cdbd 2b5c 32bd 9b46 30bd 0a76 273d
00000090: f1d2 e9bb 9c59 9ebd e654 973d 869d 28bd
000000a0: 7f1c 22bb 0e92 093d 6e6d adbd b88b 0dbc
000000b0: 73c8 d9bc e30e 19bd 2dbc c0bc 9cae 523d
000000c0: b0c5 58bd 246f 3dbd 514b 323d 2097 e53c
000000d0: 47fb 6e3b 41f8 053c 88a5 a43d 9748 10bd
000000e0: ece4 a0bd 907d a8bd dccd c93c b29c fe3c
000000f0: 96d5 88bc a55b 92bd ceb3 8abd e92c 8fbd
00000100: c3ec 9a3d 4cf5 a93c ab19 51bd 5023 dbbd
00000110: a145 4a3d 0737 4f3b 0586 ad3d 0256 71bd
00000120: dfa2 92bd f73c c73c 59b6 833d c434 bd3d
00000130: 2bc4 b73d 63b2 653d 0b36 013d 9811 48bd
00000140: 87ec b13d 0ea4 06bd 8751 8e3d f4f5 253d
00000150: 1ed9 4bbd 0e1b 75bc fd2f 00bc 86b1 b53d
00000160: 2ba4 683d e673 333c e5dd 6bbd e1e2 873c
00000170: 4105 8d3d 7813 13bd 2a04 983d 93c6 7bba
00000180: 8e3f 6c3d 5a7e 083d 014b 3b3d 1bb8 6dbd
00000190: 5e04 2e3d 2a0f b8bd 46b0 04bc f282 923d
000001a0: 46f9 99bd 3832 9dbd 641b 00bd 6657 e73b
000001b0: 282d a9bc 34d9 8abd 5ab2 8d3c 2fe6 babc
000001c0: b53d 31bd 634a f13b c5a4 013d ace1 6a3c
000001d0: e1f2 4dbd 6373 4f3d a49a e03b 6bc7 1ebd
000001e0: 7e14 a23d bd65 e63c de1d 533d 6fe8 8e3d
000001f0: ec76 0f39 e449 723d 15c1 1f3d 2567 8e3d
00000200: 5873 f33b 60b9 c03d 91d8 313d f29b 34bd
00000210: e43c 873d 0617 61bb 6336 5fbc 4e3f acbd
00000220: 630f 72bc 0fe1 803d 0b1d 8abd f3da 123d
00000230: d807 763d 34b9 a0bd 5cbe 17bc 2213 b53c
00000240: 10d2 a03d fa15 a03c 95ee b2bd af17 36bd
00000250: 617c 2b3d 7b64 70bd c929 c4bd 7de6 c7bb
00000260: 7726 043d 84dc 89bd 17d6 a9bd 4044 553d
00000270: ae5c 72bd 54b3 8abd dbd1 cabc 3c4a 8b3d
00000280: d7b7 89bc ffbb 7abd 3860 84bd 7147 d7bc
00000290: f5a0 a23d eabf 703d 07f9 06bd 744f a6bd
000002a0: fd2d ebbc 6dd4 233d e358 bc3d deaa 583d
000002b0: 000d a0bd 37fa c83c be65 c53a a307 133d
000002c0: dcaa 313d 5a26 0ebd b84e fc3b 9c1a d33c
000002d0: a379 843c 00a5 6bbd b1df 3b3d b0bc bdbd
000002e0: 841e 3c3d 2f8b 70bd bd23 f9bc 2ab1 4cbd
000002f0: 8298 21bc c519 1ebb ecea b5bd d6ff 753d
00000300: 5ad7 06bc 94fd b33d 8aa1 13bd f4d7 50bd
00000310: 39ba b93c b30f 8f3d fc36 d93d 4898 ee3c
00000320: f87b a53c 6fe9 a0b9 52f4 5dbd 7a0f 90bd
00000330: 0a44 99bd b7b8 85bd 7e52 4e3a 0a74 793d
00000340: ffa0 9c3d 6b26 4abd 16c5 bdbc c368 a43d
00000350: 86da ad3a b44d 873b 58c7 46bd 64dc 1e3b
00000360: f558 4b3d 2729 42bd 1f99 f5bc fdf8 063c
00000370: e37b 18bd a055 dbbc 3c4a bf3b 18c7 513d
00000380: c101 79bb 1abc a93c aba9 68bd 7906 423d
00000390: 43f2 213b 7967 16bd 7509 dabd a6e0 11bd
000003a0: f02f a0bd 9b6e fbbb 580a 8d3d 843b bebb
000003b0: ea54 993d 0a13 a6bc fda2 abbc 1209 d8bd
000003c0: 2914 52bd d6f8 843d 66b2 403d 85a1 5d3d
000003d0: 5fa3 efbb c21c c43b b20a e6bc e32c 873d
000003e0: 7e65 c4bd b547 5fbd 708a cebd 0440 b03c
000003f0: b616 dfbc 642f 8fbc 4206 263d b523 a13d
0.0033101435 -0.004129656 -0.080825195 0.01355991 -0.07571166 0.0052010096 -0.003894839 0.057600748
-0.028727708 0.07412477 -0.00953776 -0.017092127 -0.0859235 0.07543901 0.010059372 -0.071248576
0.010161468 0.051817242 -0.023909718 0.0541016 0.03868388 -0.01430479 0.09769331 0.06975429
-0.010405988 -0.002706629 0.054554217 -0.026217572 0.06305772 -0.07934932 -0.04070103 0.04328684
-0.10043129 -0.04354493 -0.043036085 0.040884055 -0.007135742 -0.077319354 0.0738924 -0.04116585
-0.0024736223 0.033586554 -0.08468138 -0.008639269 -0.02658484 -0.037367713 -0.02352723 0.05143605
-0.052922904 -0.04624857 0.04352886 0.028026164 0.003646569 0.008176864 0.08039385 -0.035225477
-0.078561634 -0.08227074 0.024634294 0.031080578 -0.016703408 -0.07146386 -0.06772576 -0.06990988
0.0756469 0.02074685 -0.05104987 -0.10700095 0.04938281 0.0031618492 0.08472828 -0.058919914
-0.071599714 0.024321062 0.064312644 0.0923858 0.08972963 0.056078326 0.03154568 -0.048844904
0.08687692 -0.0328713 0.06949144 0.040517762 -0.049767606 -0.014960064 -0.007823941 0.088717505
0.056797188 0.010952925 -0.057584662 0.016587676 0.06885768 -0.03590724 0.07422669 -0.000960448
0.057677798 0.033323623 0.045725826 -0.058036905 0.042484634 -0.08987267 -0.0080986675 0.07153882
-0.07518248 -0.07675594 -0.03127612 0.0070599793 -0.020651415 -0.067797095 0.017296959 -0.022814838
-0.04327174 0.007363604 0.031651277 0.014336031 -0.050280455 0.05064715 0.006854372 -0.0387644
0.07914065 0.028124684 0.051542155 0.06977927 0.00013681845 0.0591525 0.039002497 0.06953267
0.0074295215 0.094103575 0.043419424 -0.044094034 0.06603411 -0.0034345998 -0.013623807 -0.08410512
-0.014774176 0.062929265 -0.06743821 0.035853337 0.060066074 -0.07847825 -0.009261694 0.02210385
0.07852566 0.01954173 -0.08736912 -0.04445618 0.041866664 -0.058689576 -0.095782824 -0.0061004744
0.032263245 -0.06731513 -0.082927875 0.05206704 -0.059170417 -0.067724854 -0.02475827 0.068012685
-0.016811294 -0.061214443 -0.06463665 -0.026279183 0.07940856 0.058776774 -0.032952335 -0.08120623
-0.028708452 0.039997507 0.09196641 0.052897327 -0.078149796 0.024533374 0.0015060229 0.035895955
0.043375835 -0.034704544 0.0076998137 0.025769524 0.016171282 -0.057530403 0.045867626 -0.09264505
0.04592754 -0.058726486 -0.03041255 -0.049973644 -0.009863021 -0.0024124247 -0.088826984 0.060058437
-0.008230055 0.087886006 -0.036042728 -0.0509872 0.022671806 0.06985416 0.106061906 0.029125348
0.020200714 -0.000306915 -0.05418808 -0.07034202 -0.074836805 -0.06529372 0.00078705687 0.06090168
0.07647895 -0.049353044 -0.023165267 0.08027794 0.0013263978 0.004129136 -0.048529953 0.002424025
0.049645383 -0.047402527 -0.02998024 0.008238074 -0.037227523 -0.026774228 0.005837707 0.05121526
-0.003799543 0.020719577 -0.056802433 0.047369454 0.002471105 -0.036719773 -0.10646335 -0.035614632
-0.07821643 -0.0076730973 0.068867385 -0.0058054347 0.07486899 -0.02027275 -0.020951742 -0.10548605
-0.051288757 0.06492774 0.047045134 0.054109115 -0.0073131765 0.0059848735 -0.028081272 0.06600358
-0.095896706 -0.054511745 -0.100849986 0.0215149 -0.02723251 -0.017478652 0.04053331 0.07868139

blocks.1.norm1.weight f4 [32]
00000000: ba9e 813f 4145 863f 8011 823f 6e3d 7e3f
00000010: fa13 7f3f e117 7f3f 2fd0 7f3f eaab 783f
00000020: 7d9b 833f 19b7 7e3f 0e0f 823f 2ed3 7d3f
00000030: 5e5f 7e3f 6733 7e3f 4f58 7d3f 71bf 7d3f
00000040: b403 803f 6e30 803f 6753 7d3f 58c4 7d3f
00000050: 2f80 7d3f 96d3 7d3f d347 813f ba94 833f
00000060: 81a6 7b3f a951 7f3f 1722 7c3f 012e 7e3f
00000070: 1012 843f 8f82 823f 681c 843f a2f0 7e3f
1.0126565 1.0489885 1.016159 0.99312484 0.99639857 0.9964581 0.9992704 0.9713732
1.0281826 0.99498135 1.0160844 0.9915036 0.9936427 0.99297184 0.98962873 0.9912024
1.000113 1.001478 0.98955387 0.9912772 0.9902372 0.9915098 1.0100044 1.0279763
0.9830094 0.9973398 0.98489517 0.99288946 1.0318012 1.0196093 1.0321169 0.99585927

blocks.1.norm1.bias f4 [32]
00000000: 7938 103b b1a9 53bc 3563 ecbb 62c7 90ba
00000010: 65da a33a 9934 223b 1f15 c2bb 8348 3a3c
00000020: 6596 b4ba 1eea 293c 0c68 99bb 1d4b d1ba
00000030: 7e79 90bb 39c8 c9bb d4d1 9e3b 718a d8bb
00000040: 6ce9 b43b 8c95 86bc 08ec 193c 4a7b 8d3b
00000050: 74f1 28bb 3731 17ba 2ee4 43bb f227 f1ba
00000060: 8a67 56bc d4dc b13a cb2c 06ba 8ecb 84b8
00000070: 9af3 12ba 59bf 78ba bab1 ccbb a8f5 1cbb
0.0022006317 -0.012918876 -0.007213975 -0.0011045749 0.0012501 0.002475059 -0.005922928 0.011369827
-0.0013777731 0.010370759 -0.004681593 -0.001596782 -0.0044090142 -0.0061579016 0.004846791 -0.0066083004
0.00552099 -0.016428731 0.009394653 0.0043176757 -0.0025778683 -0.00057675265 -0.0029890644 -0.0018398745
-0.013086209 0.001356984 -0.0005118369 -6.3321655e-05 -0.00056057575 -0.0009488962 -0.0062467726 -0.0023950133

blocks.1.attn.qkv.weight f4 [96, 32]
00000000: 1847 37bc dde1 c03d f31f 453e 0320 e2bd
00000010: 6b5e 983d 1ab8 303e eae7 febd c806 95bd
00000020: c88e de3d 77fd c2bd 650e 5c3d 26fa d0bd
00000030: bb4b 013d 9ec9 0ebe 0daf 473e 671b 23be
00000040: a916 1abe 9ad2 b8bd e21e 433d 4baa fc3d
00000050: 56b6 203b 6c6d b5bd f9a9 1abe 2ada e3bc
00000060: fbd3 5ebc cc00 3fbc 824f 4fbd 14f2 973c
00000070: 80c1 4b3e bc85 39be 14e9 a0bd cbd9 d13d
00000080: 99f7 23be ff14 f23c 1630 303e aaa2 0e3e
00000090: 7a56 00be f467 5abd 9361 e23c ac18 1c3e
000000a0: 2681 9bbc 9bca 28be fb55 903a f3e0 c73d
000000b0: c871 a5bd 8168 0dbe b6c9 4d3d a2de fe3d
000000c0: f271 f6bd 7ffe 123d dbc1 0c3e 0f93 d5bc
000000d0: a3bd f0bd da0e c0bd 2e72 1bbe 07ba 6abd
000000e0: a5e4 b9bd 3cf9 1f3d 6090 25bd 965c 0cbe
000000f0: 6485 723e c757 41bc 6998 3e3d 4987 f43d
00000100: 5887 e93d 7b2a 97bd 39dc a5bd dcaf e5bd
00000110: f0d8 2abe 1909 27be cce0 a3bd 1988 043e
00000120: 8998 56be e97e e1bd b7f8 09be 625d e3bd
00000130: 487e 163e e67e 25be d061 2fbe 8187 abbd
00000140: cc3e 313d a1f0 32bd e44c 23be ec35 2c3e
00000150: 7ed9 6f3d 61a3 a4bd 0bdd 27bd ad0f 433e
00000160: a90b a33d 57b7 0dbe cf44 b0bd 785c 8abd
00000170: 4a06 623c 9e15 bdbd 6451 3e3e 0b37 a0ba
00000180: e350 2a3c c1ad 743d 9b28 433e a0a7 9ebc
00000190: ac8a 3abd 938b cabd 9e3d 093e 4555 923c
000001a0: 004a c13c 435d 113e c8d3 9fbc d31c 70bd
000001b0: efd5 83bd 43c1 f73d 46de 373d 02af cabd
000001c0: f5d5 093e 6355 433d 9469 ddbc 9fc1 763c
000001d0: e4c7 36be d948 f7bd a4b7 bebd 9a63 9dbb
000001e0: 70f0 54bd fba2 133e e408 25be 874c 073e
000001f0: 6292 cabd a7ad cdbd 0a15 183e fb08 0bbd
00000200: 73cb 50bd 7c76 a83d 4620 e5bd bc3c 1d3c
00000210: e91a 5bbd 335c 463d 744a d1bd aee0 d0bd
00000220: d988 17be 3a0c 18bd 1072 0c3e 90c2 e43d
00000230: 9a91 19be 1635 993d 8046 143e 837e 363e
00000240: f6fc 003b 1a0f 1b3d 785f e53d b4af 363e
00000250: 9b02 c03c 4a6b 6bbc 1f57 273e 699a 163a
00000260: 4db5 173e 793d 093e 0a3c 643d f47f eebd
00000270: 8177 bc3d b5b4 e43d 52d0 4a3d d845 093d
00000280: a4f5 bc3d 3488 c83d d1a1 b3bd b239 f7bd
00000290: dce0 8e3d 6df7 9bbd 1eb9 15be 67f1 193e
000002a0: 08eb 1bbe 1070 5bbd b797 a9bd 4785 0b3e
000002b0: 6cfa c3bc ca69 09be aa9f 183e 1048 1e3e
000002c0: b783 dd3d f419 1d3e 7e7a 17be 2542 08be
000002d0: b3c7 c73d 85f3 adbc 08ac d03d 280a 323e
000002e0: 9d9e 60bd 65d7 adbd 5a03 143e 639b b8bd
000002f0: a759 eebd 9e9c 0f3e b6e6 8c3c 166d efbd
00000300: 8e0f c93c bd12 35bd 4944 5c3d f806 dbbd
00000310: 0dfe c8bc 80de 303e e176 e03c f35d aa3c
00000320: b080 3a3e 1c7b bd3d ebaa d13d faf7 813d
00000330: d74d 60bd 968e 11be ceee 5dbd 9787 02be
00000340: b7e9 a53d 14a4 0b3e 1315 433e 75a7 e33d
00000350: bf32 8fbb 940b 713d b06f b7bc 9139 86bb
00000360: 8319 07be 519d 4b3e 7d68 9c3d 5ba2 41bc
00000370: 79e7 993b 524e 11bd e763 53bd 270d d3bd
00000380: a4ef 8dbd 82cf c9bd 9476 993c 52c5 ffbd
00000390: 36c2 ba3d 77c2 fcbd 3ce9 ba3d 0ec6 d3bc
000003a0: be93 43bd 2d74 a43c cbdb c8bb 1461 c53d
000003b0: 9073 66bc 3b38 92bd f5df c9bc 1770 a4bd
000003c0: f4dc 7e3d 74f6 533c 5971 703d 8847 4fbc
000003d0: cd62 973c 5d24 4cbd 6771 7abd 42d5 883d
000003e0: 5e72 d73d 3cdf c2bd e58c 123e 01bf 29bd
000003f0: 6cad b3bd 5e68 3b3e 16d7 52bb f9bd b43d
-0.011186384 0.0941808 0.19250469 -0.11041262 0.07439884 0.17257729 -0.12446578 -0.07276684
0.10867077 -0.09521001 0.053724665 -0.10203962 0.031566363 -0.13944098 0.1950037 -0.15928422
-0.15047707 -0.09024544 0.047636874 0.12337168 0.0024522743 -0.08858761 -0.15103902 -0.02781399
-0.013600345 -0.011657905 -0.050612934 0.018548049 0.19898033 -0.18117422 -0.07856956 0.10246619
-0.1601242 0.029551027 0.17205843 0.13929239 -0.12532988 -0.053321794 0.027634418 0.15243787
-0.018982481 -0.16483538 0.0011011952 0.097597025 -0.08078343 -0.13809396 0.050241195 0.124448076
-0.12033452 0.035887238 0.13745825 -0.0260711 -0.1175492 -0.09377833 -0.15180275 -0.057306316
-0.090768136 0.039056048 -0.04042089 -0.13707194 0.23683697 -0.011800713 0.04653207 0.11939866
0.11402768 -0.073811494 -0.08098645 -0.11215183 -0.16684318 -0.16312064 -0.08001861 0.12942542
-0.20956625 -0.11010534 -0.13473783 -0.11101796 0.1469661 -0.16161689 -0.17127156 -0.08375455
0.04327278 -0.043686513 -0.159473 0.16817445 0.058557026 -0.080389746 -0.040982287 0.19048949
0.079612084 -0.1383947 -0.08606874 -0.06755918 0.013795445 -0.09232639 0.18585736 -0.0012223435
0.010395261 0.059736017 0.19058459 -0.01936704 -0.045542404 -0.09889903 0.13402411 0.017862925
0.023594856 0.14195733 -0.019510165 -0.05862124 -0.06437289 0.120974086 0.04488971 -0.09896661
0.13460524 0.047688853 -0.027027883 0.015060811 -0.1784969 -0.120744415 -0.093123704 -0.004803133
-0.05198711 0.14417641 -0.16116673 0.13212787 -0.098912016 -0.10042887 0.14851776 -0.03394411
-0.050975274 0.08225724 -0.11187796 0.009597 -0.05349246 0.04842777 -0.10219279 -0.10199104
-0.14798297 -0.037121035 0.13715386 0.11169922 -0.14996949 0.074808285 0.14480019 0.17821698
0.0019682026 0.0378562 0.1119985 0.17840463 0.023438742 -0.014368841 0.16341828 0.0005745055
0.14815255 0.13402356 0.05572132 -0.11645499 0.09202481 0.1116728 0.049515076 0.033513874
0.0922654 0.09791604 -0.087710984 -0.120715514 0.06976482 -0.07615552 -0.14621398 0.15033494
-0.15226376 -0.053573668 -0.082808904 0.1362506 -0.023923121 -0.13419262 0.14904657 0.15457177
0.10816138 0.15341932 -0.14792821 -0.13306482 0.097548865 -0.021234283 0.10189062 0.17386687
-0.054838765 -0.08488349 0.14454404 -0.09014013 -0.116381936 0.14024588 0.017199855 -0.11690728
0.02454355 -0.044207323 0.05377606 -0.106946886 -0.024535203 0.17272377 0.027400436 0.020796752
0.18213153 0.09251997 0.10237678 0.06346126 -0.054761734 -0.14214548 -0.05418282 -0.12747036
0.08101218 0.1363681 0.19051008 0.11115924 -0.004370063 0.058848932 -0.022392124 -0.004096218
-0.13193326 0.1988423 0.07637117 -0.011818494 0.004696783 -0.035475083 -0.051608946 -0.10305243
-0.069304734 -0.09854032 0.0187333 -0.12488808 0.09119074 -0.12341779 0.09126517 -0.025851276
-0.04774832 0.020074928 -0.006129717 0.09637657 -0.014065638 -0.07139631 -0.024642924 -0.08029192
0.062222436 0.012937177 0.058701847 -0.012651332 0.01847973 -0.049839366 -0.061143305 0.06681301
0.10519861 -0.09515235 0.1431156 -0.04144192 -0.08773312 0.18301532 -0.0032171658 0.08825297
