image_encoder/trained_models/vit_20241110_195826.pth (torch, 454617 bytes, 59 tensors)

cls_token f4 [1, 1, 32]
000000 55 e8 25 3c 9f a4 a0 3c a3 24 ba bb df e2 2d 3c
       0.010126193 0.019609747 -0.005680637 0.010613172
000010 47 8e 2a 3c 45 56 a7 bb 1f 7f aa bc d1 e9 2c bc
       0.010409898 -0.0051067197 -0.02081257 -0.010553793
000020 94 ec f4 39 14 2b 10 3b 8f 67 41 3c 37 9d 1a bc
       0.0004671557 0.0021998333 0.011804475 -0.009436897
000030 fb 73 58 39 7a 50 17 3c 40 f0 35 bc ae f1 08 3a
       0.00020642571 0.009235496 -0.011104643 0.00052240014
000040 96 7a d4 3b 76 52 83 bc fa 46 29 3c 47 65 27 bc
       0.00648434 -0.016030531 0.010331864 -0.0102170175
000050 c1 a3 d9 3b 2a 8a 22 3c 8d 2a 03 3c 94 71 65 3c
       0.0066418354 0.009920636 0.00800575 0.01400413
000060 2d f7 9d 3a e6 29 55 ba 05 af 57 bb 0f 36 6d 3c
       0.0012051814 -0.00081315485 -0.0032910716 0.014478221
000070 72 5e cb ba 19 42 55 bc 68 eb 09 bc a4 51 aa bc
       -0.0015515818 -0.013016247 -0.008417942 -0.020790882

pos_enc f4 [32, 32, 32]
000000 00 00 00 00 00 00 80 3f 00 00 00 00 00 00 80 3f
       0.0 1.0 0.0 1.0
000010 00 00 00 00 00 00 80 3f 00 00 00 00 00 00 80 3f
       0.0 1.0 0.0 1.0
000020 00 00 00 00 00 00 80 3f 00 00 00 00 00 00 80 3f
       0.0 1.0 0.0 1.0
000030 00 00 00 00 00 00 80 3f 00 00 00 00 00 00 80 3f
       0.0 1.0 0.0 1.0
000040 00 00 00 00 00 00 80 3f 00 00 00 00 00 00 80 3f
       0.0 1.0 0.0 1.0
000050 00 00 00 00 00 00 80 3f 00 00 00 00 00 00 80 3f
       0.0 1.0 0.0 1.0
000060 00 00 00 00 00 00 80 3f 00 00 00 00 00 00 80 3f
       0.0 1.0 0.0 1.0
000070 00 00 00 00 00 00 80 3f 00 00 00 00 00 00 80 3f
       0.0 1.0 0.0 1.0
000080 00 00 00 00 00 00 80 3f 00 00 00 00 00 00 80 3f
       0.0 1.0 0.0 1.0
000090 00 00 00 00 00 00 80 3f 00 00 00 00 00 00 80 3f
       0.0 1.0 0.0 1.0
0000a0 00 00 00 00 00 00 80 3f 00 00 00 00 00 00 80 3f
       0.0 1.0 0.0 1.0
0000b0 00 00 00 00 00 00 80 3f 00 00 00 00 00 00 80 3f
       0.0 1.0 0.0 1.0
0000c0 a4 6a 57 3f 41 51 0a 3f ba 7d 08 3f 0d 94 58 3f
       0.84147096 0.54030234 0.53316844 0.8460091
0000d0 3e 39 9f 3e 6b 4e 73 3f 3a 23 35 3e 83 f6 7b 3f
       0.3109836 0.9504153 0.17689219 0.9842302
0000e0 77 75 cc 3d 98 b8 7e 3f af 36 66 3d 68 98 7f 3f
       0.09983342 0.9950042 0.056204494 0.9984193
0000f0 5c 81 01 3d 3c df 7f 3f 42 ab 91 3c a3 f5 7f 3f
       0.031617507 0.99950004 0.017781857 0.99984187
000100 00 00 00 00 00 00 80 3f 00 00 00 00 00 00 80 3f
       0.0 1.0 0.0 1.0
000110 00 00 00 00 00 00 80 3f 00 00 00 00 00 00 80 3f
       0.0 1.0 0.0 1.0
000120 00 00 00 00 00 00 80 3f 00 00 00 00 00 00 80 3f
       0.0 1.0 0.0 1.0
000130 00 00 00 00 00 00 80 3f 00 00 00 00 00 00 80 3f
       0.0 1.0 0.0 1.0
000140 b7 c7 68 3f 33 11 d5 be 0a f2 66 3f b2 e8 dc 3e
       0.9092974 -0.41614684 0.9021307 0.43146282
000150 1b 54 17 3f ec 7b 4e 3f f6 47 b2 3e a6 fa 6f 3f
       0.5911271 0.8065784 0.34820527 0.93741834
000160 f9 6f 4b 3e a5 e5 7a 3f 87 d9 e5 3d f3 61 7e 3f
       0.19866933 0.9800666 0.11223131 0.9936821
000170 c9 70 81 3d f9 7c 7f 3f 5c a5 11 3d 8e d6 7f 3f
       0.0632034 0.9980007 0.03555809 0.9993676
000180 00 00 00 00 00 00 80 3f 00 00 00 00 00 00 80 3f
       0.0 1.0 0.0 1.0
000190 00 00 00 00 00 00 80 3f 00 00 00 00 00 00 80 3f
       0.0 1.0 0.0 1.0
0001a0 00 00 00 00 00 00 80 3f 00 00 00 00 00 00 80 3f
       0.0 1.0 0.0 1.0
0001b0 00 00 00 00 00 00 80 3f 00 00 00 00 00 00 80 3f
       0.0 1.0 0.0 1.0
0001c0 c3 81 10 3e 26 70 7d bf d7 45 7e 3f ab 7f ed bd
       0.14112 -0.9899925 0.9932532 -0.11596616
0001d0 c2 09 50 3f 58 2f 15 3f 6d 2f 02 3f 29 6d 5c 3f
       0.8126489 0.58275366 0.50853616 0.86104065
0001e0 6d 4e 97 3e ef 90 74 3f d8 ee 2b 3e 9e 5d 7c 3f
       0.29552022 0.9553365 0.1679033 0.9858035
0001f0 c1 ff c1 3d 4f d9 7e 3f 4e 69 5a 3d c3 a2 7f 3f
       0.09472609 0.99550337 0.053323083 0.9985773
000200 00 00 00 00 00 00 80 3f 00 00 00 00 00 00 80 3f
       0.0 1.0 0.0 1.0
000210 00 00 00 00 00 00 80 3f 00 00 00 00 00 00 80 3f
       0.0 1.0 0.0 1.0
000220 00 00 00 00 00 00 80 3f 00 00 00 00 00 00 80 3f
       0.0 1.0 0.0 1.0
000230 00 00 00 00 00 00 80 3f 00 00 00 00 00 00 80 3f
       0.0 1.0 0.0 1.0
000240 cf bd 41 bf 30 55 27 bf ec 49 47 3f 9e af 20 bf
       -0.7568025 -0.6536436 0.7784717 -0.6276797
000250 de 1d 74 3f b1 2e 9a 3e bc 1f 27 3f ed eb 41 3f
       0.95358074 0.30113748 0.652828 0.7575062
000260 d8 61 c7 3e a7 ca 6b 3f c6 65 64 3e 09 8d 79 3f
       0.38941836 0.921061 0.22304448 0.9748083
000270 89 2e 01 3e 69 f4 7d 3f c8 8d 91 3d 46 5a 7f 3f
       0.12615408 0.99201065 0.07107121 0.9974712
000280 00 00 00 00 00 00 80 3f 00 00 00 00 00 00 80 3f
       0.0 1.0 0.0 1.0
000290 00 00 00 00 00 00 80 3f 00 00 00 00 00 00 80 3f
       0.0 1.0 0.0 1.0
0002a0 00 00 00 00 00 00 80 3f 00 00 00 00 00 00 80 3f
       0.0 1.0 0.0 1.0
0002b0 00 00 00 00 00 00 80 3f 00 00 00 00 00 00 80 3f
       0.0 1.0 0.0 1.0
0002c0 10 7c 75 bf 2c 3c 91 3e d8 da a5 3e 40 32 72 bf
       -0.9589243 0.2836622 0.32393527 -0.94607925
0002d0 7f fc 7f 3f e9 72 29 bc ab ca 46 3f f1 4c 21 3f
       0.99994653 -0.010342338 0.77652997 0.6300803
0002e0 44 77 f5 3e 40 a9 60 3f ed 11 8e 3e 7c f2 75 3f
       0.47942555 0.87758255 0.2774805 0.96073127
0002f0 1e 3c 21 3e 81 ce 7c 3f 21 db b5 3d 1e fd 7e 3f
       0.15745589 0.987526 0.08879686 0.99604976
000300 00 00 00 00 00 00 80 3f 00 00 00 00 00 00 80 3f
       0.0 1.0 0.0 1.0
000310 00 00 00 00 00 00 80 3f 00 00 00 00 00 00 80 3f
       0.0 1.0 0.0 1.0
000320 00 00 00 00 00 00 80 3f 00 00 00 00 00 00 80 3f
       0.0 1.0 0.0 1.0
000330 00 00 00 00 00 00 80 3f 00 00 00 00 00 00 80 3f
       0.0 1.0 0.0 1.0
000340 8c 0f 8f be b8 cd 75 3f 76 e5 6b be 53 1d 79 bf
       -0.2794155 0.96017027 -0.23036751 -0.9731037
000350 4e 78 72 3f 6d 3f a4 be 89 30 60 3f 32 2f f7 3e
       0.9471482 -0.3207964 0.8757406 0.48278195
000360 69 8c 10 3f 32 49 53 3f fd 7d a9 3e e2 90 71 3f
       0.5646425 0.8253356 0.33103934 0.943617
000370 6f 20 41 3e e3 67 7b 3f c2 19 da 3d 51 8b 7e 3f
       0.18860029 0.98205394 0.10649444 0.9943133
000380 00 00 00 00 00 00 80 3f 00 00 00 00 00 00 80 3f
       0.0 1.0 0.0 1.0
000390 00 00 00 00 00 00 80 3f 00 00 00 00 00 00 80 3f
       0.0 1.0 0.0 1.0
0003a0 00 00 00 00 00 00 80 3f 00 00 00 00 00 00 80 3f
       0.0 1.0 0.0 1.0
0003b0 00 00 00 00 00 00 80 3f 00 00 00 00 00 00 80 3f
       0.0 1.0 0.0 1.0
0003c0 46 30 28 3f bd ff 40 3f 6d b6 36 bf 61 4f 33 bf
       0.6569866 0.75390226 -0.7137211 -0.70043
0003d0 6e e8 4c 3f bc 74 19 bf 44 84 72 3f b6 f8 a3 3e
       0.8004216 -0.5994375 0.9473307 0.3202569
0003e0 73 eb 24 3f b3 cc 43 3f de 60 c4 3e c6 6b 6c 3f
       0.64421767 0.7648422 0.38355154 0.9235195
0003f0 51 d3 60 3e ea c0 79 3f ba 46 fe 3d e9 04 7e 3f
       0.21955611 0.9755999 0.12415834 0.9922624

norm.weight f4 [32]
000000 1b 55 0a 3f 2c 91 57 3f bd fa 34 3f 31 de 2c 3f
       0.5403611 0.8420589 0.70695096 0.6752654
000010 29 20 2b 3f 1a c8 4c 3f 51 72 21 3f f4 b0 31 3f
       0.6684595 0.7999283 0.6306506 0.69410634
000020 ed d9 dd 3e 84 b5 d2 3e 78 1c 05 3f 8c bc 15 3f
       0.43330327 0.4115411 0.51996565 0.58490825
000030 19 be 2e 3f ec 80 41 3f 0f a0 0a 3f 3a 15 2c 3f
       0.68258816 0.75587344 0.5415048 0.6721989
000040 fc 26 3c 3f 10 ab 4c 3f cf 7b 09 3f c6 d5 13 3f
       0.73496985 0.7994852 0.5370454 0.5774807
000050 8f 33 49 3f d3 87 2c 3f 80 79 0b 3f 8b 8d 42 3f
       0.785943 0.6739475 0.5448227 0.7599723
000060 7e 3e b6 3e c3 5a 3b 3f d1 2e 0c 3f 2e c4 35 3f
       0.35594553 0.73185366 0.54758936 0.7100247
000070 ce 10 05 3f f7 73 54 3f 48 a8 17 3f d6 7f c2 3e
       0.51978767 0.8298945 0.5924115 0.37988156

norm.bias f4 [32]
000000 d1 9c b9 3c e5 67 62 3d 6b 16 51 bd bb a6 7c 3e
       0.022657784 0.055274863 -0.05104677 0.24672978
000010 e7 04 1f 3d 4f 11 8f 3d 63 91 63 bd 2f 11 62 bd
       0.038823035 0.06985723 -0.055558573 -0.05519217
000020 ba 21 80 be 29 9c b4 be 20 51 35 3e a7 6e 3f 3e
       -0.2502573 -0.3527539 0.17706728 0.18694554
000030 34 45 2c 3e 36 c3 c2 3d 10 77 27 be 3b 21 cd 3c
       0.16823274 0.0950989 -0.16354012 0.02504026
000040 26 17 27 bd 56 68 b2 bb 72 0b 12 be 3e 14 e5 3d
       -0.04079356 -0.0054445667 -0.14262179 0.111855015
000050 e3 c5 c4 3d f9 72 31 3d 86 4d 7f 3e 95 8c 37 3c
       0.096080564 0.043322537 0.24931917 0.011202951
000060 a7 93 91 3e 7a 66 34 be f6 de 66 bc 5e b5 02 be
       0.28432962 -0.17617217 -0.014091244 -0.12764499
000070 cc 8e 31 3d 0b be 05 3d 45 74 7e 3e 28 75 fc be
       0.043349072 0.032651942 0.24849041 -0.49308133

patch_embeddings.weight f4 [14, 32]
000000 ca 85 f7 3f 69 e5 bb 3f 18 a2 6b 3f cf 32 06 c0
       1.9337704 1.4679385 0.9204421 -2.096851
000010 d8 4d 2f 3f 24 19 9e bf 85 3a ce bd 32 fe cd bf
       0.68478155 -1.2351422 -0.100697555 -1.6093199
000020 82 31 42 bf d4 47 cf 3f 52 7f c1 be 64 87 b2 bf
       -0.7585679 1.6193795 -0.3779245 -1.3947568
000030 dd da 2e bf d4 f3 0c bf 28 c1 46 bf 01 59 3c 3f
       -0.6830271 -0.5505955 -0.77638483 0.7357331
000040 b2 32 d3 3f 6e f5 f7 bd 83 ab e7 be 1f 14 e5 3e
       1.6499846 -0.12107359 -0.4524804 0.44741914
000050 c6 7a 32 bf 0c e2 8b 3f b2 26 40 3f b3 36 d8 3f
       -0.6971859 1.0928359 0.75059044 1.6891693
000060 c6 22 9f 3f 19 5c aa 3f d8 7f 15 3f 6d 48 a6 3f
       1.2432487 1.3309356 0.583982 1.2990853
000070 30 02 74 be e5 d8 4b 3c 3d e1 81 be 84 b8 5a 3f
       -0.2382896 0.012441848 -0.25367156 0.854378
000080 44 64 b6 bf ca da 5d bf 41 2b 46 be 7c 5b de 3f
       -1.4249349 -0.8666197 -0.19352438 1.7371669
000090 cb 1c 90 3e ed 86 c4 be 78 37 a7 3e a2 20 39 bf
       0.28146967 -0.3838419 0.32659507 -0.7231542
0000a0 b1 99 c1 bf 5c 0d 81 3f 9e 7e 63 bf d5 4a 19 bf
       -1.5125028 1.0082202 -0.8886508 -0.5987981
0000b0 b9 e5 a2 bf 87 47 05 40 a2 e8 99 bf 57 1e 04 bf
       -1.2726356 2.0824907 -1.2024119 -0.51608795
0000c0 14 5b 67 bf 4c 95 23 bf ff 2e 78 3d 61 16 05 3f
       -0.9037335 -0.63899684 0.060591694 0.5198727
0000d0 c2 09 04 bf 5e ca 93 3f e4 12 49 bf bc 55 3b bf
       -0.5157739 1.1546133 -0.7854445 -0.73177695
0000e0 90 2d b2 bf fa 09 40 bc 0a 9d 55 bd 94 00 28 3f
       -1.3920155 -0.011721129 -0.052151717 0.6562588
0000f0 75 26 c5 bd fc 27 eb 3f 73 05 95 bf ab d2 af 3f
       -0.09626476 1.8371577 -1.1642288 1.3736166
000100 66 cc b0 3f 73 cf 66 3f e9 89 0c 40 4b f0 00 3f
       1.3812377 0.9016029 2.1959174 0.5036666
000110 a4 e0 9c 3e 3b f4 09 be 33 c7 78 bf 53 e2 a4 3f
       0.30640137 -0.13472073 -0.97178954 1.2881569
000120 eb e0 bd bd 41 97 19 3f 5b 26 79 3d 2d a3 c4 3e
       -0.09271415 0.5999642 0.060827594 0.38405743
000130 02 e8 14 3f dd b0 21 bf d0 c6 0b c0 f5 51 44 bf
       0.58166516 -0.63160497 -2.1840096 -0.76687557
000140 8e cc 50 3b 3e 80 b2 be 6b 39 af bf 5f 56 03 bf
       0.0031860205 -0.34863466 -1.3689398 -0.51303667
000150 ee 01 f3 3e 6d 80 02 3f 9e e0 94 3f 06 d9 a3 bc
       0.4746241 0.5097721 1.1631048 -0.020000946
000160 7a 0a 2b 3f fe f6 01 bf a5 75 88 bf 5b 45 0d 3f
       0.6681286 -0.50767505 -1.0660902 0.55183953
000170 2e 14 e3 bf 03 e5 42 bf e7 29 af 3f 74 7a e6 3e
       -1.7740533 -0.76130694 1.3684663 0.450153
000180 cf bb 1d c0 18 f5 e9 3e 21 be 48 3f 6e ce 92 bb
       -2.464588 0.45694804 0.78415114 -0.0044801747
000190 73 f8 20 3f bf 94 14 3f 41 59 85 3f 0a 5c e0 be
       0.62879103 0.5803947 1.0417863 -0.4382022
0001a0 00 04 69 be e7 a3 42 3f a6 a2 c6 3e b2 05 61 3e
       -0.22755432 0.76031345 0.38795966 0.21974829
0001b0 4c f8 8c 3e 90 99 a6 3f 79 ab 33 3a 20 33 b3 be
       0.27533185 1.3015614 0.00068538595 -0.34999943
0001c0 9a 48 b7 bf 96 0d d9 bd 15 8e 10 bf ea 6c 07 3f
       -1.4319031 -0.105982944 -0.564668 0.52900565
0001d0 e7 45 36 3f df ee 13 3e d8 9f dd be 39 85 07 3f
       0.7120041 0.14446591 -0.43286014 0.52937657
0001e0 14 d2 5e bd 5a d5 93 3e 29 93 e2 3d 67 09 31 3f
       -0.054399565 0.28873712 0.11063225 0.6915497
0001f0 0a 7d 8f 3f 66 21 bf 3e f6 e2 2e 3f 57 84 d6 3e
       1.1210034 0.37330168 0.68315065 0.41897842
000200 c4 3f f8 3f c0 99 7e 3f cb c9 b7 bf b4 33 90 bf
       1.939446 0.99453354 -1.4358457 -1.1265779
000210 25 aa 17 be 07 84 cd 3f cd 26 2b 3f d1 29 18 3f
       -0.14810999 1.6055917 0.6685608 0.59438807
000220 b8 5c 91 3f 86 ca f3 3c aa 77 e3 bf 6d 95 68 3f
       1.135642 0.029759657 -1.7770894 0.90853006
000230 f2 68 be be 0e fd 87 3f b2 6f 32 bf 77 75 1c 3f
       -0.37189442 1.0624101 -0.69701684 0.6111674
000240 da ee 6e bf db c1 71 3f eb 2d c3 3f 30 76 b7 3f
       -0.9333321 0.94436425 1.5248388 1.4332943
000250 1b 5c 8d 3e 60 18 3f be ad ce 37 bf a7 9e a5 3d
       0.27609333 -0.18661642 -0.7179974 0.08086901
000260 25 0a ad 3e aa d6 6c 3f 79 df f7 be 4b 82 c9 3f
       0.33796802 0.9251505 -0.48412684 1.5742887
000270 13 ac 1c c0 74 25 c9 be c2 54 97 bf 75 74 47 3f
       -2.4480026 -0.39286387 -1.1822741 0.77912074
000280 9e 9a f3 bf a1 28 6b 3e b6 a5 ff 3c 4c 21 a5 be
       -1.903156 0.22964717 0.031206947 -0.32251966
000290 82 24 90 3e d6 ff 30 bf 43 7d 50 3e 3a 56 86 bf
       0.28152853 -0.69140375 0.20360284 -1.0495064
0002a0 2b 9e c8 bf 22 d3 ad 3f d5 19 a5 3f cc 80 16 3d
       -1.5673269 1.3580058 1.2898508 0.036743924
0002b0 8a 4d c4 bf 94 b7 3d 3f 3f 3f 47 3f 98 44 fe 3f
       -1.5336163 0.74108243 0.7783088 1.9864683
0002c0 e1 02 7c 3d e2 0d 12 3e 37 58 4d bf 85 b7 69 be
       0.061526183 0.14263108 -0.8021273 -0.22823913
0002d0 17 57 6a bf 6c 3e ca bf e6 ab 8d bf 8f 90 15 bf
       -0.9153914 -1.58003 -1.1068084 -0.58423704
0002e0 92 d6 06 bf 86 4a bb bf 46 b7 f9 bf 2d b4 09 3e
       -0.5267116 -1.4632118 -1.9509056 0.13447638
0002f0 b4 14 81 3f e2 90 0e bf 0f 9c 32 3f bc e5 2a 3f
       1.0084443 -0.55689824 0.69769377 0.66756797
000300 e2 08 e7 3f 2a 56 69 bf 0d 35 7f 3f 45 56 b8 be
       1.8049586 -0.911471 0.99690324 -0.36003318
000310 43 83 8d bf b7 29 b0 3e 3a 9b e1 3e 89 08 a9 3f
       -1.1055683 0.34406826 0.4406374 1.320573
000320 46 ed f6 3e ba 75 02 40 65 7a 05 bf a3 83 6b bf
       0.482279 2.0384355 -0.52139884 -0.91997737
000330 17 bb 58 3e 72 4d 87 3f 63 ff a2 3f 78 b1 d0 3e
       0.21165119 1.057051 1.2734188 0.40760398
000340 5c 7e 3e bf 0b 42 84 bf 4a 5b f1 be c6 59 29 bf
       -0.7441156 -1.0332655 -0.4713996 -0.6615261
000350 7a 53 2d 3e 09 ce f1 3e 41 48 58 be 19 c7 14 c0
       0.16926375 0.47227505 -0.21121313 -2.324652
000360 40 55 d5 be d7 96 86 3f d9 5a de bf c6 91 bd 3f
       -0.41666603 1.0514783 -1.7371475 1.4810112
000370 fb 52 af 3e a3 84 08 bf cf 9d 8b 3f c3 8a de 3f
       0.34242997 -0.5332739 1.0907534 1.7386097
000380 2e 75 4c bd 19 ee db 3f 56 21 23 3e 8f f3 87 bf
       -0.04991644 1.7182037 0.15930685 -1.0621203
000390 25 02 19 bf 36 91 13 3e f8 12 e5 3e c6 85 fb 3f
       -0.597689 0.14410862 0.44741035 1.96502
0003a0 2e 7a 54 bd ff fc 60 bf 2f 52 02 c0 13 cd 8d bf
       -0.051874332 -0.8788604 -2.036266 -1.1078209
0003b0 8f 0b a1 3d 56 b5 01 3e cc 5d 57 3e 49 44 bc 3e
       0.07863533 0.1266683 0.21031874 0.36770847
0003c0 b4 8b 77 bf 39 91 9a 3e 9b 42 0c bf 6d f7 05 3f
       -0.96697545 0.3018892 -0.5478913 0.52330667
0003d0 77 5f 68 bf e0 05 06 bd 23 fc a3 be 54 a9 af 3f
       -0.9077067 -0.032720447 -0.32028303 1.372355
0003e0 f7 1b 9a 3f ec 1e 33 bf eb 7c 57 3f ac 54 01 3f
       1.2039784 -0.6996906 0.84174985 0.50519824
0003f0 00 a6 02 3f ce 36 14 3f 2a f9 10 3f 55 2f 15 3e
       0.51034546 0.57896125 0.56630194 0.14568837

blocks.0.norm1.weight f4 [32]
000000 fd d2 82 3f b5 cf 7f 3f 64 9f 78 3f 06 9d 7b 3f
       1.0220639 0.9992631 0.9711821 0.98286474
000010 88 36 80 3f b1 52 7d 3f a3 38 81 3f 69 a2 7b 3f
       1.0016642 0.989543 1.0095409 0.98294693
000020 bc d1 82 3f a3 c5 7e 3f d3 7e 7a 3f 5a 03 7f 3f
       1.0220256 0.9952032 0.9784977 0.9961449
000030 bb 04 7f 3f c9 33 80 3f 15 e5 7b 3f 14 b7 7d 3f
       0.99616593 1.0015804 0.98396426 0.9910748
000040 7d 49 81 3f ad dc 7d 3f 0f 9a 7e 3f cc 61 7f 3f
       1.0100552 0.9916485 0.99453825 0.997586
000050 23 29 7d 3f 1f 9c 7e 3f f4 66 81 3f 53 14 7a 3f
       0.98890895 0.9945697 1.0109544 0.9768726
000060 53 7c 7e 3f 01 f3 7d 3f 01 cc 7e 3f d5 4d 7a 3f
       0.99408454 0.9919892 0.99530035 0.9777501
000070 e0 1d 7b 3f b8 0f 7f 3f 7d 65 7c 3f 56 06 7f 3f
       0.9809246 0.9963336 0.9859236 0.9961904

blocks.0.norm1.bias f4 [32]
000000 3c b7 bc 3b c6 f7 0c 3c 42 06 61 bb dc fe de 3b
       0.005759148 0.008603996 -0.0034336005 0.006805284
000010 c5 49 20 bc 47 f3 91 3c d7 7f 00 bc 4a 7f c4 b9
       -0.009783213 0.017816199 -0.007842979 -0.0003747887
000020 0b 2d a1 bb 48 ed 35 3b 9b 02 54 3c 39 bb 30 ba
       -0.0049186996 0.002775984 0.012940074 -0.00067417655
000030 d4 f4 aa bb ca 8e e7 3b 55 e2 df ba bf 0c c2 bb
       -0.005217174 0.0070665823 -0.0017081002 -0.0059219296
000040 d3 89 50 3c 3c e0 e6 bb 24 ae 8e bb 75 d9 72 3b
       0.012728172 -0.007045774 -0.0043542553 0.0037055884
000050 71 20 9a bb 41 aa b5 3b cc 7b d5 bb 3e ba 98 3c
       -0.0047035743 0.0055439775 -0.006515002 0.018643495
000060 42 ea 56 3a e2 bd 52 bb 1a 99 24 bc 9a d7 24 bb
       0.0008198359 -0.0032156636 -0.010046268 -0.0025152923
000070 20 3c 79 3b d9 98 43 ba 28 52 50 bb fe 63 80 3a
       0.0038030222 -0.0007461436 -0.003178725 0.0009795425

blocks.0.attn.qkv.weight f4 [96, 32]
000000 b7 85 0d 3e 2e cb 15 be a5 1b 7b bc 25 90 31 be
       0.1382054 -0.14628288 -0.015326415 -0.17340143
000010 58 d2 15 be 1d 82 9c 3c 05 d9 2a 3d 0f 87 c3 3c
       -0.14631021 0.019105012 0.041710872 0.023868112
000020 ef 34 9d bd 9e 9c 18 3e c1 d2 ce 3c 83 50 ae bd
       -0.07676112 0.14903495 0.02524698 -0.0851145
000030 c1 15 8d 3c e0 8a 2f 3d e7 55 67 3d 7d 72 da bd
       0.017222287 0.04285705 0.056478407 -0.10666368
000040 cc ba 43 3d 63 a6 ac bd 19 63 23 be 54 61 bd bd
       0.047785565 -0.08430173 -0.15955772 -0.092470795
000050 10 77 48 3e 11 c2 13 3e 3e dd 25 3e 8c 6f d3 3d
       0.19576669 0.14429499 0.16197678 0.1032401
000060 23 31 f6 3d dd 56 7b bd b6 78 ca bd f2 a9 af 3d
       0.12021091 -0.061362136 -0.09886305 0.08577336
000070 c4 d7 d3 bd 77 d4 d4 bd ef 98 4b bd 65 31 2b 3d
       -0.103438884 -0.10392087 -0.049706396 0.041795153
000080 cc c3 ac 3d b5 ca 3f bd c4 66 a6 bd d4 56 7e 3c
       0.08435783 -0.046824176 -0.0812507 0.015523631
000090 1b 7e c5 bd 89 b7 aa bd e0 f6 bd 3d c6 92 07 3c
       -0.09643193 -0.08335788 0.09275603 0.00827474
0000a0 b4 1d 17 3e 6c 52 40 3e 07 b6 16 3d 8c 7e 1e 3d
       0.14757425 0.18781441 0.03679469 0.038694903
0000b0 7d 5e 9d 3c 09 f4 d0 3a 3e 9a b4 3a 47 7f ce bc
       0.019210095 0.0015941869 0.0013778878 -0.025207175
0000c0 42 2c b9 3d 1a 62 19 3e b0 23 05 bd 90 ba b8 bd
       0.09041645 0.14978829 -0.032504737 -0.09019959
0000d0 08 f0 af bd d1 54 98 bd 73 f3 4c 3c 89 5a ec 3d
       -0.08590704 -0.074380524 0.012509215 0.11540706
0000e0 37 78 0b 3e ae 34 e6 3d cb b8 f6 bd 3e 98 ad bd
       0.13620077 0.112405166 -0.12046965 -0.084763035
0000f0 5a f0 80 3a 87 87 61 bd 21 e2 ab 3b f4 2b 24 be
       0.0009837255 -0.05506089 0.0052454625 -0.16032392
000100 04 94 60 3d 5c c4 03 be 44 b2 b7 bd b3 b2 1a be
       0.05482866 -0.12867874 -0.08969548 -0.15107231
000110 68 62 22 3e 2b 40 28 be 7e ff fd 3d 4d 3d 3a 3b
       0.15857852 -0.16430728 0.12402247 0.0028417886
000120 14 97 1c bd 1f 54 e6 3d 5a 2d df bc f7 6f e3 3d
       -0.038230017 0.112465136 -0.027243305 0.1110534
000130 5a e9 e6 3d 34 3a 18 be 34 a5 8d 3d fb f2 a0 3c
       0.11274977 -0.14865953 0.069162756 0.019647112
000140 e3 32 27 3d ca 4f ab 3c 47 e6 3b 3d 68 0c c1 bd
       0.040820014 0.02091207 0.045873906 -0.094261944
000150 e2 69 d0 bc bc 92 2b 3e bf 2c ed 3d 79 ff 3d bc
       -0.025441114 0.16755193 0.115808 -0.011596554
000160 a3 ee 31 be 67 65 10 3c 54 20 f6 bd 97 d7 17 3e
       -0.17376189 0.008813239 -0.12017885 0.14828335
000170 91 13 c8 bd 19 72 84 bc 7b c7 32 bd dd a5 11 3d
       -0.09769357 -0.016167687 -0.04364727 0.03555857
000180 3c 9a 47 3e cf 44 07 3d e2 a9 18 3d 36 8d 28 3e
       0.1949243 0.033024605 0.037271388 0.16460118
000190 ea 43 1d 3e fd 66 ac bd 6b aa 86 bd 17 5e 13 3d
       0.15357938 -0.08418081 -0.065754734 0.035978403
0001a0 35 ca a7 bd 5a e4 a3 3d 26 70 9a bb a4 e4 08 be
       -0.08192865 0.08002539 -0.004713076 -0.1336847
0001b0 78 5d bf 3d 15 54 5e 3d 0e a5 1d 3d 3c e2 4b 3e
       0.093439996 0.054279406 0.038487487 0.1991052
0001c0 49 60 05 3e 1d a7 1a 3e f2 4e d4 3c 4f 7a 29 be
       0.13025011 0.15102811 0.02591655 -0.16550563
0001d0 7b 35 8f bd a5 17 ab bd fa 3f e9 bd 85 ee 47 bd
       -0.069926225 -0.08354119 -0.11389156 -0.048811454
0001e0 86 c9 0d be ff 0c 36 be 01 21 f0 bd 16 94 1b be
       -0.13846406 -0.17778395 -0.11725045 -0.15193209
0001f0 2c 8f 20 be 70 b8 71 3d e2 02 00 3e 07 8c a4 bd
       -0.15679616 0.059013784 0.125011 -0.080345206
000200 fa 5b 25 bd 66 c0 d8 3d 23 cc b5 bd 05 06 a0 bd
       -0.04037092 0.10583572 -0.088768266 -0.07813648
000210 9a 0d fe 3d fe ea 25 be 30 a8 1d 3b 0f bc 16 3e
       0.12404938 -0.16202924 0.0024056546 0.14720176
000220 b7 c7 6f 3b 1e 98 30 3d d9 53 cd bd b4 fc cf bb
       0.0036587545 0.04311382 -0.10025758 -0.006347263
000230 88 99 00 3c 1c a6 66 3d 1c 70 6a 3d da ce 17 3e
       0.007849105 0.056310758 0.057235822 0.14825001
000240 bb b5 01 be 35 12 08 bc ca ae a2 bd f1 49 1e be
       -0.12666981 -0.008305122 -0.079434946 -0.15457894
000250 a7 d6 b9 3b b3 14 11 be ab 08 06 3e 15 88 ea 3c
       0.0056713405 -0.14168052 0.13089244 0.028629342
000260 85 8b e0 bd ca 44 b6 3d ef 53 32 be bf b9 56 bd
       -0.10964111 0.08899839 -0.1741483 -0.052423235
000270 8a 2a 20 bd 38 cf 22 be 89 6b 00 be 9e a6 13 bd
       -0.03910307 -0.1589936 -0.12541021 -0.03604757
000280 49 8d 04 3e ae 87 2f 3e 54 33 2e 3e 4b ad f5 bd
       0.12944521 0.17141601 0.17011768 -0.11995944
000290 3e 2a d2 bd 57 65 2a 3e 32 db 6c 3d dc 21 15 3d
       -0.10261963 0.1664022 0.05782623 0.036409244
0002a0 49 76 0c 3d 57 59 0c be c4 48 96 bd 36 89 31 3e
       0.034292493 -0.13705955 -0.07338098 0.17337498
0002b0 8a f9 86 bd ca 93 3c bc 64 a3 0e be b6 d0 e0 bd
       -0.065905645 -0.011509845 -0.13929516 -0.109773085
0002c0 83 23 0b 3b c2 47 e9 bd 2f 6b f9 bc c6 1e 74 3d
       0.0021230883 -0.1139064 -0.030446617 0.05959966
0002d0 64 69 58 be d7 9e 42 3d 27 c8 01 be eb 5c c8 bd
       -0.21133953 0.047514763 -0.12674008 -0.09783348
0002e0 69 70 9c 3d c2 ab 1e 3e ed d9 37 bd 1a 57 86 bd
       0.07638628 0.15495208 -0.044885565 -0.06559582
0002f0 1a 0d 04 be dc 27 c8 bd bd 18 1f be c0 2e e2 bc
       -0.12895623 -0.097732276 -0.1553678 -0.027610183
000300 b6 8c ff 3c cd 3b 24 be 4d 7b 11 3e 27 2d e9 3d
       0.031195026 -0.16038437 0.14207192 0.11385565
000310 8d 6a 28 be cf 96 d3 bd 46 ff 58 3d 29 61 0c bd
       -0.16446896 -0.10331499 0.052977823 -0.034272347
000320 84 6d 06 bd 1e 92 ae bd 5d 4a 0e 3e 5e d1 cc bd
       -0.032819286 -0.085239634 0.13895555 -0.10000871
000330 0a 52 1a 3e 95 0c b7 3c aa 80 12 3d dd eb 0c 3e
       0.15070358 0.022344867 0.035767235 0.1376185
000340 d0 a8 10 bd 84 a7 db bd 7a 43 d2 bc bb db 0c 3e
       -0.035317242 -0.107253104 -0.025666941 0.13755696
000350 43 f3 f2 bd 44 20 3f 3d b0 4e 36 be f5 28 b3 3d
       -0.11862805 0.04666163 -0.17803454 0.08748046
000360 a0 1c 4f 3d c1 61 0f bb 49 38 96 3d 76 60 db 3b
       0.05056441 -0.0021878334 0.07334954 0.0066948486
000370 81 52 d1 3d ab 04 0d be cf c6 e0 bc 26 2f a2 3d
       0.102208145 -0.13771312 -0.02743855 0.07919149
000380 f4 f2 33 3e 7f 52 b8 3d f0 88 09 be 09 dc 03 3e
       0.17573148 0.0900011 -0.13431144 0.12876906
000390 30 49 10 bd 47 a0 45 bd a3 bb 2b be 58 48 fe bc
       -0.035226047 -0.048248556 -0.16770796 -0.031040356
0003a0 23 e1 d2 3d e4 08 7a 3c 11 24 de bd 31 60 73 3d
       0.10296848 0.015260909 -0.10846723 0.059417907
0003b0 c3 98 2c bd ae 51 28 3e bb ad 1c be d6 40 59 bd
       -0.042137872 0.16437408 -0.15300648 -0.053040348
0003c0 a8 05 30 be 76 33 94 bd b1 69 5b 3d 74 5c 26 3e
       -0.17189658 -0.07236378 0.053567592 0.16246206
0003d0 7b 82 45 3d ba 5c 32 3e d6 93 15 3d e7 4f d0 3d
       0.04822014 0.17418185 0.03651794 0.1017149
0003e0 a8 55 f5 3d 37 1c 08 3e 98 eb d5 bd 39 ca 2a 3e
       0.11979228 0.13292013 -0.104453266 0.16678704
0003f0 f3 6d d6 3d ed b5 a4 bd 52 4b b4 bd 8b 6d 14 be
       0.1047019 -0.08042512 -0.08803429 -0.14494912

blocks.0.attn.proj.weight f4 [32, 32]
000000 01 f2 81 bd cb 0b eb 3d 4f 1a 01 be db 5d 10 be
       -0.06344987 0.11476859 -0.12607692 -0.14098303
000010 99 4d 08 be 5a 9a d6 bd ee ec 24 3e 25 e3 e8 3c
       -0.13310851 -0.10478659 0.16106007 0.028428623
000020 ed 5b be bc f4 a1 54 bd 69 34 0c be 94 35 58 bd
       -0.023237193 -0.051912263 -0.13691868 -0.05278547
000030 1f 0c b8 3d eb b0 00 3e c2 df 05 3e 88 9d a0 3c
       0.08986687 0.12567489 0.13073638 0.019606367
000040 73 f3 bf bd 60 bf c9 bd 60 ab 23 3e 01 d3 27 be
       -0.09372606 -0.09850955 0.15983343 -0.16389085
000050 d5 83 20 3d f8 24 92 bc 49 64 33 3e 05 68 df 3d
       0.039188225 -0.017839894 0.17518725 0.10908512
000060 8d 2f 62 bd e8 fe 11 be c6 ec 20 3d e1 d0 f1 bd
       -0.05522113 -0.14257395 0.039288305 -0.118074186
000070 1d 80 d8 bc 8b 61 2e 3d c7 b0 c0 3d 61 02 33 bd
       -0.026428277 0.042573493 0.094087176 -0.04370344
000080 b1 82 de bd 65 d9 04 be 99 80 36 be 5d 46 ae 3c
       -0.10864771 -0.12973554 -0.17822494 0.021273786
000090 43 c1 ef bd 3d 37 58 3c 75 1e 99 bd 02 23 f7 bd
       -0.117067836 0.013196764 -0.07476512 -0.12067224
0000a0 a1 f4 e8 3d d2 fd d0 3d d0 99 04 3e 7b bd 49 3e
       0.11374784 0.102046624 0.129493 0.19701187
0000b0 e3 f6 04 be 1e b6 e5 bd 2a 96 12 be 44 ef de 3d
       -0.12984805 -0.11216377 -0.14315096 0.1088548
0000c0 26 6d af 3d 40 4d 11 3e c1 db 00 be 5c bd c7 bd
       0.0856574 0.14189625 -0.1258383 -0.09752914
0000d0 a9 dc 27 3e 95 3a 01 be 91 de 1f be bf 76 97 3d
       0.16392769 -0.12620004 -0.15612246 0.07395696
0000e0 d8 eb 0a be 6a 8b 53 bd b0 c6 ce 3d 56 26 0b 3e
       -0.1356653 -0.051646627 0.100964904 0.13588843
0000f0 45 41 33 bc 6e 37 15 be 73 86 d8 3d 07 4d 38 3e
       -0.010940854 -0.14571926 0.10572519 0.17998134
000100 7c ab 0a be d7 b9 10 3c 38 24 f3 bd 9e 37 f2 bd
       -0.13541979 0.00883337 -0.118721426 -0.118270144
000110 84 7c 92 3d 7a 83 90 3d 24 db 66 3d af 6d 08 be
       0.07152656 0.07056327 0.056361333 -0.13323091
000120 01 fa ec bc 64 87 3f 3d 23 48 e4 bc d3 53 bc bd
       -0.028927805 0.046759978 -0.027866429 -0.09195676
000130 63 6c ae bd 3a 0b 2f 3e ba af 10 be 65 30 ce bd
       -0.08516767 0.17094126 -0.14129534 -0.10067824
000140 1d dc 08 3e 47 3a 00 be b0 ae f2 3d 61 d9 b3 bd
       0.13365217 -0.12522231 0.11849725 -0.08781696
000150 d0 6d 45 bb 91 c5 b9 bd b9 81 10 3e aa e5 e6 3d
       -0.0030125268 -0.09070886 0.14111985 0.11274274
000160 29 92 4d 3d 49 16 80 3c 02 5c 83 bd 49 7b b7 bd
       0.050188217 0.015635626 -0.064140335 -0.08959062
000170 f7 4c 89 bd 86 28 62 3d 2c 02 eb bc 1d 69 d4 3d
       -0.06704133 0.055214427 -0.028687559 0.10371611
000180 15 19 b7 3c 48 74 9b bb fd 78 ce bd d9 d3 96 3d
       0.022350827 -0.0047440864 -0.100816704 0.073646255
000190 b6 a3 22 be 78 d1 27 3d c0 22 61 3d b3 6c d9 3c
       -0.15882763 0.04097125 0.05496478 0.02654109
0001a0 63 1f f1 3d d6 8a 4a 3d b2 82 39 bd 25 b9 15 be
       0.11773565 0.04944881 -0.045290656 -0.14621408
0001b0 78 0e 2c be 00 53 c8 3d ca 82 c8 3d 28 f2 05 be
       -0.16802394 0.09781456 0.09790571 -0.13080657
0001c0 5c d4 52 3d 2e f7 6e bd 9e a3 10 3e 8d ce 80 bd
       0.051472053 -0.058341198 0.14124915 -0.062893964
0001d0 5e e4 15 3e 97 c0 0e 3e 3a a2 f8 3d fa 01 fd 3d
       0.14637896 0.13940655 0.12140317 0.123538926
0001e0 1f 1d 67 3d 39 8b 55 3d 52 94 35 be 68 a6 24 bd
       0.056424256 0.052134726 -0.17732361 -0.04019776
0001f0 3f 90 8f bc 1a 0a a7 3d a2 20 93 bd 37 26 8a 3d
       -0.017524837 0.081562236 -0.071839586 0.0674557
000200 12 18 f5 3d e2 db 92 3d cb d3 8f 3d 9a b8 91 bc
       0.11967482 0.071708456 0.07022818 -0.01778822
000210 91 20 be 3d 3b 49 7c bd dc f2 05 3e 54 1b a8 3b
       0.09283555 -0.061593276 0.13080925 0.005130211
000220 ed 05 2a bc db 5f 1b be 0e 1b 25 3e db 28 0a bd
       -0.010377389 -0.15173285 0.16123602 -0.03373037
000230 9e d3 02 3e 1f d5 fc bd d9 04 10 be c9 78 a5 bc
       0.12776038 -0.12345337 -0.14064349 -0.020199196
000240 1a 34 0c be 37 5d f6 3c 70 72 8a 3b b0 8e 7a bd
       -0.1369175 0.030073745 0.004225068 -0.061171234
000250 00 a7 db 3d 06 6b e0 3d b4 58 14 be 34 74 15 be
       0.10725212 0.10957913 -0.14486963 -0.14595109
000260 0f 08 bb 3d 44 3a d4 bd 8c 1b b3 3c 95 7d 3d bd
       0.091323964 -0.10362676 0.021863721 -0.046262342
000270 72 76 d6 3c 4c fe bb bd f1 88 7e bc ab 60 57 bd
       0.026179526 -0.09179363 -0.015535579 -0.052582424
000280 e9 1c a7 bd fe f5 bc bd cd 33 05 3d df 77 f4 3d
       -0.08159811 -0.09226607 0.032520104 0.11936926
000290 53 4c 9f bb 03 0c 9a bb f6 d1 04 3e be c0 0b 3e
       -0.0048613935 -0.004701139 0.12970719 0.13647744
0002a0 97 95 e3 bc cb e2 09 be 8e 44 37 3d 2c c8 7e 3d
       -0.027781291 -0.13465421 0.044743113 0.062202618
0002b0 2b 68 0d be 5f 15 23 be 9e cf ba 3c 8c 74 23 3e
       -0.13809268 -0.15926121 0.022804078 0.15962428
0002c0 1d 5e 19 be b1 ec b5 bd d8 ad 5d bd 9e 95 1d be
       -0.14977308 -0.08883036 -0.05412087 -0.15389106
0002d0 26 f3 d7 bd 3a 7e 06 3e 70 54 06 3e 1b 72 0c be
       -0.10544424 0.13134089 0.13118148 -0.13715403
0002e0 b4 e2 4d 38 6d cf 0f be 9e 5d 7c 3d b5 ec ee bd
       4.9086942e-05 -0.1404397 0.061612718 -0.11666242
0002f0 bf 69 ba bd 75 cf ac bd 94 34 0f 3d fa e1 ea 3d
       -0.09102201 -0.08438007 0.03496225 0.11468883
000300 c8 cb 8e bd e1 ee 03 3d bc f4 19 3e 2d af 10 bb
       -0.06972462 0.032210235 0.15034765 -0.002207707
000310 08 09 68 3b 00 48 87 3c ad e4 c8 3c f6 e7 b2 3d
       0.0035405774 0.016513824 0.024523104 0.08735649
000320 fe d5 bf 3d be a1 c5 bd 5f 4b 29 3e a6 68 c1 3d
       0.09366988 -0.096499905 0.16532658 0.09443788
000330 66 ed dc bc a4 40 1a 3e 2d 52 ee 3b cc b1 cc 3d
       -0.02696867 0.15063721 0.0072729797 0.099948496
000340 cd 65 25 be 96 d8 26 3e 95 bd 1e 3e 2e b1 0b be
       -0.16152115 0.16293558 0.15502007 -0.13641807
000350 ea 1b 2c be 4f 53 21 bd e4 93 11 be 68 96 81 3d
       -0.16807523 -0.03938609 -0.14216572 0.06327516
000360 9d 23 b2 3d 6c 4b b4 bc d2 83 ed 3d 16 57 33 3c
       0.08698199 -0.02200862 0.11597408 0.010946056
000370 e2 4f 55 bd a4 09 1f be 57 93 03 3d bc e3 32 be
       -0.052078135 -0.15531021 0.032122936 -0.17469686
000380 3b cd ce 3b ac a8 e7 3c f6 3f e1 bd 92 e3 75 3d
       0.0063110865 0.028278671 -0.10998528 0.06003148
000390 35 18 f5 3c 17 87 fb 3d c1 27 a3 3d 10 0d 16 be
       0.02991877 0.12281626 0.07966567 -0.1465342
0003a0 6e f5 0b be 78 b9 51 bd 17 40 f2 bd e8 36 80 3d
       -0.13667843 -0.051202267 -0.118286304 0.062604725
0003b0 25 34 f8 bd 6c 91 02 be e8 bc 34 3d 94 5a cb 3d
       -0.12119321 -0.12750787 0.044125468 0.09929386
0003c0 9b 37 55 bd d2 f8 36 be 4e a8 e0 3c 93 94 a6 3d
       -0.052054983 -0.17868355 0.027424004 0.08133807
0003d0 57 21 10 3e a9 73 8b 3a c5 85 0f 3e 08 2f 28 be
       0.14075218 0.0010639328 0.14015873 -0.16424191
0003e0 68 11 28 3e b8 4c f9 bd 33 5f de bd c6 03 f7 3d
       0.1641289 -0.12172836 -0.108580016 0.120612666
0003f0 52 96 fd bc 89 6c e3 3d a6 f8 ad bd 7a 4c 05 3e
       -0.030955467 0.11104686 -0.084946916 0.13017455

blocks.0.attn.proj.bias f4 [32]
000000 c9 ee f0 3d 5c 8d 42 3c 08 84 25 3e 01 97 b4 bd
       0.11764295 0.011874523 0.16163647 -0.08817864
000010 f9 a4 6c bd 49 38 33 3b 50 f6 c3 3d 30 58 16 be
       -0.057774518 0.002734678 0.09568465 -0.14682078
000020 fd 0c 47 bd ae 69 0a 3e c2 0e 38 3d 2c 39 fe 3d
       -0.04859637 0.13516876 0.04493595 0.124132484
000030 73 d2 82 bd 84 c5 e5 bd be 60 dc bd e2 d3 d7 bd
       -0.06387796 -0.11219314 -0.107606396 -0.1053846
000040 a1 f1 03 be a1 3e 9f 3d eb 95 58 3d 8e 01 dd bd
       -0.12885143 0.077756174 0.052877348 -0.10791312
000050 62 1d 11 3e ca c8 24 3d 49 d0 84 3d 16 bd 94 bd
       0.14171365 0.04023055 0.0648504 -0.07262628
000060 e8 6c f0 3d ad e3 ed bd 7c a2 f3 3d 1c c4 b4 bd
       0.11739522 -0.11615691 0.11896226 -0.088264674
000070 95 dc 8c 3d fb 0a 8e bd ee eb da 3d f3 f7 08 be
       0.0687801 -0.06935688 0.10689531 -0.13375835

blocks.0.norm2.weight f4 [32]
000000 60 d1 81 3f 76 d6 7f 3f 45 cb 7e 3f b8 9a 7f 3f
       1.0142021 0.99936616 0.99528915 0.9984546
000010 71 03 76 3f 67 76 77 3f 68 ec 7c 3f e4 3c 80 3f
       0.96099 0.9666504 0.9879823 1.0018582
000020 bc 60 7f 3f 41 f5 7e 3f 3a 53 7c 3f e8 8c 80 3f
       0.9975698 0.9959298 0.98564494 1.0043001
000030 18 37 81 3f 6a 63 7c 3f d6 13 7c 3f f5 3b 7c 3f
       1.0094938 0.98589194 0.9846777 0.9852899
000040 37 d8 80 3f d6 e4 7c 3f b6 0c 77 3f 6a ff 7c 3f
       1.0065984 0.98786676 0.9650377 0.9882723
000050 cd 1a 7c 3f bf 6f 79 3f 71 92 7d 3f 19 b6 81 3f
       0.98478395 0.97436136 0.99051577 1.0133697
000060 54 bb 7d 3f 07 18 80 3f 84 28 7f 3f a7 bd 7e 3f
       0.99113965 1.0007333 0.99671197 0.99508137
000070 49 38 81 3f 5e 23 81 3f a9 68 7e 3f d4 24 81 3f
       1.0095302 1.0088918 0.9937845 1.0089364

blocks.0.norm2.bias f4 [32]
000000 b9 2a f8 b9 a8 ae 93 bb 98 9a 21 bc 91 78 a7 bc
       -0.00047334077 -0.0045069046 -0.009863518 -0.020443233
000010 98 37 03 bc 46 83 8a b9 6b 99 2a 3c 8d 5e f6 bb
       -0.00800886 -0.00026419217 0.010412554 -0.0075185956
000020 1f d2 95 3b 4f f1 0d 3c 62 37 0a 3c e6 71 2c bc
       0.0045721675 0.0086634895 0.008436056 -0.010525202
000030 a8 a9 08 b9 81 6d df bc e4 a2 3e 3c 9a fa 9b bb
       -0.00013033173 -0.027273895 0.011635516 -0.0047600986
000040 99 ab d6 3b b5 4f d3 bb 00 d3 94 3c f4 04 8e bb
       0.0065512178 -0.006448711 0.018167019 -0.0043340866
000050 bd 5a d3 bb 36 12 b1 bb 7f 11 80 3b 12 2b 52 ba
       -0.006450026 -0.0054037822 0.0039083357 -0.0008017282
000060 3d ae 52 3b 1a b1 55 b9 5b 8d e7 bb 67 46 56 3a
       0.003214731 -0.00020379238 -0.0070664114 0.0008173943
000070 e2 57 dc bb 0e 0d ea bb db 9e 12 bc 88 ec 8e 3c
       -0.0067243436 -0.0071426695 -0.008949007 0.017446771

blocks.0.mlp.fc1.weight f4 [128, 32]
000000 11 75 c2 bc 48 82 6b bd ba a4 2e be 17 3c 7a bd
       -0.023737462 -0.057497293 -0.17055026 -0.061092462
000010 14 11 8d bd 64 e2 a6 3c 2e 87 14 3e 4b 11 2e bd
       -0.06888023 0.020371623 0.14504692 -0.04249696
000020 f9 03 58 3e 8a 8b 82 bd 70 7f 95 bd 57 42 67 bc
       0.21095265 -0.06374271 -0.072996974 -0.014114938
000030 ea 1a 64 bd eb 34 69 3d 4c ac 3b 3e f7 2b 60 3d
       -0.05568973 0.056935232 0.18327445 0.05472943
000040 e1 36 05 be e7 94 a7 bd a0 98 8c bc 4b 53 13 be
       -0.13009216 -0.08182698 -0.017162621 -0.14387242
000050 38 ff 34 3d 48 3c 70 3e 7e f1 1b 3d 7d b8 cd 39
       0.044188708 0.23460495 0.0380721 0.000392381
000060 10 9e d7 bc f5 50 9d bd 12 44 f6 bc cd 09 22 3e
       -0.026320487 -0.07681457 -0.030061755 0.15824051
000070 66 ad 02 be 54 d7 1c 3d 22 85 d7 bd 0c 62 43 bd
       -0.12761459 0.03829129 -0.1052344 -0.047700927
000080 ab 5a 2b 3c 0a d5 17 be 0a 24 92 3c fe cb 25 be
       0.010458629 -0.14827362 0.01783945 -0.16191098
000090 7e b6 e7 bd c1 82 de 3d 01 08 4a 3e 1f 10 fd bc
       -0.113141045 0.10864783 0.19729616 -0.030891476
0000a0 4a 85 b7 bd 72 d5 1f be 53 41 d1 bc 2c 53 ac bd
       -0.0896097 -0.15608767 -0.025543844 -0.08414301
0000b0 4f 3f 12 3e 26 23 12 be f3 d7 dc 3d 6c a3 38 3d
       0.14281963 -0.1427122 0.107833765 0.045077726
0000c0 46 27 21 bd 45 a9 02 3e fd 4a c4 3d 48 cd 7c 3c
       -0.039344095 0.12759884 0.095846154 0.015429802
0000d0 1e 7a da bd 68 29 fa bc c0 b5 a6 3c 22 8f 25 3e
       -0.10667823 -0.030537322 0.020350337 0.16167882
0000e0 e1 97 48 bd 23 7f c6 bd 2c 03 1c be 16 7c c8 3d
       -0.048972968 -0.09692218 -0.15235585 0.097892925
0000f0 8b 8b 7a 3e f6 b4 06 3e 1c 63 b7 bd d9 e5 06 3e
       0.24467294 0.13154969 -0.089544505 0.13173617
000100 95 84 4e bd d2 bd b8 3d 59 c7 f7 3d 43 5b 14 be
       -0.05041941 0.0902058 0.120985694 -0.14487939
000110 6b 7a 4c 3d d3 38 97 3d fc 52 f1 bd 83 a6 31 3e
       0.049921434 0.07383885 -0.11783406 0.17348675
000120 e7 11 ff 3d b9 12 1a 3e 1a 25 88 bc 63 0d ea bd
       0.124545865 0.15046205 -0.016619254 -0.114283346
000130 d4 d7 bd bd 35 54 9a 3d 5d 80 29 bd ef 26 ff 3d
       -0.092696816 0.075355925 -0.041382182 0.12458598
000140 e6 7c 18 3e 18 a9 94 3c bf a7 17 be 9d e8 7e 3d
       0.14891395 0.018147036 -0.14810084 0.062233556
000150 0f d4 29 3e 9c be 2d bd 1f 72 d4 bd 3d 45 04 bd
       0.165848 -0.042418107 -0.10373329 -0.032292593
000160 d7 48 05 3d 0c 27 f5 bd 58 44 d4 3d 89 26 7f 3d
       0.03254017 -0.11970338 0.10364598 0.06229261
000170 2f e1 9e bd aa a5 87 bd 4c b5 98 bd 5c 76 fd 3d
       -0.07757794 -0.06623395 -0.07456455 0.12376091
000180 0d 20 c5 3d 8b 03 4a 3d c7 b5 aa bc 3e a1 29 3d
       0.09625254 0.049319785 -0.020838631 0.04141354
000190 17 b9 1d 3e 07 3c 22 3d d1 d2 96 bd 5d 88 74 3d
       0.15402637 0.039608028 -0.07364429 0.05970036
0001a0 8d d4 8d bd 04 ad c0 bb 3b 43 f1 bd dd 2b 32 3c
       -0.069253065 -0.00588 -0.11780401 0.010874716
0001b0 32 92 c0 3c 12 0c c5 bd 67 0d cf 3d 0f b2 23 3e
       0.023507211 -0.09621443 0.10109978 0.15985893
0001c0 0d 5c 42 be 49 b1 81 3d 2e 2e 01 be 02 95 90 bc
       -0.18980427 0.063326426 -0.12615272 -0.017649177
0001d0 fd 68 ba 3d 0d ca d8 3c a6 6f 7b 3d 22 ce 69 bd
       0.09102056 0.026463533 0.061385773 -0.05708135
0001e0 9a 5a 32 3e 23 7a b1 bd 90 76 04 3d 23 46 bd 3b
       0.17417374 -0.08665874 0.032339633 0.005776183
0001f0 41 b1 d1 3d 62 f6 0c 3d d7 b0 ff 3d b3 f1 0a 3d
       0.102388866 0.034414656 0.124849014 0.03392191
000200 64 be 08 3e 04 fa 33 bc 4e 83 99 3d d2 71 2e 3e
       0.13353878 -0.010984901 0.074957475 0.17035607
000210 59 d9 80 bd 90 ce 73 bd db 2d 00 3e 22 2b 8f 3d
       -0.06291456 -0.059523165 0.12517492 0.06990649
000220 37 d0 15 be db 3a a2 3d 90 d0 29 be 99 de c0 bd
       -0.14630209 0.07921382 -0.16583467 -0.09417457
000230 db d6 73 3d c4 56 9f 3d b7 d0 14 bd 73 91 0c 3e
       0.059531074 0.07780221 -0.03633186 0.1372736
000240 43 a1 2a 3e 84 d1 0c 3e 5b 32 12 be da bd 89 bd
       0.16663079 0.13751799 -0.14277022 -0.067256644
000250 60 a8 8c 3b e9 e8 14 3e 9e 54 f8 bc 5b 40 4a 3d
       0.004292533 0.14541973 -0.030313786 0.04937778
000260 d5 5a a9 3d 62 b4 ad bd f3 46 ea bd 4b a5 22 3e
       0.08269278 -0.08481671 -0.11439314 0.15883367
000270 c0 81 42 3b c8 f2 f5 3d 99 6b 42 be ff 1e 99 bd
       0.0029679388 0.120091975 -0.18986358 -0.07476615
000280 70 2b 1c 3e f0 d7 55 bc d1 dc 74 3d e3 14 06 be
       0.15250945 -0.013051972 0.0597809 -0.13093905
000290 1a 24 22 3e 39 30 b0 bd ea 30 28 bb 4b 2f f5 bd
       0.15834084 -0.08602948 -0.002566392 -0.11971911
0002a0 80 7c bb bd 20 28 1f be 69 df 1c be 6b bb 94 bc
       -0.09154606 -0.1554265 -0.15319599 -0.018155774
0002b0 c6 16 98 bd f0 98 ec 3d 19 e4 24 ba 6d d7 08 3e
       -0.07426219 0.11552608 -0.0006290093 0.13363428
0002c0 d0 14 2e bd 18 86 23 3d 14 c4 2d 3e da bd f9 bd
       -0.042500317 0.039922804 0.16969329 -0.121944144
0002d0 2b 61 a5 bd 0d 18 e6 3d 28 5a 7d bc 3f 89 7a bd
       -0.08075174 0.11235056 -0.015463389 -0.061166044
0002e0 d6 5c 42 3c 2c 7d c9 bd de 2c 7c 3b 50 1a 83 bd
       0.011862954 -0.09838328 0.0038478891 -0.06401503
0002f0 ed f3 64 3d c7 3b 27 bd af 23 8f bd b2 97 5d bd
       0.05589669 -0.040828492 -0.06989228 -0.054099746
000300 2f 97 c5 3c 14 00 8d 3d 6d 76 46 be e9 06 09 be
       0.024119942 0.068847805 -0.19381113 -0.13381542
000310 1b f0 36 be 67 d8 c9 3d 36 2a f2 3d f5 c6 2d be
       -0.1786503 0.098557286 0.11824457 -0.16970427
000320 f7 98 e6 3c fa 5e 05 3d 9a e7 ac bd f1 14 4d 3d
       0.028149111 0.03256128 -0.08442612 0.0500688
000330 c2 9b 1c 3e 4e fe 4a 3e bd 0f 77 3d d4 ad 1c bd
       0.15293792 0.19823572 0.060317744 -0.038251713
000340 f5 80 f7 bd 55 a2 90 bd d9 c5 5e bc 5b a3 3c 39
       -0.120851435 -0.070622124 -0.013596975 0.00017989932
000350 38 72 0f 3e f3 ed 06 be 98 fb cb 3b e2 32 2a bd
       0.14008415 -0.13176708 0.0062250607 -0.041552432
000360 a6 de 9b 3c 0d 21 34 3e fa eb 57 3c 9e 25 e5 bc
       0.019027065 0.17590733 0.01317882 -0.027972039
000370 1b 09 75 bd 1e d9 0e be 50 91 1e be f3 c7 9c 3d
       -0.059823137 -0.13950011 -0.1548512 0.07655325
000380 e9 1b c7 bd 42 f8 dc 3d c6 92 7a bd 2d 9f eb 3c
       -0.0972212 0.10789539 -0.06117513 0.028762424
000390 f3 bd 0c 3e d0 3d e8 bb b8 9a 9b 3d 2e 53 0d 3e
       0.13744335 -0.0070874467 0.0759787 0.13801262
0003a0 19 c1 af bd a9 07 0d 3e 19 ce 36 be 41 b1 3c 3e
       -0.08581752 0.13772453 -0.17852058 0.18426992
0003b0 c6 ec 2e bd 78 c2 2b 3c b4 43 aa 3d 6f a1 3a 3d
       -0.042706273 0.010483377 0.083136946 0.04556411
0003c0 23 ac d2 3d 59 51 73 bd ed 33 e3 bd bf b2 25 3e
       0.10286739 -0.05940375 -0.110938884 0.16181467
0003d0 05 68 e7 bd 85 98 de 3d f1 ab 27 3e ae 8f 17 3e
       -0.11299137 0.108689345 0.16374184 0.14800903
0003e0 22 38 51 bd 50 65 4a ba 7a 3e 2e be 35 64 9e bd
       -0.051078923 -0.0007720785 -0.1701602 -0.07733957
0003f0 af 30 7a bd 95 51 db bd 7f 56 8a 3d bd 8d f2 3d
       -0.061081585 -0.1070892 0.06754779 0.11843441

blocks.0.mlp.fc2.weight f4 [32, 128]
000000 2d 4f 85 3b 01 e3 43 3b 5c c8 a3 bd b3 de 73 3c
       0.0040682764 0.0029889944 -0.079972 0.014884639
000010 cb 6b 90 bd 3e 0c cd 3b 0b 33 ea bb ce 66 67 3d
       -0.0705181 0.006257563 -0.007147198 0.056494527
000020 17 1f d4 bc 19 f8 96 3d ac f4 1b bc 96 2d 91 bc
       -0.025893731 0.073715396 -0.009518784 -0.017721932
000030 cf eb ab bd 80 ba 98 3d 37 80 22 3c cd b9 97 bd
       -0.08394586 0.07457447 0.009918264 -0.074084856
000040 cf 97 58 3c 89 3d 63 3d f2 24 ea bc 1d e7 49 3d
       0.013219788 0.055478606 -0.02858207 0.049292672
000050 a5 58 1e 3d 7d ac 79 bc 0c d5 c4 3d 4c 04 8b 3d
       0.038658757 -0.015238878 0.09610948 0.06787929
000060 9d 02 57 bc d1 37 cf bb 9c 89 6f 3d da 2b bd bc
       -0.013123182 -0.0063237925 0.058480844 -0.0230922
000070 23 b6 81 3d ac d6 a7 bd 11 29 15 bd c7 aa 2b 3d
       0.06333568 -0.08195242 -0.036416117 0.041910913
000080 f5 41 cd bd 75 09 28 bd c5 14 29 bd c7 27 22 3d
       -0.10022346 -0.041024644 -0.041279573 0.039588716
000090 46 1e 26 bc 3e 4c a1 bd 5c 53 88 3d d3 12 24 bd
       -0.010139054 -0.0787587 0.066565245 -0.040057015
0000a0 73 e7 9b ba 37 8a f8 3c 6d 6f b1 bd 7b f0 c9 bb
       -0.0011894539 0.030339343 -0.08663831 -0.0061627007
0000b0 36 8c be bc 8a 82 1e bd bc 32 b3 bc 11 b2 47 3d
       -0.023260217 -0.03869871 -0.021874778 0.0487538
0000c0 07 9c 5b bd 67 91 3d bd 00 c3 33 3d 52 38 b8 3c
       -0.053615596 -0.046281245 0.04388714 0.022487793
0000d0 9a 3d 7b 3b 48 89 da 3b 41 60 a5 3d 4e 79 1a bd
       0.0038336278 0.006669197 0.080749996 -0.03771334
0000e0 5f f3 a1 bd b7 ce a3 bd d7 bc cd 3c 6e f5 fb 3c
       -0.079077475 -0.07998412 0.02511446 0.030756678
0000f0 6e d4 88 bc 39 80 98 bd b9 85 81 bd b0 ad 90 bd
       -0.016702857 -0.074463315 -0.06324334 -0.07064378
000100 e0 b7 93 3d d3 71 a0 3c ba 5c 61 bd 6f 75 e1 bd
       0.07212806 0.019585526 -0.05502007 -0.11008727
000110 cf 8a 45 3d d3 4e 85 3b 46 39 ab 3d 3c e4 7a bd
       0.04822808 0.0040682345 0.083605334 -0.061252818
000120 e2 9c 91 bd 98 02 b5 3c 5c f3 81 3d 4f 16 bc 3d
       -0.07110001 0.022095963 0.06345245 0.091839425
000130 90 97 b6 3d d9 ff 5c 3d 14 31 12 3d f0 ec 4d bd
       0.08915627 0.053954933 0.035691336 -0.05027479
000140 23 48 af 3d a0 4d 03 bd f8 ae 8e 3d 87 df 2a 3d
       0.08558681 -0.03205645 0.069669664 0.04171708
000150 14 9a 4a bd 44 22 47 bc 3a bd 17 bc e7 0c b8 3d
       -0.049463347 -0.012154166 -0.009261424 0.08986836
000160 ce 2d 6b 3d 41 77 f0 3b f8 93 71 bd ab c4 8d 3c
       0.05741673 0.007338435 -0.058979005 0.017305693
000170 56 72 8b 3d b7 34 07 bd 3e 89 95 3d b0 be d3 39
       0.06808917 -0.033009257 0.073015675 0.0004038713
000180 f2 b0 61 3d 5b cd 04 3d cf c0 3b 3d 8e 60 66 bd
       0.05510039 0.032422405 0.045838173 -0.056244425
000190 79 8e 34 3d d2 b4 b5 bd 9b f1 27 bc c5 10 8d 3d
       0.044081185 -0.08872379 -0.010250474 0.06887964
0001a0 89 02 9a bd 35 89 a8 bd 25 6e 02 bd af b2 23 3c
       -0.07520015 -0.08229295 -0.031843323 0.009991332
0001b0 73 4b c5 bc 1d 09 8a bd c3 f9 70 3c ed f9 c5 bc
       -0.024083829 -0.067400195 0.014707985 -0.024167025
0001c0 91 53 24 bd d9 17 c8 3b 8d 07 fa 3c bb e2 63 3c
       -0.040118758 0.0061063585 0.030521179 0.013909037
0001d0 13 b7 5b bd d6 b8 48 3d 78 d8 02 3c bd 14 14 bd
       -0.05364139 0.0490044 0.0079861805 -0.03615259
0001e0 8e f0 a0 3d 7a 7c d2 3c 11 3a 4e 3d 14 27 91 3d
       0.07858382 0.02569412 0.050348345 0.07087532
0001f0 65 a5 6d ba 47 21 62 3d f2 16 33 3d 18 19 91 3d
       -0.0009065478 0.055207517 0.043723054 0.070848644
000200 93 35 d1 3b cc e0 ce 3d 41 9c 2a 3d ed 25 3a bd
       0.0063845604 0.1010147 0.04165292 -0.045446325
000210 e8 62 76 3d 15 c2 42 bc d1 bf a1 bc 03 b0 a2 bd
       0.060152918 -0.011887093 -0.019744786 -0.07943728
000220 f8 48 59 bc ab b3 82 3d 01 5a 98 bd e8 6e 0b 3d
       -0.013262026 0.06381925 -0.07439042 0.034041315
000230 7b 5b 5c 3d c6 8f a6 bd aa d9 cb bb ba ff f4 3c
       0.05379818 -0.08132891 -0.006221016 0.029907096
000240 bf 52 9e 3d 81 b2 12 3d 96 71 b0 bd 2e ac 4c bd
       0.07730626 0.035814766 -0.08615415 -0.04996889
000250 35 45 2c 3d cd 35 6d bd 3a 8a c5 bd 7c 28 9d bb
       0.04205819 -0.057912637 -0.09645505 -0.004796086
000260 c7 f8 f9 3c f5 bc 92 bd 9f 49 ad bd 74 db 33 3d
       0.030514134 -0.07164947 -0.08461308 0.04391046
000270 c5 b7 75 bd e4 90 8e bd b2 c0 cf bc 35 65 87 3d
       -0.05998971 -0.069612294 -0.025360439 0.066111006
000280 5b 94 b4 bc b3 59 7c bd e6 b7 88 bd 2f 8a cb bc
       -0.022043398 -0.06160898 -0.06675701 -0.024846165
000290 b6 12 a9 3d 59 57 75 3d 7a 1b ec bc 92 ee a8 bd
       0.08255522 0.059897754 -0.028821696 -0.08248629
0002a0 6a a3 cf bc 73 26 3f 3d 9c 72 c2 3d 49 e8 4f 3d
       -0.025346477 0.046667527 0.09494516 0.050758634
0002b0 30 2e a5 bd 33 9d ad 3c 0a 97 43 3b 78 3e 19 3d
       -0.0806545 0.021193122 0.0029844665 0.03741309
0002c0 70 87 23 3d e6 fd 24 bd c6 04 08 3c cd 18 ec 3c
       0.039924085 -0.0402812 0.008301919 0.02882042
0002d0 19 00 90 3c df 34 79 bd ae 1f 39 3d cd b3 c8 bd
       0.017578172 -0.060841437 0.045196228 -0.09799919
0002e0 43 47 3b 3d 6b 69 67 bd 6e 32 d1 bc 74 6a 52 bd
       0.045722257 -0.05649702 -0.025536742 -0.051371053
0002f0 46 96 53 bc d3 67 8d 3b fe d2 b9 bd ab a1 6f 3d
       -0.012914246 0.0043153553 -0.09073447 0.058503788
000300 4e 25 36 bc f4 29 b2 3d 62 a2 d1 bc 69 10 51 bd
       -0.011117293 0.08699408 -0.025590125 -0.05104104
000310 dc 95 c1 3c 74 a8 99 3d 8c 7a e6 3d 4f 02 f9 3c
       0.023631029 0.07502833 0.11253843 0.030396609
000320 08 3c b2 3c 11 80 16 bb 66 88 74 bd cf f4 81 bd
       0.02175714 -0.0022964517 -0.059700392 -0.06345522
000330 e1 1a 9c bd f7 1e 8a bd b2 34 86 bb e0 91 5b 3d
       -0.07622314 -0.06744187 -0.0040956372 0.053605914
000340 5a f6 9b 3d de ca 44 bd 2e 10 e0 bc 57 34 a4 3d
       0.07615347 -0.04804503 -0.027351465 0.080177955
000350 12 36 f8 b9 3e 5b fb ba f6 bf 3c bd fe 25 e1 3b
       -0.00047342532 -0.0019176973 -0.046081506 0.006870984
000360 de 97 3a 3d 98 c4 3f bd 98 bb f0 bc d5 7f df 3b
       0.045554988 -0.046818346 -0.029386327 0.0068206587
000370 8a 3a 1b bd 70 fd a8 bc c1 46 5d 3b 6e f7 53 3d
       -0.037897624 -0.02062866 0.0033764096 0.05174964
000380 df 2e 8a bb f8 e6 cb 3c aa bd 70 bd c6 20 3f 3d
       -0.0042170133 0.024890408 -0.058774628 0.046662115
000390 e6 60 09 bb 32 fa 1d bd ac 43 dc bd 8e 20 12 bd
       -0.0020962297 -0.038568683 -0.10755095 -0.035675578
0003a0 05 8f ad bd a2 6d 45 bc 03 03 8b 3d 28 73 8a bb
       -0.084745444 -0.012050064 0.06787684 -0.0042251535
0003b0 20 de 9a 3d 35 df c0 bc c9 e6 9b bc 17 a7 df bd
       0.07561898 -0.023543933 -0.019030945 -0.10920542
0003c0 27 89 58 bd da 1f 8a 3d ac f1 21 3d 17 17 52 3d
       -0.052865174 0.067443565 0.039537117 0.05129155
0003d0 ba 55 b8 bb 99 bd e9 3a 91 60 f5 bc 1b e1 6b 3d
       -0.005625454 0.0017832994 -0.029953273 0.057587724
0003e0 d0 b3 e0 bd bb 35 72 bd d4 a9 c9 bd be 13 ae 3c
       -0.109717965 -0.059133273 -0.09846845 0.021249648
0003f0 c3 ca b3 bc ee 17 af bc 38 60 44 3d de 5c 9a 3d
       -0.02194727 -0.021373715 0.047943324 0.07537244

blocks.1.norm1.weight f4 [32]
000000 ca f8 80 3f 36 db 87 3f 4f b0 81 3f f1 31 7b 3f
       1.0075924 1.0613773 1.013193 0.9812308
000010 06 71 7d 3f 7f 65 7d 3f 3e 9d 7e 3f 2d 2b 77 3f
       0.99000585 0.98982996 0.9945868 0.96550256
000020 b6 09 84 3f bf ea 7d 3f 60 a2 81 3f 19 9e 7c 3f
       1.0315464 0.9918632 1.0127678 0.9867874
000030 77 7b 7d 3f 5b a9 7d 3f 89 5f 7b 3f 93 2d 7d 3f
       0.9901652 0.9908654 0.9819265 0.98897666
000040 81 a0 7e 3f 25 18 7f 3f 6c 66 7b 3f a7 54 7c 3f
       0.9946366 0.99646217 0.9820316 0.9856667
000050 3e f0 7a 3f 65 23 7f 3f c1 58 80 3f b8 62 84 3f
       0.9802283 0.9966338 1.0027086 1.0342627
000060 ff 0a 79 3f ae 52 7d 3f fd bf 7a 3f 4e b4 7c 3f
       0.97282404 0.98954284 0.979492 0.98712623
000070 7b 70 83 3f bd e2 81 3f 11 d7 82 3f 97 ea 7c 3f
       1.0268701 1.014732 1.0221883 0.98795456

blocks.1.norm1.bias f4 [32]
000000 ff 70 40 3b 96 bf 61 bc cb 30 c9 bb fd d1 c9 3a
       0.0029364226 -0.013778588 -0.00613985 0.0015397664
000010 c3 78 05 3b e6 32 59 3b 71 6e bd bb 96 a0 49 3c
       0.002036617 0.003314191 -0.005780988 0.012306353
000020 03 5c 82 38 d1 3e 56 3c 53 92 bb bb 8f 31 53 ba
       6.2160216e-05 0.0130765 -0.0057242303 -0.0008056396
000030 19 80 fd bb 39 06 c7 bb cf 82 d8 3b 54 7e f0 bb
       -0.0077362177 -0.00607374 0.0066073905 -0.0073392782
000040 f6 74 b5 3b a4 6e 8e bc 2b fd 49 3c bc e3 98 3b
       0.0055376245 -0.017386742 0.012328426 0.00466582
000050 e0 ce aa bb fc 92 22 ba 05 14 ee ba f4 ca 5f bb
       -0.0052126497 -0.0006201712 -0.0018163925 -0.003414807
000060 b8 5d 8d bc fa a8 83 3b 87 ed 10 ba c2 8a f9 ba
       -0.017256603 0.0040179463 -0.00055285584 -0.0019038545
000070 8f 23 35 3a 16 7a 10 bb 70 df e1 bb 03 c6 76 bb
       0.00069099007 -0.0022045425 -0.006893091 -0.0037654645
