image_encoder/trained_models/vit_20241108_160511.pth (torch, 561019 bytes, 77 tensors)

cls_token f4 [1, 1, 32]
-0.006931908 0.015921654 0.0067923283 0.0076486315 -0.014839133 -0.012281433 0.0065364703 0.018324025
-0.012856999 -0.0037695398 -0.0068136463 -0.004946473 0.0041445214 0.02217979 -0.017519686 -0.016472016
-0.0022341455 -0.004900315 0.02112486 0.00852731 0.011128254 0.0019950832 -0.014282755 0.018726444
-0.022309855 -0.013508625 -0.0015973438 -0.00014062086 0.013251299 -0.014360386 -0.0008626213 -0.009363017
00000000: 0f25 e3bb 216e 823c 2e92 de3b 5fa1 fa3b
00000010: d61f 73bc 1038 49bc e32f d63b 441c 963c
00000020: 2aa6 52bc 620a 77bb 0245 dfbb 0616 a2bb
00000030: c4ce 873b 64b2 b53c 7285 8fbc 52f0 86bc
00000040: be6a 12bb d292 a0bb 0b0e ad3c 21b6 0b3c
00000050: 4853 363c f1bf 023b 3702 6abc 3368 993c
00000060: 28c3 b6bc 4853 5dbc f75d d1ba a073 13b9
00000070: fa1b 593c d347 6bbc 8921 62ba 5767 19bc

pos_enc f4 [32, 32, 32]
0.0 1.0 0.0 1.0 0.0 1.0 0.0 1.0
0.0 1.0 0.0 1.0 0.0 1.0 0.0 1.0
0.0 1.0 0.0 1.0 0.0 1.0 0.0 1.0
0.0 1.0 0.0 1.0 0.0 1.0 0.0 1.0
0.0 1.0 0.0 1.0 0.0 1.0 0.0 1.0
0.0 1.0 0.0 1.0 0.0 1.0 0.0 1.0
0.84147096 0.54030234 0.53316844 0.8460091 0.3109836 0.9504153 0.17689219 0.9842302
0.09983342 0.9950042 0.056204494 0.9984193 0.031617507 0.99950004 0.017781857 0.99984187
0.0 1.0 0.0 1.0 0.0 1.0 0.0 1.0
0.0 1.0 0.0 1.0 0.0 1.0 0.0 1.0
0.9092974 -0.41614684 0.9021307 0.43146282 0.5911271 0.8065784 0.34820527 0.93741834
0.19866933 0.9800666 0.11223131 0.9936821 0.0632034 0.9980007 0.03555809 0.9993676
0.0 1.0 0.0 1.0 0.0 1.0 0.0 1.0
0.0 1.0 0.0 1.0 0.0 1.0 0.0 1.0
0.14112 -0.9899925 0.9932532 -0.11596616 0.8126489 0.58275366 0.50853616 0.86104065
0.29552022 0.9553365 0.1679033 0.9858035 0.09472609 0.99550337 0.053323083 0.9985773
0.0 1.0 0.0 1.0 0.0 1.0 0.0 1.0
0.0 1.0 0.0 1.0 0.0 1.0 0.0 1.0
-0.7568025 -0.6536436 0.7784717 -0.6276797 0.95358074 0.30113748 0.652828 0.7575062
0.38941836 0.921061 0.22304448 0.9748083 0.12615408 0.99201065 0.07107121 0.9974712
0.0 1.0 0.0 1.0 0.0 1.0 0.0 1.0
0.0 1.0 0.0 1.0 0.0 1.0 0.0 1.0
-0.9589243 0.2836622 0.32393527 -0.94607925 0.99994653 -0.010342338 0.77652997 0.6300803
0.47942555 0.87758255 0.2774805 0.96073127 0.15745589 0.987526 0.08879686 0.99604976
0.0 1.0 0.0 1.0 0.0 1.0 0.0 1.0
0.0 1.0 0.0 1.0 0.0 1.0 0.0 1.0
-0.2794155 0.96017027 -0.23036751 -0.9731037 0.9471482 -0.3207964 0.8757406 0.48278195
0.5646425 0.8253356 0.33103934 0.943617 0.18860029 0.98205394 0.10649444 0.9943133
0.0 1.0 0.0 1.0 0.0 1.0 0.0 1.0
0.0 1.0 0.0 1.0 0.0 1.0 0.0 1.0
0.6569866 0.75390226 -0.7137211 -0.70043 0.8004216 -0.5994375 0.9473307 0.3202569
0.64421767 0.7648422 0.38355154 0.9235195 0.21955611 0.9755999 0.12415834 0.9922624
00000000: 0000 0000 0000 803f 0000 0000 0000 803f
00000010: 0000 0000 0000 803f 0000 0000 0000 803f
00000020: 0000 0000 0000 803f 0000 0000 0000 803f
00000030: 0000 0000 0000 803f 0000 0000 0000 803f
00000040: 0000 0000 0000 803f 0000 0000 0000 803f
00000050: 0000 0000 0000 803f 0000 0000 0000 803f
00000060: 0000 0000 0000 803f 0000 0000 0000 803f
00000070: 0000 0000 0000 803f 0000 0000 0000 803f
00000080: 0000 0000 0000 803f 0000 0000 0000 803f
00000090: 0000 0000 0000 803f 0000 0000 0000 803f
000000a0: 0000 0000 0000 803f 0000 0000 0000 803f
000000b0: 0000 0000 0000 803f 0000 0000 0000 803f
000000c0: a46a 573f 4151 0a3f ba7d 083f 0d94 583f
000000d0: 3e39 9f3e 6b4e 733f 3a23 353e 83f6 7b3f
000000e0: 7775 cc3d 98b8 7e3f af36 663d 6898 7f3f
000000f0: 5c81 013d 3cdf 7f3f 42ab 913c a3f5 7f3f
00000100: 0000 0000 0000 803f 0000 0000 0000 803f
00000110: 0000 0000 0000 803f 0000 0000 0000 803f
00000120: 0000 0000 0000 803f 0000 0000 0000 803f
00000130: 0000 0000 0000 803f 0000 0000 0000 803f
00000140: b7c7 683f 3311 d5be 0af2 663f b2e8 dc3e
00000150: 1b54 173f ec7b 4e3f f647 b23e a6fa 6f3f
00000160: f96f 4b3e a5e5 7a3f 87d9 e53d f361 7e3f
00000170: c970 813d f97c 7f3f 5ca5 113d 8ed6 7f3f
00000180: 0000 0000 0000 803f 0000 0000 0000 803f
00000190: 0000 0000 0000 803f 0000 0000 0000 803f
000001a0: 0000 0000 0000 803f 0000 0000 0000 803f
000001b0: 0000 0000 0000 803f 0000 0000 0000 803f
000001c0: c381 103e 2670 7dbf d745 7e3f ab7f edbd
000001d0: c209 503f 582f 153f 6d2f 023f 296d 5c3f
000001e0: 6d4e 973e ef90 743f d8ee 2b3e 9e5d 7c3f
000001f0: c1ff c13d 4fd9 7e3f 4e69 5a3d c3a2 7f3f
00000200: 0000 0000 0000 803f 0000 0000 0000 803f
00000210: 0000 0000 0000 803f 0000 0000 0000 803f
00000220: 0000 0000 0000 803f 0000 0000 0000 803f
00000230: 0000 0000 0000 803f 0000 0000 0000 803f
00000240: cfbd 41bf 3055 27bf ec49 473f 9eaf 20bf
00000250: de1d 743f b12e 9a3e bc1f 273f edeb 413f
00000260: d861 c73e a7ca 6b3f c665 643e 098d 793f
00000270: 892e 013e 69f4 7d3f c88d 913d 465a 7f3f
00000280: 0000 0000 0000 803f 0000 0000 0000 803f
00000290: 0000 0000 0000 803f 0000 0000 0000 803f
000002a0: 0000 0000 0000 803f 0000 0000 0000 803f
000002b0: 0000 0000 0000 803f 0000 0000 0000 803f
000002c0: 107c 75bf 2c3c 913e d8da a53e 4032 72bf
000002d0: 7ffc 7f3f e972 29bc abca 463f f14c 213f
000002e0: 4477 f53e 40a9 603f ed11 8e3e 7cf2 753f
000002f0: 1e3c 213e 81ce 7c3f 21db b53d 1efd 7e3f
00000300: 0000 0000 0000 803f 0000 0000 0000 803f
00000310: 0000 0000 0000 803f 0000 0000 0000 803f
00000320: 0000 0000 0000 803f 0000 0000 0000 803f
00000330: 0000 0000 0000 803f 0000 0000 0000 803f
00000340: 8c0f 8fbe b8cd 753f 76e5 6bbe 531d 79bf
00000350: 4e78 723f 6d3f a4be 8930 603f 322f f73e
00000360: 698c 103f 3249 533f fd7d a93e e290 713f
00000370: 6f20 413e e367 7b3f c219 da3d 518b 7e3f
00000380: 0000 0000 0000 803f 0000 0000 0000 803f
00000390: 0000 0000 0000 803f 0000 0000 0000 803f
000003a0: 0000 0000 0000 803f 0000 0000 0000 803f
000003b0: 0000 0000 0000 803f 0000 0000 0000 803f
000003c0: 4630 283f bdff 403f 6db6 36bf 614f 33bf
000003d0: 6ee8 4c3f bc74 19bf 4484 723f b6f8 a33e
000003e0: 73eb 243f b3cc 433f de60 c43e c66b 6c3f
000003f0: 51d3 603e eac0 793f ba46 fe3d e904 7e3f

norm.weight f4 [32]
1.1403666 1.1571821 1.1464255 1.1152571 1.1671503 1.10115 1.1224432 1.1262224
1.203022 1.1191907 1.1938816 1.1285921 1.1449517 1.150575 1.1700382 1.1355162
1.0923729 1.188321 1.1983664 1.1550646 1.1511896 1.1890321 1.1730237 1.0850593
1.1631002 1.1771318 1.2050929 1.1314452 1.1916355 1.1548468 1.164729 1.1570705
00000000: 88f7 913f 8b1e 943f 12be 923f bfc0 8e3f
00000010: 2e65 953f 7cf2 8c3f 38ac 8f3f 0e28 903f
00000020: a0fc 993f a441 8f3f 1dd1 983f b575 903f
00000030: c78d 923f 0b46 933f d0c3 953f 9858 913f
00000040: e0d2 8b3f e71a 983f 1264 993f 28d9 933f
00000050: 2e5a 933f 3432 983f a425 963f 39e3 8a3f
00000060: 78e0 943f 41ac 963f 7c40 9a3f 32d3 903f
00000070: 8387 983f 05d2 933f d715 953f e31a 943f

norm.bias f4 [32]
0.0172125 0.05761091 0.06984538 -0.03348216 0.005479508 0.013511854 0.016065877 0.07428586
-0.034790732 -0.07060194 -0.017421653 0.058626976 -0.062530614 -0.08521244 -0.015217928 -0.00019185395
-0.115605466 -0.004719361 0.06342207 0.1015462 0.018902872 0.015650742 -0.075972684 0.018156627
0.0073862555 -0.10321881 0.07096954 -0.014171492 0.057729404 -0.087821774 0.07835346 -0.036022946
00000000: 3b01 8d3c 6bf9 6b3d 180b 8f3d 9724 09bd
00000010: 728d b33b d360 5d3c 969c 833c 2f23 983d
00000020: ba80 0ebd c097 90bd dbb7 8ebc d722 703d
00000030: 0d10 80bd dc83 aebd 9e54 79bc 672c 49b9
00000040: 8fc2 ecbd dfa4 9abb 6ee3 813d 74f7 cf3d
00000050: 32da 9a3c fc35 803c 9197 9bbd 35bd 943c
00000060: 6708 f23b 6264 d3bd 7a58 913d 8c2f 68bc
00000070: ab75 6c3d e7db b3bd c777 a03d cc8c 13bd

patch_embeddings.weight f4 [14, 32]
0.22950107 -0.07672868 -0.3875472 -0.8826239 0.6550645 0.008290029 0.9429552 0.07900368
0.37817353 1.1842828 -1.3901831 -0.51402396 0.20359588 -0.25481537 -0.93107224 1.5680293
1.3303608 -0.10816968 0.2928654 0.92796177 -2.0408614 0.49543852 1.50728 0.6122412
0.093481906 -1.5699228 -1.1426096 -0.35573336 0.42230985 -0.7838733 1.4747579 2.4926856
-0.69251126 -0.2967833 1.0493377 0.11531193 0.1489126 1.1502887 -1.1821107 -0.33757186
-0.5157502 -0.90376633 0.5591433 -1.448497 -1.1746339 0.6088134 -0.58412856 -0.7407637
1.6744599 -0.82958406 1.3465339 -0.24522075 -1.5372341 2.0763278 2.7698758 -1.7127609
1.4680254 -1.5060629 0.8261856 -0.21926807 0.7703743 1.5235083 1.6781439 -0.4299706
-0.8269019 0.5674579 -0.094050474 -0.034021568 -0.51182777 0.48498926 -0.2784253 -1.0797777
2.0540705 -0.50576293 0.26130706 0.69927734 -1.3867353 0.89465934 0.104525745 0.23699275
2.498534 -1.2468181 1.0281146 0.5464354 -1.5868492 -1.2802037 0.69170684 -0.18714024
0.35256383 -0.34939075 0.4223178 -0.7871279 -0.43152297 -0.3889859 -0.98465997 -0.42726773
-1.6689485 -1.3791196 -0.16500886 0.9723081 0.01553833 -0.75718653 -0.26667324 0.02787153
-0.17471114 -0.13392417 0.30339038 1.3686737 0.14138246 2.5406082 -0.59408844 -2.0074008
-0.35366613 0.028304175 0.922138 -1.8555949 0.13633813 0.48264903 -1.737164 0.57527983
1.7601575 0.31027997 0.31247124 -0.66187245 -0.6868212 0.30861524 -0.6005883 -1.4774479
-2.0484645 1.8455614 1.3362298 -0.48127872 1.3334471 1.6917449 -0.11056781 -1.715616
-0.018176334 0.10890857 1.0093919 0.67246574 0.3005037 -0.7227923 0.7689567 0.88991624
2.2537076 0.99607337 -1.4921892 -0.25313863 -0.08332189 -0.27237737 -0.6255633 1.1195033
-0.9908899 0.16768496 1.2596903 -0.26599637 -1.0941887 -0.6971992 1.5531511 -0.70230633
-0.8973692 0.05953749 -0.056356225 2.357156 -2.705636 0.5180644 -0.8465138 -0.27135396
-0.007679258 2.053384 -0.15418383 -0.24181905 -1.3148919 -0.07260044 -1.8750551 -1.3854427
-0.34035662 -1.1828258 0.09908186 0.20358534 0.7721159 0.8737609 -1.7263905 1.2828414
0.9752293 1.0645688 0.62745273 -1.2674265 -0.6603534 2.1190603 0.5416894 1.2174879
0.22217813 -0.33530596 1.8325304 1.4084243 1.1155717 -0.6432548 -0.48267993 0.5806728
0.017394703 -1.677797 1.0720832 0.49401355 -1.2438717 -0.96740866 -0.11240851 0.13583496
0.27153277 -0.7047872 -0.3537604 -0.47526136 0.6291134 0.64226735 1.2288607 0.76472515
0.47327247 0.87016374 -0.24765301 -0.7683267 -0.5881033 0.3621928 -0.5326064 -0.36046764
-0.61799264 -0.2136149 0.00055876956 -0.30698568 -0.06441426 0.7888628 0.001561334 -0.4184462
0.8456635 -1.528402 0.61125076 -1.9066391 -0.9773214 0.09402571 -0.44528648 -0.43482012
1.4729034 0.0059612268 -0.7514907 -1.1571112 0.47297925 -0.24696052 -0.005303244 -0.83998793
-0.33689988 0.22574455 -0.9443685 -1.2368708 1.1148689 -1.9624255 -0.57081395 1.0858845
00000000: 5402 6b3e ed23 9dbd 966c c6be a4f3 61bf
00000010: 4fb2 273f e7d2 073c 8365 713f aecc a13d
00000020: f69f c13e 9496 973f 85f1 b1bf 1397 03bf
00000030: 707b 503e 2977 82be c05a 6ebf 2fb5 c83f
00000040: 4349 aa3f 1188 ddbd 74f2 953e e78e 6d3f
00000050: 799d 02c0 1eaa fd3e 8dee c03f d7bb 1c3f
00000060: 7173 bf3d 3bf3 c8bf 0841 92bf af22 b6be
00000070: ff38 d83e ecab 48bf dec4 bc3f 2988 1f40
00000080: 6b48 31bf fbf3 97be b350 863f a928 ec3d
00000090: 8b7c 183e a93c 933f 674f 97bf 38d6 acbe
000000a0: 3508 04bf 3b5d 67bf 0424 0f3f 5a68 b9bf
000000b0: 675a 96bf 32db 1b3f 7389 15bf b1a2 3dbf
000000c0: b454 d63f 9f5f 54bf 395b ac3f 261b 7bbe
000000d0: 16c4 c4bf 8ee2 0440 a545 3140 c03b dbbf
000000e0: 42e8 bb3f abc6 c0bf e680 533f cf87 60be
000000f0: 4037 453f 5202 c33f 6bcd d63f 1b25 dcbe
00000100: d8af 53bf ec44 113f 899d c0bd 335a 0bbd
00000110: 2507 03bf 8350 f83e c38d 8ebe 2836 8abf
00000120: e475 0340 ae79 01bf 0aca 853e d703 333f
00000130: 8b80 b1bf 6508 653f 9811 d63d 3aae 723e
00000140: fbe7 1f40 bc97 9fbf 4299 833f 31e3 0b3f
00000150: e01d cbbf b7dd a3bf b313 313f b1a1 3fbe
00000160: 3f83 b43e 58e3 b2be 0a3a d83e 3781 49bf
00000170: 94f0 dcbe 2929 c7be ad12 7cbf d6c2 dabe
00000180: 1ba0 d5bf fe86 b0bf 15f8 28be 2fe9 783f
00000190: 7b94 7e3c fad6 41bf 6589 88be d652 e43c
000001a0: 7ae7 32be 6b23 09be fc55 9b3e b330 af3f
000001b0: 90c6 103e 5399 2240 2e16 18bf 4179 00c0
000001c0: ba13 b5be 28de e73c 3c11 6c3f 2284 edbf
000001d0: 399c 0b3e c61d f73e 645b debf 8a45 133f
000001e0: d74c e13f 04dd 9e3e 3bfc 9f3e 7970 29bf
000001f0: 84d3 2fbf d102 9e3e 28c0 19bf 031d bdbf
00000200: 0b1a 03c0 5b3b ec3f 9409 ab3f 2a6a f6be
00000210: 65ae aa3f 198b d83f 6071 e2bd 4e99 dbbf
00000220: 89e6 94bc 750b df3d c133 813f b726 2c3f
00000230: 9fdb 993e eb08 39bf 59da 443f 8dd1 633f
00000240: bf3c 1040 aafe 7e3f 0e00 bfbf 639b 81be
00000250: aba4 aabd 0c75 8bbe eb24 20bf e24b 8f3f
00000260: f6aa 7dbf 9bb5 2b3e 883d a13f ad30 88be
00000270: 600e 8cbf a67b 32bf a8cd c63f 59ca 33bf
00000280: fdb9 65bf 95dd 733d c9d5 66bd a5db 1640
00000290: 2429 2dc0 de9f 043f 21b5 58bf e8ee 8abe
000002a0: 49a2 fbbb a56a 0340 5ee2 1dbe 6a9f 77be
000002b0: 614e a8bf 8aaf 94bd ce01 f0bf 3056 b1bf
000002c0: 3943 aebe d666 97bf 6eeb ca3d ad78 503e
000002d0: 63a9 453f cbae 5f3f 5dfa dcbf 2634 a43f
000002e0: a1a8 793f ca43 883f bea0 203f 083b a2bf
000002f0: ec0c 29bf af9e 0740 28ac 0a3f a5d6 9b3f
00000300: aa82 633e 39ad abbe 5b90 ea3f 3f47 b43f
00000310: 0ecb 8e3f 59ac 24bf d321 f7be f9a6 143f
00000320: 567f 8e3c 0dc2 d6bf 063a 893f 58ef fc3e
00000330: 3037 9fbf 18a8 77bf 6f36 e6bd 5218 0b3e
00000340: 5806 8b3e ef6c 34bf 1520 b5be 7555 f3be
00000350: 930d 213f a26b 243f 4f4b 9d3f 07c5 433f
00000360: c550 f23e 0dc3 5e3f c098 7dbe 0fb1 44bf
00000370: f08d 16bf 5671 b93e e558 08bf 378f b8be
00000380: c434 1ebf ddbd 5abe 647a 123a 3a2d 9dbe
00000390: a0eb 83bd eaf2 493f ada5 cc3a 953e d6be
000003a0: 677d 583f ada2 c3bf ee7a 1c3f c00c f4bf
000003b0: bc31 7abf 8d90 c03d 97fc e3be bea0 debe
000003c0: 1988 bc3f 6556 c33b b261 40bf 381c 94bf
000003d0: 562a f23e 38e3 7cbe d6c6 adbb 7309 57bf
000003e0: 247e acbe 9429 673e 22c2 71bf c851 9ebf
000003f0: 06b4 8e3f c230 fbbf dd20 12bf 43fe 8a3f

blocks.0.norm1.weight f4 [32]
1.0460414 1.0472604 1.0146964 1.0076554 1.0021558 1.0042045 1.0410447 1.0151141
1.0422125 1.0025921 1.0004696 1.0069293 0.99735636 1.0143324 1.0234385 1.0164682
1.0023154 1.0129496 1.000633 0.98823804 1.0403143 1.0257964 1.077043 1.030604
1.0031374 1.0183493 1.0083448 1.0055653 1.0182106 1.0250425 1.0167489 1.0012776
00000000: afe4 853f a10c 863f 92e1 813f dafa 803f
00000010: a446 803f c689 803f f440 853f 42ef 813f
00000020: 3867 853f f054 803f 630f 803f 0fe3 803f
00000030: bf52 7f3f a5d5 813f 0800 833f a11b 823f
00000040: df4b 803f 55a8 813f be14 803f 2bfd 7c3f
00000050: 0529 853f 4c4d 833f 8cdc 893f d5ea 833f
00000060: ce66 803f 4559 823f 7111 813f 5db6 803f
00000070: ba54 823f 9834 833f d424 823f dd29 803f

blocks.0.norm1.bias f4 [32]
-0.002615306 -0.009980537 -0.019550718 -0.0020021382 3.5800516e-05 0.0027233518 -0.00651961 -0.018933821
-0.0054137274 0.006938436 0.009266926 -0.006019365 0.005007321 -0.008404275 0.002110346 0.0044444557
-0.0031186275 0.014857244 -0.008120759 0.0058513433 -0.0059320815 -0.0059170118 -0.003983881 -0.010843068
-0.010949168 0.020145936 -0.002264352 0.013299436 0.0143152615 0.007088925 0.003405864 0.005651569
00000000: 8e65 2bbb 6885 23bc d428 a0bc 4e36 03bb
00000010: 8328 1638 437a 323b 74a2 d5bb 1a1b 9bbc
00000020: a365 b1bb d25b e33b 4ed4 173c 183e c5bb
00000030: 7414 a43b 16b2 09bc bb4d 0a3b cca2 913b
00000040: e361 4cbb cc6b 733c ef0c 05bc a0bc bf3b
00000050: e861 c2bb 7ee3 c1bb 378b 82bb 20a7 31bc
00000060: 2464 33bc 1709 a53c 8665 14bb e1e5 593c
00000070: 8f8a 6a3c 374a e83b ea34 5f3b cc30 b93b

blocks.0.attn.qkv.weight f4 [96, 32]
0.094121344 -0.112053975 -0.07544006 0.0006182871 0.11899114 -0.0634432 0.04400407 -0.17156063
0.10776615 -0.049745303 -0.16638212 0.071717165 0.01562945 0.018432507 -0.007733542 -0.15359181
-0.17605259 0.08424007 0.15613185 0.09197 -0.019313226 0.11409177 0.06646623 -0.08616791
-0.16739106 0.0025302481 0.007854779 0.012074115 -0.06948687 0.10786359 -0.08176404 -0.08187149
0.025141979 -0.13835274 0.001536784 0.083258845 0.06906917 -0.11190297 -0.055947516 0.0669688
-0.17495017 0.06663639 0.051824298 0.09301953 -0.11233852 -0.17934677 0.05517276 -0.06513281
-0.090187564 -0.17577004 -0.16790995 0.14932875 0.20964779 -0.2135131 -0.19576803 0.0016132548
-0.0023113615 -0.18169813 -0.15824546 0.05423063 -0.1628105 -0.047242843 0.07783934 0.1640585
0.037288826 0.14850241 0.12285113 0.015936026 0.1936655 0.17533514 0.05143913 -0.084556274
-0.06928623 -0.17379373 0.09884841 0.078677535 0.18720111 0.027298342 0.036680046 0.114057615
0.031997427 0.07557214 -0.024869442 0.07964894 0.124786094 0.010991038 -0.048864417 -0.18211068
-0.0958114 -0.0094311405 0.05565054 0.036335476 0.20022528 -0.030257797 -0.04601603 0.003762175
-0.18541485 0.024637686 -0.14428037 -0.048326604 0.06907179 -0.1612477 -0.027590739 0.05311489
0.09165293 0.07717699 -0.097477935 -0.12862587 0.09369542 0.09620439 -0.16093229 -0.1703389
0.05751201 -0.16269697 -0.11626716 -0.15268454 -0.15807284 -0.10381685 0.05935694 0.114983216
-0.14058928 -0.1292663 -0.0772193 -0.077768624 0.1215681 -0.107499756 -0.054991454 0.15816087
0.06966751 0.026772276 -0.0863952 -0.1381588 -0.12732133 0.20723301 -0.19669579 0.04609494
0.09597422 0.08164617 0.008695336 -0.10753307 -0.113395244 0.009472851 -0.107987255 0.20684484
-0.050852377 -0.09689353 -0.1747414 0.080515176 0.10873769 0.20301361 0.011468199 -0.16399479
-0.04495532 -0.02337994 -0.054725885 -0.1734615 0.10517323 0.007857386 -0.014950495 0.15177482
0.2207366 0.17591129 -0.076427296 0.044421002 -0.13534757 -0.018490504 0.13377874 -0.11683033
-0.108630806 -0.031749934 0.11398036 -0.0040957164 -0.175567 -0.015441937 0.17489856 0.017131792
-0.20479773 0.09304852 -0.15232722 -0.1762465 -0.07278539 0.20390888 0.05570346 -0.1174163
0.09963104 0.1032019 0.1592878 0.15908669 0.1318256 -0.15997759 0.028848255 -0.05032671
-0.09741523 0.17205982 0.1242213 -0.06443914 -0.110664025 -0.119135484 0.16425066 -0.10467263
0.0045544514 0.11493644 0.10519564 0.068821855 0.0070463275 0.18104105 -0.060027204 -0.14108829
-0.14928621 0.15379448 0.0817917 0.13973369 0.07759971 0.020470174 0.07616691 -0.050212145
-0.18258624 -0.03411588 0.21485952 0.12159569 0.094915 -0.032680865 -0.0008469699 -0.16815619
0.14037837 0.16818091 -0.10355259 -0.088546894 -0.049386337 0.051726244 -0.08950138 0.11059067
0.12819152 0.042991463 -0.091135085 0.16041575 -0.11713116 0.038555104 0.17656586 0.07758173
-0.087712094 -0.10772264 -0.102743946 -0.04082097 -0.118480295 0.16513841 0.198911 -0.054287523
-0.110453494 -0.07896393 0.13894136 -0.025055693 -0.11893561 0.10197668 0.037231997 0.17556922
00000000: b1c2 c03d 8e7c e5bd 5180 9abd 8b14 223a
00000010: a0b1 f33d 82ee 81bd 9d3d 343d 97ad 2fbe
00000020: 80b4 dc3d bbc1 4bbd 1360 2abe 73e0 923d
00000030: 5509 803c c5ff 963c a769 fdbb 2c47 1dbe
00000040: 2147 34be 0f86 ac3d 07e1 1f3e c45a bc3d
00000050: c536 9ebc f2a8 e93d 721f 883d cd78 b0bd
00000060: 9068 2bbe 85d2 253b 55b1 003c 82d2 453c
00000070: 224f 8ebd 96e7 dc3d e873 a7bd 3dac a7bd
00000080: 8df6 cd3c 57ac 0dbe ea6d c93a 9d83 aa3d
00000090: 2374 8d3d 622d e5bd 3929 65bd f026 893d
000000a0: 2326 33be a978 883d b745 543d 0681 be3d
000000b0: bd11 e6bd aea6 37be d5fc 613d 5a64 85bd
000000c0: 42b4 b8bd 10fd 33be 96f0 2bbe a3e9 183e
000000d0: e9ad 563e 2ea3 5abe 6a77 48be d973 d33a
000000e0: 367a 17bb 130f 3abe 190b 22be f020 5e3d
000000f0: ccb7 26be b681 41bd 3b6a 9f3d f4fe 273e
00000100: 2bbc 183d 0411 183e 6099 fb3d 458c 823c
00000110: 4050 463e 0e8b 333e d6b1 523d d72b adbd
00000120: f0e5 8dbd fcf6 31be 0971 ca3d b021 a13d
00000130: a6b1 3f3e c6a0 df3c d13d 163d 0a97 e93d
00000140: bc0f 033d 91c5 9a3d 00bb cbbc fc1e a33d
00000150: da8f ff3d c113 343c 0e26 48bd 397b 3abe
00000160: c438 c4bd 1285 1abc d2f1 633d 82d4 143d
00000170: db07 4d3e 33df f7bc 4e7b 3cbd d38e 763b
00000180: 64dd 3dbe f9d4 c93c 3cbe 13be 1ef2 45bd
00000190: 8375 8d3d 1e1e 25be f905 e2bc 008f 593d
000001a0: 88b4 bb3d f80e 9e3d 83a2 c7bd 80b6 03be
000001b0: 62e3 bf3d cf06 c53d 6fcb 24be 526d 2ebe
000001c0: b791 6b3d 099a 26be 7a1d eebd 5659 1cbe
000001d0: d9dd 21be ee9d d4bd 4320 733d 527c eb3d
000001e0: a3f6 0fbe 635e 04be 2725 9ebd 2845 9fbd
000001f0: b2f8 f83d d528 dcbd b83e 61bd ecf4 213e
00000200: d7ad 8e3d 8851 db3c f7ef b0bd 8079 0dbe
00000210: 8660 02be e434 543e 9f6a 49be 0cce 3c3d
00000220: 228e c43d 1b36 a73d e276 0e3c 4c3a dcbd
00000230: c43b e8bd 0434 1b3c 6c28 ddbd 22cf 533e
00000240: 954a 50bd 1d70 c6bd 69ef 32be 24e5 a43d
00000250: deb1 de3d cde2 4f3e 1de5 3b3c 40ee 27be
00000260: 1223 38bd 4a87 bfbc 4028 60bd e49f 31be
00000270: 1065 d73d 44bc 003c ecf2 74bc dc6a 1b3e
00000280: c608 623e 1722 343e ea85 9cbd ccf2 353d
00000290: 8e98 0abe 6679 97bc 4bfd 083e bd44 efbd
000002a0: d479 debd 380c 02bd 896e e93d 5c35 86bb
000002b0: d6c7 33be 2e00 7dbc 9c18 333e f957 8c3c
000002c0: 7fb6 51be 3990 be3d abfb 1bbe f679 34be
000002d0: 8210 95bd 7dcd 503e 5029 643d f577 f0bd
000002e0: 5c0b cc3d 855b d33d 571c 233e 9fe7 223e
000002f0: 4afd 063e 2ad1 23be 2d53 ec3c 6123 4ebd
00000300: a381 c7bd 7330 303e bd67 fe3d abf8 83bd
00000310: d2a3 e2bd 4efd f3bd 5331 283e 9b5e d6bd
00000320: 823d 953b cc63 eb3d d070 d73d 79f2 8c3d
00000330: e1e4 e63b d362 393e 16df 75bd 7379 10be
00000340: 7cde 18be 4d7c 1d3e 6882 a73d 5916 0f3e
00000350: 99ec 9e3d 11b1 a73c 66fd 9b3d 40ab 4dbd
00000360: e3f7 3abe 18bd 0bbd 2204 5c3e 2907 f93d
00000370: cc62 c23d 5fdc 05bd 3007 5eba 2331 2cbe
00000380: 59bf 0f3e 9e37 2c3e 6113 d4bd 1358 b5bd
00000390: 5449 4abd e6de 533d 804c b7bd 5c7d e23d
000003a0: a344 033e d117 303d 08a5 babd 0744 243e
000003b0: 76e2 efbd f5eb 1d3d aecd 343e 2ce3 9e3d
000003c0: 66a2 b3bd b09d dcbd 6b6b d2bd e433 27bd
000003d0: cca5 f2bd 0b1a 293e 53af 4b3e 985c 5ebd
000003e0: 7135 e2bd d7b7 a1bd a546 0e3e 9941 cdbc
000003f0: 8394 f3bd 26d9 d03d 9480 183d 6bc8 333e

blocks.0.attn.proj.weight f4 [32, 32]
0.086549476 -0.02876704 -0.0483742 -0.08887019 0.067334294 -0.06492741 -0.082967184 -0.010581033
0.006068705 -0.045337122 -0.0705656 -0.19095553 -0.10858524 0.10560637 0.13471636 -0.10442694
-0.1651599 -0.1320187 -0.016309416 0.06050547 -0.16595908 -0.13896382 -0.058551613 -0.09979423
0.13605891 -0.066569015 0.018778516 -0.10953611 -0.13294491 -0.16659711 -0.071027674 -0.15606408
-0.06462382 0.06804825 -0.037863873 0.0118039055 0.122770354 0.09235598 -0.08874539 0.023829859
0.09288909 -0.093063064 0.045118917 0.17517164 -0.16553462 0.08079394 -0.059863023 0.08740245
0.02463246 0.1064575 -0.057149474 0.17261074 0.17133307 0.12913007 0.15981558 0.08958802
-0.17654411 0.11149408 -0.04746049 0.09954007 0.14161825 -0.06167973 -0.09313971 -0.033465847
0.14112444 0.068781845 -0.14487721 0.09395111 -0.10586034 0.11198406 0.011084814 0.14871858
0.010421222 0.0572647 0.020087441 -0.1091636 0.15773866 0.081264295 -0.027911346 0.031811006
-0.093691014 0.0712283 0.13443652 -0.10260706 -0.16422342 -0.0566465 -0.10939255 -0.09829117
-0.1280944 -0.040601928 0.03298223 0.042938106 -0.13661666 -0.17993109 0.13720417 -0.064283505
0.0075828596 -0.14450169 -0.048135526 0.10830427 -0.079860374 -0.043474376 -0.16147278 0.17192852
0.027963566 0.08761295 -0.10274726 0.15378484 -0.014972132 -0.095852636 0.04203364 0.018101387
0.061811496 -0.08188204 -0.05157873 0.11843633 0.1590334 0.04096721 0.08274888 -0.12053486
0.033567984 -0.1474407 0.006441595 -0.009888582 -0.048292603 -0.03815875 -0.017416859 0.01838943
0.059824757 -0.07460899 -0.070097655 0.0076050754 0.099543676 0.012232981 0.03309614 -0.045592308
-0.10359824 0.096176125 -0.09518322 0.12378238 0.08571412 -0.07384382 -0.06250425 0.05520806
0.022698302 -0.14226532 0.018962555 -0.12223071 -0.010903281 -0.05898702 -0.14126761 -0.17338
0.12181206 -0.03751691 -0.045596186 -0.087849855 0.076874875 0.114075 0.0037134457 0.013169661
-0.12799439 -0.13604613 0.15496914 -0.10168399 -0.019948835 0.17634162 0.058684472 -0.129053
0.13823357 0.051445693 -0.15010145 0.15227608 -0.029024502 0.13962051 0.118920155 -0.15740094
0.030838195 -0.0663385 0.0103633795 -0.033507437 0.13421802 -0.09255247 -0.08788552 0.003421303
-0.01049637 0.04187947 -0.022475835 -0.11394798 -0.10712989 -0.04746547 0.078899786 -0.13530932
0.053212244 -0.05364336 0.15023236 0.04184387 -0.032888267 0.11820708 -0.0015397115 0.16836596
-0.13111866 0.04657745 -0.08419075 0.1005389 0.02281896 -0.030094419 0.12206899 -0.14682274
0.062942185 0.005194049 0.01521863 0.04203154 -0.034499124 -0.18038328 0.17731093 -0.07277369
-0.005018811 -0.020288482 0.07786007 -0.024967913 0.03177832 -0.010519205 0.08524456 0.00652537
-0.06196977 -0.0372653 0.034345824 -0.042956337 -0.1270968 0.17567836 -0.14772981 0.083829336
-0.058591437 0.042530254 -0.12163835 -0.10819125 -0.0582239 0.07262098 0.06722899 0.027806751
-0.04831935 0.1850281 -0.020386703 -0.033813983 0.16775769 0.034336794 -0.17854555 -0.13987797
-0.118477166 -0.14654784 -0.16563147 0.1432898 0.13736968 -0.102611996 -0.05785962 0.07534957
00000000: da40 b13d dba8 ebbc 0624 46bd 9301 b6bd
00000010: 90e6 893d a9f8 84bd b3ea a9bd 125c 2dbc
00000020: fddb c63b 6bb3 39bd b384 90bd d989 43be
00000030: f061 debd 2748 d83d 16f3 093e cbdd d5bd
00000040: ad1f 29be e92f 07be 539b 85bc 95d4 773d
00000050: 2df1 29be 884c 0ebe d1d3 6fbd eb60 ccbd
00000060: 0753 0b3e 5655 88bd 67d5 993c 7854 e0bd
00000070: b622 08be 6f98 2abe f576 91bd 43cf 1fbe
00000080: 7e59 84bd e25c 8b3d 2617 1bbd 2b65 413c
00000090: 066f fb3d 2225 bd3d 25c0 b5bd d636 c33c
000000a0: a33c be3d d997 bebd 9dce 383d 3260 333e
000000b0: e881 29be 4b77 a53d ee32 75bd 0e00 b33d
000000c0: 03ca c93c 6406 da3d 9115 6abd dfc0 303e
000000d0: f071 2f3e ac3a 043e b2a6 233e ed79 b73d
000000e0: fbc7 34be 0257 e43d ee65 42bd aadb cb3d
000000f0: 6004 113e e2a3 7cbd 08c0 bebd 7c13 09bd
00000100: ed82 103e 7fdd 8c3d b15a 14be 7169 c03d
00000110: 4ecd d8bd e657 e53d 149d 353c af49 183e
00000120: c6bd 2a3c 648e 6a3d 6b8e a43c 2a91 dfbd
00000130: 3e86 213e e56d a63d 56a6 e4bc 424c 023d
00000140: 13e1 bfbd 25e0 913d baa9 093e a623 d2bd
00000150: 2f2a 28be 2906 68bd 3409 e0bd e24c c9bd
00000160: 2e2b 03be 354e 26bd 6018 073d dedf 2f3d
00000170: 3de5 0bbe db3f 38be 407f 0c3e 12a7 83bd
00000180: a379 f83b 40f8 13be c229 45bd a1ce dd3d
00000190: d68d a3bd 3012 32bd 1f59 25be 080e 303e
000001a0: d913 e53c 6b6e b33d 286d d2bd c679 1d3e
000001b0: ac4d 75bc 634e c4bd 772b 2c3d 5c49 943c
000001c0: 0d2e 7d3d c5b1 a7bd 3844 53bd bf8e f23d
000001d0: a7d9 223e 3ccd 273d 3f78 a93d fbda f6bd
000001e0: 957e 093d b2fa 16be 0414 d33b b803 22bc
000001f0: 77ce 45bd 594c 1cbd cdad 8ebc 6ea5 963c
00000200: ce0a 753d 99cc 98bd 5c8f 8fbd ff33 f93b
00000210: 8edd cb3d d76c 483c d18f 073d 00bf 3abd
00000220: 502b d4bd fdf7 c43d 6cef c2bd 9e81 fd3d
00000230: e28a af3d 6e3b 97bd 3a02 80bd d921 623d
00000240: caf1 b93c 00ae 11be 5c57 9b3c 1854 fabd
00000250: ada3 32bc 609c 71bd 75a8 10be 878a 31be
00000260: 9a78 f93d 55ab 19bd 11c3 3abd a0ea b3bd
00000270: 9370 9d3d 27a0 e93d 485d 733b 90c5 573c
00000280: f610 03be ad4f 0bbe 3bb0 1e3e b23f d0bd
00000290: bd6b a3bc e692 343e 215f 703d 7826 04be
000002a0: 1a8d 0d3e b8b8 523d 32b4 19be 43ee 1b3e
000002b0: cbc4 edbc aef8 0e3e 698c f33d b62d 21be
000002c0: 62a0 fc3c 7bdc 87bd 2acb 293c 183f 09bd
000002d0: 7370 093e 268c bdbd 53fd b3bd f037 603b
000002e0: f7f8 2bbc cf89 2b3d 3e1f b8bc 8f5d e9bd
000002f0: ea66 dbbd 276b 42bd 3696 a13d 878e 0abe
00000300: 15f5 593d 24b9 5bbd 83d6 193e 7a64 2b3d
00000310: d9b5 06bd 8e16 f23d 25d0 c9ba 2068 2c3e
00000320: f843 06be ffc7 3e3d 336c acbd 57e7 cd3d
00000330: d4ee ba3c 9288 f6bc 4eff f93d b358 16be
00000340: d5e7 803d d732 aa3b 9057 793c 4429 2c3d
00000350: f44e 0dbd 65b6 38be ff90 353e 5f0a 95bd
00000360: d774 a4bb 0834 a6bc 1a75 9f3d 8289 ccbc
00000370: fc29 023d be58 2cbc b394 ae3d c5d2 d53b
00000380: 03d4 7dbd 80a3 18bd 35ae 0c3d fcf2 2fbd
00000390: aa25 02be 07e5 333e 7c46 17be b7ae ab3d
000003a0: 93fd 6fbd 3434 2e3d 871d f9bd 6093 ddbd
000003b0: 2f7c 6ebd 4fba 943d 5aaf 893d fcca e33c
000003c0: 83ea 45bd 0278 3d3e 0402 a7bc 8880 0abd
000003d0: acc8 2b3e bda4 0c3d a5d4 36be 2c3c 0fbe
000003e0: 28a4 f2bd a310 16be 4c9b 29be 90ba 123e
000003f0: a3aa 0c3e 3d26 d2bd 35fe 6cbd e050 9a3d

blocks.0.attn.proj.bias f4 [32]
-0.05946561 0.075233236 0.1011131 -0.08983728 0.058665346 0.11861235 -0.11955118 0.116435155
-0.09254704 -0.08928726 0.09290875 -0.045177292 0.031748716 0.111802995 -0.06295002 -0.054990314
-0.14386356 0.084885426 0.030404108 0.15851314 0.12381495 0.047243685 0.04084161 0.14785929
-0.14241122 -0.14211394 0.16001195 -0.055324342 0.050707616 -0.04819058 -0.14022881 -0.13231733
00000000: 3692 73bd e213 9a3d 6314 cf3d 9cfc b7bd
00000010: 134b 703d 08eb f23d 40d7 f4bd 8e75 ee3d
00000020: 4d89 bdbd 3ddc b6bd f146 be3d d30b 39bd
00000030: f10a 023d f8f8 e43d f1eb 80bd 863d 61bd
00000040: f850 13be 69d8 ad3d 0912 f93c 4551 223e
00000050: b192 fd3d 9882 413d 8849 273d 6d68 173e
00000060: 3fd4 11be 5186 11be 2cda 233e c79b 62bd
00000070: cab2 4f3d 7c63 45bd 2498 0fbe 327e 07be

blocks.0.norm2.weight f4 [32]
1.0027745 0.98816377 0.98582023 0.9986079 0.9910298 0.98960644 0.9766105 0.9997636
1.0259218 0.9880967 1.0052004 1.0093532 1.0213605 1.0102842 1.006665 1.0314988
1.0061222 1.0075414 1.0016936 0.9621218 0.98059326 0.9754589 1.005234 0.9790201
0.9943092 1.0300552 1.0196915 1.0108079 0.9966604 1.0032197 1.0141097 0.99057794
00000000: ea5a 803f 4df8 7c3f b75e 7c3f c4a4 7f3f
00000010: 21b4 7d3f d956 7d3f 2503 7a3f 82f0 7f3f
00000020: 6851 833f e8f3 7c3f 68aa 803f 7c32 813f
00000030: f1bb 823f fe50 813f 66da 803f 2708 843f
00000040: 9dc8 803f 1ef7 803f 7f37 803f 9d4d 763f
00000050: 2908 7b3f adb7 793f 82ab 803f 10a1 7a3f
00000060: 0c8b 7e3f d9d8 833f 4085 823f 2762 813f
00000070: 2325 7f3f 8169 803f 59ce 813f 8496 7d3f

blocks.0.norm2.bias f4 [32]
0.0018698758 -0.0014839466 0.0049522924 0.01608442 -0.02215019 -0.010618461 0.009280579 0.000513132
0.014657557 0.012486673 0.0024914755 0.0012863696 0.00095683726 0.004012632 0.0045376057 0.0090387985
0.0016941533 -0.002566218 0.0017230666 0.026567642 0.008575298 0.0019355525 -0.006946365 0.02955158
-0.008687782 0.004122659 0.004969305 0.0007404919 -0.003074794 0.0025067357 -0.0077841436 -0.026853245
00000000: 9f16 f53a fc80 c2ba d746 a23b 79c3 833c
00000010: 5174 b5bc 0ef9 2dbc 920d 183c b583 063a
00000020: 4026 703c e794 4c3c 0648 233b 679b a83a
00000030: 43d4 7a3a 667c 833b 32b0 943b 7817 143c
00000040: 5a0e de3a fe2d 28bb 85d8 e13a 62a4 d93c
00000050: 687f 0c3c 5db2 fd3a 559e e3bb 2816 f23c
00000060: 3357 0ebc 5f17 873b 8dd5 a23b 921d 423a
00000070: 7c82 49bb 0c48 243b 2112 ffbb 56fb dbbc

blocks.0.mlp.fc1.weight f4 [128, 32]
0.0017454261 -0.02149781 0.07223712 -0.13967125 -0.008837386 0.0108395405 -0.12611598 0.19280425
-0.03701471 -0.004303286 0.087045975 -0.15872201 -0.19235724 0.09920977 0.15494952 -0.11880352
-0.1438215 0.15330385 0.15918985 0.17240538 -0.033410057 -0.03816656 0.08375595 -0.02428208
0.15636228 -0.08837267 0.15678898 0.10452231 0.052428775 0.15832642 -0.06575867 -0.020360347
0.09025963 0.1834752 0.10710489 0.09318862 -0.15915361 -0.15543 -0.049308825 -0.08116251
0.18427007 0.06348504 0.07920287 0.018801859 0.12532827 -0.16967309 -0.08094617 0.15688461
0.027282324 -0.1248203 0.1359079 0.1189189 -0.030432217 0.058666386 0.18362664 0.008016662
-0.0078089805 0.091409214 -0.02503 0.10449284 -0.080607794 0.0060178684 0.1560415 0.0679232
-0.1310502 0.06261515 0.11595294 -0.14199524 0.16927075 0.033350002 -0.17248456 -0.15462089
0.13641842 0.14048421 -0.027142413 -0.045367785 0.06320963 0.07424249 0.005978106 0.15549135
-0.1149639 0.15506686 -0.13583563 0.005135978 0.024442624 -0.0223683 0.07008435 -0.12857962
0.042020675 -0.02508174 0.15680951 -0.10400308 -0.14902675 -0.1147123 -0.047366522 -0.11679462
0.12207913 -0.03903053 0.111589015 -0.1142388 0.15692589 0.16383824 -0.14816652 0.14852755
0.0062090307 0.09942249 -0.055140942 0.13789645 -0.023740938 -0.0109035 -0.028495561 0.08014796
0.032545496 -0.15363398 -0.0036400224 0.048888173 0.029700175 -0.079298355 0.06022997 -0.0041800025
0.11962913 0.12557535 0.019718574 -0.09865894 0.122123554 0.06753598 0.05367658 -0.0313621
0.059599508 -0.09942747 -0.17495634 0.16568558 0.043745082 0.12796982 -0.17500065 -0.045987736
-0.03890076 0.13492349 0.031673167 -0.100654505 -0.14407279 0.075658485 0.17535222 0.074864455
0.15701483 -0.18885651 0.14972341 -0.0070584225 -0.061190326 -0.15460399 0.052011825 0.1034368
0.10489361 0.084327884 -0.037781827 -0.049991705 -0.087661535 0.0822195 0.046456296 0.12148014
0.047556303 0.10115871 -0.05510224 -0.18524215 0.003996769 0.09995333 -0.15198459 0.067404106
0.037360463 0.055986304 0.009308646 -0.13066924 -0.15770303 0.037834994 0.05689989 0.0729124
0.15023838 -0.0747939 -0.07977795 -0.10771507 0.1476823 0.01955686 -0.14015073 0.08421408
-0.17524372 -0.14147557 -0.14782023 0.08137909 0.01737984 0.17724803 0.030166741 -0.06607736
-0.09568236 0.13205579 0.027331188 -0.16954774 0.020438714 0.11944794 -0.058898043 0.0624028
-0.10154867 0.09314039 0.050516088 0.13685414 0.16625373 0.0046209567 -0.019048627 -0.10031536
0.044144336 0.074563995 -0.14873141 0.0796223 0.16840823 -0.024821142 0.09659084 -0.086535685
0.024061175 -0.14571801 0.076638706 0.14843543 -0.10356632 -0.13577336 0.11469224 0.02434386
-0.07417266 -0.1250882 0.17627266 -0.064213835 0.11037673 -0.02275278 -0.009164508 -0.081721805
-0.047232416 0.007567197 0.1646499 0.18278423 -0.029804269 0.13825211 0.12968254 -0.007872122
0.09455977 0.058188517 0.048944313 -0.045688644 -0.024512792 -0.043919593 0.046557356 -0.04855195
0.032287285 0.13220713 0.09207503 0.015234565 -0.15986793 -0.060056455 -0.061206453 -0.10148616
00000000: c8c6 e43a 2d1c b0bc 0ef1 933d fb05 0fbe
00000010: afca 10bc 5498 313c 8c24 01be 7a6e 453e
00000020: bd9c 17bd 9402 8dbb 2945 b23d 0688 22be
00000030: 4cf9 44be 7e2e cb3d 16ab 1e3e 434f f3bd
00000040: f145 13be affb 1c3e aa02 233e 098b 303e
00000050: fcd8 08bd 8a54 1cbd 3d88 ab3d 36eb c6bc
00000060: 6f1d 203e bbfc b4bd 4a8d 203e cb0f d63d
00000070: 8ebf 563d 5220 223e 7bac 86bd beca a6bc
00000080: 0ada b83d ece0 3b3e cf59 db3d add9 be3d
00000090: 2af9 22be 0b29 1fbe 0df8 49bd 8838 a6bd
000000a0: 4bb1 3c3e 7204 823d 1d35 a23d 5b06 9a3c
000000b0: 0e56 003e c8be 2dbe 1bc7 a5bd 5ca6 203e
000000c0: 2e7f df3c c9a1 ffbd 712b 0b3e c18b f33d
000000d0: fc4c f9bc 2a4c 703d 9f08 3c3e 5158 033c
000000e0: 7ae2 ffbb c134 bb3d b70b cdbc 5800 d63d
000000f0: b315 a5bd 8a31 c53b 58c9 1f3e 521b 8b3d
00000100: 0632 06be 5f3c 803d bc78 ed3d 3367 11be
00000110: 5055 2d3e 039a 083d cb9f 30be f054 1ebe
00000120: 45b1 0b3e 18db 0f3e c459 debc 92d3 39bd
00000130: 0d74 813d 720c 983d fde3 c33b 2039 1f3e
00000140: 3172 ebbd d9c9 1e3e 7f18 0bbe b54b a83b
00000150: e63b c83c ba3d b7bc 6288 8f3d 60aa 03be
00000160: df1d 2c3d 3978 cdbc ac92 203e 91ff d4bd
00000170: 789a 18be 48ee eabd 6603 42bd 0532 efbd
00000180: 9f04 fa3d 7ade 1fbd c888 e43d 08f6 e9bd
00000190: 2eb1 203e 36c5 273e f7b8 17be 9b17 183e
000001a0: 2075 cb3b 059e cb3d 78db 61bd ba34 0d3e
000001b0: 5b7c c2bc 98a4 32bc 866f e9bc 9d24 a43d
000001c0: 6d4e 053d 3a52 1dbe 718d 6ebb f73e 483d
000001d0: c84d f33c 2d67 a2bd b3b3 763d 67f8 88bb
000001e0: 1e00 f53d d396 003e d988 a13c b30d cabd
000001f0: ea1b fa3d 4e50 8a3d f9db 5b3d 8c75 00bd
00000200: 9d1e 743d a1a0 cbbd c127 33be 7ba9 293e
00000210: 0b2e 333d 850a 033e 5f33 33be a35d 3cbd
00000220: 6756 1fbd 6229 0a3e b9bb 013d f323 cebd
00000230: d187 13be d6f2 9a3d 888f 333e 8952 993d
00000240: 7fc8 203e 9a63 41be 1851 193e 574a e7bb
00000250: b5a2 7abd 8250 1ebe 5a0a 553d acd6 d33d
00000260: 76d2 d63d 19b4 ac3d 1ec1 1abd 1ac4 4cbd
00000270: e487 b3bd b262 a83d f548 3e3d 94ca f83d
00000280: 66ca 423d 4c2c cf3d e3b2 61bd 1eb0 3dbe
00000290: 54f7 823b 55b4 cc3d d9a1 1bbe 2a0b 8a3d
000002a0: 4907 193d e551 653d 4b83 183c 28ce 05be
000002b0: e77c 21be def8 1a3d dc0f 693d 1953 953d
000002c0: 17d8 193e 8b2d 99bd 9f62 a3bd b899 dcbd
000002d0: 073a 173e b535 a03c ac83 0fbe 6e78 ac3d
000002e0: 1773 33be f9de 10be 305e 17be 15aa a63d
000002f0: 2b60 8e3c 8280 353e 3e20 f73c 9153 87bd
00000300: 1df5 c3bd a239 073e a8e5 df3c ec9d 2dbe
00000310: 176f a73c 1fa1 f43d 133f 71bd 149a 7f3d
00000320: c0f8 cfbd 64c0 be3d f5e9 4e3d 7e23 0c3e
00000330: 6b3e 2a3e 656b 973b de0b 9cbc 2472 cdbd
00000340: b1d0 343d 02b5 983d 0c4d 18be 0411 a33d
00000350: 3573 2c3e b555 cbbc 6bd1 c53d 9f39 b1bd
00000360: f11b c53c 1a37 15be c1f4 9c3d 75ff 173e
00000370: 941a d4bd 2c08 0bbe c4e3 ea3d c66c c73c
00000380: d6e7 97bd 1f17 00be d280 343e 8b82 83bd
00000390: 320d e23d 0a64 babc bc26 16bc c35d a7bd
000003a0: c776 41bd 40f6 f73b fc99 283e ca2b 3b3e
000003b0: 1528 f4bc f691 0d3e 80cb 043e 13fa 00bc
000003c0: 8da8 c13d 1557 6e3d d579 483d 0424 3bbd
000003d0: 0dcf c8bc 08e5 33bd edb2 3e3d 69de 46bd
000003e0: ac3f 043d 4e61 073e d591 bc3d 669a 793c
000003f0: 6bb4 23be c2fd 75bd 9eb3 7abd fad7 cfbd

blocks.0.mlp.fc2.weight f4 [32, 128]
-0.07547068 -0.052316274 0.031051204 -0.022282522 0.005541334 0.06890158 0.014866502 -0.034295127
-0.0151145235 -0.017902566 0.072977155 0.005695902 0.028259795 0.121215105 -0.025772626 -0.049823314
0.04221993 -0.08608683 -0.051692586 -0.027010083 -0.024772573 -0.025807424 0.02562075 0.060915653
-0.071205735 -0.018172165 -0.046110928 0.04232653 0.05198321 0.064702325 0.08144845 0.042084213
-0.030267354 -0.059687138 -0.055976596 0.045844905 -0.03748159 0.045168534 -0.10164947 0.033652987
0.042142853 0.026519913 -0.047821525 0.090512745 -0.0008368262 0.05288722 -0.0022302722 0.0020611873
0.03597991 -0.020077314 -0.07727208 0.0019417697 -0.010182161 -0.05782443 0.03564548 0.005150214
-0.009665472 0.035492744 0.07683345 -0.07088952 0.10082827 0.07021764 -0.029257732 0.075679086
-0.012059273 0.040414236 0.017006695 -0.10076707 0.073235735 0.07400483 0.04690493 0.06405932
-0.07677754 0.06661179 0.02930633 -0.08282336 -0.05771755 -0.0317142 0.03824111 -0.07519085
0.09232312 0.08326606 0.043641392 0.09394343 -0.03584551 -0.052043773 -0.025170047 -0.038096607
0.06855328 -0.024077678 0.08401672 -0.00794049 -0.022091696 0.025655305 0.07938956 -0.0593442
0.06927783 -0.004683927 0.038588993 -0.05170968 0.013877186 -0.03886062 -0.071820445 0.0031170947
0.07136105 -0.009372559 0.026394486 -0.043968093 -0.042788435 0.059832666 -0.04599843 -0.062486514
-0.035253115 0.021161688 -0.076985165 0.057214588 -0.068464905 0.067223005 -0.050954353 -0.013268992
0.07641899 0.030405704 -0.0025874767 -0.049051788 0.08491779 -0.012950139 0.033514548 0.053193484
-0.032571293 -0.055040415 0.05561411 -0.01874169 0.008301288 0.053122662 0.059881676 0.048220802
0.008243462 0.02619293 0.016938098 0.019883692 0.073962614 -0.01015295 0.012847488 0.07221898
0.0069069276 0.046098977 -0.030398326 -0.07255892 -0.060545508 -0.079490915 -0.0620424 0.0232746
0.033325426 0.07547926 0.074097104 -0.012911133 -0.03608149 -0.012124499 0.0056225145 -0.09039043
-0.03266881 -0.0075900755 -0.0755826 -0.023204762 -0.0013785198 -0.011950932 0.020624703 0.034731526
0.04346722 -0.030517735 0.021097567 0.001032888 0.062066924 -0.06084951 0.044020772 -0.07498527
-0.087100916 0.062423024 -0.052170854 0.03266245 -0.015734198 0.027860133 -0.0868652 0.08407628
0.047162954 -0.0578414 -0.04962887 -0.079852104 0.07768234 0.011528469 -0.02266444 -0.035610497
-0.011848567 -0.05392459 -0.05102456 0.045495983 0.08198598 0.0023774554 0.08665183 0.06698061
0.033324864 0.054740738 -0.055204388 -0.030354567 -0.065118775 0.0017131876 -0.028078571 0.027562873
-8.295035e-05 -0.011767847 0.05581717 -0.007888106 0.0040670545 0.019749338 -0.007036296 0.052187104
0.016374623 -0.06990524 0.065202706 -0.03393985 -0.035044093 0.028436255 0.00143314 -0.013486299
0.008096117 0.06845748 -0.09774043 -0.10166982 -0.04016109 0.034953807 0.061977923 0.074616924
0.01887371 0.03837999 -0.05451489 0.073967904 0.041714396 -0.0024823688 -0.07201549 0.07561376
0.03139103 0.019900382 0.049687073 -0.030057365 0.054909613 -0.052564446 0.035228834 0.06591728
-0.08367418 0.0013810036 -0.050556257 0.020404764 0.06462322 0.106809855 0.0036168434 0.08872053
00000000: 5f90 9abd 9749 56bd 185f fe3c d689 b6bc
00000010: 1494 b53b 461c 8d3d a192 733c 0c79 0cbd
00000020: e8a2 77bc 67a8 92bc 0c75 953d b0a4 ba3b
00000030: 1681 e73c a03f f83d 1d21 d3bc 8813 4cbd
00000040: ceee 2c3d 4b4e b0bd 9bbb 53bd 4044 ddbc
00000050: daef cabc 176a d3bc 9be2 d13c b182 793d
00000060: 50d4 91bd cbdd 94bc d0de 3cbd 955e 2d3d
00000070: 59ec 543d a782 843d 72ce a63d 7f60 2c3d
00000080: 3ef3 f7bc 807a 74bd b747 65bd dec7 3b3d
00000090: 4c86 19bd a402 393d 992d d0bd b7d7 093d
000000a0: fc9d 2c3d 4a40 d93c 81e0 43bd bf5e b93d
000000b0: 755e 5bba 45a0 583d c229 12bb fc14 073b
000000c0: ac5f 133d 2e79 a4bc d340 9ebd fb82 fe3a
000000d0: 14d3 26bc 4fd9 6cbd ff00 123d 20c3 a83b
000000e0: ee5b 1ebc d760 113d db5a 9d3d 862e 91bd
000000f0: 0d7f ce3d 44ce 8f3d e9ad efbc a3fd 9a3d
00000100: 4294 45bc 6689 253d a051 8b3c f75e cebd
00000110: 9efc 953d d88f 973d 621f 403d 8831 833d
00000120: 8b3d 9dbd c36b 883d d413 f03c 4b9f a9bd
00000130: 3d69 6cbd c0e6 01bd b6a2 1c3d a9fd 99bd
00000140: e713 bd3d 6587 aa3d 51c1 323d 6a65 c03d
00000150: bed2 12bd da2b 55bd 6a31 cebc 300b 1cbd
00000160: a965 8c3d 8d3e c5bc f510 ac3d d418 02bc
00000170: a5f9 b4bc 132b d23c fe96 a23d e712 73bd
00000180: 89e1 8d3d a17b 99bb 7e0f 1e3d 88cd 53bd
00000190: 235d 633c 502c 1fbd 9916 93bd 2c48 4c3b
000001a0: be25 923d 5d8f 19bc 4039 d83c e317 34bd
000001b0: ed42 2fbd 1913 753d da68 3cbd dcf1 7fbd
000001c0: 9265 10bd 475b ad3c 66aa 9dbd d859 6a3d
000001d0: 5437 8cbd 37ac 893d 83b5 50bd 3066 59bc
000001e0: 8f81 9c3d 6215 f93c a892 29bb 87ea 48bd
000001f0: 61e9 ad3d d22c 54bc 8d46 093d 69e1 593d
00000200: 7a69 05bd 0f72 61bd 9fcb 633d 2c88 99bc
00000210: 2002 083c 2697 593d 7d46 753d 2d83 453d
00000220: 960f 073c 8e92 d63c c4c1 8a3c 20e3 a23c
00000230: b679 973d 8f58 26bc 457e 523c 8be7 933d
00000240: 8253 e23b 48d2 3c3d e905 f9bc c599 94bd
00000250: 91fe 77bd 22cc a2bd 2c20 7ebd 60aa be3c
00000260: 3e80 083d df94 9a3d 39c0 973d 3789 53bc
00000270: 2fca 13bd d6a5 46bc 123d b83b 9e1e b9bd
00000280: bbcf 05bd 2bb6 f8bb 0dcb 9abd ea17 bebc
00000290: 73af b4ba d8cd 43bc 23f5 a83c a542 0e3d
000002a0: af0a 323d 5400 fabc ced4 ac3c f861 873a
000002b0: e339 7e3d 563d 79bd 204f 343d e191 99bd
000002c0: f761 b2bd 49af 7f3d 1bb1 55bd 10c9 053d
000002d0: 01e5 80bc ef3a e43c 62e6 b1bd 2f30 ac3d
000002e0: f12d 413d 1beb 6cbd a447 4bbd 8089 a3bd
000002f0: eb17 9f3d e7e1 3c3c c7aa b9bc 50dc 11bd
00000300: 7e20 42bc 08e0 5cbd 21ff 50bd ff59 3a3d
00000310: 44e8 a73d 15cf 1b3b 8476 b13d 212d 893d
00000320: a77f 083d d337 603d ff1d 62bd 24aa f8bc
00000330: fe5c 85bd 098d e03a 0805 e6bc 89cb e13c
00000340: a1f5 adb8 eecd 40bc 8ba0 643d 1d3d 01bc
00000350: ed44 853b 5dc9 a13c bb90 e6bb 25c2 553d
00000360: 1324 863c 7a2a 8fbd ff88 853d 8304 0bbd
00000370: 658a 0fbd 26f3 e83c 33d8 bb3a a3f5 5cbc
00000380: 93a5 043c 6f33 8c3d 222c c8bd 4438 d0bd
00000390: f57f 24bd b92b 0f3d 90dc 7d3d c2d0 983d
000003a0: 0a9d 9a3c 5634 1d3d 014b 5fbd 7c7c 973d
000003b0: b7dc 2a3d 3daf 22bb db7c 93bd 63db 9a3d
000003c0: e193 003d 2006 a33c ac84 4b3d dd3a f6bc
000003d0: e7e8 603d d14d 57bd 1c4c 103d a4ff 863d
000003e0: 5e5d abbd cb02 b53a 1414 4fbd e427 a73c
000003f0: 2e59 843d 20bf da3d 9008 6d3b 1cb3 b53d

blocks.1.norm1.weight f4 [32]
1.0177047 1.0603422 1.0377711 1.0238532 1.0202807 1.0204543 1.0661143 1.0066422
1.0547982 1.0269839 0.9975704 1.0265582 1.0361828 1.014008 1.0232707 1.0392752
1.0690149 1.0266564 1.0003386 0.982209 1.0425423 1.03719 1.0394875 1.046424
0.990416 1.0256519 1.0369858 1.0149168 1.0543325 1.035916 1.0335608 1.0412935
00000000: 2644 823f 4bb9 873f afd5 843f 9f0d 833f
00000010: 8f98 823f 3f9e 823f 6f76 883f a7d9 803f
00000020: a103 873f 3574 833f c660 7f3f 4266 833f
00000030: a3a1 843f 04cb 813f 89fa 823f f806 853f
00000040: 7bd5 883f 7a69 833f 180b 803f 0d72 7b3f
00000050: 0772 853f a4c2 843f ed0d 853f 39f1 853f
00000060: e78b 7d3f 9048 833f f3bb 843f cbe8 813f
00000070: 5ef4 863f e598 843f b84b 843f 1b49 853f

blocks.1.norm1.bias f4 [32]
0.0113160815 0.0024368342 -0.0061872615 -0.0017858569 0.005752737 0.0046686423 -0.016370032 -0.0021221314
-0.008831931 -0.0031100947 -0.0030162102 0.0016402822 0.0018207156 -0.00757235 0.0072306353 5.422721e-05
-0.008650629 0.0076246946 0.0034223474 0.009564557 -0.023073383 0.010421408 -0.004534612 0.0024024842
-0.009163071 -0.0042155883 0.0044910354 -0.0036067888 0.005855597 0.01514709 -0.008770964 -0.0017108386
00000000: 1667 393c 4bb3 1f3b 83be cabb 6a13 eaba
00000010: 7581 bc3b 69fb 983b 721a 86bc 7513 0bbb
00000020: ceb3 10bc bbd2 4bbb 9cab 45bb bdfe d63a
00000030: 14a5 ee3a 7a21 f8bb f7ee ec3b 0672 6338
00000040: 5ebb 0dbc 93d8 f93b 7649 603b a9b4 1c3c
00000050: 6404 bdbc 8ebe 2a3c 1597 94bb ff72 1d3b
00000060: b520 16bc eb22 8abb 8929 933b e05f 6cbb
00000070: 4fe0 bf3b 802b 783c 17b4 0fbc 383e e0ba

blocks.1.attn.qkv.weight f4 [96, 32]
0.038388915 -0.027745971 -0.001795796 -0.15211283 0.09626529 0.03949205 -0.13290465 -0.10975866
-0.081527315 0.13227965 0.045859486 -0.06495345 0.07828238 -0.02105246 -0.15385592 0.06935663
0.0350245 0.07522041 0.1286762 0.027988682 0.011388423 -0.08047961 0.16437167 -0.08355415
-0.09351958 -0.08722438 -0.0679237 0.11040913 0.1578139 0.04608172 -0.033597507 0.14529473
0.015572074 -0.09320367 -0.0130715305 0.025935886 0.15633418 -0.03206246 -0.18151695 -0.18065892
-0.10193959 -0.08097666 -0.047403336 0.07622964 2.1263484e-05 -0.06678471 0.12726681 -0.11485354
-0.008983084 -0.001514594 -0.102045506 -0.08725198 -0.027243432 0.15628798 0.18977556 0.016802907
-5.4388955e-05 0.09065877 0.098994985 -0.059655555 -0.030007048 0.12388169 -0.054088347 0.01750721
0.045119002 0.042581484 -0.16252954 0.0151250595 0.16857001 0.21299899 -0.009157541 0.08857093
0.039116513 0.024242423 0.05138616 0.0074369023 -0.10928176 -0.1551705 0.22417338 -0.008550703
-0.19167034 -0.054961264 0.11180779 -0.06426359 -0.12856844 0.1321956 -0.03942672 -0.06432663
-0.0044174087 0.09014255 0.14816852 -0.09626124 0.14238794 0.08256294 0.20365308 -0.113762535
0.14197378 0.09615182 -0.1788366 -0.0336946 -0.12997451 0.075397104 0.1106128 0.13320653
-0.09229176 0.081341535 -0.0627445 -0.14428198 0.025870534 0.12412544 -0.08977845 -0.04969444
0.09962048 0.10344048 -0.09476866 -0.1112298 0.03357356 0.18905951 -0.15258202 -0.059969652
-0.053684097 -0.15616952 0.03282137 0.060454335 0.052905135 -0.06625169 -0.15150239 0.040711194
-0.11956906 -0.023229053 0.13720785 -0.079226166 0.19097753 -0.14102633 0.13595863 0.14281143
-0.14335582 -0.09966385 0.15840875 -0.005381427 -0.17739028 -0.07841907 0.18536846 0.1259861
0.056197204 0.12628114 0.04970603 -0.08582009 0.12904038 0.089015916 -0.042695846 0.14799644
0.15947273 -0.010832429 -0.16137187 -0.14135495 0.09626959 0.007848121 -0.120905325 -0.0014860104
0.016963663 0.0044416725 0.18918112 0.20033894 -0.106154606 -0.15051246 0.04630463 0.06656947
0.15161555 0.20716265 0.21116243 -0.1405351 0.07469391 -0.033648185 -0.17439848 -0.06526624
0.039487284 -0.08051675 0.15350468 0.010238262 -0.034083858 -0.10227908 0.1305999 0.028184885
-0.021788359 -0.0029468401 -0.18052806 -0.12349821 -0.16251047 -0.20580208 0.06934487 -0.15585922
-0.15836768 0.07184936 0.021585653 0.17481637 -0.20082547 0.05836923 0.1676937 -0.025010807
-0.07240481 -0.031850964 -0.019034058 -0.17833789 0.009132634 0.09216178 -0.15133995 0.11267122
-0.002388526 -0.09845491 -0.08354548 -0.12089839 -0.05440518 -0.19844061 0.085911244 -0.085361585
0.12752794 0.050309498 0.15402113 0.098540634 0.05873846 -0.021044344 0.11712032 -0.051132277
0.077244125 -0.17885144 -0.011253927 0.14692387 -0.054181483 -0.1765443 0.14630762 0.07327967
-0.06883815 0.067925975 0.12514299 -0.15913643 0.007292966 0.022147529 0.11192458 -0.053441014
0.19822991 -0.17653619 0.10477013 -0.07203286 0.05957305 -0.08534245 -0.12515138 -0.000135553
-0.03171523 -0.024373027 -0.021585941 0.059659343 -0.007728054 -0.10230758 0.060844935 0.03637214
00000000: b23d 1d3d 854b e3bc ea60 ebba 77c3 1bbe
00000010: bd26 c53d 6ac2 213d 2818 08be 26c9 e0bd
00000020: cbf7 a6bd 5174 073e 28d7 3b3d 5006 85bd
00000030: 8352 a03d 3576 acbc 688c 1dbe d90a 8e3d
00000040: da75 0f3d 290d 9a3d b2c3 033e 8548 e53c
00000050: 8296 3a3c 7ed2 a4bd 0c51 283e 701e abbd
00000060: 3287 bfbd b2a2 b2bd 951b 8bbd 2f1e e23d
00000070: f899 213e 30c0 3c3d 8a9d 09bd 24c8 143e
00000080: 0322 7f3c 91e1 bebd f929 56bc 7f77 d43c
00000090: 1116 203e ed53 03bd 94df 39be a7fe 38be
000000a0: b4c5 d0bd 17d7 a5bd 002a 42bd 491e 9c3d
000000b0: fc5e b237 6cc6 88bd 3b52 023e 5538 ebbd
000000c0: c92d 13bc 5785 c6ba 3cfd d0bd 2bb1 b2bd
000000d0: 9e2d dfbc f509 203e 8654 423e 40a6 893c
000000e0: b21f 64b8 4eab b93d e2bd ca3d 6259 74bd
000000f0: 57d1 f5bc afb5 fd3d be8b 5dbd 486b 8f3c
00000100: b4ce 383d ec69 2e3d 256e 26be 19cf 773c
00000110: 9e9d 2c3e 681c 5a3e 8309 16bc ad64 b53d
00000120: a338 203d 0c98 c63c 4b7a 523d 42b1 f33b
00000130: 1ecf dfbd 04e5 1ebe b58d 653e 3f18 0cbc
00000140: 3b45 44be 101f 61bd 7cfb e43d a19c 83bd
00000150: 72a7 03be 495e 073e ea7d 21bd aebd 83bd
00000160: e9bf 90bb a89c b83d 7db9 173e 9d24 c5bd
00000170: 25ce 113e c216 a93d 6f8a 503e 55fc e8bd
00000180: 9361 113e 3feb c43d f120 37be 5903 0abd
00000190: 0a18 05be cc69 9a3d f788 e23d 4b67 083e
000001a0: 7603 bdbd 6496 a63d 3080 80bd a8be 13be
000001b0: 71ee d33c 7b35 fe3d c4dd b7bd 668c 4bbd
000001c0: d205 cc3d 9ad8 d33d 1216 c2bd 73cc e3bd
000001d0: 6e84 093d d198 413e 763e 1cbe bda2 75bd
000001e0: dbe3 5bbd e7ea 1fbe b36f 063d f79e 773d
000001f0: 0eb3 583d f7ae 87bd 7123 1bbe c8c0 263d
00000200: a0e0 f4bd db4a bebc 3780 0c3e 5441 a2bd
00000210: 9d8f 433e 3569 10be bd38 0b3e 293d 123e
00000220: decb 12be 901c ccbd e735 223e ae56 b0bb
00000230: cca5 35be 2d9a a0bd 3bd1 3d3e 8002 013e
00000240: 0a2f 663d d84f 013e 8d98 4b3d 71c2 afbd
00000250: 2923 043e fa4d b63d d7e1 2ebd 618c 173e
00000260: d24c 233e 807a 31bc ab3e 25be 5abf 10be
00000270: fe28 c53d 6895 003c 369d f7bd 3cc6 c2ba
00000280: 61f7 8a3c 738b 913b b2b8 413e a725 4d3e
00000290: 9667 d9bd f01f 1abe eca9 3d3d 9355 883d
000002a0: 1b41 1b3e 7222 543e f73a 583e 6fe8 0fbe
000002b0: 1ff9 983d aed2 09bd 8495 32be 4eaa 85bd
000002c0: 6bbd 213d f7e5 a4bd 5530 1d3e 62be 273c
000002d0: 849b 0bbd b277 d1bd fbbb 053e fde3 e63c
000002e0: 807d b2bc c61f 41bb 59dc 38be a1ec fcbd
000002f0: 2569 26be c8bd 52be af04 8e3d 8f99 1fbe
00000300: 232b 22be c225 933d 65d4 b03c 1003 333e
00000310: 31a5 4dbe 9314 6f3d e6b7 2b3e 77e3 ccbc
00000320: f948 94bd 2876 02bd 50ed 9bbc 359e 36be
00000330: 0ba1 153c 51bf bc3d dcf8 1abe 2bc0 e63d
00000340: d188 1cbb baa2 c9bd e519 abbd 9399 f7bd
00000350: f7d7 5ebd 0434 4bbe 3cf2 af3d 0ed2 aebd
00000360: af96 023e 5511 4e3d b7b7 1d3e accf c93d
00000370: bd97 703d 3065 acbc c7dc ef3d 1470 51bd
00000380: 2b32 9e3d d524 37be 6462 38bc 3673 163e
00000390: 67ed 5dbd 07c8 34be aad1 153e a713 963d
000003a0: 04fb 8cbd c61c 8b3d 7c25 003e a9f4 22be
000003b0: d5f9 ee3b bc6e b53c b738 e53d f7e4 5abd
000003c0: c8fc 4a3e e7c5 34be b991 d63d f785 93bd
000003d0: df02 743d 06c8 aebd af27 00be 3b23 0eb9
000003e0: d4e7 01bd f1a9 c7bc 00d5 b0bc 5b5d 743d
000003f0: 9e3b fdbb a386 d1bd 8a38 793d f4fa 143d
