image_encoder/trained_models/vit_20241108_162041.pth (torch, 561019 bytes, 77 tensors)

cls_token f4 [1, 1, 32]
-0.0066765817 0.02027689 0.011012689 0.013405587 -0.025659144 -0.010986734 0.012995686 0.02457973
-0.029906694 -0.018385567 0.006260617 -0.00807233 -0.001070826 0.026199246 -0.025198177 -0.032070164
0.0009564324 -0.000568859 0.030025091 0.03958232 0.021944294 -0.014130661 -0.02815464 0.032277834
-0.03293778 -0.01660991 0.0005122176 0.00576988 0.034340914 -0.015351565 0.001308565 -0.023625284
00000000: 3ac7 dabb b81b a63c 916e 343c 1ba3 5b3c
00000010: 2033 d2bc b401 34bc dceb 543c 6e5b c93c
00000020: e2fe f4bc 549d 96bc dd25 cd3b ce41 04bc
00000030: f55a 8cba cd9f d63c 686c cebc 015c 03bd
00000040: 18b9 7a3a 7b1f 15ba 2ef7 f53c 1221 223d
00000050: 85c4 b33c 4a84 67bc 8fa4 e6bc c335 043d
00000060: c4e9 06bd 8211 88bc 5746 063a 4311 bd3b
00000070: 0fa9 0c3d 2185 7bbc 2884 ab3a d089 c1bc

pos_enc f4 [32, 32, 32]
0.0 1.0 0.0 1.0 0.0 1.0 0.0 1.0
0.0 1.0 0.0 1.0 0.0 1.0 0.0 1.0
0.0 1.0 0.0 1.0 0.0 1.0 0.0 1.0
0.0 1.0 0.0 1.0 0.0 1.0 0.0 1.0
0.0 1.0 0.0 1.0 0.0 1.0 0.0 1.0
0.0 1.0 0.0 1.0 0.0 1.0 0.0 1.0
0.84147096 0.54030234 0.53316844 0.8460091 0.3109836 0.9504153 0.17689219 0.9842302
0.09983342 0.9950042 0.056204494 0.9984193 0.031617507 0.99950004 0.017781857 0.99984187
0.0 1.0 0.0 1.0 0.0 1.0 0.0 1.0
0.0 1.0 0.0 1.0 0.0 1.0 0.0 1.0
0.9092974 -0.41614684 0.9021307 0.43146282 0.5911271 0.8065784 0.34820527 0.93741834
0.19866933 0.9800666 0.11223131 0.9936821 0.0632034 0.9980007 0.03555809 0.9993676
0.0 1.0 0.0 1.0 0.0 1.0 0.0 1.0
0.0 1.0 0.0 1.0 0.0 1.0 0.0 1.0
0.14112 -0.9899925 0.9932532 -0.11596616 0.8126489 0.58275366 0.50853616 0.86104065
0.29552022 0.9553365 0.1679033 0.9858035 0.09472609 0.99550337 0.053323083 0.9985773
0.0 1.0 0.0 1.0 0.0 1.0 0.0 1.0
0.0 1.0 0.0 1.0 0.0 1.0 0.0 1.0
-0.7568025 -0.6536436 0.7784717 -0.6276797 0.95358074 0.30113748 0.652828 0.7575062
0.38941836 0.921061 0.22304448 0.9748083 0.12615408 0.99201065 0.07107121 0.9974712
0.0 1.0 0.0 1.0 0.0 1.0 0.0 1.0
0.0 1.0 0.0 1.0 0.0 1.0 0.0 1.0
-0.9589243 0.2836622 0.32393527 -0.94607925 0.99994653 -0.010342338 0.77652997 0.6300803
0.47942555 0.87758255 0.2774805 0.96073127 0.15745589 0.987526 0.08879686 0.99604976
0.0 1.0 0.0 1.0 0.0 1.0 0.0 1.0
0.0 1.0 0.0 1.0 0.0 1.0 0.0 1.0
-0.2794155 0.96017027 -0.23036751 -0.9731037 0.9471482 -0.3207964 0.8757406 0.48278195
0.5646425 0.8253356 0.33103934 0.943617 0.18860029 0.98205394 0.10649444 0.9943133
0.0 1.0 0.0 1.0 0.0 1.0 0.0 1.0
0.0 1.0 0.0 1.0 0.0 1.0 0.0 1.0
0.6569866 0.75390226 -0.7137211 -0.70043 0.8004216 -0.5994375 0.9473307 0.3202569
0.64421767 0.7648422 0.38355154 0.9235195 0.21955611 0.9755999 0.12415834 0.9922624
00000000: 0000 0000 0000 803f 0000 0000 0000 803f
00000010: 0000 0000 0000 803f 0000 0000 0000 803f
00000020: 0000 0000 0000 803f 0000 0000 0000 803f
00000030: 0000 0000 0000 803f 0000 0000 0000 803f
00000040: 0000 0000 0000 803f 0000 0000 0000 803f
00000050: 0000 0000 0000 803f 0000 0000 0000 803f
00000060: 0000 0000 0000 803f 0000 0000 0000 803f
00000070: 0000 0000 0000 803f 0000 0000 0000 803f
00000080: 0000 0000 0000 803f 0000 0000 0000 803f
00000090: 0000 0000 0000 803f 0000 0000 0000 803f
000000a0: 0000 0000 0000 803f 0000 0000 0000 803f
000000b0: 0000 0000 0000 803f 0000 0000 0000 803f
000000c0: a46a 573f 4151 0a3f ba7d 083f 0d94 583f
000000d0: 3e39 9f3e 6b4e 733f 3a23 353e 83f6 7b3f
000000e0: 7775 cc3d 98b8 7e3f af36 663d 6898 7f3f
000000f0: 5c81 013d 3cdf 7f3f 42ab 913c a3f5 7f3f
00000100: 0000 0000 0000 803f 0000 0000 0000 803f
00000110: 0000 0000 0000 803f 0000 0000 0000 803f
00000120: 0000 0000 0000 803f 0000 0000 0000 803f
00000130: 0000 0000 0000 803f 0000 0000 0000 803f
00000140: b7c7 683f 3311 d5be 0af2 663f b2e8 dc3e
00000150: 1b54 173f ec7b 4e3f f647 b23e a6fa 6f3f
00000160: f96f 4b3e a5e5 7a3f 87d9 e53d f361 7e3f
00000170: c970 813d f97c 7f3f 5ca5 113d 8ed6 7f3f
00000180: 0000 0000 0000 803f 0000 0000 0000 803f
00000190: 0000 0000 0000 803f 0000 0000 0000 803f
000001a0: 0000 0000 0000 803f 0000 0000 0000 803f
000001b0: 0000 0000 0000 803f 0000 0000 0000 803f
000001c0: c381 103e 2670 7dbf d745 7e3f ab7f edbd
000001d0: c209 503f 582f 153f 6d2f 023f 296d 5c3f
000001e0: 6d4e 973e ef90 743f d8ee 2b3e 9e5d 7c3f
000001f0: c1ff c13d 4fd9 7e3f 4e69 5a3d c3a2 7f3f
00000200: 0000 0000 0000 803f 0000 0000 0000 803f
00000210: 0000 0000 0000 803f 0000 0000 0000 803f
00000220: 0000 0000 0000 803f 0000 0000 0000 803f
00000230: 0000 0000 0000 803f 0000 0000 0000 803f
00000240: cfbd 41bf 3055 27bf ec49 473f 9eaf 20bf
00000250: de1d 743f b12e 9a3e bc1f 273f edeb 413f
00000260: d861 c73e a7ca 6b3f c665 643e 098d 793f
00000270: 892e 013e 69f4 7d3f c88d 913d 465a 7f3f
00000280: 0000 0000 0000 803f 0000 0000 0000 803f
00000290: 0000 0000 0000 803f 0000 0000 0000 803f
000002a0: 0000 0000 0000 803f 0000 0000 0000 803f
000002b0: 0000 0000 0000 803f 0000 0000 0000 803f
000002c0: 107c 75bf 2c3c 913e d8da a53e 4032 72bf
000002d0: 7ffc 7f3f e972 29bc abca 463f f14c 213f
000002e0: 4477 f53e 40a9 603f ed11 8e3e 7cf2 753f
000002f0: 1e3c 213e 81ce 7c3f 21db b53d 1efd 7e3f
00000300: 0000 0000 0000 803f 0000 0000 0000 803f
00000310: 0000 0000 0000 803f 0000 0000 0000 803f
00000320: 0000 0000 0000 803f 0000 0000 0000 803f
00000330: 0000 0000 0000 803f 0000 0000 0000 803f
00000340: 8c0f 8fbe b8cd 753f 76e5 6bbe 531d 79bf
00000350: 4e78 723f 6d3f a4be 8930 603f 322f f73e
00000360: 698c 103f 3249 533f fd7d a93e e290 713f
00000370: 6f20 413e e367 7b3f c219 da3d 518b 7e3f
00000380: 0000 0000 0000 803f 0000 0000 0000 803f
00000390: 0000 0000 0000 803f 0000 0000 0000 803f
000003a0: 0000 0000 0000 803f 0000 0000 0000 803f
000003b0: 0000 0000 0000 803f 0000 0000 0000 803f
000003c0: 4630 283f bdff 403f 6db6 36bf 614f 33bf
000003d0: 6ee8 4c3f bc74 19bf 4484 723f b6f8 a33e
000003e0: 73eb 243f b3cc 433f de60 c43e c66b 6c3f
000003f0: 51d3 603e eac0 793f ba46 fe3d e904 7e3f

norm.weight f4 [32]
1.3827509 1.4867163 1.4292842 1.3689162 1.482741 1.4053609 1.434123 1.4220963
1.5451217 1.4403919 1.5398309 1.4178947 1.4194176 1.4338062 1.5086226 1.4195547
1.333787 1.5207461 1.541316 1.4693102 1.4438328 1.5364091 1.5134583 1.3220478
1.4673325 1.5398227 1.567412 1.3883327 1.4998509 1.4775456 1.4311877 1.425581
00000000: fbfd b03f b84c be3f c9f2 b63f a538 af3f
00000010: 75ca bd3f dee2 b33f 5891 b73f 4007 b63f
00000020: 8cc6 c53f c35e b83f 2e19 c53f 937d b53f
00000030: 7aaf b53f f686 b73f 8c1a c13f f8b3 b53f
00000040: 88b9 aa3f cfa7 c23f d849 c53f 5b12 bc3f
00000050: 83cf b83f 0ea9 c43f 00b9 c13f dd38 a93f
00000060: 8dd1 bb3f e918 c53f f5a0 c83f e3b4 b13f
00000070: 1dfb bf3f 3720 bd3f 2931 b73f 7079 b63f

norm.bias f4 [32]
0.05065407 0.19733892 0.20149972 -0.101247095 -0.0098495865 0.07040215 0.026342304 0.21815836
-0.09358146 -0.21745752 -0.05756081 0.16214745 -0.1981205 -0.24361664 -0.015090071 0.017426647
-0.34791195 0.009386981 0.1924066 0.30574307 0.03745002 0.06422731 -0.21130006 0.067150995
0.046410378 -0.31958348 0.19879684 -0.050136335 0.17709887 -0.24758504 0.2108806 -0.097091906
00000000: a47a 4f3d 3713 4a3e f155 4e3e a35a cfbd
00000010: 2960 21bc 012f 903d d1cb d73c e864 5f3e
00000020: a3a7 bfbd 2fad 5ebe e2c4 6bbd fb09 263e
00000030: 1ae0 4abe a476 79be 583c 77bc 54c2 8e3c
00000040: 8421 b2be dacb 193c 3c06 453e 5b8a 9c3e
00000050: 3165 193d 9c89 833d 0b5f 58be 7686 893d
00000060: cf18 3e3d 72a0 a3be 6691 4b3e c25b 4dbd
00000070: 6859 353e ef86 7dbe 16f1 573e 1fd8 c6bd

patch_embeddings.weight f4 [14, 32]
0.24795817 -0.095162384 -0.39084446 -0.8587855 0.6554185 -0.016567234 0.9240852 0.089279436
0.37800774 1.184335 -1.4048035 -0.5106378 0.19147223 -0.25637284 -0.9299833 1.5784693
1.3246989 -0.102551036 0.29535812 0.92349416 -2.0615904 0.49675992 1.5137464 0.62592876
0.08591007 -1.5593206 -1.1301441 -0.36600608 0.4159108 -0.77932125 1.4623468 2.4832892
-0.694855 -0.3117364 1.0510527 0.10454462 0.12925534 1.1551919 -1.1848325 -0.33816633
-0.5296072 -0.890863 0.5772126 -1.4389902 -1.1726335 0.6099471 -0.57028794 -0.75833803
1.6754006 -0.8214214 1.3603569 -0.23366553 -1.5300231 2.0643706 2.756323 -1.7012886
1.4535391 -1.511608 0.8306322 -0.21194826 0.768208 1.5097595 1.6813416 -0.4574432
-0.8209673 0.5617803 -0.101431794 -0.019645305 -0.50379544 0.48986378 -0.2788964 -1.0768464
2.069497 -0.49201506 0.25976905 0.70487493 -1.3700384 0.89245206 0.09710932 0.23848619
2.485826 -1.2505826 1.0431665 0.5370228 -1.5898141 -1.286384 0.6838404 -0.1942205
0.35264328 -0.3533966 0.40132397 -0.78147274 -0.43576166 -0.3646494 -0.9823821 -0.4348647
-1.6689059 -1.3805859 -0.17103761 0.96565247 0.020925216 -0.7450413 -0.26731795 0.031096056
-0.18010929 -0.13447362 0.30785775 1.3647714 0.15175322 2.5360668 -0.5882356 -2.0009947
-0.36570853 0.038831506 0.90960145 -1.8454732 0.13004467 0.4909448 -1.7262468 0.57506657
1.7587317 0.31422517 0.3071952 -0.6583124 -0.6834988 0.30215675 -0.61688524 -1.4680961
-2.044335 1.8486385 1.3442892 -0.49417755 1.3420042 1.6851732 -0.103182666 -1.7300023
-0.030731743 0.116615504 0.9957799 0.67518574 0.30023497 -0.7118711 0.75893813 0.8879623
2.2305791 0.9952953 -1.4870201 -0.24549682 -0.061071202 -0.2665836 -0.6246452 1.1188323
-0.99262047 0.1701804 1.2537152 -0.2697734 -1.0990175 -0.7025352 1.555202 -0.699315
-0.89010954 0.068231694 -0.059890576 2.3603044 -2.695492 0.52031887 -0.8561096 -0.26656395
-0.0027894299 2.0371974 -0.15857282 -0.2530114 -1.301556 -0.09339362 -1.8655206 -1.3784335
-0.3393752 -1.1814111 0.07003601 0.2147084 0.7798153 0.85701907 -1.7163628 1.2758027
0.9601219 1.0634305 0.6227867 -1.2517017 -0.65173084 2.1130424 0.53905433 1.2139238
0.22428147 -0.34630802 1.8564775 1.4089738 1.1137232 -0.6600191 -0.4923937 0.5956585
0.015121924 -1.6737802 1.0541167 0.48092574 -1.2381047 -0.96474934 -0.11875288 0.13768941
0.26211163 -0.7062289 -0.36436212 -0.4795758 0.59812796 0.6440006 1.2275962 0.7837974
0.47143784 0.87334645 -0.2329198 -0.7721855 -0.5792014 0.3530971 -0.5224877 -0.35020345
-0.62293345 -0.20953633 -0.0054288227 -0.303122 -0.07185197 0.77772504 0.012038933 -0.41281894
0.84396935 -1.5172457 0.61552167 -1.9121777 -0.9754761 0.099409565 -0.439655 -0.45209214
1.467527 0.029004252 -0.737552 -1.1642156 0.5088526 -0.22950107 -0.010833188 -0.82754743
-0.34105018 0.2355793 -0.94263154 -1.2320216 1.1099572 -1.9681875 -0.5794278 1.0945561
00000000: bfe8 7d3e 7fe4 c2bd c41c c8be 5ed9 5bbf
00000010: 82c9 273f 02b8 87bc d990 6c3f 23d8 b63d
00000020: 3b8a c13e 4a98 973f 9ad0 b3bf 29b9 02bf
00000030: 4c11 443e 4d43 83be 6313 6ebf 480b ca3f
00000040: bc8f a93f 4706 d2bd 2e39 973e 1d6a 6c3f
00000050: 19f1 03c0 5157 fe3e 71c2 c13f de3c 203f
00000060: 9ef1 af3d d197 c7bf 90a8 90bf 2665 bbbe
00000070: 43f2 d43e 9981 47bf 2e2e bb3f 36ee 1e40
00000080: 04e2 31bf ea9b 9fbe e588 863f 7d1b d63d
00000090: 835b 043e 54dd 933f 97a8 97bf 2324 adbe
000000a0: 5694 07bf 990f 64bf 34c4 133f d530 b8bf
000000b0: db18 96bf 7e25 1c3f 64fe 11bf 7122 42bf
000000c0: 8773 d63f ac48 52bf 2d20 ae3f 0446 6fbe
000000d0: ccd7 c3bf a61e 0440 9967 3040 d3c3 d9bf
000000e0: 920d ba3f 5f7c c1bf 50a4 543f f708 59be
000000f0: 48a9 443f cd3f c13f 3436 d73f ff35 eabe
00000100: ea2a 52bf d5d0 0f3f 79bb cfbd 31ef a0bc
00000110: bdf8 00bf 6dcf fa3e 82cb 8ebe 1ad6 89bf
00000120: a472 0440 66e9 fbbe 7300 853e af72 343f
00000130: 6b5d afbf bd77 643f 40e1 c63d b935 743e
00000140: c617 1f40 1713 a0bf 7b86 853f 547a 093f
00000150: 077f cbbf 3ba8 a4bf 2a10 2f3f bde1 46be
00000160: a98d b43e 66f0 b4be 567a cd3e 990e 48bf
00000170: 271c dfbe 53b3 babe 657d 7bbf 96a6 debe
00000180: b59e d5bf 0ab7 b0bf 7c24 2fbe 0035 773f
00000190: 5c6b ab3c 07bb 3ebf e6dd 88be 28bd fe3c
000001a0: 926e 38be 74b3 09be 889f 9d3e d4b0 ae3f
000001b0: 3265 1b3e eb4e 2240 9c96 16bf 4c10 00c0
000001c0: 263e bbbe c90d 1f3d a4db 683f 7738 ecbf
000001d0: 6e2a 053e 1e5d fb3e a8f5 dcbf 9037 133f
000001e0: 1f1e e13f 1fe2 a03e b048 9d3e 2987 28bf
000001f0: c7f9 2ebf 4ab4 9a3e 31ec 1dbf 93ea bbbf
00000200: 62d6 02c0 30a0 ec3f ab11 ac3f d704 fdbe
00000210: cbc6 ab3f c1b3 d73f 6f51 d3bd b770 ddbf
00000220: 23c1 fbbc 1cd4 ee3d 6eeb 7e3f f9d8 2c3f
00000230: 66b8 993e 2f3d 36bf c549 423f 7f51 633f
00000240: cfc1 0e40 accb 7e3f ad56 bebf 8563 7bbe
00000250: cc25 7abd a57d 88be bfe8 1fbf e635 8f3f
00000260: 601c 7ebf c543 2e3e bd79 a03f bd1f 8abe
00000270: 9bac 8cbf 59d9 33bf dc10 c73f 4f06 33bf
00000280: 38de 63bf 0fbd 8b3d d24f 75bd 3a0f 1740
00000290: f182 2cc0 9e33 053f 002a 5bbf 127b 88be
000002a0: dece 36bb 7161 0240 ea60 22be b68a 81be
000002b0: 6399 a6bf 2745 bfbd 61c9 eebf 8270 b0bf
000002c0: 96c2 adbe 7b38 97bf 0a6f 8f3d 85dc 5b3e
000002d0: faa1 473f 9a65 5b3f c7b1 dbbf 814d a33f
000002e0: 8dca 753f 7e1e 883f f36e 1f3f c337 a0bf
000002f0: d5d7 26bf 163c 0740 77ff 093f db61 9b3f
00000300: 0baa 653e 494f b1be 0ea1 ed3f 4159 b43f
00000310: 7b8e 8e3f 03f7 28bf 071b fcbe 137d 183f
00000320: f2c1 773c 6e3e d6bf 4ced 863f e63b f63e
00000330: 377a 9ebf d0f9 76bf b634 f3bd 74fe 0c3e
00000340: 7f33 863e 6bcb 34bf ac8d babe f68a f5be
00000350: ea1e 193f 39dd 243f df21 9d3f f2a6 483f
00000360: 4d60 f13e a293 5f3f 8782 6ebe f3ad 45bf
00000370: 8b46 14bf 25c9 b43e c1c1 05bf de4d b3be
00000380: 9178 1fbf b190 56be 44e4 b1bb cf32 9bbe
00000390: 2027 93bd fd18 473f f23e 453c 015d d3be
000003a0: 600e 583f 1b35 c2bf d492 1d3f 3dc2 f4bf
000003b0: cdb8 79bf 3e97 cb3d 761a e1be 9f78 e7be
000003c0: edd7 bb3f 539a ed3c 35d0 3cbf 0405 95bf
000003d0: 2a44 023f 5402 6bbe af7d 31bc 26da 53bf
000003e0: 219e aebe b33b 713e 4d50 71bf e2b2 9dbf
000003f0: 1413 8e3f 91ed fbbf 6155 14bf 6a1a 8c3f

blocks.0.norm1.weight f4 [32]
1.0580052 1.0607942 1.0208141 1.007833 1.0020851 1.0113559 1.061843 1.022633
1.0589286 1.0002826 0.9934098 1.0172899 0.9968971 1.0238996 1.0310016 1.0167612
0.9914057 1.0175334 0.9953836 0.98261046 1.0578839 1.0289903 1.0984095 1.0347462
1.0086329 1.0296698 1.0059824 0.9974843 1.0244799 1.0312307 1.0185091 1.0037601
00000000: b76c 873f 1bc8 873f 09aa 823f ac00 813f
00000010: 5344 803f 1c74 813f 79ea 873f a3e5 823f
00000020: f98a 873f 4309 803f 1b50 7e3f 8e36 823f
00000030: a634 7f3f 240f 833f dcf7 833f 3b25 823f
00000040: c4cc 7d3f 893e 823f 76d1 7e3f 5c8c 7b3f
00000050: bd68 873f f4b5 833f af98 8c3f 9072 843f
00000060: e21a 813f 38cc 833f 08c4 803f 225b 7f3f
00000070: 2822 833f 5eff 833f 825e 823f 367b 803f

blocks.0.norm1.bias f4 [32]
-0.0019153993 -0.014316059 -0.026427763 -0.0021929443 0.0019501566 0.0054663084 -0.009736524 -0.021967039
-0.00401669 0.0038697764 0.011489611 -0.009259155 0.006141588 -0.01210521 0.0042776596 0.005614075
-0.00703818 0.019357964 -0.015061486 0.0032443616 -0.00938853 -0.0011837721 -0.00053359603 -0.019416463
-0.009604972 0.022539672 -0.0029855212 0.017135011 0.026905982 0.013013576 0.009691328 0.006621829
00000000: 230e fbba e78d 6abc 097f d8bc 80b7 0fbb
00000010: 669c ff3a b81e b33b f185 1fbc 38f4 b3bc
00000020: 709e 83bb 139c 7d3b ec3e 3c3c b6b3 17bc
00000030: 603f c93b ee54 46bc 9c2b 8c3b 46f6 b73b
00000040: 88a0 e6bb 9894 9e3c 73c4 76bc 5b9f 543b
00000050: 59d2 19bc cd28 9bba 06e1 0bba 460f 9fbc
00000060: 2c5e 1dbc 1ea5 b83c bca8 43bb b95e 8c3c
00000070: ef69 dc3c e536 553c 60c8 1e3c edfb d83b

blocks.0.attn.qkv.weight f4 [96, 32]
0.10159056 -0.118200965 -0.0632583 0.006525116 0.101853505 -0.068827175 0.050960492 -0.15999095
0.10541386 -0.04168214 -0.16466191 0.06629276 0.014270089 0.018260768 -0.015571549 -0.16282168
-0.17379294 0.07349734 0.16182338 0.10187361 -0.017890442 0.10549433 0.05879543 -0.08277979
-0.16741933 -0.0031196447 0.010090057 0.014770014 -0.075732894 0.10931314 -0.08640367 -0.08552398
0.01696211 -0.15121996 0.021800995 0.111807086 0.06400747 -0.1323875 -0.03021471 0.07549355
-0.19723478 0.07544855 0.069876075 0.10058041 -0.11336016 -0.1785826 0.03545681 -0.07473591
-0.071977906 -0.2040397 -0.17644961 0.15983604 0.24944402 -0.2357177 -0.21421996 0.019456157
-0.020254884 -0.17195 -0.17658205 0.05562611 -0.19531527 -0.042174805 0.059126757 0.16207822
0.044055186 0.1548634 0.09389896 0.007353958 0.20820256 0.19641793 0.02688993 -0.07216537
-0.08080837 -0.17594337 0.07191672 0.074622616 0.19867761 0.014526688 0.050639775 0.1194795
-0.0037419081 0.08874903 -0.017837582 0.053911105 0.12800032 0.038197495 -0.041474693 -0.18375112
-0.083585605 0.0072334977 0.043007046 0.044345602 0.22414002 -0.01992104 -0.03802511 0.006973853
-0.19853742 0.0031069063 -0.11988296 -0.03878215 0.06226509 -0.17819919 -0.004628966 0.05129724
0.094903454 0.07743707 -0.07214406 -0.123023614 0.077969864 0.11322852 -0.18134487 -0.17571041
0.09105824 -0.18138601 -0.11667886 -0.13611676 -0.15866971 -0.119231045 0.051444147 0.11733461
-0.14846142 -0.14595056 -0.075950764 -0.08905411 0.10428162 -0.112083845 -0.070669614 0.15501052
0.07740481 0.035393395 -0.12035925 -0.15544675 -0.1060888 0.23650582 -0.22823368 0.05388505
0.09092569 0.070875 -0.021959355 -0.11359265 -0.093922704 -0.0069968067 -0.08048702 0.21532035
-0.093062975 -0.0740394 -0.16583253 0.04734631 0.098921515 0.23937595 0.025521396 -0.17703514
-0.022181746 -0.0124473795 -0.065176256 -0.15937911 0.14046694 0.023886653 -0.0035803923 0.15569589
0.24628517 0.20316646 -0.11380444 0.01907139 -0.12122247 0.018779429 0.087073565 -0.11168693
-0.09731762 -0.0397579 0.06511563 -0.014750511 -0.15859741 -0.040226694 0.20701382 0.034242865
-0.25939712 0.12760377 -0.14903465 -0.20472328 -0.098640636 0.2357441 0.081638046 -0.13419898
0.12547852 0.11642414 0.17171805 0.16732009 0.17230862 -0.15201771 0.060719002 -0.042700253
-0.1068619 0.15609482 0.15252435 -0.05003531 -0.1334617 -0.14571293 0.19497947 -0.1093406
0.008913447 0.12210682 0.1328474 0.065454766 -0.004952416 0.20842233 -0.08702201 -0.15647376
-0.106251255 0.12761079 0.084392324 0.17173718 0.08074613 -0.01057566 0.062481947 -0.046764832
-0.19878505 -0.06132813 0.22180666 0.11008924 0.07463277 -0.043613464 -0.011313606 -0.17192182
0.115739 0.18274315 -0.13108063 -0.12902571 -0.03668451 0.08374454 -0.12347961 0.07556629
0.16298638 0.026869135 -0.09938078 0.15852499 -0.10861337 0.049864583 0.20408522 0.09652413
-0.09890198 -0.08429475 -0.094616495 -0.06944831 -0.17131719 0.18094319 0.2200345 -0.08048258
-0.07778861 -0.09196096 0.15634125 -0.022485185 -0.076583065 0.09714099 0.06226629 0.17395793
00000000: b60e d03d 5913 f2bd 918d 81bd a4d0 d53b
00000010: 9298 d03d 43f5 8cbd f3bb 503d abd4 23be
00000020: 39e3 d73d e4ba 2abd 229d 28be 80c4 873d
00000030: 17cd 693c 9b97 953c cf1f 7fbc baba 26be
00000040: c7f6 31be c685 963d 07b5 253e 1ca3 d03d
00000050: fa8e 92bc 690d d83d 7ad3 703d 7388 a9bd
00000060: f96f 2bbe f472 4cbb c450 253c eefd 713c
00000070: d919 9bbd 91df df3d 68f4 b0bd 3227 afbd
00000080: 1ff4 8a3c 68d9 1abe 0098 b23c 1dfb e43d
00000090: 5916 833d 9790 07be d784 f7bc 5d9c 9a3d
000000a0: eaf7 49be c584 9a3d 301b 8f3d 1afd cd3d
000000b0: 5f29 e8bd 5bde 36be 293b 113d 240f 99bd
000000c0: 2769 93bd c8ef 50be 35af 34be 0fac 233e
000000d0: 416e 7f3e fb5f 71be 7a5c 5bbe 8562 9f3c
000000e0: 92ed a5bc a913 30be edd1 34be 34d8 633d
000000f0: ba00 48be 7dbf 2cbd e62e 723d d5f7 253e
00000100: 3673 343d 8394 1e3e 194e c03d 79f9 f03b
00000110: 0d33 553e c821 493e 4548 dc3c 70cb 93bd
00000120: dc7e a5bd 802a 34be 1349 933d bed3 983d
00000130: 2572 4b3e 5801 6e3c a76b 4f3d abb1 f43d
00000140: cd3a 75bb 0dc2 b53d 1f20 92bc e4d1 5c3d
00000150: 8412 033e fa74 1c3d 5ee1 29bd 4129 3cbe
00000160: ee2e abbd fa06 ed3b 2828 303d bca3 353d
00000170: f684 653e 7331 a3bc 38c0 1bbd eb84 e43b
00000180: 654d 4bbe 3d9d 4b3b 3385 f5bd 08da 1ebd
00000190: ae09 7f3d d979 36be 95ae 97bb 0e1d 523d
000001a0: be5c c23d 5497 9e3d 44c0 93bd cef3 fbbd
000001b0: aaae 9f3d 5be4 e73d 78b2 39be 6eed 33be
000001c0: be7c ba3d 41bd 39be 53f5 eebd 3162 0bbe
000001d0: 507a 22be 682f f4bd 19b7 523d 214d f03d
000001e0: 4506 18be 1074 15be 138c 9bbd 0062 b6bd
000001f0: 9a91 d53d 378c e5bd 3bbb 90bd 14bb 1e3e
00000200: 6a86 9e3d aaf8 103d e97e f6bd 6f2d 1fbe
00000210: 1645 d9bd 952e 723e 17b6 69be 92b6 5c3d
00000220: 4037 ba3d e926 913d 1be4 b3bc 43a3 e8bd
00000230: 8c5a c0bd 7845 e5bb 61d6 a4bd f07c 5c3e
00000240: cd97 bebd f8a1 97bd 01d0 29be 34ee 413d
00000250: 5d97 ca3d f81e 753e 3f12 d13c b348 35be
00000260: 7eb6 b5bc 18f0 4bbc 217b 85bd 4734 23be
00000270: 91d6 0f3e f1ad c33c 04a5 6abb be6e 1f3e
00000280: 2e32 7c3e de0a 503e 4d12 e9bd 9b3b 9c3c
00000290: 7d43 f8bd 51d7 993c a053 b23d 1ebc e4bd
000002a0: 764e c7bd 2ed9 22bd 585b 853d 21ac 71bc
000002b0: 5c67 22be bfc4 24bd 6efb 533e 3f42 0c3d
000002c0: b3cf 84be 90aa 023e 8a9c 18be fba2 51be
000002d0: 1a04 cabd e766 713e d931 a73d 756b 09be
000002e0: 717d 003e c86f ee3d dbd6 2f3e f555 2b3e
000002f0: ac71 303e 88aa 1bbe 7db4 783d 76e6 2ebd
00000300: 69da dabd 52d7 1f3e 582f 1c3e d3f1 4cbd
00000310: 2faa 08be c535 15be b3a8 473e f7ed dfbd
00000320: b509 123c 2413 fa3d 2609 083e 260d 863d
00000330: e047 a2bb aa6c 553e 9838 b2bd a83a 20be
00000340: 429a d9bd 67ac 023e e2d5 ac3d dfdb 2f3e
00000350: 3a5e a53d 8845 2dbc 12ed 7f3d 7b8c 3fbd
00000360: 4f8e 4bbe 3533 7bbd 4921 633e 7876 e13d
00000370: 11d9 983d 08a4 32bd b45c 39bc 460c 30be
00000380: 9208 ed3d 0521 3b3e 003a 06be 511f 04be
00000390: 7f42 16bd 4282 ab3d e1e2 fcbd 80c2 9a3d
000003a0: e7e5 263e a91c dc3c 2688 cbbd 6054 223e
000003b0: b070 debd ce3e 4c3d b7fb 503e 71ae c53d
000003c0: 1f8d cabd baa2 acbd 4bc6 c1bd ea3a 8ebd
000003d0: c66d 2fbe 2c49 393e b950 613e 0dd4 a4bd
000003e0: a24f 9fbd 0756 bcbd ec17 203e da32 b8bc
000003f0: 95d7 9cbd dbf1 c63d f00a 7f3d 0722 323e

blocks.0.attn.proj.weight f4 [32, 32]
0.10676652 -0.030890709 -0.03449757 -0.095232405 0.057336558 -0.063154735 -0.08212921 8.932913e-05
0.006606769 -0.04089944 -0.06979277 -0.19218692 -0.10479187 0.11393647 0.13254769 -0.10990289
-0.16221823 -0.12504043 -0.01880742 0.07598918 -0.16384137 -0.13207237 -0.057347447 -0.10585803
0.12882821 -0.045937784 0.01957333 -0.13029774 -0.15696847 -0.18187894 -0.055547744 -0.1655767
-0.055391308 0.07480026 -0.02152348 0.00916689 0.1326509 0.1118987 -0.07972435 0.024228407
0.0976646 -0.08706479 0.04752884 0.1811383 -0.16752991 0.08464104 -0.05386525 0.0815737
0.032632373 0.11632239 -0.054556545 0.18362938 0.17080398 0.13515326 0.15950757 0.089466944
-0.17901891 0.1129582 -0.046470534 0.09804817 0.138529 -0.063665695 -0.08853719 -0.037333306
0.14342205 0.07289559 -0.14220755 0.09495521 -0.100324675 0.11969983 0.014158546 0.14459014
0.0036443938 0.05717513 0.022246161 -0.12575047 0.1457366 0.08902108 -0.024154175 0.033510093
-0.084004015 0.08510378 0.122045584 -0.08883908 -0.1605008 -0.05115537 -0.10960762 -0.0937366
-0.1272617 -0.022214033 0.030429505 0.041287854 -0.15203217 -0.18749826 0.14324412 -0.062570035
0.008505688 -0.14186719 -0.058182742 0.10264552 -0.08274615 -0.043987114 -0.1618154 0.17044418
0.02408364 0.091715455 -0.104440875 0.14204451 -0.021827972 -0.09286473 0.042046145 0.008231255
0.057978857 -0.07720696 -0.06635303 0.1186317 0.15338339 0.040502846 0.08471414 -0.113930784
0.035393193 -0.1431995 0.009623817 0.007965292 -0.0411024 -0.028762715 -0.009217258 0.017723247
0.033282813 -0.06992204 -0.10926704 0.015923256 0.09191555 -0.02318764 0.025929904 -0.04598705
-0.09186905 0.10196926 -0.09495575 0.13920668 0.09252112 -0.07554731 -0.060394216 0.044770658
0.028174993 -0.14182782 0.024512224 -0.121047735 -0.012161631 -0.061943546 -0.13301048 -0.17491908
0.11811919 -0.030099444 -0.047764037 -0.10278114 0.07230081 0.094872355 -0.0018088449 0.024126543
-0.12573251 -0.13063894 0.17319019 -0.08352314 -0.019123076 0.17295477 0.061834227 -0.12152668
0.132835 0.04449792 -0.15103278 0.17874646 -0.022290444 0.13839991 0.12261692 -0.14490162
0.03465631 -0.071392834 0.03101483 -0.038764276 0.1385666 -0.09588435 -0.092876844 0.002067402
-0.017941393 0.02669904 -0.026890215 -0.115791366 -0.10447291 -0.05354181 0.06952865 -0.13554116
0.06064676 -0.051320925 0.16058026 0.04656138 -0.027307818 0.12578088 0.0036060556 0.175896
-0.11965831 0.048788734 -0.080415525 0.09510562 0.012936383 -0.039759398 0.12086922 -0.14274983
0.05450644 -0.0016765592 0.006497754 0.037063528 -0.038749732 -0.18666321 0.18134457 -0.07822665
-0.008427883 -0.008802893 0.07552577 -0.034179058 0.024044592 -0.021088557 0.09478918 0.004707246
-0.052200664 -0.035726298 0.04007427 -0.052219804 -0.1273707 0.18211007 -0.14422274 0.09288346
-0.056259677 0.041902363 -0.11829723 -0.1197962 -0.0543336 0.08028996 0.063221194 0.02589612
-0.04345621 0.19001922 -0.03382602 -0.029907234 0.16300991 0.032189585 -0.17359225 -0.1352061
-0.11638549 -0.13692723 -0.16344689 0.14357686 0.13248834 -0.09795936 -0.04823875 0.0706351
00000000: 68a8 da3d 830e fdbc 534d 0dbd 3509 c3bd
00000010: bdd9 6a3d 4557 81bd 5c33 a8bd 3656 bb38
00000020: 987d d83b 2c86 27bd 83ef 8ebd a6cc 44be
00000030: 1f9d d6bd 8657 e93d 95ba 073e c414 e1bd
00000040: 891c 26be 990a 00be 0512 9abc 37a0 9b3d
00000050: 08c6 27be fb3d 07be 28e5 6abd 18cc d8bd
00000060: 8beb 033e 4229 3cbd 4058 a03c c56c 05be
00000070: 58bc 20be 793e 3abe 0886 63bd f08c 29be
00000080: ffe1 62bd e130 993d 0252 b0bc b930 163c
00000090: a3d5 073e 252b e53d 8546 a3bd a77a c63c
000000a0: 6104 c83d 064f b2bd 9aad 423d 527c 393e
000000b0: f68c 2bbe 4858 ad3d cfa1 5cbd 1d10 a73d
000000c0: 86a9 053d 6f3a ee3d af76 5fbd 5709 3c3e
000000d0: 3de7 2e3e 9e65 0a3e f455 233e 723a b73d
000000e0: bc50 37be a156 e73d e357 3ebd 7bcd c83d
000000f0: 8cda 0d3e 2963 82bd fc52 b5bd cfea 18bd
00000100: 3bdd 123e 484a 953d db9e 11be e177 c23d
00000110: 0677 cdbd 2f25 f53d 3ff9 673c 700f 143e
00000120: c8d6 6e3b 7830 6a3d 953d b63c bbc4 00be
00000130: fa3b 153e af50 b63d fade c5bc e141 093d
00000140: 4c0a acbd e44a ae3d 09f3 f93d 43f1 b5bd
00000150: 525a 24be 4b88 51bd f679 e0bd f9f8 bfbd
00000160: e450 02be 34fa b5bc 4c47 f93c 741d 293d
00000170: 52ae 1bbe 8bff 3fbe 96ae 123e b824 80bd
00000180: 715b 0b3c a245 11be 0751 6ebd d037 d23d
00000190: d076 a9bd d52b 34bd f0b2 25be eb88 2e3e
000001a0: 0e4b c53c 50d5 bb3d 19e5 d5bd 1e74 113e
000001b0: 93d0 b2bc dd2f bebd 9438 2c3d 63dc 063c
000001c0: 3d7b 6d3d af1e 9ebd 19e4 87bd 2df5 f23d
000001d0: 8910 1d3e 50e6 253d 9b7e ad3d 8b54 e9bd
000001e0: 74f8 103d e4a2 12be 37ad 1d3c db80 023c
000001f0: fd5a 28bd c99f ebbc fb03 17bc 5830 913c
00000200: 8f53 083d 4933 8fbd 66c7 dfbd 7d71 823c
00000210: 383e bc3d 01f4 bdbc f36a d43c eb5c 3cbd
00000220: d725 bcbd 42d5 d03d 2978 c2bd 328c 0e3e
00000230: b77b bd3d 8cb8 9abd ed5f 77bd 7061 373d
00000240: 3ecf e63c 503b 11be dccd c83c e0e7 f7bd
00000250: 9441 47bc 84b8 7dbd e633 08be fd1d 33be
00000260: 79e8 f13d 1c93 f6bc 39a4 43bd eb7e d2bd
00000270: 7212 943d 704c c23d c316 edba 07a5 c53c
00000280: 06c0 00be 37c6 05be c558 313e 2e0e abbd
00000290: ffa7 9cbc 0e1b 313e e345 7d3d fbe2 f8bd
000002a0: e605 083e 7343 363d 56a8 1abe 5009 373e
000002b0: 739a b6bc b5b8 0d3e 941e fb3d 1761 14be
000002c0: c6f3 0d3d 6836 92bd d012 fe3c 4ac7 1ebd
000002d0: 67e4 0d3e 045f c4bd 3736 bebd 407d 073b
000002e0: d4f9 92bc f2b7 da3c de48 dcbc 0624 edbd
000002f0: e5f5 d5bd a84e 5bbd 0965 8e3d 4dcb 0abe
00000300: bd68 783d e435 52bd 276f 243e 25b7 3e3d
00000310: a5b4 dfbc b4cc 003e 9353 6c3b 151e 343e
00000320: 6b0f f5bd b2d6 473d e5b0 a4bd bcc6 c23d
00000330: 1ff3 533c c0da 22bd 488a f73d 032d 12be
00000340: 2542 5f3d febf dbba 1ceb d43b edcf 173d
00000350: 0ab8 1ebd a424 3fbe 64b2 393e 4b35 a0bd
00000360: 1a15 0abc 023a 10bc 41ad 9a3d 57ff 0bbd
00000370: 2af9 c43c e9c1 acbc d420 c23d 3e3f 9a3b
00000380: 5dd0 55bd bd55 12bd eb24 243d 6fe4 55bd
00000390: 776d 02be 107b 3a3e 20af 13be af39 be3d
000003a0: 8c70 66bd d0a1 2b3d d145 f2bd b657 f5bd
000003b0: e98c 5ebd 106f a43d 1d7a 813d 1a24 d43c
000003c0: 24ff 31bd 6694 423e 278d 0abd 0400 f5bc
000003d0: 12ec 263e 3ad9 033d 2bc2 31be 7873 0abe
000003e0: 845b eebd a736 0cbe 9f5e 27be d005 133e
000003f0: 06ab 073e eb9e c8bd ff95 45bd 23a9 903d

blocks.0.attn.proj.bias f4 [32]
-0.057458438 0.074370086 0.10054266 -0.08370073 0.055264935 0.10969 -0.115577124 0.12012238
-0.09176491 -0.085920885 0.09169378 -0.045150664 0.031945962 0.10844708 -0.060960576 -0.05207042
-0.14009576 0.087265626 0.035955854 0.16431408 0.12043385 0.04676311 0.035302136 0.14860559
-0.14051792 -0.13825373 0.15487483 -0.054378036 0.04732717 -0.051247172 -0.14204189 -0.13213935
00000000: 8a59 6bbd 584f 983d 4fe9 cd3d 4a6b abbd
00000010: 7c5d 623d 27a5 e03d b3b3 ecbd b902 f63d
00000020: 3eef bbbd 4af7 afbd f3c9 bb3d e7ef 38bd
00000030: c5d9 023d 8119 de3d ccb1 79bd cb47 55bd
00000040: 4375 0fbe 52b8 b23d 7246 133d f341 283e
00000050: 06a6 f63d ad8a 3f3d f998 103d 102c 183e
00000060: eee3 0fbe 6392 0dbe 8297 1e3e 81bb 5ebd
00000070: 22da 413d 8ee8 51bd 6e73 11be 8a4f 07be

blocks.0.norm2.weight f4 [32]
1.004491 0.99380404 0.97341615 0.995042 0.9891217 0.97649366 0.94228405 0.9962375
1.0391749 0.9861106 1.0076448 1.0082306 1.0201031 1.0157187 1.001993 1.0405477
1.0147443 0.9991668 0.99224895 0.92956865 0.97852015 0.9667021 1.008244 0.97139543
0.98444027 1.0355979 1.0223926 1.0185326 0.98771507 1.0047723 1.0233401 0.99181604
00000000: 2993 803f f169 7e3f cd31 793f 13bb 7e3f
00000010: 1437 7d3f 7dfb 793f 8739 713f 6c09 7f3f
00000020: af03 853f bf71 7c3f 81fa 803f b30d 813f
00000030: bd92 823f 1203 823f 4e41 803f ab30 853f
00000040: 24e3 813f 65c9 7f3f 0704 7e3f 36f8 6d3f
00000050: 4c80 7a3f ca79 773f 240e 813f 5fad 783f
00000060: 4704 7c3f 798e 843f c3dd 823f 475f 823f
00000070: e5da 7c3f 619c 803f cffc 823f a8e7 7d3f

blocks.0.norm2.bias f4 [32]
0.0070208283 0.0024877551 0.007919034 0.023725083 -0.03769231 -0.02320426 0.025163494 0.004447793
0.01721626 0.021893408 0.003729208 -0.0014092647 -0.0016662499 0.011351797 0.0064697075 0.009025038
0.0011728387 -0.0019750122 0.00630666 0.051254053 0.014868067 -0.0018886869 -0.00855869 0.040967334
-0.013429046 0.008888213 0.0071273507 0.0019263064 -0.0075707547 -0.0004165791 -0.0125392545 -0.050334368
00000000: fa0e e63b 9b09 233b d6be 013c 1b5b c23c
00000010: 4063 1abd dc16 bebc ac23 ce3c cbbe 913b
00000020: 1d09 8d3c ce59 b33c ba65 743b 14b7 b8ba
00000030: 1266 daba e3fc 393c d7ff d33b c1dd 133c
00000040: f0b9 993a 356f 01bb 19a8 ce3b c5ef 513d
00000050: 3199 733c d18d f7ba bf39 0cbc 5dcd 273d
00000060: 8005 5cbc de9f 113c 8d8c e93b 1e7c fc3a
00000070: 1814 f8bb 4d68 dab9 7271 4dbc 692b 4ebd

blocks.0.mlp.fc1.weight f4 [128, 32]
0.018311113 -0.015349825 0.07361238 -0.14408529 -0.008198015 0.006366374 -0.120556265 0.20026033
-0.05185065 -0.0014006495 0.09751916 -0.161876 -0.19775514 0.094980136 0.15547337 -0.13310799
-0.14247347 0.16139549 0.14605285 0.17030074 -0.036803663 -0.038222775 0.08522559 -0.02239706
0.15415536 -0.09701511 0.16378188 0.11756406 0.047379095 0.16467933 -0.06145302 -0.031151965
0.10053631 0.19266683 0.100153394 0.08884289 -0.15692487 -0.15107243 -0.05548618 -0.0896164
0.18419637 0.06090983 0.07593972 0.023441907 0.12344754 -0.17458026 -0.068671 0.15621829
0.029566005 -0.11657179 0.13212217 0.10779605 -0.028298266 0.060587604 0.19352354 -0.0013602589
-0.008673842 0.098341584 -0.025922682 0.106533684 -0.08771525 0.006924623 0.15260611 0.07243507
-0.13251144 0.05593502 0.10900362 -0.14346068 0.16681565 0.02608443 -0.1650292 -0.14558546
0.14259745 0.1401973 -0.027301604 -0.049109906 0.05553765 0.07624302 -0.002860863 0.15454479
-0.12028599 0.16012795 -0.13938068 0.01563628 0.020531984 -0.015893161 0.06819148 -0.130058
0.04306225 -0.02234558 0.15268956 -0.10247816 -0.14059633 -0.11945333 -0.048574444 -0.109489314
0.12490247 -0.059031095 0.12294605 -0.09751311 0.15650827 0.15019755 -0.1369023 0.15853678
-0.0056221792 0.106044926 -0.057101727 0.1345418 -0.033812534 -0.004214907 -0.036746427 0.06878237
0.03351893 -0.15819632 0.0072167376 0.05719376 0.048745073 -0.08806852 0.053680036 0.002052182
0.11042734 0.12349633 0.02263345 -0.1026392 0.11118402 0.05933386 0.057480663 -0.038878188
0.05569716 -0.0793605 -0.17509617 0.16812156 0.041277643 0.12996055 -0.17302807 -0.03902232
-0.043089766 0.14121367 0.028716922 -0.09675678 -0.15064713 0.09346966 0.17298202 0.071788505
0.15529323 -0.18577817 0.14149019 -0.00818212 -0.061956137 -0.1721074 0.05622408 0.09558217
0.10098808 0.07769186 -0.026155889 -0.053597447 -0.08471456 0.07858255 0.04899674 0.118935175
0.037359264 0.095873244 -0.05448195 -0.19068837 0.0049033305 0.09403515 -0.15131855 0.06968916
0.047244374 0.05607766 0.009491421 -0.12328652 -0.15531887 0.03624821 0.059604794 0.06784486
0.14782487 -0.07469044 -0.081092015 -0.1026359 0.13854212 0.02136211 -0.14248861 0.08639656
-0.17020002 -0.14351419 -0.14142969 0.0860493 0.019456089 0.17981002 0.033083137 -0.06785766
-0.086232625 0.12655406 0.030303102 -0.16700707 0.017990114 0.114529826 -0.05488088 0.069630176
-0.10466154 0.09273109 0.054129224 0.1342096 0.16160136 0.0061680195 -0.017174462 -0.10919894
0.03817515 0.076597534 -0.14728199 0.084097624 0.16156211 -0.0240239 0.09515676 -0.08791627
0.024346553 -0.14718358 0.08062443 0.14821503 -0.10008969 -0.13423699 0.10720962 0.016913358
-0.077679075 -0.11719866 0.18341894 -0.06473346 0.12066167 -0.02464366 -0.012641461 -0.08318693
-0.04447585 0.0035216343 0.16522062 0.19356611 -0.03228724 0.13425153 0.12504451 0.0041040084
0.09286247 0.05931602 0.040900253 -0.05033648 -0.024566937 -0.05251345 0.043240484 -0.036640152
0.036469445 0.13812459 0.09787823 0.0087364195 -0.17114566 -0.060437396 -0.061275683 -0.10950658
00000000: 3001 963c d57d 7bbc 16c2 963d 188b 13be
00000010: f850 06bc 049d d03b 34e6 f6bd 0b11 4d3e
00000020: 5961 54bd 0096 b7ba 20b8 c73d d2c2 25be
00000030: 5380 4abe f284 c23d 6934 1f3e 764d 08be
00000040: 91e4 11be dc44 253e e18e 153e 5163 2e3e
00000050: 70bf 16bd 7c8f 1cbd c18a ae3d 0a7a b7bc
00000060: e7da 1d3e dcaf c6bd 70b6 273e 6dc5 f03d
00000070: 9510 423d b3a1 283e 29b6 7bbd 6832 ffbc
00000080: fbe5 cd3d 744a 453e 391d cd3d 43f3 b53d
00000090: eab0 20be bbb2 1abe 7a45 63bd ce88 b7bd
000000a0: f99d 3c3e 967c 793d 4986 9b3d 3e09 c03c
000000b0: 10d2 fc3d 2bc5 32be 62a3 8cbd b0f7 1f3e
000000c0: 6834 f23c 31bd eebd 094b 073e 2dc4 dc3d
000000d0: c4d1 e7bc b52a 783d 092b 463e b74a b2ba
000000e0: bb1c 0ebc 5067 c93d ce5b d4bc 552e da3d
000000f0: 0ea4 b3bd f3e7 e23b c744 1c3e d758 943d
00000100: 14b1 07be 1f1c 653d 4a3d df3d 5be7 12be
00000110: b9d1 2a3e 04af d53c 6afd 28be 5b14 15be
00000120: 1105 123e e28f 0f3e 9da7 dfbc 7827 49bd
00000130: 727b 633d 4d25 9c3d 517d 3bbb fd40 1e3e
00000140: 8058 f6bd 95f8 233e cfb9 0ebe a817 803c
00000150: b132 a83c 6032 82bc faa7 8b3d ed2d 05be
00000160: 0b62 303d 140e b7bc a75a 1c3e 12e0 d1bd
00000170: 7cf8 0fbe f3a3 f4bd fff5 46bd ef3b e0bd
00000180: decc ff3d 97ca 71bd 23cb fb3d f4b4 c7bd
00000190: b443 203e 63cd 193e 1e30 0cbe 7757 223e
000001a0: 423a b8bb 152e d93d 80e3 69bd 53c5 093e
000001b0: 037f 0abd 341d 8abb 6c83 16bd c5dd 8c3d
000001c0: 254b 093d 37fe 21be 627a ec3b 0144 6a3d
000001d0: eaa8 473d 455d b4bd 99df 5b3d e77d 063b
000001e0: bb27 e23d a5eb fc3d c969 b93c 8034 d2bd
000001f0: 73b4 e33d 1008 733d d870 6b3d bc3e 1fbd
00000200: b522 643d c287 a2bd 694c 33be 0f28 2c3e
00000210: bf12 293d 6114 053e 452e 31be ded5 1fbd
00000220: e57e 30bd 519a 103e c03f eb3c 6b28 c6bd
00000230: 3e43 1abe 056d bf3d 3322 313e da05 933d
00000240: 3005 1f3e a23c 3ebe cee2 103e 4c0e 06bc
00000250: b8c5 7dbd ec3c 30be 394b 663d 96c0 c33d
00000260: d7d2 ce3d e91c 9f3d e044 d6bc ff88 5bbd
00000270: d47e adbd e3ef a03d ceb0 483d 4994 f33d
00000280: 0706 193d 3159 c43d 7728 5fbd d043 43be
00000290: 1eac a03b 8095 c03d 40f3 1abe 31b9 8e3d
000002a0: 5183 413d b0b1 653d e881 1b3c a57d fcbd
000002b0: e90b 1fbe 0179 143d 2824 743d 3ff2 8a3d
000002c0: 675f 173e 4df7 98bd 9213 a6bd c532 d2bd
000002d0: fcdd 0d3e 97ff ae3c 89e8 11be aef0 b03d
000002e0: ea48 2ebe 62f5 12be f2d2 10be 9e3a b03d
000002f0: 6062 9f3c 1e20 383e 2f82 073d f5f8 8abd
00000300: bb9a b0bd 6397 013e 363e f83c e703 2bbe
00000310: 0160 933c 9d8e ea3d c6ca 60bd 449a 8e3d
00000320: ca58 d6bd cce9 bd3d 9bb6 5d3d 3e6e 093e
00000330: d47a 253e 191d ca3b 75b1 8cbc b2a3 dfbd
00000340: 8c5d 1c3d 2bdf 9c3d 17d1 16be 603b ac3d
00000350: 8a70 253e c5cd c4bc 8ce1 c23d 720d b4bd
00000360: 6c72 c73c 4bb7 16be 6c1e a53d aec5 173e
00000370: d3fb ccbd 6c75 09be b890 db3d e28d 8a3c
00000380: 3516 9fbd da05 f0bd 2dd2 3b3e fa92 84bd
00000390: 771d f73d 80e1 c9bc 211e 4fbc e95d aabd
000003a0: 4f2c 36bd 38cb 663b 982f 293e 3236 463e
000003b0: a03f 04bd 3c79 093e ab0b 003e eb7a 863b
000003c0: ae2e be3d 5bf5 723d 0687 273d a02d 4ebd
000003d0: 9a40 c9bc 5818 57bd ef1c 313d fc13 16bd
000003e0: fc60 153d 8870 0d3e 6274 c83d 3323 0f3c
000003f0: cf40 2fbe 348d 77bd 36fc 7abd fc44 e0bd

blocks.0.mlp.fc2.weight f4 [32, 128]
-0.091029994 -0.05108562 0.026110359 -0.018572222 0.002253243 0.06729677 0.014828817 -0.03803375
-0.0141830165 -0.014440537 0.076522075 0.009143035 0.043080784 0.13363801 -0.013222448 -0.047171205
0.03686456 -0.09194893 -0.046447407 -0.026139202 -0.034064658 -0.024875725 0.009499855 0.06226362
-0.07415854 -0.021062039 -0.05584553 0.046506215 0.047397926 0.06535371 0.081989005 0.049403317
-0.024535995 -0.055301394 -0.076444186 0.046165604 -0.03872282 0.042097874 -0.11751094 0.028101197
0.036676403 0.026354311 -0.04902894 0.09067726 0.021595273 0.04437382 -0.005290149 -0.0019967612
0.036607604 -0.011636691 -0.07342566 0.019285051 -0.0022325348 -0.07529356 0.034780804 0.004719246
-0.01328576 0.031570435 0.07331755 -0.0765252 0.104578294 0.07977562 -0.022732636 0.06954089
0.0007010805 0.040390164 0.0229318 -0.107589476 0.052558154 0.07764328 0.055479195 0.06710005
-0.08345886 0.06709141 0.02024641 -0.07993813 -0.06207808 -0.030413663 0.044891797 -0.08326618
0.10330952 0.071973234 0.042480946 0.10232463 -0.037883997 -0.05342794 -0.031444762 -0.02922526
0.056413557 -0.04308563 0.093717165 0.008029604 -0.004058485 0.015097542 0.07214805 -0.055148866
0.067711405 -0.015782597 0.003063288 -0.076018676 0.009862887 -0.041599862 -0.078022085 0.0038177122
0.07491243 -0.016361007 0.030208772 -0.046211243 -0.037363376 0.055870097 -0.045318548 -0.056236785
-0.039036945 0.024107214 -0.081330165 0.06613222 -0.07925541 0.06514713 -0.051509228 -0.019586308
0.081095226 0.027274564 -0.020623682 -0.04706751 0.09944403 -0.022351716 0.027043128 0.051504385
-0.036042627 -0.068912 0.06780825 -0.0043144845 0.016757721 0.053107403 0.057718385 0.054630186
0.0016129693 0.026039565 0.032859754 0.010766521 0.06618532 -0.007956783 0.004853243 0.065718345
0.0031531593 0.03641809 -0.032614633 -0.07806417 -0.0621725 -0.08129302 -0.069599815 0.012899648
0.031478807 0.07634357 0.08677572 -0.0094698155 -0.024435138 -0.013144561 0.00518879 -0.10138462
-0.031027732 0.0005093404 -0.08043766 -0.025957916 0.004174811 -0.026160425 0.025216337 0.035882436
0.057539377 -0.03441528 0.0009380789 0.0032468692 0.062511146 -0.05476872 0.052906204 -0.07267942
-0.09176975 0.055809624 -0.060000684 0.021146333 -0.011463337 0.00816883 -0.08397858 0.087002814
0.04012422 -0.066505104 -0.050008763 -0.07594699 0.07817987 0.00908044 -0.021388449 -0.03596327
-0.017119955 -0.047211953 -0.059195533 0.046689317 0.11582736 0.0105119925 0.092320964 0.071269915
0.02400522 0.060489755 -0.0533289 -0.021293562 -0.059020266 0.00890471 -0.040928327 0.021622619
-0.002810323 -0.0139514925 0.049287535 -0.009261526 0.008984847 0.01192436 -0.01937622 0.04613354
0.01150672 -0.07685811 0.07134103 -0.059903387 -0.037190188 0.040269423 -0.0011482965 -0.013707425
0.0053996863 0.10175617 -0.1046378 -0.11070574 -0.04431113 0.023329364 0.060287997 0.09414794
0.015942752 0.045207735 -0.05909595 0.07129046 0.03989075 -0.0017854034 -0.07343876 0.076748945
0.02469374 0.017298864 0.042748682 -0.029507345 0.058024585 -0.05085445 0.041285276 0.08037054
-0.10062717 0.012566478 -0.055438284 0.020637177 0.07618325 0.11958955 0.01460687 0.0856757
00000000: ef6d babd 283f 51bd 64e5 d53c c624 98bc
00000010: 25ab 133b e4d2 893d 91f4 723c 47c9 1bbd
00000020: e25f 68bc 0198 6cbc 9bb7 9c3d abcc 153c
00000030: 7a75 303d 67d8 083e f7a2 58bc 9836 41bd
00000040: 4bff 163d b84f bcbd a33f 3ebd e121 d6bc
00000050: 6287 0bbd 2dc8 cbbc 48a5 1b3c 2308 7f3d
00000060: 6fe0 97bd 4c8a acbc 48be 64bd 4d7d 3e3d
00000070: 5424 423d 2ad8 853d dae9 a73d 225b 4a3d
00000080: b6ff c8bc b783 62bd c58e 9cbd 2518 3d3d
00000090: d29b 1ebd d26e 2c3d 93a9 f0bd 7b34 e63c
000000a0: ff39 163d ffe4 d73c 92d2 48bd 00b5 b93d
000000b0: 92e8 b03c 53c1 353d fc58 adbb 18dc 02bb
000000c0: dbf1 153d d2a7 3ebc 3160 96bd affb 9d3c
000000d0: b84f 12bb 8333 9abd 5176 0e3d e8a3 9a3b
000000e0: 84ac 59bc 0050 013d 8327 963d 3eb9 9cbd
000000f0: 252d d63d 6661 a33d cb39 babc 746b 8e3d
00000100: b7c8 373a 2870 253d 78db bb3c df57 dcbd
00000110: 3847 573d 7103 9f3d 273e 633d c06b 893d
00000120: 7bec aabd 3967 893d cddb a53c 9ab6 a3bd
00000130: 9645 7ebd 1326 f9bc 76e0 373d 7587 aabd
00000140: f193 d33d b466 933d 8000 2e3d 938f d13d
00000150: 402c 1bbd 41d7 5abd 39cc 00bd d069 efbc
00000160: e711 673d 8f7a 30bd c9ee bf3d 9a8e 033c
00000170: 0afd 84bb ae5b 773c 5bc2 933d c7e3 61bd
00000180: 47ac 8a3d 814a 81bc 72c1 483b aeaf 9bbd
00000190: f297 213c 9e64 2abd 0bca 9fbd 9532 7a3b
000001a0: b06b 993d 8507 86bc 6378 f73c 0048 3dbd
000001b0: 570a 19bd 0bd8 643d f19f 39bd 8b58 66bd
000001c0: 34e5 1fbd 7e7c c53c 6e90 a6bd 5470 873d
000001d0: a950 a2bd dc6b 853d 57fb 52bd 7773 a0bc
000001e0: 4115 a63d e86e df3c fff2 a8bc ddc9 40bd
000001f0: 50a9 cb3d f21a b7bc 8d89 dd3c 43f6 523d
00000200: 6fa1 13bd bc21 8dbd 0ddf 8a3d 8560 8dbb
00000210: 7d47 893c 2687 593d 1d6a 6c3d e7c3 5f3d
00000220: 456a d33a ed50 d53c f397 063d 1066 303c
00000230: 2b8c 873d 2b5d 02bc f407 9f3b 5797 863d
00000240: 3ca5 4e3b 232b 153d ec96 05bd 1ce0 9fbd
00000250: 97a8 7ebd f47c a6bd 598a 8ebd 0c59 533c
00000260: ecef 003d 055a 9c3d 78b7 b13d 4927 1bbc
00000270: 332c c8bc 495c 57bc ba06 aa3b bda2 cfbd
00000280: df2d febc 4185 053a 80bc a4bd b2a5 d4bc
00000290: dacc 883b 634e d6bc 7e92 ce3c 76f9 123d
000002a0: 69ae 6b3d 09f7 0cbd 69e9 753a 6dc9 543b
000002b0: d805 803d 2a55 60bd 2db4 583d f3d8 94bd
000002c0: c7f1 bbbd a298 643d 47c3 75bd 133b ad3c
000002d0: b8d0 3bbc 8ed6 053c f6fc abbd 882e b23d
000002e0: 4b59 243d d433 88bd fdd5 4cbd 188a 9bbd
000002f0: c51c a03d 20c6 143c d436 afbc 394e 13bd
00000300: 263f 8cbc 5261 41bd 0477 72bd 4c3d 3f3d
00000310: e536 ed3d 7e3a 2c3c c612 bd3d f6f5 913d
00000320: 98a6 c43c 1bc4 773d 686f 5abd d66f aebc
00000330: 3cbf 71bd 10e5 113c 76a4 27bd eb21 b13c
00000340: 652d 38bb cd94 64bc bae1 493d a8bd 17bc
00000350: 2e35 133c 645e 433c e1ba 9ebc 86f6 3c3d
00000360: af86 3c3c c967 9dbd 3f1b 923d 415d 75bd
00000370: bd54 18bd 8df1 243d 7082 96ba 1c95 60bc
00000380: daef b03b 8a65 d03d 584c d6bd b1b9 e2bd
00000390: 967f 35bd 391d bf3c 8cf0 763d a3d0 c03d
000003a0: 609a 823c bf2b 393d 980e 72bd bc00 923d
000003b0: 7c64 233d 3204 eaba 1067 96bd 8d2e 9d3d
000003c0: 874a ca3c 59b6 8d3c 3e19 2f3d 63b9 f1bc
000003d0: 30ab 6d3d c14c 50bd c01a 293d 4f99 a43d
000003e0: 9e15 cebd a1e3 4d3c 4113 63bd 4c0f a93c
000003f0: f705 9c3d 5eeb f43d a751 6f3c be76 af3d

blocks.1.norm1.weight f4 [32]
1.0131111 1.0571034 1.0451189 1.0207788 1.0236455 1.0244031 1.0722935 0.98986185
1.051379 1.0262374 0.9966814 1.0330077 1.0348262 1.0100565 1.0207378 1.0397927
1.0648555 1.0227151 0.9962643 0.9783487 1.0463761 1.0393392 1.0621016 1.0381153
0.9766808 1.0328764 1.0298408 1.0021845 1.0585052 1.0411718 1.0372847 1.0476352
00000000: a0ad 813f 2a4f 873f 75c6 853f e1a8 823f
00000010: d106 833f a41f 833f ea40 893f 9667 7d3f
00000020: 9693 863f bf5b 833f 8326 7f3f 9939 843f
00000030: 2f75 843f 8849 813f 89a7 823f ed17 853f
00000040: 2f4d 883f 54e8 823f 2d0b 7f3f 0f75 7a3f
00000050: a7ef 853f 1109 853f f2f2 873f f6e0 843f
00000060: c107 7a3f 4b35 843f d3d1 833f 9547 803f
00000070: 197d 873f 1e45 853f bfc5 843f e918 863f

blocks.1.norm1.bias f4 [32]
0.014410735 0.0013739789 -0.0011554735 0.0074371654 0.007969553 0.0015843812 -0.02274467 -0.0011174176
-0.011776808 -0.0047214353 -0.0013403145 0.0075436747 0.007204953 -0.011053536 0.009936851 9.59515e-05
-0.013133103 0.00837631 0.005423957 0.011920581 -0.035563868 0.006901379 -0.0057903877 0.0072472417
-0.011907004 -0.00571595 0.009408618 -0.01151718 0.004430126 0.02125724 -0.009504484 -0.008253941
00000000: 011b 6c3c 1517 b43a 4273 97ba 77b3 f33b
00000010: ba92 023c 03ab cf3a 0853 babc 5076 92ba
00000020: 83f3 40bc 45b6 9abb 7ead afba ee30 f73b
00000030: 8717 ec3b e419 35bc 2dce 223c 9239 c938
00000040: 3a2c 57bc ca3c 093c 73bb b13b 8a4e 433c
00000050: 6bab 11bd f724 e23b 4bbd bdbb 457a ed3b
00000060: 9815 43bc dd4c bbbb 9b26 1a3c 8eb2 3cbc
00000070: 972a 913b aa23 ae3c b2b8 1bbc 8a3b 07bc

blocks.1.attn.qkv.weight f4 [96, 32]
0.03346771 -0.022729853 -0.0035186103 -0.16131331 0.08991435 0.039480887 -0.13327049 -0.12284032
-0.081434384 0.13134763 0.046112545 -0.056793522 0.08391094 -0.020689704 -0.14503625 0.06768259
0.04662711 0.075621195 0.15408649 0.015805243 0.011510635 -0.07276827 0.16477191 -0.078584276
-0.094630495 -0.06308912 -0.073682584 0.1063527 0.14833501 0.04237415 -0.0461532 0.14019795
0.012107773 -0.08314647 -0.031203335 0.018833641 0.1715419 -0.02676527 -0.18713701 -0.19896786
-0.09148032 -0.08739344 -0.060343526 0.08337354 0.006974626 -0.06711855 0.14156461 -0.11357198
-0.016078215 0.019932963 -0.07476479 -0.09878732 -0.027516844 0.17343841 0.1925539 0.021490483
0.00078894227 0.10886659 0.07297145 -0.0580071 -0.037777327 0.12175681 -0.066893 0.017156072
0.05185897 0.036943458 -0.17684697 -0.008837454 0.19330429 0.22745715 -0.021064315 0.09984375
0.04520643 0.021014512 0.023638587 0.0013926218 -0.111488834 -0.15875773 0.23570412 0.0022774835
-0.21160014 -0.045774043 0.12304905 -0.08367881 -0.12901996 0.15015256 -0.017699504 -0.06577534
0.00946094 0.11596941 0.11938165 -0.09537459 0.15439524 0.08371081 0.19202304 -0.116335444
0.13134722 0.08276609 -0.17630729 -0.013495302 -0.1399707 0.052272543 0.12736727 0.14650325
-0.10422157 0.09993543 -0.057543665 -0.1526471 0.017781839 0.12757976 -0.09671322 -0.0705532
0.11140034 0.12121674 -0.07751014 -0.08743541 0.05367658 0.1818825 -0.18231118 -0.039576698
-0.0732975 -0.15325293 0.019422501 0.05203714 0.03807519 -0.08231188 -0.1528761 0.023722557
-0.12414149 -0.02264135 0.13339555 -0.0582372 0.18249229 -0.1503202 0.14056729 0.13934162
-0.13979316 -0.09611532 0.158905 -0.001613598 -0.1912854 -0.075232275 0.17180933 0.11844332
0.06042911 0.13261244 0.043057162 -0.0649208 0.13822761 0.086356804 -0.06722644 0.15837213
0.15119122 -0.035316605 -0.1569993 -0.13858649 0.09312043 -0.0009886515 -0.107030146 -0.008296923
0.0044379137 0.017048735 0.19488259 0.20541985 -0.10918642 -0.15246871 0.047375727 0.05637801
0.15224563 0.20069528 0.22317268 -0.12675261 0.07510383 -0.032774575 -0.17744502 -0.064576946
0.04801999 -0.08370628 0.14195679 0.015962979 -0.041406147 -0.11390426 0.12596306 0.022092069
-0.024367662 -0.019643232 -0.15842229 -0.12057403 -0.16836812 -0.19991808 0.07624792 -0.14679748
-0.17487042 0.08521115 0.02660091 0.17707232 -0.21141604 0.04773013 0.17407033 -0.04000561
-0.06668546 -0.031467155 0.0029462818 -0.16716005 0.01557647 0.09282384 -0.150722 0.10757053
0.013476154 -0.10164607 -0.08584321 -0.11881229 -0.057316978 -0.21012709 0.08032486 -0.088990636
0.12178719 0.036850568 0.17750983 0.096762985 0.04955958 -0.018145524 0.12508689 -0.046012923
0.07369926 -0.16654752 -0.009905093 0.16231212 -0.061617624 -0.18256238 0.14782512 0.05347838
-0.064773284 0.06080398 0.13845912 -0.14368755 0.010960557 0.022563752 0.10485961 -0.054674424
0.20868163 -0.18170443 0.08837766 -0.058563024 0.055668127 -0.09455107 -0.13410312 -0.0012723282
-0.037157733 -0.044574622 -0.0054089143 0.06562379 -0.019386584 -0.096983835 0.06601572 0.045468982
00000000: 7015 093d f533 babc 7c98 66bb 512f 25be
00000010: 0425 b83d b6b6 213d 0f78 08be b593 fbbd
00000020: 12c7 a6bd fe7f 063e 82e0 3c3d 53a0 68bd
00000030: 80d9 ab3d 747d a9bc 6284 14be 2b9d 8a3d
00000040: 12fc 3e3d 49df 9a3d d9c8 1d3e ff79 813c
00000050: 1a97 3c3c 8807 95bd f8b9 283e cbf0 a0bd
00000060: a2cd c1bd de34 81bd e5e6 96bd 72cf d93d
00000070: 22e5 173e 8490 2d3d 230b 3dbd 0d90 0f3e
00000080: ae5f 463c b248 aabd 239e ffbc 0249 9a3c
00000090: aea8 2f3e d742 dbbc d8a0 3fbe 3bbe 4bbe
000000a0: 095a bbbd 55fb b2bd c62a 77bd bfbf aa3d
000000b0: 678b e43b 7375 89bd 50f6 103e 6d98 e8bd
000000c0: 76b6 83bc 744a a33c 481e 99bd 0251 cabd
000000d0: 016b e1bc d799 313e d92c 453e cf0c b03c
000000e0: 05d1 4e3a 72f5 de3d 0e72 953d da98 6dbd
000000f0: 66bc 1abd a25b f93d 32ff 88bd e48a 8c3c
00000100: 126a 543d 0652 173d 5f17 35be f8ca 10bc
00000110: 8ff1 453e 87ea 683e 128f acbc e17a cc3d
00000120: 612a 393d a026 ac3c b6a5 c13c a288 b63a
00000130: 4254 e4bd 6391 22be 6c5c 713e d541 153b
00000140: b5ad 58be 907d 3bbd 2401 fc3d cc5f abbd
00000150: cf1d 04be 98c1 193e 8dfe 90bc 39b5 86bd
00000160: 0f02 1b3c 5f81 ed3d 5e7e f43d c153 c3bd
00000170: c919 1e3e 9370 ab3d b0a1 443e 4741 eebd
00000180: e37f 063e 4581 a93d e689 34be 661b 5dbc
00000190: 7b54 0fbe bc1b 563d 916c 023e f304 163e
000001a0: 1e72 d5bd f2aa cc3d e8b2 6bbd 854f 1cbe
000001b0: 38ab 913c 45a4 023e 9511 c6bd 327e 90bd
000001c0: dd25 e43d 7b40 f83d a3bd 9ebd 5611 b3bd
000001d0: f9db 5b3d 683f 3a3e c8af 3abe 2d1b 22bd
000001e0: 001d 96bd 56ee 1cbe f01b 9f3c e524 553d
000001f0: bbf4 1b3d 2293 a8bd 8d8b 1cbe cf55 c23c
00000200: e53d febd 5a7a b9bc d898 083e 218a 6ebd
00000210: 42df 3a3e 8aed 19be dff0 0f3e 92af 0e3e
00000220: f025 0fbe 1cd8 c4bd feb7 223e 5d7f d3ba
00000230: 52e0 43be 6113 9abd c9ee 2f3e 6992 f23d
00000240: 8484 773d 8ecb 073e b55c 303d 32f5 84bd
00000250: 8a8b 0d3e d6db b03d 04ae 89bd 4e2c 223e
00000260: dfd1 1a3e 25a8 10bd 6dc4 20be 9ee9 0dbe
00000270: edb5 be3d a495 81ba 9f32 dbbd d1ef 07bc
00000280: eb6b 913b caa9 8b3c 4d8f 473e 9559 523e
00000290: 219d dfbd c220 1cbe 0d0d 423d a1ec 663d
000002a0: 47e6 1b3e 1083 4d3e 6187 643e 70cb 01be
000002b0: 09d0 993d a23e 06bd 26b4 35be eb40 84bd
000002c0: 9cb0 443d 336e abbd 1f5d 113e cbc4 823c
000002d0: 7e99 29bd a346 e9bd 76fc 003e 6dfa b43c
000002e0: b19e c7bc d8ea a0bc 7439 22be 84ef f6bd
000002f0: b168 2cbe 53b7 4cbe df27 9c3d 1452 16be
00000300: 3b11 33be 2f83 ae3d 27ea d93c 7252 353e
00000310: 727d 58be ab80 433d 7e3f 323e ecdc 23bd
00000320: 6392 88bd b4e3 00bd 6816 413b 012c 2bbe
00000330: 7334 7f3c 6d1a be3d de56 1abe f04d dc3d
00000340: 16cb 5c3c d12b d0bd 91ce afbd dc53 f3bd
00000350: 35c5 6abd 8e2b 57be 5c81 a43d b940 b6bd
00000360: 906b f93d 9ff0 163d 23c5 353e ac2b c63d
00000370: fcfe 4a3d eca5 94bc c716 003e 0c78 3cbd
00000380: a3ef 963d 6f8b 2abe f948 22bc 2635 263e
00000390: c362 7cbd a2f1 3abe 785f 173e 250c 5b3d
000003a0: dba7 84bd 980d 793d 3ac8 0d3e d422 13be
000003b0: e893 333c 9ed7 b83c a3c0 d63d 4af2 5fbd
000003c0: a3b0 553e ba10 3abe 59ff b43d c8df 6fbd
000003d0: 4304 643d fea3 c1bd 5452 09be 40c4 a6ba
000003e0: b532 18bd e193 36bd 433d b1bb c465 863d
000003f0: 9dd0 9ebc 769f c6bd 4033 873d af3d 3a3d
