image_encoder/trained_models/vit_20241110_194252.pth (torch, 454617 bytes, 59 tensors)

cls_token f4 [1, 1, 32]
0	0x3c1479a5	0.009062205
1	0x3ca2d45c	0.019876651
2	0xbbb1bbd5	-0.0054240027
3	0x3c28d07d	0.010303614
4	0x3c14ac2f	0.009074255
5	0xbb47aee2	-0.0030469229
6	0xbcaa8197	-0.020813746
7	0xbc29ec7c	-0.010371324
8	0x390a616a	0.00013196995
9	0x3a992856	0.0011684995
10	0x3c3fbfc6	0.011703437
11	0xbc35d0c4	-0.011097137
12	0x3a48d7f0	0.0007661572
13	0x3c10a6b5	0.008828809
14	0xbc2cb846	-0.010541981
15	0x3a1d9d38	0.0006012502
16	0x3bdc5d4f	0.0067249904
17	0xbc7a8b9f	-0.015292077
18	0x3c27a064	0.010231111
19	0xbc137268	-0.008999445
20	0x3b9a0eb5	0.0047014602
21	0x3bff37d5	0.007788638
22	0x3bf8a37a	0.0075878473
23	0x3c61f68b	0.013791691
24	0x3a1cc234	0.0005979866
25	0xba062bdc	-0.000511823
26	0xbb1e60fe	-0.0024166699
27	0x3c613202	0.013744833
28	0xbb0d4541	-0.002155617
29	0xbc4832ed	-0.012219173
30	0xbc00ee11	-0.007869259
31	0xbc9ff04d	-0.019523764

pos_enc f4 [32, 32, 32]
0	0x00000000	0.0
1	0x3f800000	1.0
2	0x00000000	0.0
3	0x3f800000	1.0
4	0x00000000	0.0
5	0x3f800000	1.0
6	0x00000000	0.0
7	0x3f800000	1.0
8	0x00000000	0.0
9	0x3f800000	1.0
10	0x00000000	0.0
11	0x3f800000	1.0
12	0x00000000	0.0
13	0x3f800000	1.0
14	0x00000000	0.0
15	0x3f800000	1.0
16	0x00000000	0.0
17	0x3f800000	1.0
18	0x00000000	0.0
19	0x3f800000	1.0
20	0x00000000	0.0
21	0x3f800000	1.0
22	0x00000000	0.0
23	0x3f800000	1.0
24	0x00000000	0.0
25	0x3f800000	1.0
26	0x00000000	0.0
27	0x3f800000	1.0
28	0x00000000	0.0
29	0x3f800000	1.0
30	0x00000000	0.0
31	0x3f800000	1.0
32	0x00000000	0.0
33	0x3f800000	1.0
34	0x00000000	0.0
35	0x3f800000	1.0
36	0x00000000	0.0
37	0x3f800000	1.0
38	0x00000000	0.0
39	0x3f800000	1.0
40	0x00000000	0.0
41	0x3f800000	1.0
42	0x00000000	0.0
43	0x3f800000	1.0
44	0x00000000	0.0
45	0x3f800000	1.0
46	0x00000000	0.0
47	0x3f800000	1.0
48	0x3f576aa4	0.84147096
49	0x3f0a5141	0.54030234
50	0x3f087dba	0.53316844
51	0x3f58940d	0.8460091
52	0x3e9f393e	0.3109836
53	0x3f734e6b	0.9504153
54	0x3e35233a	0.17689219
55	0x3f7bf683	0.9842302
56	0x3dcc7577	0.09983342
57	0x3f7eb898	0.9950042
58	0x3d6636af	0.056204494
59	0x3f7f9868	0.9984193
60	0x3d01815c	0.031617507
61	0x3f7fdf3c	0.99950004
62	0x3c91ab42	0.017781857
63	0x3f7ff5a3	0.99984187
64	0x00000000	0.0
65	0x3f800000	1.0
66	0x00000000	0.0
67	0x3f800000	1.0
68	0x00000000	0.0
69	0x3f800000	1.0
70	0x00000000	0.0
71	0x3f800000	1.0
72	0x00000000	0.0
73	0x3f800000	1.0
74	0x00000000	0.0
75	0x3f800000	1.0
76	0x00000000	0.0
77	0x3f800000	1.0
78	0x00000000	0.0
79	0x3f800000	1.0
80	0x3f68c7b7	0.9092974
81	0xbed51133	-0.41614684
82	0x3f66f20a	0.9021307
83	0x3edce8b2	0.43146282
84	0x3f17541b	0.5911271
85	0x3f4e7bec	0.8065784
86	0x3eb247f6	0.34820527
87	0x3f6ffaa6	0.93741834
88	0x3e4b6ff9	0.19866933
89	0x3f7ae5a5	0.9800666
90	0x3de5d987	0.11223131
91	0x3f7e61f3	0.9936821
92	0x3d8170c9	0.0632034
93	0x3f7f7cf9	0.9980007
94	0x3d11a55c	0.03555809
95	0x3f7fd68e	0.9993676
96	0x00000000	0.0
97	0x3f800000	1.0
98	0x00000000	0.0
99	0x3f800000	1.0
100	0x00000000	0.0
101	0x3f800000	1.0
102	0x00000000	0.0
103	0x3f800000	1.0
104	0x00000000	0.0
105	0x3f800000	1.0
106	0x00000000	0.0
107	0x3f800000	1.0
108	0x00000000	0.0
109	0x3f800000	1.0
110	0x00000000	0.0
111	0x3f800000	1.0
112	0x3e1081c3	0.14112
113	0xbf7d7026	-0.9899925
114	0x3f7e45d7	0.9932532
115	0xbded7fab	-0.11596616
116	0x3f5009c2	0.8126489
117	0x3f152f58	0.58275366
118	0x3f022f6d	0.50853616
119	0x3f5c6d29	0.86104065
120	0x3e974e6d	0.29552022
121	0x3f7490ef	0.9553365
122	0x3e2beed8	0.1679033
123	0x3f7c5d9e	0.9858035
124	0x3dc1ffc1	0.09472609
125	0x3f7ed94f	0.99550337
126	0x3d5a694e	0.053323083
127	0x3f7fa2c3	0.9985773
128	0x00000000	0.0
129	0x3f800000	1.0
130	0x00000000	0.0
131	0x3f800000	1.0
132	0x00000000	0.0
133	0x3f800000	1.0
134	0x00000000	0.0
135	0x3f800000	1.0
136	0x00000000	0.0
137	0x3f800000	1.0
138	0x00000000	0.0
139	0x3f800000	1.0
140	0x00000000	0.0
141	0x3f800000	1.0
142	0x00000000	0.0
143	0x3f800000	1.0
144	0xbf41bdcf	-0.7568025
145	0xbf275530	-0.6536436
146	0x3f4749ec	0.7784717
147	0xbf20af9e	-0.6276797
148	0x3f741dde	0.95358074
149	0x3e9a2eb1	0.30113748
150	0x3f271fbc	0.652828
151	0x3f41ebed	0.7575062
152	0x3ec761d8	0.38941836
153	0x3f6bcaa7	0.921061
154	0x3e6465c6	0.22304448
155	0x3f798d09	0.9748083
156	0x3e012e89	0.12615408
157	0x3f7df469	0.99201065
158	0x3d918dc8	0.07107121
159	0x3f7f5a46	0.9974712
160	0x00000000	0.0
161	0x3f800000	1.0
162	0x00000000	0.0
163	0x3f800000	1.0
164	0x00000000	0.0
165	0x3f800000	1.0
166	0x00000000	0.0
167	0x3f800000	1.0
168	0x00000000	0.0
169	0x3f800000	1.0
170	0x00000000	0.0
171	0x3f800000	1.0
172	0x00000000	0.0
173	0x3f800000	1.0
174	0x00000000	0.0
175	0x3f800000	1.0
176	0xbf757c10	-0.9589243
177	0x3e913c2c	0.2836622
178	0x3ea5dad8	0.32393527
179	0xbf723240	-0.94607925
180	0x3f7ffc7f	0.99994653
181	0xbc2972e9	-0.010342338
182	0x3f46caab	0.77652997
183	0x3f214cf1	0.6300803
184	0x3ef57744	0.47942555
185	0x3f60a940	0.87758255
186	0x3e8e11ed	0.2774805
187	0x3f75f27c	0.96073127
188	0x3e213c1e	0.15745589
189	0x3f7cce81	0.987526
190	0x3db5db21	0.08879686
191	0x3f7efd1e	0.99604976
192	0x00000000	0.0
193	0x3f800000	1.0
194	0x00000000	0.0
195	0x3f800000	1.0
196	0x00000000	0.0
197	0x3f800000	1.0
198	0x00000000	0.0
199	0x3f800000	1.0
200	0x00000000	0.0
201	0x3f800000	1.0
202	0x00000000	0.0
203	0x3f800000	1.0
204	0x00000000	0.0
205	0x3f800000	1.0
206	0x00000000	0.0
207	0x3f800000	1.0
208	0xbe8f0f8c	-0.2794155
209	0x3f75cdb8	0.96017027
210	0xbe6be576	-0.23036751
211	0xbf791d53	-0.9731037
212	0x3f72784e	0.9471482
213	0xbea43f6d	-0.3207964
214	0x3f603089	0.8757406
215	0x3ef72f32	0.48278195
216	0x3f108c69	0.5646425
217	0x3f534932	0.8253356
218	0x3ea97dfd	0.33103934
219	0x3f7190e2	0.943617
220	0x3e41206f	0.18860029
221	0x3f7b67e3	0.98205394
222	0x3dda19c2	0.10649444
223	0x3f7e8b51	0.9943133
224	0x00000000	0.0
225	0x3f800000	1.0
226	0x00000000	0.0
227	0x3f800000	1.0
228	0x00000000	0.0
229	0x3f800000	1.0
230	0x00000000	0.0
231	0x3f800000	1.0
232	0x00000000	0.0
233	0x3f800000	1.0
234	0x00000000	0.0
235	0x3f800000	1.0
236	0x00000000	0.0
237	0x3f800000	1.0
238	0x00000000	0.0
239	0x3f800000	1.0
240	0x3f283046	0.6569866
241	0x3f40ffbd	0.75390226
242	0xbf36b66d	-0.7137211
243	0xbf334f61	-0.70043
244	0x3f4ce86e	0.8004216
245	0xbf1974bc	-0.5994375
246	0x3f728444	0.9473307
247	0x3ea3f8b6	0.3202569
248	0x3f24eb73	0.64421767
249	0x3f43ccb3	0.7648422
250	0x3ec460de	0.38355154
251	0x3f6c6bc6	0.9235195
252	0x3e60d351	0.21955611
253	0x3f79c0ea	0.9755999
254	0x3dfe46ba	0.12415834
255	0x3f7e04e9	0.9922624

norm.weight f4 [32]
0	0x3f1605bb	0.58602494
1	0x3f57af24	0.8425162
2	0x3f3af9f0	0.73037624
3	0x3f303e72	0.68845284
4	0x3f32905e	0.69751537
5	0x3f51caba	0.8194996
6	0x3f2a646d	0.6655949
7	0x3f3918cd	0.7230347
8	0x3f01c969	0.5069795
9	0x3efe9f59	0.49730948
10	0x3f12b113	0.57301444
11	0x3f210acd	0.62907106
12	0x3f361ab4	0.71134496
13	0x3f451398	0.7698302
14	0x3f1a9804	0.6038821
15	0x3f370fb2	0.71508324
16	0x3f3f3a3f	0.7469825
17	0x3f5074de	0.81428325
18	0x3f153098	0.58277273
19	0x3f1c8261	0.6113644
20	0x3f4b4b12	0.79411423
21	0x3f350fba	0.7072712
22	0x3f18e9f1	0.59731966
23	0x3f44a30a	0.7681128
24	0x3eecc35b	0.46242794
25	0x3f3fd01c	0.74926925
26	0x3f1900a1	0.59766585
27	0x3f3b36a6	0.7313026
28	0x3f127f48	0.57225466
29	0x3f57e422	0.8433248
30	0x3f2140a4	0.6298926
31	0x3eeb0667	0.45903322

norm.bias f4 [32]
0	0x3c7fd73d	0.015615282
1	0x3d47361b	0.048635583
2	0xbd334613	-0.043768
3	0x3e6e0976	0.23245797
4	0x3d2b722a	0.041856922
5	0x3d8c222e	0.06842457
6	0xbd452185	-0.04812767
7	0xbd53ad14	-0.051678732
8	0xbe4d488a	-0.20047203
9	0xbe9bc227	-0.30421564
10	0x3e1697d0	0.1470635
11	0x3e246210	0.16053033
12	0x3e27ae12	0.16374996
13	0x3dac887e	0.08424471
14	0xbe140eb3	-0.14458732
15	0x3c4cfb01	0.012511016
16	0xbd382d89	-0.0449653
17	0xbb84056f	-0.004028968
18	0xbe077fe4	-0.1323238
19	0x3dcba16b	0.099428974
20	0x3dc37584	0.09543899
21	0x3d195bed	0.037441183
22	0x3e6349d5	0.22196133
23	0x3b956670	0.0045593306
24	0x3e52df6f	0.20593046
25	0xbe286f6c	-0.16448754
26	0xbcae2a9b	-0.02126055
27	0xbe042cb5	-0.1290768
28	0x3cf84481	0.030306103
29	0x3ce63349	0.028100627
30	0x3e6a1c5e	0.22862384
31	0xbed8ae53	-0.423205

patch_embeddings.weight f4 [14, 32]
0	0x3ff79746	1.934304
1	0x3fbc06fd	1.4689633
2	0x3f6bb77b	0.92076844
3	0xc0066402	-2.099854
4	0x3f2f8473	0.68561476
5	0xbf9e7feb	-1.2382787
6	0xbdc3da3a	-0.09563108
7	0xbfce0954	-1.6096597
8	0xbf41d88b	-0.75721043
9	0x3fcf8a57	1.6214093
10	0xbec2152b	-0.37906775
11	0xbfb2a2fc	-1.3955989
12	0xbf2f8bb6	-0.68572557
13	0xbf0d2371	-0.55132204
14	0xbf46cb50	-0.7765398
15	0x3f3d7861	0.7401181
16	0x3fd316b4	1.6491303
17	0xbdf94985	-0.12172226
18	0xbee7cbf4	-0.4527279
19	0x3ee4e3b2	0.44704968
20	0xbf32d57f	-0.6985702
21	0x3f8bafec	1.0913062
22	0x3f40ce32	0.7531463
23	0x3fd8636b	1.690534
24	0x3f9f6aa5	1.245442
25	0x3faa100e	1.328615
26	0x3f15d131	0.58522326
27	0x3fa6a76b	1.3019842
28	0xbe74b300	-0.23896408
29	0x3c79a793	0.015237707
30	0xbe827994	-0.25483382
31	0x3f5b27b2	0.85607445
32	0xbfb66c5b	-1.4251817
33	0xbf5dd4fc	-0.86653113
34	0xbe47229f	-0.194468
35	0x3fde7426	1.7379196
36	0x3e908f85	0.28234497
37	0xbec48b2d	-0.38387433
38	0x3ea81d88	0.3283503
39	0xbf396dd5	-0.72433215
40	0xbfc1dd98	-1.514575
41	0x3f8182b3	1.0118011
42	0xbf641367	-0.89092106
43	0xbf1a1b16	-0.6019758
44	0xbfa2e573	-1.2726272
45	0x4005b599	2.0892088
46	0xbf99ded0	-1.2021122
47	0xbf043794	-0.51647305
48	0xbf676d38	-0.9040103
49	0xbf236979	-0.63832814
50	0x3d713e23	0.05889715
51	0x3f05af52	0.5222064
52	0xbf03d868	-0.51502085
53	0x3f941f0b	1.1571974
54	0xbf49b5d8	-0.78793097
55	0xbf3bb728	-0.7332635
56	0xbfb29857	-1.395274
57	0xbc2e4a8c	-0.010637891
58	0xbd6281c3	-0.05529953
59	0x3f27a161	0.6548062
60	0xbdccfc9f	-0.10009121
61	0x3feb0ee0	1.8363914
62	0xbf955028	-1.1665087
63	0x3fb03204	1.3765264
64	0x3fb1b33d	1.3882824
65	0x3f65d5e0	0.8977947
66	0x400cb07f	2.1982725
67	0x3f00cd4f	0.50313276
68	0x3e9f5da1	0.3112612
69	0xbe0ea4e1	-0.13930084
70	0xbf7a5952	-0.9779254
71	0x3fa50747	1.2892846
72	0xbdc63f43	-0.09680035
73	0x3f186d23	0.5954153
74	0x3d827240	0.06369448
75	0x3ec66dc8	0.3875563
76	0x3f1576ea	0.58384573
77	0xbf228cfd	-0.6349638
78	0xc00c2798	-2.1899166
79	0xbf437da4	-0.7636359
80	0x3b0b19ef	0.0021225174
81	0xbeb502ce	-0.35353702
82	0xbfaf7842	-1.3708575
83	0xbf042ec1	-0.5163384
84	0x3ef59834	0.47967684
85	0x3f033288	0.5124898
86	0x3f94c518	1.1622648
87	0xbc758d81	-0.01498735
88	0x3f2bbbd4	0.6708348
89	0xbf02500c	-0.5090339
90	0xbf883a1e	-1.0642736
91	0x3f0e0da6	0.55489576
92	0xbfe2778c	-1.7692733
93	0xbf43c31b	-0.7646958
94	0x3faeee80	1.3666534
95	0x3ee86bf0	0.4539485
96	0xc01e0dc1	-2.4695895
97	0x3eebec20	0.46078587
98	0x3f495dff	0.7865905
99	0xbb4de40c	-0.0031416444
100	0x3f213209	0.6296697
101	0x3f14f2d2	0.58183014
102	0x3f858cd2	1.04336
103	0xbee3357a	-0.44376737
104	0xbe67350e	-0.22578833
105	0x3f42d5c8	0.76107454
106	0x3ec7081d	0.38873377
107	0x3e600951	0.21878554
108	0x3e8cfb3c	0.27535427
109	0x3fa689a8	1.3010759
110	0xba8114f7	-0.0009848167
111	0xbeb3fa4b	-0.35151896
112	0xbfb7bf81	-1.4355317
113	0xbdd64473	-0.104622744
114	0xbf1088e7	-0.56458896
115	0x3f07bef9	0.53025776
116	0x3f36db91	0.7142878
117	0x3e120561	0.14259864
118	0xbedc3e70	-0.43016386
119	0x3f07cdea	0.53048575
120	0xbd4aeca8	-0.0495421
121	0x3e931377	0.28725788
122	0x3de2379f	0.11045765
123	0x3f31d375	0.6946328
124	0x3f8f77c2	1.1208422
125	0x3ebef765	0.37298122
126	0x3f2fa55a	0.6861168
127	0x3ed5b0d3	0.4173647
128	0x3ff892dd	1.9419819
129	0x3f7efb6e	0.996024
130	0xbfb7e59c	-1.4366946
131	0xbf90583d	-1.1276928
132	0xbe17e84d	-0.1483471
133	0x3fcd73b0	1.605093
134	0x3f2bffcc	0.6718719
135	0x3f17c17e	0.5927962
136	0x3f91d9ea	1.1394627
137	0x3d052bcf	0.032512482
138	0xbfe37657	-1.777049
139	0x3f6890f9	0.9084621
140	0xbec13f13	-0.37743434
141	0x3f87bd17	1.0604581
142	0xbf323700	-0.69615173
143	0x3f1cf8c3	0.6131708
144	0xbf70b33d	-0.94023496
145	0x3f7242b9	0.9463306
146	0x3fc4233b	1.5323251
147	0x3fb7dfde	1.4365194
148	0x3e8c45ce	0.27397007
149	0xbe41de1e	-0.18932387
150	0xbf36e1b1	-0.7143813
151	0x3dabc901	0.08387948
152	0x3eaccc65	0.3374969
153	0x3f6e8d5e	0.9318446
154	0xbef925af	-0.48661563
155	0x3fc9a9ff	1.5755004
156	0xc01d072d	-2.453563
157	0xbec90c01	-0.3926697
158	0xbf9815ce	-1.1881654
159	0x3f48067d	0.781349
160	0xbff38f99	-1.9028198
161	0x3e6a5f03	0.22887807
162	0x3cd3ca0d	0.025853181
163	0xbea5a6d5	-0.32353845
164	0x3e9073c1	0.28213313
165	0xbf3227f5	-0.6959222
166	0x3e4f5b32	0.20249632
167	0xbf8694df	-1.0514182
168	0xbfc8f757	-1.5700482
169	0x3fae3327	1.360936
170	0x3fa55a82	1.2918246
171	0x3d16cc34	0.036815837
172	0xbfc4e1e8	-1.5381441
173	0x3f3ccdaf	0.7375135
174	0x3f477023	0.7790548
175	0x3ffefb2d	1.9920403
176	0x3d7159a9	0.058923397
177	0x3e135eef	0.14391683
178	0xbf4da3bb	-0.8032796
179	0xbe680549	-0.22658266
180	0xbf6a9654	-0.9163563
181	0xbfcaa04c	-1.5830169
182	0xbf8d77f5	-1.1052233
183	0xbf14d033	-0.58130187
184	0xbf05d499	-0.52277523
185	0xbfbbab95	-1.4661738
186	0xbff9c490	-1.9513111
187	0x3e08703c	0.13324064
188	0x3f814afd	1.010101
189	0xbf0f0d16	-0.5587934
190	0x3f31e7ba	0.6949421
191	0x3f2ba907	0.6705479
192	0x3fe72594	1.8058343
193	0xbf6a66d7	-0.9156317
194	0x3f7e07b5	0.9923051
195	0xbeb6ff4d	-0.35741654
196	0xbf8dcffe	-1.1079099
197	0x3eaf2682	0.34209067
198	0x3ee2b79f	0.44280717
199	0x3fa98ca0	1.324604
200	0x3ef60db5	0.48057333
201	0x400279a5	2.0386746
202	0xbf062727	-0.5240349
203	0xbf6b41f7	-0.9189753
204	0x3e57791e	0.21042296
205	0x3f872e17	1.056094
206	0x3fa36182	1.2764132
207	0x3ed12fb3	0.40856704
208	0xbf3f9272	-0.7483283
209	0xbf84c38a	-1.0372174
210	0xbef2aee0	-0.47399044
211	0xbf29e735	-0.6636842
212	0x3e2ea4e4	0.17055088
213	0x3eefe855	0.46856943
214	0xbe5404f8	-0.2070502
215	0xc0148bed	-2.3210404
216	0xbed401e4	-0.41407692
217	0x3f87b128	1.0600939
218	0xbfde1681	-1.7350618
219	0x3fbe207f	1.4853667
220	0x3eb112bd	0.3458461
221	0xbf08c350	-0.53423023
222	0x3f8aeae2	1.085293
223	0x3fdf40a8	1.7441607
224	0xbd504fe6	-0.050857447
225	0x3fdc1e11	1.7196676
226	0x3e208ce8	0.15678751
227	0xbf885de1	-1.065365
228	0xbf18e143	-0.5971872
229	0x3e1341dd	0.14380594
230	0x3ee5dfb5	0.44897237
231	0x3ffb8a81	1.9651643
232	0xbd4a37e8	-0.049369723
233	0xbf612ca8	-0.87958765
234	0xc0029028	-2.0400486
235	0xbf8ded11	-1.1087972
236	0x3d9f1227	0.07767134
237	0x3dfbdd8e	0.122981176
238	0x3e56177d	0.20907398
239	0x3ebfb659	0.37443808
240	0xbf779c25	-0.9672263
241	0x3e98f6ea	0.2987588
242	0xbf0c5ce0	-0.54829216
243	0x3f05f073	0.5232002
244	0xbf6934b0	-0.9109602
245	0xbcdb0ea6	-0.026740383
246	0xbea3d200	-0.31996155
247	0x3fafcb3e	1.37339
248	0x3f99e337	1.2022465
249	0xbf338481	-0.7012406
250	0x3f57d92a	0.8431574
251	0x3f00e07a	0.50342524
252	0x3f02e453	0.51129645
253	0x3f15a7c1	0.584591
254	0x3f117c02	0.56829846
255	0x3e178192	0.14795521

blocks.0.norm1.weight f4 [32]
0	0x3f8300fc	1.0234675
1	0x3f802ec0	1.0014267
2	0x3f79763c	0.97446036
3	0x3f7c7e59	0.9863029
4	0x3f804341	1.0020524
5	0x3f7d1779	0.9886394
6	0x3f815fbd	1.0107342
7	0x3f7c2741	0.98497397
8	0x3f82bce5	1.0213896
9	0x3f7f3630	0.9969206
10	0x3f7b15b1	0.98079973
11	0x3f7f8065	0.9980529
12	0x3f7f72f7	0.997848
13	0x3f805207	1.0025033
14	0x3f7c5e5e	0.9858149
15	0x3f7e36c2	0.99302304
16	0x3f818b04	1.0120549
17	0x3f7e5b27	0.9935784
18	0x3f7f175d	0.99645025
19	0x3f7fc73a	0.9991337
20	0x3f7dc1c9	0.9912382
21	0x3f7f659f	0.99764436
22	0x3f816c82	1.0111239
23	0x3f7a8eb8	0.9787402
24	0x3f7f0709	0.9962011
25	0x3f7e666a	0.9937502
26	0x3f7f30d5	0.99683887
27	0x3f7acd3b	0.97969407
28	0x3f7b7c3e	0.98236454
29	0x3f7f7dbb	0.99801224
30	0x3f7cd3b2	0.9876052
31	0x3f7f85dc	0.9981363

blocks.0.norm1.bias f4 [32]
0	0x3bc201a4	0.0059206057
1	0x3c02abbb	0.007975514
2	0xbb825d8e	-0.0039784377
3	0x3bb9adfc	0.0056664925
4	0xbc226bbf	-0.009913384
5	0x3c8fb08e	0.017540243
6	0xbbfa2fc0	-0.007635087
7	0xb99527c4	-0.00028449122
8	0xbba48512	-0.005020746
9	0x3b1804e4	0.0023196274
10	0x3c522adf	0.012827604
11	0xba383a53	-0.0007027734
12	0xbb9b3f1b	-0.0047377474
13	0x3be6baf7	0.007041331
14	0xbadd3d19	-0.001687917
15	0xbba9f335	-0.0051864632
16	0x3c436def	0.011928066
17	0xbbe4a465	-0.006977605
18	0xbb91caa3	-0.004449205
19	0x3b73c09e	0.0037193666
20	0xbb91ee4c	-0.004453456
21	0x3ba1f14a	0.004942094
22	0xbbd06ed9	-0.0063608703
23	0x3c97339e	0.01845723
24	0x3ab12fd6	0.0013518285
25	0xbb47a939	-0.0030465855
26	0xbc1a242f	-0.009408041
27	0xbb2e6708	-0.0026611704
28	0x3b79ec75	0.0038135324
29	0xb9b0f491	-0.00033751552
30	0xbb5ee3bc	-0.0034010252
31	0x3ab51240	0.0013814643

blocks.0.attn.qkv.weight f4 [96, 32]
0	0x3e0e26d3	0.13881998
1	0xbe15c450	-0.14625669
2	0xbc889ee3	-0.016677326
3	0xbe32025f	-0.17383717
4	0xbe1599d9	-0.1460947
5	0x3ca01631	0.019541832
6	0x3d2a3bf2	0.041561075
7	0x3cc41c4d	0.023939276
8	0xbd9b78cd	-0.075914
9	0x3e1981a1	0.14990856
10	0x3ccfe6c4	0.025378592
11	0xbdaf9654	-0.08573595
12	0x3c5d3136	0.013500502
13	0x3d321205	0.043474216
14	0x3d6656af	0.05623501
15	0xbdd742c3	-0.10510781
16	0x3d437c18	0.047725767
17	0xbdae42aa	-0.08508809
18	0xbe234679	-0.15944852
19	0xbdbe7c8e	-0.09301101
20	0x3e4888ce	0.19583437
21	0x3e1485f3	0.14504223
22	0x3e268d4b	0.16264836
23	0x3dd47d73	0.1037549
24	0x3dfda63f	0.123852246
25	0xbd675f63	-0.056487452
26	0xbdcad09b	-0.099030696
27	0x3db107b9	0.08644051
28	0xbdd22198	-0.10260314
29	0xbdd63741	-0.104597576
30	0xbd4f0986	-0.05054619
31	0x3d2a8112	0.041626997
32	0x3daed72c	0.085371345
33	0xbd3d09f4	-0.04615207
34	0xbda7a89f	-0.08186459
35	0x3c8a7799	0.016902732
36	0xbdc29408	-0.09500891
37	0xbdb3d11f	-0.08780121
38	0x3dbc2598	0.09186858
39	0x3bd5b70c	0.006522065
40	0x3e1b9ca1	0.15196468
41	0x3e405e44	0.1878596
42	0x3d1ca86a	0.03824655
43	0x3d1b639b	0.037936788
44	0x3ca694b7	0.020334585
45	0x3b3645d0	0.0027812608
46	0x3a2baad6	0.0006548589
47	0xbcc6ff7f	-0.024291752
48	0x3dbb7f2e	0.09155117
49	0x3e18aea4	0.1491037
50	0xbd00ae59	-0.03141627
51	0xbdb9e63b	-0.09077116
52	0xbdaad20f	-0.08340847
53	0xbd9673f4	-0.07346335
54	0x3c57ddf2	0.0131754745
55	0x3deeb038	0.11654705
56	0x3e098f8a	0.13433662
57	0x3de197e2	0.110152975
58	0xbdfad44b	-0.12247523
59	0xbdabf5c1	-0.08396483
60	0xba86e253	-0.0010290839
61	0xbd65952f	-0.056050476
62	0x3b8d1a87	0.004306141
63	0xbe256921	-0.16153385
64	0x3d62a870	0.055336416
65	0xbe0408c0	-0.12893963
66	0xbdbd1b34	-0.09233704
67	0xbe1a550d	-0.15071507
68	0x3e22aa1c	0.15885204
69	0xbe29ca13	-0.16580991
70	0x3dfd858f	0.1237899
71	0x3ae16bc7	0.0017198258
72	0xbd1d6390	-0.03842503
73	0x3de3d834	0.11125222
74	0xbcd8e198	-0.026474759
75	0x3de3272e	0.11091457
76	0x3def20b0	0.116761565
77	0xbe17cc92	-0.14824131
78	0x3d8cb74e	0.068709
79	0x3cb75273	0.022378182
80	0x3d278f9b	0.040908437
81	0x3caa344e	0.020776894
82	0x3d3d58a4	0.046227112
83	0xbdbfd20d	-0.09366236
84	0xbcc49001	-0.023994448
85	0x3e2c97b7	0.1685475
86	0x3dedfbf2	0.116203204
87	0xbc314cf4	-0.01082157
88	0xbe309023	-0.17242484
89	0x3bf9d25b	0.0076239533
90	0xbdf6b8c5	-0.12046961
91	0x3e1824a3	0.14857726
92	0xbdc7f02a	-0.097626045
93	0xbc83bd59	-0.016081499
94	0xbd346fae	-0.04405182
95	0x3d0edd78	0.034879178
96	0x3e485362	0.19563058
97	0x3d0836be	0.03325533
98	0x3d1c166e	0.038107328
99	0x3e291c54	0.16514713
100	0x3e1df6ed	0.15426226
101	0xbdadcf09	-0.084867544
102	0xbd873b5a	-0.06603117
103	0x3d144f56	0.036208473
104	0xbda4b683	-0.08042624
105	0x3da7eb74	0.08199206
106	0xbb9d5bd2	-0.0048022056
107	0xbe0996f1	-0.13436486
108	0x3db7ad09	0.08968551
109	0x3d60072f	0.05469435
110	0x3d1db72d	0.03850477
111	0x3e4bf581	0.19917871
112	0x3e05a9fa	0.13053122
113	0x3e1a0fc8	0.15045083
114	0x3cd7d058	0.026344463
115	0xbe2a65b7	-0.16640364
116	0xbd8e7546	-0.06955962
117	0xbdab4e12	-0.083645
118	0xbde88f2d	-0.113554336
119	0xbd480f11	-0.048842493
120	0xbe0dfc58	-0.13865793
121	0xbe32455c	-0.17409271
122	0xbdf39998	-0.1189453
123	0xbe1b312f	-0.15155481
124	0xbe20a63a	-0.1568841
125	0x3d6eb774	0.058280423
126	0x3dff5fb7	0.12469428
127	0xbda4bc5c	-0.08043739
128	0xbd224351	-0.03961498
129	0x3dd9896c	0.10621914
130	0xbdb8e0c0	-0.09027243
131	0xbd9f0875	-0.07765285
132	0x3dfec8cc	0.12440643
133	0xbe26e322	-0.16297582
134	0x3af923a7	0.0019007818
135	0x3e162a41	0.14664556
136	0x3bf662ee	0.0075191176
137	0x3d379ba5	0.04482617
138	0xbdcc7840	-0.09983873
139	0xbbe66730	-0.007031344
140	0x3bdb67f8	0.0066957437
141	0x3d69bc03	0.057064068
142	0x3d685e1a	0.056730367
143	0x3e1b262f	0.15151285
144	0xbe01cf7f	-0.1267681
145	0xbc139ce1	-0.009009571
146	0xbda18915	-0.078874744
147	0xbe1ea75a	-0.15493527
148	0x3bd31363	0.00644152
149	0xbe1061a1	-0.14099742
150	0x3e06c98c	0.13162822
151	0x3cefbdbd	0.029265279
152	0xbdd8f8a8	-0.105943024
153	0x3db79d62	0.08965565
154	0xbe33a3de	-0.17542979
155	0xbd557912	-0.052117415
156	0xbd1ef287	-0.03880551
157	0xbe23945d	-0.15974565
158	0xbe0143f5	-0.1262358
159	0xbd1653ad	-0.036700893
160	0x3e051e95	0.12999947
161	0x3e308392	0.1723769
162	0x3e2d1d1f	0.1690564
163	0xbdf40092	-0.11914171
164	0xbdd20b60	-0.10256076
165	0x3e2a5417	0.1663364
166	0x3d6a903b	0.057266455
167	0x3d103ce3	0.035214316
168	0x3d0b648d	0.03403144
169	0xbe0cad36	-0.1373795
170	0xbd9493b6	-0.07254736
171	0x3e31218b	0.17297952
172	0xbd832de9	-0.06405241
173	0xbc337cff	-0.010955094
174	0xbe0f4e7e	-0.13994786
175	0xbde3c4dd	-0.11121533
176	0x3b5adfc0	0.0033397526
177	0xbde9b196	-0.11410825
178	0xbcf2e446	-0.029649865
179	0x3d74ea10	0.059793532
180	0xbe57d724	-0.21078163
181	0x3d46e997	0.048562612
182	0xbe01e662	-0.1268554
183	0xbdc6d577	-0.09708684
184	0x3d97b098	0.074067295
185	0x3e1d1ae2	0.15342286
186	0xbd396d1e	-0.045270078
187	0xbd86563f	-0.06559419
188	0xbe04f455	-0.1298383
189	0xbdc908c0	-0.09816122
190	0xbe1fce7c	-0.15606111
191	0xbceb7fa8	-0.028747395
192	0x3cfee30c	0.031114124
193	0xbe25c215	-0.16187318
194	0x3e1172fb	0.14204018
195	0x3de8cef5	0.11367599
196	0xbe2a14be	-0.16609475
197	0xbdd19b85	-0.10234741
198	0x3d5c2379	0.053744767
199	0xbd0bbc91	-0.034115378
200	0xbd02a283	-0.031893265
201	0xbdacdfd0	-0.08441126
202	0x3e0dc6af	0.13845323
203	0xbdcb9267	-0.099400334
204	0x3e19cbf4	0.15019208
205	0x3cb3b142	0.021935109
206	0x3d14e2ab	0.03634898
207	0x3e10badb	0.1413378
208	0xbd16a5c2	-0.036779173
209	0xbddab73d	-0.10679481
210	0xbcd6ba42	-0.026211862
211	0x3e0e61c4	0.13904482
212	0xbdf4dd78	-0.11956304
213	0x3d3ce38e	0.04611545
214	0xbe375242	-0.17902473
215	0x3db257e4	0.0870817
216	0x3d59e4fc	0.053196892
217	0xbb240a02	-0.002503038
218	0x3d979547	0.07401519
219	0x3bc1683a	0.0059023174
220	0x3dd3dd25	0.10344914
221	0xbe0c54a2	-0.1370416
222	0xbcdc5ec9	-0.026900666
223	0x3da3ac8f	0.07991897
224	0x3e33bba9	0.17552055
225	0x3db676b3	0.08909359
226	0xbe098825	-0.13430841
227	0x3e031c69	0.12803806
228	0xbd138be9	-0.0360221
229	0xbd411093	-0.047134947
230	0xbe2b3067	-0.16717683
231	0xbcf72c5a	-0.030172516
232	0x3dd908cd	0.10597382
233	0x3c790552	0.015199022
234	0xbde05c73	-0.10955133
235	0x3d76b258	0.060228676
236	0xbd3915ad	-0.045186687
237	0x3e27dcd4	0.16392833
238	0xbe1c4918	-0.15262258
239	0xbd4e5004	-0.050369278
240	0xbe319a42	-0.17344001
241	0xbd936218	-0.07196444
242	0x3d5875e8	0.05284682
243	0x3e27accc	0.1637451
244	0x3d416db4	0.04722376
245	0x3e322a44	0.17398936
246	0x3d12cb63	0.035838496
247	0x3dcedd2e	0.101007804
248	0x3dff8608	0.12476736
249	0x3e0beb0a	0.13663879
250	0xbdd4f25f	-0.10397791
251	0x3e2a3f3f	0.16625689
252	0x3dd95c6b	0.106133305
253	0xbda37185	-0.079806365
254	0xbdb370ad	-0.087617256
255	0xbe13afb8	-0.144225

blocks.0.attn.proj.weight f4 [32, 32]
0	0xbd81b687	-0.063336425
1	0x3ded61f9	0.115909524
2	0xbe02dd2a	-0.1277968
3	0xbe10f4bb	-0.14155857
4	0xbe080ba6	-0.13285694
5	0xbdd66e77	-0.10470288
6	0x3e245854	0.1604932
7	0x3ce960bc	0.02848851
8	0xbcc15f95	-0.023605147
9	0xbd545236	-0.051836215
10	0xbe0c38e4	-0.13693577
11	0xbd569947	-0.05239227
12	0x3db83511	0.089944966
13	0x3e000471	0.12501694
14	0x3e05bb24	0.1305967
15	0x3c9293de	0.017892774
16	0xbdbfbe4c	-0.09362468
17	0xbdcd4064	-0.10022047
18	0x3e258fb9	0.16168107
19	0xbe272f87	-0.16326724
20	0x3d229442	0.03969217
21	0xbc9f0c70	-0.01941511
22	0x3e352dc6	0.17693242
23	0x3ddcadbc	0.10775325
24	0xbd644aad	-0.05573528
25	0xbe129691	-0.14315249
26	0x3d2422bb	0.040072184
27	0xbdf284a0	-0.118417025
28	0xbcd73a4f	-0.02627292
29	0x3d308d0f	0.043103274
30	0x3dc3639d	0.09540484
31	0xbd30899a	-0.043099977
32	0xbdded0bc	-0.10879657
33	0xbe04dac7	-0.12974082
34	0xbe369b21	-0.17832614
35	0x3cabb61b	0.020960858
36	0xbdf036a9	-0.117291756
37	0x3c5e3e5d	0.013564673
38	0xbd97f0a1	-0.07418943
39	0xbdf787b0	-0.12086427
40	0x3de8cfd4	0.11367765
41	0x3dd223f8	0.10260767
42	0x3e051c48	0.1299907
43	0x3e4a5326	0.19758281
44	0xbe055e41	-0.13024236
45	0xbde3e92f	-0.111284606
46	0xbe131710	-0.14364266
47	0x3ddc65b4	0.10761586
48	0x3dad1219	0.084507175
49	0x3e12e829	0.14346375
50	0xbe019fb5	-0.1265858
51	0xbdcb7c58	-0.09935826
52	0x3e284af2	0.1643484
53	0xbe012c1f	-0.12614487
54	0xbe1f906e	-0.1558244
55	0x3d98fe8d	0.07470427
56	0xbe0c71e7	-0.13715325
57	0xbd54f97f	-0.05199575
58	0x3dd0dbd5	0.1019818
59	0x3e0b0b19	0.13578452
60	0xbc301a71	-0.010748492
61	0xbe153eaa	-0.14574686
62	0x3ddc505e	0.10757516
63	0x3e391db9	0.18077745
64	0xbe0ae0a7	-0.1356226
65	0x3bfda621	0.0077407514
66	0xbdf86449	-0.12128503
67	0xbdf12a3f	-0.11775636
68	0x3d92f6f9	0.071760125
69	0x3d90b78e	0.0706626
70	0x3d69b288	0.057055026
71	0xbe0a1afd	-0.13486858
72	0xbcee54e2	-0.02909321
73	0x3d408ccf	0.047009286
74	0xbce60e47	-0.02808298
75	0xbdbbdf9f	-0.09173512
76	0xbdae7ff0	-0.08520496
77	0x3e2e9103	0.17047505
78	0xbe105bce	-0.1409752
79	0xbdcee286	-0.101018
80	0x3e097b27	0.13425885
81	0xbe008a7c	-0.12552828
82	0x3df28ca8	0.11843234
83	0xbdb34178	-0.087527215
84	0xbb8a4ea9	-0.004220803
85	0xbdb8484a	-0.08998163
86	0x3e10fee7	0.14159738
87	0x3de6ee0b	0.11275872
88	0x3d4831ea	0.048875727
89	0x3c807911	0.015682729
90	0xbd8596e9	-0.065229245
91	0xbdb6f1c5	-0.08932833
92	0xbd8a4918	-0.06752223
93	0x3d61e481	0.05514956
94	0xbce05b2e	-0.027387228
95	0x3dd5bb68	0.104361355
96	0x3cb62166	0.022232722
97	0xbbb04989	-0.00537986
98	0xbdce6c1b	-0.10079213
99	0x3d97c6e8	0.07410985
100	0xbe22b20b	-0.1588823
101	0x3d266c07	0.040630367
102	0x3d5f36ac	0.0544955
103	0x3cdd7f7e	0.027038332
104	0x3df2ef0e	0.11862002
105	0x3d4829c5	0.04886796
106	0xbd3bdc08	-0.045864135
107	0xbe1541a7	-0.14575826
108	0xbe2bd684	-0.1678105
109	0x3dc8ac02	0.09798433
110	0x3dca4be5	0.09877757
111	0xbe07379a	-0.13204804
112	0x3d555e85	0.052092094
113	0xbd73a8d7	-0.05948719
114	0x3e11dfc5	0.14245518
115	0xbd7dc68b	-0.061956923
116	0x3e163979	0.14670362
117	0x3e0c0e33	0.13677292
118	0x3df98f7b	0.1218557
119	0x3dfbd1e0	0.1229589
120	0x3d663a5a	0.056207992
121	0x3d57d386	0.05269196
122	0xbe360c6f	-0.1777818
123	0xbd244152	-0.040101357
124	0xbc93b98c	-0.018032812
125	0x3da73720	0.08164811
126	0xbd9c2a7c	-0.07625291
127	0x3d8adbaa	0.06780179
128	0x3df6aa2b	0.12044176
129	0x3d96a872	0.07356347
130	0x3d8ef7df	0.069808714
131	0xbc96163d	-0.01832115
132	0x3dbe5974	0.092944056
133	0xbd7acec4	-0.061232343
134	0x3e0ba140	0.1363573
135	0x3bb549e0	0.005532488
136	0xbc2c39f7	-0.010511867
137	0xbe1c1833	-0.15243606
138	0x3e256b7b	0.16154282
139	0xbd02ab0e	-0.03190141
140	0x3e037c2c	0.12840337
141	0xbdfdb577	-0.12388127
142	0xbe117fe8	-0.14208949
143	0xbcace735	-0.021106342
144	0xbe0d6567	-0.13808213
145	0x3cf3402a	0.029693682
146	0x3b8e2048	0.0043373443
147	0xbd7cc103	-0.061707508
148	0x3ddcca20	0.1078074
149	0x3ddfd6e7	0.10929661
150	0xbe16d556	-0.14729819
151	0xbe15567b	-0.14583771
152	0x3dc3f697	0.09568518
153	0xbdd528f3	-0.10408201
154	0x3cc00962	0.023441974
155	0xbd3ff7a3	-0.046867024
156	0x3cdbe1d7	0.026841087
157	0xbdbc2157	-0.091860466
158	0xbc5fd118	-0.013660692
159	0xbd538410	-0.051639616
160	0xbda74220	-0.08166909
161	0xbdbe505c	-0.09292671
162	0x3d0bb5b1	0.03410882
163	0x3df59e86	0.119931266
164	0xbbb19d28	-0.005420346
165	0xbb9000ff	-0.00439465
166	0x3e06d5e5	0.13167532
167	0x3e0b267a	0.13588896
168	0xbce8207e	-0.028335806
169	0xbe098899	-0.13431014
170	0x3d3a123f	0.045427557
171	0x3d7fd267	0.062456515
172	0xbe0e559c	-0.13899845
173	0xbe237aad	-0.15964766
174	0x3cb9ac36	0.022665124
175	0x3e238eba	0.15972415
176	0xbe19e090	-0.1502707
177	0xbdb6b61f	-0.089214556
178	0xbd5dee02	-0.05418206
179	0xbe1dbeb6	-0.15404782
180	0xbdd5b847	-0.10435539
181	0x3e073c95	0.13206704
182	0x3e084b2f	0.1330993
183	0xbe0cc0e3	-0.13745455
184	0xbb130b00	-0.0022436976
185	0xbe105df6	-0.14098343
186	0x3d7e054c	0.06201677
187	0xbdf00e65	-0.117214955
188	0xbdba5579	-0.09098334
189	0xbdac9068	-0.08425981
190	0x3d091324	0.03346552
191	0x3deb88e1	0.11500717
192	0xbd8f3484	-0.069924384
193	0x3d04d294	0.032427385
194	0x3e198a10	0.14994073
195	0xbb454fe3	-0.003010743
196	0x3b8c4a21	0.004281298
197	0x3c85ec92	0.016348157
198	0x3cc78631	0.02435598
199	0x3db75a95	0.08952824
200	0x3dc07455	0.093971886
201	0xbdc62bc3	-0.09676316
202	0x3e297b32	0.16550902
203	0x3dc2a537	0.095041685
204	0xbcdbf17b	-0.026848545
205	0x3e1b5cb5	0.15172084
206	0x3bf6b2e6	0.0075286506
207	0x3dcea522	0.1009009
208	0xbe24fa11	-0.16111018
209	0x3e2692c1	0.1626692
210	0x3e201204	0.15631872
211	0xbe0a242a	-0.13490358
212	0xbe2a43f2	-0.16627482
213	0xbd237ae5	-0.039912123
214	0xbe0f94b8	-0.14021575
215	0x3d80d6e4	0.06290987
216	0x3db75670	0.089520335
217	0xbcb765fc	-0.022387497
218	0x3ded5c81	0.11589909
219	0x3c3026cf	0.01075144
220	0xbd5562cd	-0.052096177
221	0xbe1f6312	-0.15565136
222	0x3d0c58f9	0.03426454
223	0xbe32d6de	-0.17464778
224	0x3bc86c8b	0.006116455
225	0x3ce0abc4	0.027425654
226	0xbde25ed8	-0.11053246
227	0x3d77bd19	0.060483072
228	0x3cf4d57f	0.02988696
229	0x3dfc2bd8	0.1231305
230	0x3da57453	0.08078828
231	0xbe1733fc	-0.14765924
232	0xbe0c2c95	-0.13688882
233	0xbd51b12b	-0.05119435
234	0xbdf2f105	-0.11862377
235	0x3d7f8a4a	0.062387742
236	0xbdf8760e	-0.12131892
237	0xbe02741b	-0.12739603
238	0x3d36bc5a	0.04461322
239	0x3dc8401e	0.097778544
240	0xbd56afd4	-0.052413777
241	0xbe361e51	-0.17785002
242	0x3cd45d63	0.025923437
243	0x3da5e1fb	0.08099743
244	0x3e0de38d	0.13856335
245	0x3b26196c	0.0025344742
246	0x3e108500	0.14113235
247	0xbe265642	-0.16243842
248	0x3e26a4a1	0.16273738
249	0xbdf9c430	-0.12195623
250	0xbde017cf	-0.10942041
251	0x3df7eb78	0.12105459
252	0xbcff8abf	-0.031194089
253	0x3de36fbb	0.11105295
254	0xbdaee75b	-0.08540221
255	0x3e0545e8	0.13014948

blocks.0.attn.proj.bias f4 [32]
0	0x3df21d06	0.11821942
1	0x3c4a9ffb	0.012367244
2	0x3e255fda	0.16149846
3	0xbdb6163b	-0.08890959
4	0xbd696f57	-0.056990948
5	0x3b41eaf7	0.0029589513
6	0x3dc45cf6	0.095880434
7	0xbe16c1ea	-0.1472241
8	0xbd4aadb7	-0.049482074
9	0x3e0a54fc	0.13508981
10	0x3d37cbad	0.044871975
11	0x3dfdcb83	0.123923324
12	0xbd82f30c	-0.06394014
13	0xbde57547	-0.112040095
14	0xbddcaab7	-0.10774749
15	0xbdd831dd	-0.10556386
16	0xbe0442e1	-0.12916137
17	0x3d9fe3da	0.07807131
18	0x3d580edf	0.052748557
19	0xbdde316c	-0.1084927
20	0x3e119dd2	0.1422036
21	0x3d25cec3	0.040480386
22	0x3d8530a4	0.06503418
23	0xbd94da08	-0.07268149
24	0x3df24e3f	0.118313305
25	0xbdee398a	-0.116320685
26	0x3df3e178	0.11908239
27	0xbdb4d6f4	-0.088300616
28	0x3d8cc08f	0.06872665
29	0xbd8e338d	-0.06943426
30	0x3ddb8d55	0.10720316
31	0xbe0a4406	-0.13502511

blocks.0.norm2.weight f4 [32]
0	0x3f823141	1.0171281
1	0x3f805c01	1.0028077
2	0x3f7fc2c7	0.9990658
3	0x3f80571e	1.0026586
4	0x3f76a75c	0.9634912
5	0x3f780c70	0.9689398
6	0x3f7d75f6	0.9900812
7	0x3f807ea9	1.0038654
8	0x3f7fc458	0.9990897
9	0x3f7f79cc	0.9979522
10	0x3f7cb5e7	0.9871506
11	0x3f80b1d5	1.005427
12	0x3f8166ec	1.0109534
13	0x3f7cd4b0	0.98762035
14	0x3f7c87fd	0.98645
15	0x3f7cdb55	0.98772174
16	0x3f811d7e	1.0087125
17	0x3f7d62cc	0.9897888
18	0x3f77a9a3	0.9674322
19	0x3f7d4fa8	0.9894967
20	0x3f7c9373	0.9866249
21	0x3f7a0ca9	0.9767557
22	0x3f7ddc7f	0.99164575
23	0x3f81e1df	1.0147055
24	0x3f7e6e7e	0.9938735
25	0x3f80613c	1.0029674
26	0x3f7f0e04	0.9963076
27	0x3f7f1018	0.9963393
28	0x3f81754f	1.0113925
29	0x3f816684	1.010941
30	0x3f7e9bc8	0.99456453
31	0x3f81678d	1.0109726

blocks.0.norm2.bias f4 [32]
0	0x3a128a87	0.00055901
1	0xbb986887	-0.0046511325
2	0xbc1c6acd	-0.009546948
3	0xbcaaffc2	-0.020873908
4	0xbbf0d838	-0.007349994
5	0x3a4d1a46	0.00078240444
6	0x3c231082	0.009952666
7	0xbbf5f2ab	-0.007505735
8	0x3b67aba8	0.0035350118
9	0x3c078d00	0.008273363
10	0x3c07bb2c	0.008284371
11	0xbc316cc5	-0.010829155
12	0x398caaf6	0.00026830257
13	0xbcd60f0a	-0.026130218
14	0x3c30639a	0.010765934
15	0xbb8d6da4	-0.0043160487
16	0x3bbc4985	0.005746069
17	0xbbc14c1c	-0.0058989655
18	0x3c8efa8b	0.017453453
19	0xbb9a92d6	-0.0047172112
20	0xbbc44d31	-0.0059906472
21	0xbbb916c6	-0.0056484668
22	0x3b6d3a46	0.0036198064
23	0xb8023b37	-3.1049563e-05
24	0x3b973ad6	0.004615168
25	0xb9b373e4	-0.00034227886
26	0xbbd70aac	-0.0065625515
27	0x39eb9b9c	0.0004493863
28	0xbbe5ee88	-0.0070169605
29	0xbbc17c9b	-0.0059047467
30	0xbc0cac5f	-0.008586018
31	0x3c765286	0.015034324

blocks.0.mlp.fc1.weight f4 [128, 32]
0	0xbccac54d	-0.024752283
1	0xbd6a42e1	-0.057192687
2	0xbe2d93ed	-0.1695096
3	0xbd79d476	-0.060993634
4	0xbd862f8a	-0.06552036
5	0x3ca402f7	0.020020945
6	0x3e126169	0.14294972
7	0xbd2a19c4	-0.04152848
8	0x3e55a248	0.20862687
9	0xbd85987e	-0.06523226
10	0xbd934433	-0.07190742
11	0xbc5eb524	-0.013592992
12	0xbd631b3d	-0.0554459
13	0x3d6fb869	0.058525477
14	0x3e3a6b08	0.18204892
15	0x3d61b9e8	0.055108935
16	0xbe03a070	-0.12854171
17	0xbda4e623	-0.080517076
18	0xbc8e133a	-0.017343152
19	0xbe12f834	-0.14352494
20	0x3d3691ac	0.044572517
21	0x3e6e97d4	0.23300105
22	0x3d1e8d74	0.03870912
23	0xb8b2c7d5	-8.524923e-05
24	0xbcdd611f	-0.02702385
25	0xbd9dcbb1	-0.07704867
26	0xbcf57060	-0.029960811
27	0x3e22127a	0.15827361
28	0xbe023424	-0.12715203
29	0x3d1a196a	0.037621893
30	0xbddc100e	-0.1074525
31	0xbd43e99f	-0.04783022
32	0x3c3ba2c3	0.01145238
33	0xbe171a81	-0.14756204
34	0x3c94938b	0.01813676
35	0xbe289384	-0.16462523
36	0xbde6c93d	-0.11268852
37	0x3dde32da	0.10849543
38	0x3e4a3ba4	0.19749314
39	0xbcf89309	-0.03034355
40	0xbdb7d0be	-0.08975361
41	0xbe201ecd	-0.1563675
42	0xbcd844cd	-0.026399994
43	0xbdaa2f61	-0.08309818
44	0x3e135517	0.14387928
45	0xbe116c23	-0.14201407
46	0x3ddbd697	0.10734289
47	0x3d3820cd	0.044953156
48	0xbd24022b	-0.04004113
49	0x3e057818	0.13034093
50	0x3dc56579	0.09638495
51	0x3c7e0bdd	0.015505758
52	0xbddcb28e	-0.10776244
53	0xbd0526d5	-0.032507736
54	0x3cb39dca	0.021925826
55	0x3e2599f5	0.16172011
56	0xbd48f6b8	-0.049063414
57	0xbdc64592	-0.09681238
58	0xbe1c6a10	-0.15274835
59	0x3dc7a2ac	0.09747824
60	0x3e777d37	0.2416886
61	0x3e06a3d3	0.13148431
62	0xbdb8317c	-0.089938134
63	0x3e068e1d	0.1314015
64	0xbd50139a	-0.050799944
65	0x3dbb5d32	0.09148635
66	0x3df6391a	0.1202261
67	0xbe14d9b1	-0.14536168
68	0x3d4a0365	0.049319644
69	0x3d97f9db	0.07420703
70	0xbdf07e69	-0.11742861
71	0x3e314eaa	0.17315164
72	0x3dfff913	0.12498679
73	0x3e19e37c	0.15028185
74	0xbc8adf3d	-0.016952151
75	0xbdea76f5	-0.114484705
76	0xbdbf6b59	-0.09346647
77	0x3d9861e2	0.07440545
78	0xbd293860	-0.04131353
79	0x3e006959	0.12540187
80	0x3e19cdc2	0.15019897
81	0x3c8d3015	0.017234841
82	0xbe17d5f8	-0.14827716
83	0x3d80012d	0.06250224
84	0x3e2952ae	0.16535446
85	0xbd29ef17	-0.04148778
86	0xbdd4d486	-0.10392098
87	0xbd07b6db	-0.03313337
88	0x3d03faaf	0.032221492
89	0xbdf53489	-0.11972911
90	0x3dd4a7b5	0.1038355
91	0x3d81c761	0.06336857
92	0xbd9e88b7	-0.0774092
93	0xbd84d0f8	-0.0648517
94	0xbd97181e	-0.07377647
95	0x3dfe6ffb	0.12423702
96	0x3dca6dfe	0.098842606
97	0x3d4820f8	0.048859566
98	0xbca7a311	-0.020463498
99	0x3d2af61a	0.041738607
100	0x3e1e3bbd	0.15452476
101	0x3d1f8483	0.038944732
102	0xbd96908a	-0.073517874
103	0x3d72a157	0.059235897
104	0xbd8e71ea	-0.06955321
105	0xbbd623d5	-0.006535033
106	0xbded119b	-0.115756236
107	0x3c291607	0.010320193
108	0x3cc5eee8	0.024161771
109	0xbdc780db	-0.09741374
110	0x3dd0a66a	0.10187991
111	0x3e244cbc	0.16044897
112	0xbe42b2ee	-0.19013569
113	0x3d7f9134	0.062394336
114	0xbe023729	-0.12716354
115	0xbc98d043	-0.018653994
116	0x3dbad019	0.09121723
117	0x3ccb456b	0.024813375
118	0x3d7b5a76	0.061365567
119	0xbd652cde	-0.05595099
120	0x3e32f379	0.1747569
121	0xbdb2fb4b	-0.087393366
122	0x3d073be4	0.0330161
123	0x3be8d869	0.007105876
124	0x3dd5cd57	0.10439556
125	0x3d0a973d	0.03383564
126	0x3dfd9abf	0.12383031
127	0x3d1047f7	0.03522488
128	0x3e07fd68	0.1328026
129	0xbc457972	-0.012052881
130	0x3d97fb6d	0.074210025
131	0x3e302680	0.17202187
132	0xbd7ed98b	-0.062219184
133	0xbd77da28	-0.060510784
134	0x3e001e65	0.12511595
135	0x3d8ea096	0.06964223
136	0xbe17ad5c	-0.14812225
137	0x3da0c27b	0.07849594
138	0xbe2b05f1	-0.16701485
139	0xbdbfef25	-0.09371785
140	0x3d6ef2be	0.058336966
141	0x3da05ac2	0.07829811
142	0xbd16ced3	-0.036818337
143	0x3e0de574	0.1385706
144	0x3e2b4c77	0.16728388
145	0x3e0c741f	0.13716172
146	0xbe11ba6f	-0.14231275
147	0xbd8671d4	-0.0656468
148	0x3b9bf636	0.0047595752
149	0x3e16d7cb	0.14730756
150	0xbcf845bb	-0.030306688
151	0x3d44aff3	0.04801936
152	0x3daa4413	0.083137654
153	0xbdaf0c2a	-0.08547242
154	0xbdeaa84d	-0.11457882
155	0x3e233409	0.15937819
156	0x3b335b77	0.002736775
157	0x3df9482c	0.12171969
158	0xbe41ad57	-0.1891378
159	0xbd99357a	-0.07480903
160	0x3e1aee33	0.15129928
161	0xbc65eca0	-0.014033467
162	0x3d7074b5	0.05870505
163	0xbe0931eb	-0.13397948
164	0x3e2346f3	0.15945034
165	0xbdb0a058	-0.08624333
166	0xbb2a403b	-0.0025978226
167	0xbdf6e3bb	-0.12055155
168	0xbdb3f164	-0.08786276
169	0xbe1f3d0d	-0.15550633
170	0xbe1b5ae4	-0.15171391
171	0xbc9d57ef	-0.019206969
172	0xbd96df67	-0.07366829
173	0x3def4a76	0.11684124
174	0xb9cdcb77	-0.0003925224
175	0x3e093085	0.13397415
176	0xbd255bbb	-0.040370684
177	0x3d254e26	0.04035773
178	0x3e2d8fa3	0.16949324
179	0xbdfb9f63	-0.1228626
180	0xbda616cf	-0.08109819
181	0x3dea79a1	0.1144898
182	0xbc8f95d1	-0.017527493
183	0xbd7a1f3a	-0.061064936
184	0x3c536e77	0.012904755
185	0xbdcba803	-0.09944155
186	0x3ba49c2d	0.0050235004
187	0xbd84b534	-0.06479874
188	0x3d68d4cc	0.056843564
189	0xbd295c18	-0.041347593
190	0xbd8efcb4	-0.06981793
191	0xbd5f2547	-0.05447891
192	0x3ccae16c	0.024765693
193	0x3d8f035c	0.069830626
194	0xbe478df2	-0.19487742
195	0xbe064093	-0.1311057
196	0xbe36d4d1	-0.1785462
197	0x3dc4ba59	0.096058555
198	0x3df10078	0.117676675
199	0xbe300fe3	-0.1719356
200	0x3cc2f063	0.023796266
201	0x3cfe7072	0.031059477
202	0xbdab3865	-0.08360366
203	0x3d4c3306	0.049853347
204	0x3e1d7285	0.15375717
205	0x3e47f39f	0.19526528
206	0x3d75a8d4	0.05997546
207	0xbd0f00b6	-0.034912787
208	0xbdf8edc8	-0.12154728
209	0xbd91a29e	-0.07111095
210	0xbc54185a	-0.012945259
211	0x3a1390ac	0.0005629163
212	0x3e0fc5fc	0.14040369
213	0xbe061661	-0.13094474
214	0x3c0396e5	0.0080315815
215	0xbd227d8e	-0.03967052
216	0x3c9bf40f	0.019037275
217	0x3e32ded7	0.17467819
218	0x3c5b2cb5	0.013377358
219	0xbcec9a74	-0.028882243
220	0xbd6ff3ff	-0.058582302
221	0xbe0d7e1f	-0.13817643
222	0xbe1db9a0	-0.15402842
223	0x3d9db7bc	0.0770106
224	0xbdc84229	-0.09778244
225	0x3ddcdd09	0.107843466
226	0xbd7cc80b	-0.061714213
227	0x3d03fdf5	0.032224614
228	0x3e0ba912	0.13638714
229	0xbbb17b37	-0.0054162997
230	0x3d9a29cb	0.075275026
231	0x3e0c4a58	0.13700235
232	0xbdad981f	-0.084762804
233	0x3e0ad734	0.13558656
234	0xbe34843e	-0.17628571
235	0x3e3cfaf9	0.18455113
236	0xbd2f6741	-0.04282308
237	0x3c31d9a9	0.010855117
238	0x3dabce4e	0.08388959
239	0x3d2f33a4	0.042773858
240	0x3dd583a4	0.10425499
241	0xbd6c9c33	-0.05776615
242	0xbde39afd	-0.11113546
243	0x3e26f268	0.16303408
244	0xbde4e758	-0.11176938
245	0x3ddb5237	0.107090406
246	0x3e2932b5	0.1652325
247	0x3e146bb0	0.14494205
248	0xbd596eda	-0.053084232
249	0xba67378f	-0.00088202296
250	0xbe2d737b	-0.16938584
251	0xbda180dd	-0.07885907
252	0xbd76cc16	-0.060253225
253	0xbddaca23	-0.10683086
254	0x3d8d7ea5	0.06908921
255	0x3dedf5d2	0.11619152

blocks.0.mlp.fc2.weight f4 [32, 128]
0	0x3b5122f0	0.0031911694
1	0x3aa5eb91	0.0012658705
2	0xbda3eafe	-0.080038056
3	0x3c639c48	0.013892241
4	0xbd94d824	-0.07267788
5	0x3bb547ec	0.0055322554
6	0xbbc20a10	-0.0059216097
7	0x3d670b96	0.056407534
8	0xbcdcae1b	-0.026938489
9	0x3d9985be	0.074962124
10	0xbc17ceb3	-0.0092655895
11	0xbc8dbbdf	-0.017301498
12	0xbdada87b	-0.08479401
13	0x3d9878b4	0.07444897
14	0x3c1d60bd	0.009605584
15	0xbd95cb25	-0.07314137
16	0x3c4b10a7	0.012394107
17	0x3d624836	0.055244647
18	0xbce1f4e4	-0.027582593
19	0x3d4d35b9	0.050100062
20	0x3d1d0768	0.03833714
21	0xbc6c455d	-0.014420834
22	0x3dc8403b	0.09777876
23	0x3d8b4b21	0.06801439
24	0xbc4a9cf6	-0.012366524
25	0xbbb62e7a	-0.0055597397
26	0x3d6a5014	0.057205275
27	0xbcc755c1	-0.024332883
28	0x3d828f6f	0.06375014
29	0xbda63606	-0.08115773
30	0xbd1b451c	-0.037907705
31	0x3d2e75a6	0.042592667
32	0xbdd004b9	-0.10157151
33	0xbd26a11e	-0.040680997
34	0xbd2bcbf2	-0.041942544
35	0x3d25313d	0.04033016
36	0xbc1a9975	-0.009436001
37	0xbda197c6	-0.078902766
38	0x3d8bda83	0.06828787
39	0xbd283f04	-0.04107572
40	0xbafb944c	-0.0019193976
41	0x3d00c6be	0.031439535
42	0xbdb03445	-0.086037196
43	0xbbd79ea6	-0.0065801917
44	0xbcd14f9c	-0.025550656
45	0xbd1f8363	-0.03894366
46	0xbcb0ba64	-0.021573253
47	0x3d473e34	0.048643306
48	0xbd57fc1f	-0.052730676
49	0xbd3c3324	-0.04594721
50	0x3d340efc	0.043959603
51	0x3cc862af	0.024461119
52	0x3b876e83	0.004133047
53	0x3c04eace	0.008112622
54	0x3da3326c	0.079686016
55	0xbd18949d	-0.037251104
56	0xbda2a390	-0.07941353
57	0xbda75f75	-0.08172504
58	0x3ccabdc7	0.024748696
59	0x3d0025b1	0.031285945
60	0xbc8a9adb	-0.016919544
61	0xbd9646a8	-0.07337695
62	0xbd83c063	-0.06433179
63	0xbd90755b	-0.07053634
64	0x3d98754e	0.07444249
65	0x3ca2868e	0.019839551
66	0xbd5905ad	-0.05298393
67	0xbde0d400	-0.10977936
68	0x3d46b061	0.04850805
69	0x3b51f91d	0.0032039352
70	0x3dab3de0	0.08361411
71	0xbd72e300	-0.059298515
72	0xbd9263bf	-0.07147931
73	0x3cbe3f87	0.023223652
74	0x3d822697	0.06355017
75	0x3dbc5cfe	0.09197424
76	0x3db7f549	0.08982331
77	0x3d5d6dcf	0.0540598
78	0x3d0d6761	0.034522418
79	0xbd4bbb69	-0.049739275
80	0x3db002ec	0.08594307
81	0xbd073ed2	-0.033018894
82	0x3d9013f5	0.070350565
83	0x3d25526b	0.040361803
84	0xbd4a8567	-0.04944363
85	0xbc4f511c	-0.012653615
86	0xbc0aee80	-0.008479714
87	0x3db59a34	0.088673025
88	0x3d6d4621	0.05792821
89	0x3bf96576	0.007610972
90	0xbd7207c5	-0.05908944
91	0x3c87d8b5	0.016582826
92	0x3d8c0ab5	0.0683798
93	0xbd0b5b5a	-0.034022667
94	0x3d957fa9	0.0729974
95	0xb92b5c61	-0.00016342245
96	0x3d628f8a	0.05531267
97	0x3d03b078	0.032150716
98	0x3d3da82f	0.04630297
99	0xbd64f6c9	-0.055899415
100	0x3d35e555	0.04440816
101	0xbdb5d60e	-0.08878718
102	0xbc22a4d9	-0.009926998
103	0x3d8ed0cc	0.069734186
104	0xbd9bbe6b	-0.07604679
105	0xbda5fb97	-0.081046276
106	0xbd01e3fd	-0.031711567
107	0x3c0a0399	0.008423709
108	0xbcbddaeb	-0.023175677
109	0xbd8b01ff	-0.0678749
110	0x3c886eb7	0.016654355
111	0xbcc0c9b7	-0.023533685
112	0xbd27693d	-0.040871847
113	0x3bbc7f38	0.0057524703
114	0x3cf7f2d6	0.03026716
115	0x3c5c3122	0.013439449
116	0xbd56b190	-0.05241543
117	0x3d437e3d	0.047727812
118	0x3bf64a6e	0.007516197
119	0xbd180601	-0.0371151
120	0x3da3f151	0.08005012
121	0x3cd8a69d	0.026446635
122	0x3d4c9eef	0.04995626
123	0x3d9151f2	0.07095708
124	0xba2f8225	-0.0006695113
125	0x3d65c03d	0.056091536
126	0x3d337b0e	0.043818526
127	0x3d8f203a	0.069885686
128	0x3bd5cbc4	0.006524535
129	0x3dcc4ffd	0.09976194
130	0x3d2be3a0	0.041965127
131	0xbd363f8f	-0.044494208
132	0x3d7e9864	0.06215705
133	0xbc1c24e0	-0.009530276
134	0xbc9866cc	-0.018603705
135	0xbda99691	-0.082806714
136	0xbc5e3849	-0.013563224
137	0x3d8243b1	0.06360567
138	0xbd95c48a	-0.073128775
139	0x3d0ba9e0	0.034097552
140	0x3d667d85	0.05627205
141	0xbda6c57d	-0.08143137
142	0xbc00c3f5	-0.00785922
143	0x3cdac1bb	0.026703706
144	0x3da088ce	0.078385934
145	0x3d00f3cc	0.031482503
146	0xbdb22b66	-0.08699684
147	0xbd439c98	-0.04775676
148	0x3d2abcdc	0.041684017
149	0xbd6c30e3	-0.05766381
150	0xbdc7f799	-0.097640224
151	0xbb95e7ed	-0.004574767
152	0x3d00532b	0.031329315
153	0xbd8f42a8	-0.069951355
154	0xbdac31c2	-0.08407928
155	0x3d3c018b	0.04589991
156	0xbd74950e	-0.059712462
157	0xbd8cb64e	-0.06870709
158	0xbcc09797	-0.023509784
159	0x3d88933e	0.06668709
160	0xbca7d1c4	-0.020485766
161	0xbd7a4e12	-0.06110961
162	0xbd8bb5cc	-0.068217844
163	0xbcd7198f	-0.026257304
164	0x3da554f5	0.08072845
165	0x3d79410c	0.06085305
166	0xbcffc6aa	-0.03122266
167	0xbdab1f7b	-0.08355614
168	0xbcd35098	-0.025795266
169	0x3d36d4a7	0.044636395
170	0x3dc2b661	0.09507442
171	0x3d4fbb68	0.050715834
172	0xbda9191c	-0.08256742
173	0x3cb056db	0.02152579
174	0x3b2f466a	0.002674485
175	0x3d1544ba	0.036442496
176	0x3d288d86	0.041150592
177	0xbd192125	-0.037385125
178	0x3bdfdd1a	0.0068317773
179	0x3ce3b65e	0.02779692
180	0x3c8ad1ef	0.016945807
181	0xbd76a83f	-0.060219046
182	0x3d37f6cb	0.044913094
183	0xbdc52d10	-0.096277356
184	0x3d39cb38	0.04535982
185	0xbd71e77d	-0.059058655
186	0xbcd91f97	-0.026504321
187	0xbd4e1979	-0.05031726
188	0xbc4631d6	-0.012096843
189	0x3b202951	0.002443869
190	0xbdba35ca	-0.09092291
191	0x3d7102d6	0.058840595
192	0xbc2586ec	-0.010102969
193	0x3db02956	0.08601634
194	0xbcd8a802	-0.0264473
195	0xbd58afd7	-0.05290207
196	0x3cb812e3	0.022469943
197	0x3d97f3cc	0.074195474
198	0x3de13b07	0.10997587
199	0x3cef91ba	0.029244293
200	0x3ca8ddee	0.020613637
201	0xbb6d4ad3	-0.0036207929
202	0xbd6eb81f	-0.05828106
203	0xbd85f2ec	-0.06540474
204	0xbd9ae034	-0.075622946
205	0xbd8bf853	-0.068344735
206	0xbb140cfa	-0.0022590742
207	0x3d6342cb	0.05548362
208	0x3d9f9ca5	0.077935494
209	0xbd443021	-0.04789746
210	0xbcea8713	-0.028628862
211	0x3da213dd	0.07913945
212	0xba523e85	-0.00080201804
213	0x38e1fc4c	0.0001077583
214	0xbd432047	-0.047638204
215	0x3bbc62b9	0.0057490733
216	0x3d41209f	0.04715025
217	0xbd482963	-0.048867594
218	0xbcf6dada	-0.030133653
219	0x3c00d075	0.0078622
220	0xbd171a42	-0.036890276
221	0xbcc58c0c	-0.024114631
222	0x3b832d0b	0.0040031723
223	0x3d5304de	0.051518314
224	0xbb92f1d9	-0.004484397
225	0x3cc5e9c0	0.024159312
226	0xbd6c2e04	-0.05766107
227	0x3d3c089a	0.04590664
228	0xba4518d2	-0.0007518652
229	0xbd1db260	-0.03850019
230	0xbddcf911	-0.10789693
231	0xbd10a716	-0.035315596
232	0xbda96c17	-0.082725696
233	0xbc265cfd	-0.010154006
234	0x3d8b326f	0.06796729
235	0xbb858033	-0.0040741204
236	0x3d9a5fd4	0.07537809
237	0xbcb6dfaf	-0.022323458
238	0xbc9b083a	-0.018924821
239	0xbddcba63	-0.10777738
240	0xbd56ac57	-0.05241045
241	0x3d85d5cd	0.0653492
242	0x3d2c711f	0.04210007
243	0x3d534509	0.05157951
244	0xbbb3b4c1	-0.005484194
245	0x3ad7d41c	0.0016466412
246	0xbcf0d417	-0.029398007
247	0x3d75f16c	0.06004469
248	0xbdd88ba6	-0.10573511
249	0xbd735d4b	-0.059415143
250	0xbdcf8f7c	-0.10134789
251	0x3cb4a4d3	0.02205125
252	0xbcccbeb1	-0.024993272
253	0xbc9ade9d	-0.018904978
254	0x3d3c65d6	0.045995556
255	0x3d9acea7	0.07558947

blocks.1.norm1.weight f4 [32]
0	0x3f813614	1.0094628
1	0x3f87a71c	1.0597873
2	0x3f81c899	1.0139343
3	0x3f7c7f06	0.9863132
4	0x3f7df9fa	0.9920956
5	0x3f7e01b4	0.9922135
6	0x3f7f13f2	0.9963981
7	0x3f779ee3	0.96726817
8	0x3f8407ec	1.0314918
9	0x3f7e0d41	0.99238974
10	0x3f81d424	1.0142865
11	0x3f7d04ec	0.98835635
12	0x3f7d9ff8	0.9907222
13	0x3f7dc795	0.99132663
14	0x3f7bd25c	0.9836786
15	0x3f7d7f1c	0.9902208
16	0x3f7f76f5	0.9979089
17	0x3f7f8b56	0.99821985
18	0x3f7be47d	0.9839552
19	0x3f7ccc4a	0.9874922
20	0x3f7bb5a2	0.98324025
21	0x3f7edc79	0.99555165
22	0x3f808f43	1.004372
23	0x3f845f61	1.0341607
24	0x3f79c5b7	0.97567314
25	0x3f7df5f0	0.99203396
26	0x3f7b3f77	0.98143715
27	0x3f7d2253	0.988805
28	0x3f837f3d	1.0273205
29	0x3f821d5f	1.0165213
30	0x3f8312e7	1.0240144
31	0x3f7d78ad	0.9901226

blocks.1.norm1.bias f4 [32]
0	0x3b148145	0.0022660058
1	0xbc5bafcc	-0.013408612
2	0xbbdad6bd	-0.006678431
3	0x3a091061	0.0005228576
4	0x3ac2cfec	0.0014862991
5	0x3b4a924b	0.0030909951
6	0xbbc0005b	-0.0058594174
7	0x3c4781a0	0.012176901
8	0xb9ef9fcb	-0.00045704687
9	0x3c48ead3	0.012263018
10	0xbbb5d9e0	-0.0055496544
11	0xba82225d	-0.0009928454
12	0xbbe295e6	-0.006914842
13	0xbbc1da0d	-0.0059158863
14	0x3bdb427e	0.006691276
15	0xbbd8dbd6	-0.0066180034
16	0x3ba91e8f	0.0051611136
17	0xbc8eaeba	-0.0174173
18	0x3c4016f4	0.011724222
19	0x3b908386	0.00441021
20	0xbb9410fe	-0.004518627
21	0xba1cc508	-0.00059802877
22	0xbb1d2771	-0.0023979808
23	0xbb52ba85	-0.0032154631
24	0xbc8674b8	-0.016413078
25	0x3b5cedef	0.0033711155
26	0xb90290a3	-0.00012451647
27	0xbabfc4c1	-0.0014630781
28	0x3a4bdd63	0.00077768246
29	0xbac59524	-0.0015074355
30	0xbbe0d68a	-0.0068615125
31	0xbb7c6f36	-0.0038518435
