image_encoder/trained_models/vit_20241110_183137.pth (torch, 454617 bytes, 59 tensors)

cls_token f4 [1, 1, 32]
0	0x3be4e40c	0.006985193
1	0x3c55313e	0.0130122285
2	0xb70e8f2c	-8.497194e-06
3	0x3c0697c3	0.008214894
4	0x3be0209e	0.006839826
5	0xb90058a1	-0.00012240048
6	0xbc80b277	-0.015710099
7	0xbc098210	-0.008392826
8	0x39b1652a	0.00033835444
9	0x3a8505f7	0.0010148872
10	0x3bd94207	0.0066301855
11	0xbbf6ed7e	-0.0075356355
12	0xbaddbf67	-0.0016918004
13	0x3b3af6b1	0.0028528387
14	0xbc038a74	-0.008028615
15	0xba4afaa1	-0.0007743035
16	0x3ba55ff1	0.0050468375
17	0xbc1de959	-0.009638154
18	0x3c0fbed3	0.008773523
19	0xbc0947de	-0.008378951
20	0x3b18d8a3	0.0023322485
21	0x3bb227c9	0.0054368717
22	0x3be6431e	0.007027044
23	0x3c1aa066	0.009437656
24	0xb95c2232	-0.00020993574
25	0x3b240d63	0.0025032393
26	0xbaa1c50f	-0.0012342053
27	0x3c2aa4c9	0.010415264
28	0xbaf2f28d	-0.001853542
29	0xbc0cb3f3	-0.008587825
30	0xbbc70b64	-0.006074356
31	0xbc45db0c	-0.012076151

pos_enc f4 [32, 32, 32]
0	0x00000000	0.0
1	0x3f800000	1.0
2	0x00000000	0.0
3	0x3f800000	1.0
4	0x00000000	0.0
5	0x3f800000	1.0
6	0x00000000	0.0
7	0x3f800000	1.0
8	0x00000000	0.0
9	0x3f800000	1.0
10	0x00000000	0.0
11	0x3f800000	1.0
12	0x00000000	0.0
13	0x3f800000	1.0
14	0x00000000	0.0
15	0x3f800000	1.0
16	0x00000000	0.0
17	0x3f800000	1.0
18	0x00000000	0.0
19	0x3f800000	1.0
20	0x00000000	0.0
21	0x3f800000	1.0
22	0x00000000	0.0
23	0x3f800000	1.0
24	0x00000000	0.0
25	0x3f800000	1.0
26	0x00000000	0.0
27	0x3f800000	1.0
28	0x00000000	0.0
29	0x3f800000	1.0
30	0x00000000	0.0
31	0x3f800000	1.0
32	0x00000000	0.0
33	0x3f800000	1.0
34	0x00000000	0.0
35	0x3f800000	1.0
36	0x00000000	0.0
37	0x3f800000	1.0
38	0x00000000	0.0
39	0x3f800000	1.0
40	0x00000000	0.0
41	0x3f800000	1.0
42	0x00000000	0.0
43	0x3f800000	1.0
44	0x00000000	0.0
45	0x3f800000	1.0
46	0x00000000	0.0
47	0x3f800000	1.0
48	0x3f576aa4	0.84147096
49	0x3f0a5141	0.54030234
50	0x3f087dba	0.53316844
51	0x3f58940d	0.8460091
52	0x3e9f393e	0.3109836
53	0x3f734e6b	0.9504153
54	0x3e35233a	0.17689219
55	0x3f7bf683	0.9842302
56	0x3dcc7577	0.09983342
57	0x3f7eb898	0.9950042
58	0x3d6636af	0.056204494
59	0x3f7f9868	0.9984193
60	0x3d01815c	0.031617507
61	0x3f7fdf3c	0.99950004
62	0x3c91ab42	0.017781857
63	0x3f7ff5a3	0.99984187
64	0x00000000	0.0
65	0x3f800000	1.0
66	0x00000000	0.0
67	0x3f800000	1.0
68	0x00000000	0.0
69	0x3f800000	1.0
70	0x00000000	0.0
71	0x3f800000	1.0
72	0x00000000	0.0
73	0x3f800000	1.0
74	0x00000000	0.0
75	0x3f800000	1.0
76	0x00000000	0.0
77	0x3f800000	1.0
78	0x00000000	0.0
79	0x3f800000	1.0
80	0x3f68c7b7	0.9092974
81	0xbed51133	-0.41614684
82	0x3f66f20a	0.9021307
83	0x3edce8b2	0.43146282
84	0x3f17541b	0.5911271
85	0x3f4e7bec	0.8065784
86	0x3eb247f6	0.34820527
87	0x3f6ffaa6	0.93741834
88	0x3e4b6ff9	0.19866933
89	0x3f7ae5a5	0.9800666
90	0x3de5d987	0.11223131
91	0x3f7e61f3	0.9936821
92	0x3d8170c9	0.0632034
93	0x3f7f7cf9	0.9980007
94	0x3d11a55c	0.03555809
95	0x3f7fd68e	0.9993676
96	0x00000000	0.0
97	0x3f800000	1.0
98	0x00000000	0.0
99	0x3f800000	1.0
100	0x00000000	0.0
101	0x3f800000	1.0
102	0x00000000	0.0
103	0x3f800000	1.0
104	0x00000000	0.0
105	0x3f800000	1.0
106	0x00000000	0.0
107	0x3f800000	1.0
108	0x00000000	0.0
109	0x3f800000	1.0
110	0x00000000	0.0
111	0x3f800000	1.0
112	0x3e1081c3	0.14112
113	0xbf7d7026	-0.9899925
114	0x3f7e45d7	0.9932532
115	0xbded7fab	-0.11596616
116	0x3f5009c2	0.8126489
117	0x3f152f58	0.58275366
118	0x3f022f6d	0.50853616
119	0x3f5c6d29	0.86104065
120	0x3e974e6d	0.29552022
121	0x3f7490ef	0.9553365
122	0x3e2beed8	0.1679033
123	0x3f7c5d9e	0.9858035
124	0x3dc1ffc1	0.09472609
125	0x3f7ed94f	0.99550337
126	0x3d5a694e	0.053323083
127	0x3f7fa2c3	0.9985773
128	0x00000000	0.0
129	0x3f800000	1.0
130	0x00000000	0.0
131	0x3f800000	1.0
132	0x00000000	0.0
133	0x3f800000	1.0
134	0x00000000	0.0
135	0x3f800000	1.0
136	0x00000000	0.0
137	0x3f800000	1.0
138	0x00000000	0.0
139	0x3f800000	1.0
140	0x00000000	0.0
141	0x3f800000	1.0
142	0x00000000	0.0
143	0x3f800000	1.0
144	0xbf41bdcf	-0.7568025
145	0xbf275530	-0.6536436
146	0x3f4749ec	0.7784717
147	0xbf20af9e	-0.6276797
148	0x3f741dde	0.95358074
149	0x3e9a2eb1	0.30113748
150	0x3f271fbc	0.652828
151	0x3f41ebed	0.7575062
152	0x3ec761d8	0.38941836
153	0x3f6bcaa7	0.921061
154	0x3e6465c6	0.22304448
155	0x3f798d09	0.9748083
156	0x3e012e89	0.12615408
157	0x3f7df469	0.99201065
158	0x3d918dc8	0.07107121
159	0x3f7f5a46	0.9974712
160	0x00000000	0.0
161	0x3f800000	1.0
162	0x00000000	0.0
163	0x3f800000	1.0
164	0x00000000	0.0
165	0x3f800000	1.0
166	0x00000000	0.0
167	0x3f800000	1.0
168	0x00000000	0.0
169	0x3f800000	1.0
170	0x00000000	0.0
171	0x3f800000	1.0
172	0x00000000	0.0
173	0x3f800000	1.0
174	0x00000000	0.0
175	0x3f800000	1.0
176	0xbf757c10	-0.9589243
177	0x3e913c2c	0.2836622
178	0x3ea5dad8	0.32393527
179	0xbf723240	-0.94607925
180	0x3f7ffc7f	0.99994653
181	0xbc2972e9	-0.010342338
182	0x3f46caab	0.77652997
183	0x3f214cf1	0.6300803
184	0x3ef57744	0.47942555
185	0x3f60a940	0.87758255
186	0x3e8e11ed	0.2774805
187	0x3f75f27c	0.96073127
188	0x3e213c1e	0.15745589
189	0x3f7cce81	0.987526
190	0x3db5db21	0.08879686
191	0x3f7efd1e	0.99604976
192	0x00000000	0.0
193	0x3f800000	1.0
194	0x00000000	0.0
195	0x3f800000	1.0
196	0x00000000	0.0
197	0x3f800000	1.0
198	0x00000000	0.0
199	0x3f800000	1.0
200	0x00000000	0.0
201	0x3f800000	1.0
202	0x00000000	0.0
203	0x3f800000	1.0
204	0x00000000	0.0
205	0x3f800000	1.0
206	0x00000000	0.0
207	0x3f800000	1.0
208	0xbe8f0f8c	-0.2794155
209	0x3f75cdb8	0.96017027
210	0xbe6be576	-0.23036751
211	0xbf791d53	-0.9731037
212	0x3f72784e	0.9471482
213	0xbea43f6d	-0.3207964
214	0x3f603089	0.8757406
215	0x3ef72f32	0.48278195
216	0x3f108c69	0.5646425
217	0x3f534932	0.8253356
218	0x3ea97dfd	0.33103934
219	0x3f7190e2	0.943617
220	0x3e41206f	0.18860029
221	0x3f7b67e3	0.98205394
222	0x3dda19c2	0.10649444
223	0x3f7e8b51	0.9943133
224	0x00000000	0.0
225	0x3f800000	1.0
226	0x00000000	0.0
227	0x3f800000	1.0
228	0x00000000	0.0
229	0x3f800000	1.0
230	0x00000000	0.0
231	0x3f800000	1.0
232	0x00000000	0.0
233	0x3f800000	1.0
234	0x00000000	0.0
235	0x3f800000	1.0
236	0x00000000	0.0
237	0x3f800000	1.0
238	0x00000000	0.0
239	0x3f800000	1.0
240	0x3f283046	0.6569866
241	0x3f40ffbd	0.75390226
242	0xbf36b66d	-0.7137211
243	0xbf334f61	-0.70043
244	0x3f4ce86e	0.8004216
245	0xbf1974bc	-0.5994375
246	0x3f728444	0.9473307
247	0x3ea3f8b6	0.3202569
248	0x3f24eb73	0.64421767
249	0x3f43ccb3	0.7648422
250	0x3ec460de	0.38355154
251	0x3f6c6bc6	0.9235195
252	0x3e60d351	0.21955611
253	0x3f79c0ea	0.9755999
254	0x3dfe46ba	0.12415834
255	0x3f7e04e9	0.9922624

norm.weight f4 [32]
0	0x3f676a65	0.9039672
1	0x3f735edd	0.95066625
2	0x3f6b133e	0.91826236
3	0x3f69b733	0.91295165
4	0x3f6acb32	0.917163
5	0x3f6fc446	0.93658864
6	0x3f62f632	0.88656914
7	0x3f6e84a8	0.9317117
8	0x3f6aab8e	0.9166802
9	0x3f6be393	0.92144126
10	0x3f6b2472	0.91852486
11	0x3f6ca06c	0.92432284
12	0x3f69a699	0.9126983
13	0x3f71b0a5	0.94410163
14	0x3f73e3be	0.9526938
15	0x3f7446bd	0.9542044
16	0x3f6812ec	0.9065387
17	0x3f6c14fb	0.92219514
18	0x3f690c6b	0.91034573
19	0x3f65edfb	0.89816254
20	0x3f6c9ca6	0.92426527
21	0x3f6cdb1b	0.9252183
22	0x3f6c3cf0	0.92280483
23	0x3f700e02	0.93771374
24	0x3f69f710	0.9139261
25	0x3f7099cd	0.9398468
26	0x3f72f6ef	0.9490804
27	0x3f6a7a35	0.91592723
28	0x3f6a6cc0	0.9157219
29	0x3f775f43	0.9662973
30	0x3f6d252c	0.92634845
31	0x3f646bb0	0.8922682

norm.bias f4 [32]
0	0x3bcf3800	0.0063238144
1	0x3c58dfba	0.013236934
2	0xbbf61ce0	-0.0075107664
3	0x3d7e3fa5	0.062072415
4	0x3d4605c9	0.04834536
5	0x3cb45e1c	0.022017531
6	0xbcc9a762	-0.024615947
7	0xbc2ef304	-0.010678057
8	0x3c75fcb1	0.01501386
9	0xbd66138b	-0.05617098
10	0x3ccf0c43	0.025274402
11	0x3c666827	0.014062918
12	0x3d7087a8	0.058723122
13	0xbcf7e817	-0.030262036
14	0xbb3c8ce6	-0.0028770505
15	0xbd199187	-0.0374923
16	0xbc4d434e	-0.012528254
17	0x3d117cc4	0.035519376
18	0xbc9bee03	-0.019034391
19	0x3d4a2a40	0.0493567
20	0x3d359865	0.044334788
21	0xbb9fa637	-0.0048721093
22	0x3cbeb4b9	0.023279535
23	0xbc4e5eb7	-0.012595824
24	0x3a69f913	0.00089253596
25	0xbcdd200c	-0.02699282
26	0xbc7da750	-0.015481785
27	0xbd9dcd0a	-0.07705124
28	0xbc883e33	-0.016631221
29	0xbc8adaf9	-0.016950117
30	0x3d32d5b2	0.043660827
31	0xbd9ceb1d	-0.07662032

patch_embeddings.weight f4 [14, 32]
0	0x3ff90156	1.9453533
1	0x3fbcd475	1.4752337
2	0x3f6aaf8d	0.9167412
3	0xc006a04e	-2.1035342
4	0x3f2f6109	0.6850744
5	0xbfa0792c	-1.2536979
6	0xbd75111f	-0.05983078
7	0xbfcda8b6	-1.6067111
8	0xbf4183eb	-0.75591916
9	0x3fd173a3	1.6363415
10	0xbec3dcdf	-0.3825445
11	0xbfb324fd	-1.3995663
12	0xbf361e02	-0.7113954
13	0xbf11935c	-0.5686548
14	0xbf453ab9	-0.7704273
15	0x3f44dc79	0.76898915
16	0x3fd3a714	1.6535363
17	0xbe080c89	-0.13286032
18	0xbef26715	-0.4734427
19	0x3ee636b0	0.44963598
20	0xbf38e686	-0.7222675
21	0x3f8abc08	1.0838633
22	0x3f451f78	0.7700114
23	0x3fda23fe	1.7042234
24	0x3fa18fab	1.2621969
25	0x3fa933ea	1.3218968
26	0x3f174df2	0.5910331
27	0x3fa7d0ce	1.3110597
28	0xbe76530b	-0.24055116
29	0x3d1b9ba2	0.03799022
30	0xbe864265	-0.2622253
31	0x3f5d260c	0.8638618
32	0xbfb4dbc4	-1.4129567
33	0xbf609bba	-0.8773762
34	0xbe5323c7	-0.20619117
35	0x3fddb9da	1.7322342
36	0x3e9aba2f	0.30220172
37	0xbecb9d5a	-0.39768487
38	0x3ea23a64	0.31685174
39	0xbf41a53a	-0.7564274
40	0xbfc44182	-1.5332491
41	0x3f7f978b	0.9984061
42	0xbf6496b5	-0.8929246
43	0xbf1a2eac	-0.60227466
44	0xbfa316fe	-1.2741392
45	0x4006db25	2.1071255
46	0xbf9c980d	-1.2233902
47	0xbf02c08f	-0.5107507
48	0xbf68ffa1	-0.9101506
49	0xbf262e69	-0.64914566
50	0x3d974aa6	0.07387285
51	0x3f038a50	0.51382923
52	0xbef69eb0	-0.48167944
53	0x3f97865a	1.1837876
54	0xbf4d541f	-0.80206484
55	0xbf3d1529	-0.7386041
56	0xbfb41907	-1.4070138
57	0x3bb3bfae	0.0054854965
58	0xbd5e2594	-0.054235056
59	0x3f2b21b1	0.66848284
60	0xbdc82e6d	-0.0977448
61	0x3feae5a9	1.8351337
62	0xbf975fd0	-1.1826115
63	0x3fb3d4dc	1.4049335
64	0x3fb5d439	1.420539
65	0x3f5de825	0.8668235
66	0x400c46fe	2.191833
67	0x3f034d8b	0.51290196
68	0x3ea59daa	0.3234685
69	0xbe2a2636	-0.16616139
70	0xbf849677	-1.0358418
71	0x3fa5bc56	1.29481
72	0xbe0d6f08	-0.13811886
73	0x3f0e80b6	0.5566515
74	0x3d9c01d5	0.07617537
75	0x3ed5c6dc	0.4175328
76	0x3f18d434	0.59698796
77	0xbf271d85	-0.6527942
78	0xc00cf5be	-2.202499
79	0xbf431ba1	-0.76214033
80	0xbc02a7ea	-0.007974604
81	0xbec1ceaa	-0.37852985
82	0xbfafc8bf	-1.3733138
83	0xbf0db321	-0.55351454
84	0x3f031db0	0.51217175
85	0x3f04594f	0.51698774
86	0x3f94e912	1.1633627
87	0x3cdf5082	0.027260069
88	0x3f390352	0.7227069
89	0xbf023163	-0.5085661
90	0xbf860012	-1.0468771
91	0x3f12d32e	0.57353485
92	0xbfdefcca	-1.7420895
93	0xbf4b876b	-0.79503506
94	0x3fad911f	1.3559912
95	0x3ef10922	0.4707728
96	0xc0209bb3	-2.5095031
97	0x3ef74b26	0.4829952
98	0x3f47bb5a	0.7802025
99	0x3c6384c5	0.013886635
100	0x3f225bc3	0.6342127
101	0x3f163a7f	0.5868301
102	0x3f88f189	1.0698711
103	0xbee92192	-0.45533425
104	0xbe520c87	-0.20512591
105	0x3f44233f	0.7661628
106	0x3eca0376	0.39455765
107	0x3e47b7cd	0.19503708
108	0x3e819270	0.25307035
109	0x3fa454fd	1.2838436
110	0xbb968d78	-0.004594501
111	0xbea14f23	-0.3150569
112	0xbfb85fe6	-1.4404266
113	0xbdafa0af	-0.0857557
114	0xbf11d234	-0.5696137
115	0x3f0352b6	0.5129808
116	0x3f378028	0.71679926
117	0x3dde4792	0.10853495
118	0xbed3f3aa	-0.41396838
119	0x3f089773	0.53356093
120	0xbcb5e353	-0.022203123
121	0x3e7881cf	0.24268268
122	0x3de423e9	0.11139662
123	0x3f3c4331	0.73540026
124	0x3f8df445	1.109017
125	0x3ebca908	0.3684771
126	0x3f34788e	0.7049645
127	0x3ecf7aa6	0.4052326
128	0x3ff9575e	1.9479787
129	0x3f815a57	1.0105695
130	0xbfb820da	-1.4385026
131	0xbf90abed	-1.1302468
132	0xbe177194	-0.1478942
133	0x3fcf5c6b	1.6200079
134	0x3f2b995c	0.6703088
135	0x3f1728bd	0.59046537
136	0x3f91cddb	1.1390947
137	0x3ccd04e3	0.025026744
138	0xbfe7fa42	-1.8123248
139	0x3f68ee80	0.9098892
140	0xbebfa9ee	-0.37434334
141	0x3f87ce45	1.0609823
142	0xbf3564bf	-0.7085685
143	0x3f202a71	0.6256476
144	0xbf751bf7	-0.95745796
145	0x3f74d95d	0.9564417
146	0x3fcf3210	1.6187153
147	0x3fb99077	1.4497212
148	0x3e8892f3	0.26674613
149	0xbe4232ad	-0.18964644
150	0xbf396f4c	-0.7243545
151	0x3de037b8	0.109481275
152	0x3ea3d2d4	0.31996787
153	0x3f743d32	0.95405877
154	0xbef6c3ed	-0.48196355
155	0x3fcab02d	1.5835015
156	0xc01e1e03	-2.4705818
157	0xbece38c2	-0.40277678
158	0xbf996924	-1.1985211
159	0x3f4cec84	0.80048394
160	0xbff52d4a	-1.9154446
161	0x3e6817e7	0.22665368
162	0x3a08ae9e	0.0005214008
163	0xbeaf5a4a	-0.34248573
164	0x3e897cad	0.26852933
165	0xbf37dedc	-0.7182443
166	0x3e4d3b6d	0.200422
167	0xbf87be68	-1.0604982
168	0xbfcad48e	-1.5846117
169	0x3faf8c83	1.3714756
170	0x3fa4f2a2	1.2886546
171	0x3d326345	0.043551702
172	0xbfc7a860	-1.5598259
173	0x3f3ca666	0.73691404
174	0x3f4faec2	0.81126034
175	0x40003da6	2.0037627
176	0x3ce32688	0.027728334
177	0x3e10aff4	0.14129621
178	0xbf4d7a4a	-0.80264723
179	0xbe50091c	-0.20315975
180	0xbf6ef1e1	-0.9333783
181	0xbfcc9c30	-1.5985165
182	0xbf8d3e59	-1.1034652
183	0xbf0b87c2	-0.54504025
184	0xbf02615c	-0.5092981
185	0xbfbb2e6a	-1.462354
186	0xbff932bb	-1.9468607
187	0x3e089966	0.13339767
188	0x3f84e2f2	1.0381758
189	0xbf0d9996	-0.5531248
190	0x3f2aff17	0.66795486
191	0x3f2f8dcc	0.6857574
192	0x3fe56ab5	1.7923189
193	0xbf697450	-0.91193104
194	0x3f79aa4d	0.97525483
195	0xbeb1350d	-0.34610787
196	0xbf94c9b0	-1.162405
197	0x3eb98bef	0.36239573
198	0x3ef23f92	0.47314125
199	0x3fad077e	1.3517911
200	0x3f00c88d	0.50306016
201	0x4004e307	2.0763566
202	0xbf055696	-0.52085245
203	0xbf6f11de	-0.9338664
204	0x3e475811	0.19467188
205	0x3f896cab	1.0736288
206	0x3fa62ec5	1.2983023
207	0x3ed6c002	0.41943365
208	0xbf479456	-0.7796072
209	0xbf828ace	-1.019861
210	0xbefaadf3	-0.48960838
211	0xbf219676	-0.6312021
212	0x3e1a273f	0.15054034
213	0x3ee8f267	0.45497438
214	0xbe367af2	-0.17820337
215	0xc01594a9	-2.3371985
216	0xbed264c5	-0.41092506
217	0x3f8a6799	1.0812865
218	0xbfe14153	-1.759806
219	0x3fbff21f	1.4995764
220	0x3ea6c16d	0.32569447
221	0xbf045136	-0.5168642
222	0x3f877264	1.0581784
223	0x3fdc712c	1.7222037
224	0xbd014da2	-0.031568177
225	0x3fd9f5e2	1.7028162
226	0x3e10df58	0.14147699
227	0xbf89eb24	-1.0774884
228	0xbf15b2db	-0.58476037
229	0x3defc01b	0.11706563
230	0x3ed731b4	0.42030108
231	0x3ffc7cb7	1.972556
232	0xbd690186	-0.05688622
233	0xbf646e9e	-0.8923129
234	0xc0033a37	-2.0504282
235	0xbf8a9afc	-1.0828547
236	0x3d6df0b9	0.0580909
237	0x3dccf7dc	0.10008213
238	0x3e64cc61	0.2234359
239	0x3ec6722f	0.3875899
240	0xbf73019f	-0.9492435
241	0x3e8e87b1	0.278379
242	0xbf0a88e6	-0.5411514
243	0x3f003781	0.5008469
244	0xbf668808	-0.9005132
245	0xbca521a3	-0.02015764
246	0xbeac7ee4	-0.3369056
247	0x3fb6f6ef	1.4294108
248	0x3f9edeec	1.241178
249	0xbf35e53d	-0.71052915
250	0x3f5b3059	0.8562065
251	0x3efaf98c	0.49018514
252	0x3f0715d1	0.52767664
253	0x3f115b21	0.56779677
254	0x3f09e28b	0.538613
255	0x3e3cf057	0.18451057

blocks.0.norm1.weight f4 [32]
0	0x3f832cf0	1.0248089
1	0x3f819084	1.0122228
2	0x3f7dcd61	0.9914151
3	0x3f7f8978	0.99819136
4	0x3f80fc4f	1.0076998
5	0x3f7e4d51	0.99336725
6	0x3f82341d	1.0172154
7	0x3f7f2b0d	0.99675065
8	0x3f819832	1.0124571
9	0x3f810ab7	1.0081395
10	0x3f7f3b29	0.99699646
11	0x3f80aae3	1.005215
12	0x3f80a8ef	1.0051554
13	0x3f80cec6	1.0063102
14	0x3f7f7b59	0.9979759
15	0x3f8029ea	1.0012791
16	0x3f809291	1.0044729
17	0x3f7fd25c	0.9993036
18	0x3f810360	1.0079155
19	0x3f80f4f0	1.0074749
20	0x3f80672c	1.0031486
21	0x3f81904b	1.012216
22	0x3f80d6a9	1.0065509
23	0x3f7ec63e	0.99521244
24	0x3f8126cc	1.0089965
25	0x3f80621e	1.0029943
26	0x3f80a658	1.0050764
27	0x3f7db0e7	0.99098057
28	0x3f7eb9fc	0.9950254
29	0x3f80d5c1	1.0065233
30	0x3f7eb6be	0.9949759
31	0x3f8101dd	1.0078694

blocks.0.norm1.bias f4 [32]
0	0x3badb37c	0.005300937
1	0x3b3fb9a4	0.0029254938
2	0xbb4a2050	-0.0030842014
3	0x3afe59ef	0.0019405464
4	0xbc206571	-0.0097898105
5	0x3c632640	0.0138641
6	0xbbbf1503	-0.005831362
7	0x3a8f0231	0.0010910687
8	0xbbbd340c	-0.0057740267
9	0xba14187f	-0.0005649402
10	0x3c3cfe45	0.011535232
11	0x3a516c26	0.00079888327
12	0xbaa0f62e	-0.0012280399
13	0x3c02583e	0.007955609
14	0xbb1cf0dd	-0.0023947277
15	0x39c3829e	0.00037290616
16	0x3bea8166	0.007156539
17	0xbbb60e10	-0.0055558756
18	0xbbcdee72	-0.0062845284
19	0x3b57174b	0.003282028
20	0xbb5c77bf	-0.003364071
21	0x3b5a72a1	0.0033332484
22	0xbbb91ff0	-0.005649559
23	0x3c4abb7c	0.012373801
24	0x3bc1847d	0.0059056864
25	0xbb976455	-0.004620115
26	0xbbd7d38a	-0.0065864967
27	0xbb851364	-0.0040611494
28	0x3aedb208	0.0018134722
29	0x3ada41a8	0.0016651647
30	0xbb9199b7	-0.004443373
31	0x3b8b1eb8	0.0042456053

blocks.0.attn.qkv.weight f4 [96, 32]
0	0x3e12c7d5	0.14334042
1	0xbe1340a9	-0.14380135
2	0xbce7ec62	-0.028310958
3	0xbe37c667	-0.17946778
4	0xbe1219bb	-0.14267628
5	0x3c924f16	0.017859977
6	0x3d24d249	0.040239606
7	0x3cd3e28c	0.025864862
8	0xbd8e0bfb	-0.06935879
9	0x3e199929	0.14999832
10	0x3cd3395e	0.02578419
11	0xbdba76f8	-0.09104723
12	0xba532c08	-0.00080555724
13	0x3d40a06b	0.047027986
14	0x3d5c6b2d	0.05381315
15	0xbdc3bab5	-0.09557096
16	0x3d4806d3	0.048834633
17	0xbdb9af11	-0.090665944
18	0xbe220791	-0.15823199
19	0xbdc809c3	-0.09767487
20	0x3e46442d	0.19361944
21	0x3e1a9200	0.15094757
22	0x3e2a8130	0.16650844
23	0x3ddd5212	0.10806669
24	0x3e133279	0.14374723
25	0xbd0d15bc	-0.034444556
26	0xbdcd56f0	-0.10026348
27	0x3dbb87af	0.09156739
28	0xbdc8fa59	-0.09813375
29	0xbde0df68	-0.10980111
30	0xbd66ef5a	-0.056380607
31	0x3d24125c	0.04005657
32	0x3da23993	0.07921138
33	0xbd65eaaa	-0.056131996
34	0xbd98b20b	-0.07455834
35	0x3c92f20a	0.017937679
36	0xbdd0b9af	-0.10191666
37	0xbdbc45c4	-0.09192994
38	0x3dc8af19	0.09799022
39	0x3adc1253	0.0016790129
40	0x3e3fd56e	0.1873376
41	0x3e41acfe	0.18913648
42	0x3d1c647b	0.038181763
43	0x3d3ae588	0.045629054
44	0x3ccb01e5	0.024781177
45	0xbaa3816d	-0.0012474485
46	0x3c0814cb	0.008305739
47	0xbce4ac10	-0.027914077
48	0x3dad5042	0.084625736
49	0x3e2363f6	0.15956101
50	0xbd06a769	-0.0328745
51	0xbda5b1f0	-0.080905795
52	0xbda430b2	-0.080171004
53	0xbda06996	-0.07832639
54	0x3ba0a4a5	0.0049024397
55	0x3de7367c	0.11289689
56	0x3df0a788	0.11750704
57	0x3dc69e39	0.09698147
58	0xbe01c319	-0.1267208
59	0xbdc099e6	-0.09404354
60	0xbabc4c58	-0.0014366014
61	0xbd46eeea	-0.04856769
62	0x3c42c4f4	0.011887778
63	0xbe237d84	-0.15965849
64	0x3d6cdfa2	0.05783046
65	0xbe05251a	-0.13002434
66	0xbdd8d5d3	-0.10587659
67	0xbe1cf4bc	-0.15327734
68	0x3e24b074	0.16082937
69	0xbe2e1451	-0.16999938
70	0x3dfd74db	0.12375804
71	0xba806285	-0.0009794986
72	0xbcc61743	-0.024181014
73	0x3dde0bc0	0.10842085
74	0xbcc5a877	-0.024128182
75	0x3de16a22	0.11006571
76	0x3dfb6513	0.12275138
77	0xbe1665c2	-0.14687255
78	0x3d88ed0a	0.066858366
79	0x3d0d59b9	0.034509394
80	0x3d1e32c2	0.038622625
81	0x3ca05af8	0.019574627
82	0x3d484ff8	0.04890439
83	0xbdbff325	-0.09372548
84	0xbc9c93e5	-0.01911349
85	0x3e338587	0.17531405
86	0x3df19916	0.11796777
87	0xbbdcf985	-0.0067436122
88	0xbe28711e	-0.16449401
89	0x3c4eb3d4	0.012616117
90	0xbe008128	-0.12549269
91	0x3e19f3bb	0.15034382
92	0xbdc3faf6	-0.095693514
93	0xbc8cd244	-0.017190106
94	0xbd3eda39	-0.046594832
95	0x3d036661	0.032080058
96	0x3e384b66	0.17997512
97	0x3ca10cad	0.019659365
98	0x3d9b11d8	0.07571763
99	0x3e16ecba	0.14738742
100	0x3e193184	0.14960295
101	0xbda3729d	-0.07980845
102	0xbd49f3f8	-0.049304932
103	0x3d693724	0.05693735
104	0xbd82ccff	-0.06386756
105	0x3d9a42ef	0.07532298
106	0xbcc4bfef	-0.024017302
107	0xbdf7beac	-0.12096915
108	0x3d932ded	0.07186494
109	0x3d1ca75d	0.038245548
110	0x3d6bfb7e	0.05761289
111	0x3e43d1a2	0.19122937
112	0x3df38004	0.118896514
113	0x3e2621bd	0.16223808
114	0x3c5d9a9e	0.013525633
115	0xbe2160b7	-0.1575955
116	0xbdbb840c	-0.09156045
117	0xbdd5944e	-0.104286775
118	0xbe06f910	-0.13180947
119	0xbd8acd1a	-0.06777401
120	0xbe15527d	-0.14582248
121	0xbe287813	-0.16452055
122	0xbde1ed01	-0.11031533
123	0xbe28b7de	-0.1647639
124	0xbe0ee0e2	-0.13952973
125	0x3d8ac290	0.06775391
126	0x3e0e0881	0.13870431
127	0xbd7edf3f	-0.062224623
128	0xbd31dea0	-0.043425202
129	0x3dcf80c0	0.10131979
130	0xbdb72101	-0.08941842
131	0xbdb0fe58	-0.08642262
132	0x3df4cf0d	0.11953554
133	0xbe24669d	-0.16054769
134	0x3c084afb	0.008318658
135	0x3e1e5390	0.15461564
136	0x3cdeda60	0.027203739
137	0x3d3b53e0	0.045734286
138	0xbddb635f	-0.10712313
139	0xbb77e9a4	-0.003782847
140	0x3b37ccb9	0.0028045608
141	0x3d520c11	0.05128104
142	0x3d7f563a	0.06233809
143	0x3e22bb20	0.15891695
144	0xbe0a9898	-0.13534772
145	0xbb852bce	-0.00406406
146	0xbdaaf1c8	-0.08346897
147	0xbe1a572c	-0.15072316
148	0xbb09161d	-0.0020917722
149	0xbe1328ab	-0.14370982
150	0x3e021970	0.12705016
151	0x3ccfaef1	0.025351973
152	0xbdb9694b	-0.09053286
153	0x3dc9c2da	0.09851618
154	0xbe33811c	-0.1752972
155	0xbd6f3f51	-0.058409993
156	0xbcecd9e3	-0.02891249
157	0xbe20e0dc	-0.15710777
158	0xbdfc36dd	-0.12315152
159	0xbd06267b	-0.03275154
160	0x3e086d67	0.13322984
161	0x3e31c661	0.17360832
162	0x3e19ca0d	0.15018483
163	0xbde77dea	-0.11303313
164	0xbde3a0e2	-0.1111467
165	0x3e2b2b03	0.16715626
166	0x3d5fd7bc	0.0546491
167	0x3cc31564	0.02381391
168	0x3d29979b	0.041404348
169	0xbe09c274	-0.13453084
170	0xbd889314	-0.06668678
171	0x3e2e9558	0.17049158
172	0xbd4ba16f	-0.049714502
173	0xbbd3024e	-0.0064394837
174	0xbe13eda8	-0.14446127
175	0xbdee2ade	-0.1162927
176	0x3b717597	0.003684377
177	0xbde66069	-0.112488575
178	0xbcce27a7	-0.025165392
179	0x3d85bd26	0.06530218
180	0xbe4906bf	-0.1963148
181	0x3d6b5fb7	0.057464328
182	0xbdfe4266	-0.12415008
183	0xbdb5f8d2	-0.08885349
184	0x3d8442d8	0.06458062
185	0x3e15eb32	0.14640501
186	0xbd5500ba	-0.052002646
187	0xbd8d4b2d	-0.06899104
188	0xbe0a84d9	-0.1352724
189	0xbdc544a2	-0.09632231
190	0xbe20de98	-0.15709913
191	0xbd1ab88f	-0.037773665
192	0x3d08f999	0.03344116
193	0xbe282a8d	-0.16422482
194	0x3e12d54b	0.14339177
195	0x3de69050	0.11257994
196	0xbe2ceaf0	-0.16886497
197	0xbdc4d947	-0.09611755
198	0x3d63aca2	0.055584557
199	0xbd05d201	-0.03267098
200	0xbcaecd81	-0.021338226
201	0xbda3428e	-0.07971679
202	0x3e0e398f	0.13889144
203	0xbdcdc405	-0.100471534
204	0x3e155e2f	0.1458671
205	0x3c9b85e1	0.018984737
206	0x3d1b0cb5	0.037853915
207	0x3e1473f9	0.14497365
208	0xbd1cc1c2	-0.03827072
209	0xbdd970fa	-0.10617252
210	0xbcdb152a	-0.02674349
211	0x3e11203b	0.14172451
212	0xbe037f5e	-0.12841555
213	0x3d407484	0.046986118
214	0xbe3a0798	-0.1816696
215	0x3db1663c	0.08662078
216	0x3d813d43	0.06310513
217	0x3ba87d76	0.0051419092
218	0x3d97b574	0.07407656
219	0x3ba05c08	0.0048937835
220	0x3dd84135	0.10559312
221	0xbe0f9983	-0.14023404
222	0xbce3d659	-0.02781217
223	0x3da3bbbd	0.079947926
224	0x3e389ccd	0.18028565
225	0x3dbaf40b	0.09128579
226	0xbe0e8a58	-0.13919961
227	0x3e01b874	0.1266802
228	0xbd062749	-0.03275231
229	0xbd427ba0	-0.04748118
230	0xbe2d60dd	-0.16931482
231	0xbced3e11	-0.02896026
232	0x3debb534	0.11509171
233	0x3c85eb57	0.01634757
234	0xbde16b11	-0.110067494
235	0x3d70120e	0.05861097
236	0xbd699e9a	-0.05703602
237	0x3e2ace41	0.16680242
238	0xbe1fb905	-0.15597923
239	0xbd1a58e5	-0.037682433
240	0xbe335ca2	-0.17515805
241	0xbd9b42e6	-0.07581119
242	0x3d6025e5	0.05472364
243	0x3e26c7c0	0.16287136
244	0x3d341501	0.043965343
245	0x3e38ab8f	0.18034194
246	0x3d135f57	0.035979595
247	0x3dd2af95	0.10287396
248	0x3e15fc9e	0.14647147
249	0x3e178022	0.14794973
250	0xbdd70d41	-0.10500575
251	0x3e2dbcab	0.16966502
252	0x3de3842e	0.11109196
253	0xbdab5382	-0.08365537
254	0xbdbb83c2	-0.0915599
255	0xbe15b37d	-0.1461925

blocks.0.attn.proj.weight f4 [32, 32]
0	0xbd82bf73	-0.06384172
1	0x3df70d6c	0.12063107
2	0xbe021d88	-0.12706578
3	0xbe131d04	-0.14366537
4	0xbe0b3de2	-0.13597825
5	0xbdd58dea	-0.104274586
6	0x3e2780a2	0.16357663
7	0x3cdb40cc	0.026764296
8	0xbcd98346	-0.026551854
9	0xbd4f15cd	-0.0505579
10	0xbe0b82df	-0.13624142
11	0xbd5a53f1	-0.05330271
12	0x3db95fc7	0.09051471
13	0x3dfd4a1f	0.12367653
14	0x3e0455a8	0.129233
15	0x3c3a0170	0.011352882
16	0xbdc546af	-0.096326225
17	0xbdd4265f	-0.10358881
18	0x3e2c3a82	0.16819194
19	0xbe2782c6	-0.1635848
20	0x3d2d8aef	0.042368826
21	0xbc930629	-0.017947273
22	0x3e34745d	0.17622514
23	0x3dd36eeb	0.1032389
24	0xbd7c1ca5	-0.061550755
25	0xbe155a6d	-0.14585276
26	0x3d3ad554	0.0456136
27	0xbdf89db0	-0.121394515
28	0xbccbc603	-0.024874693
29	0x3d4284c6	0.047489904
30	0x3db39d8e	0.087702855
31	0xbd2639e1	-0.04058254
32	0xbdda5116	-0.10659997
33	0xbe045d9c	-0.12926334
34	0xbe40ebd3	-0.1883996
35	0x3cb876db	0.022517612
36	0xbdf5f7e7	-0.12010174
37	0x3c7b33e0	0.015332192
38	0xbdb52b60	-0.08846164
39	0xbdfafa0a	-0.122547224
40	0x3deb9e38	0.11504787
41	0x3dd50024	0.104004174
42	0x3e05c0e8	0.13061869
43	0x3e41375a	0.18868771
44	0xbe0a7ad0	-0.13523412
45	0xbdd6bdaa	-0.10485394
46	0xbe143559	-0.14473476
47	0x3df5c2ce	0.12000047
48	0x3db68ca6	0.08913545
49	0x3e17c626	0.14821681
50	0xbe087b6c	-0.13328332
51	0xbdd8079b	-0.10548326
52	0x3e2ab736	0.16671452
53	0xbe0412b3	-0.12897758
54	0xbe186051	-0.14880492
55	0x3d9f76c7	0.07786327
56	0xbe1c5521	-0.15266849
57	0xbd6365a8	-0.05551687
58	0x3dd1c63b	0.102428876
59	0x3e0b424a	0.13599506
60	0xbc42edf6	-0.011897555
61	0xbe143fdc	-0.14477485
62	0x3dd163c2	0.102241054
63	0x3e40bf5b	0.18822996
64	0xbe092e38	-0.13396537
65	0x3a7f9a5b	0.0009750479
66	0xbe07e739	-0.13271798
67	0xbddcfa68	-0.10789949
68	0x3d87d8e5	0.06633166
69	0x3d9ad871	0.07560814
70	0x3d8562a5	0.065129556
71	0xbe19cb72	-0.15019014
72	0xbd113769	-0.035453234
73	0x3d64eea1	0.055891637
74	0xbcca1e88	-0.024672762
75	0xbdb7e8f5	-0.0897998
76	0xbdb7ae93	-0.08968844
77	0x3e2c4fb4	0.1682728
78	0xbe1009ca	-0.14066234
79	0xbdeb4597	-0.114878826
80	0x3e092f03	0.1339684
81	0xbdf9be52	-0.12194504
82	0x3dee6b65	0.11641578
83	0xbdb7a52b	-0.0896705
84	0xbc3a9349	-0.011387655
85	0xbda0fe0d	-0.07860956
86	0x3e0b56ac	0.13607281
87	0x3deb6bba	0.114951566
88	0x3c923c82	0.017851118
89	0x3c2675a8	0.010159887
90	0xbd8ef267	-0.06979828
91	0xbdba23b9	-0.09088845
92	0xbd8ddd63	-0.06926992
93	0x3d7602cd	0.060061265
94	0xbce9b0b1	-0.028526636
95	0x3deb449f	0.11487698
96	0x3cb7e159	0.022446321
97	0xbc4b1879	-0.012395971
98	0xbdb0c8c1	-0.08632041
99	0x3d9e47ea	0.0772856
100	0xbe2657d6	-0.16244444
101	0x3d2360b9	0.039887164
102	0x3d99dbfe	0.07512663
103	0x3ccf3bd0	0.025297076
104	0x3df71c39	0.1206593
105	0x3d321546	0.04347732
106	0xbd411c74	-0.047146276
107	0xbe13d8b6	-0.14438137
108	0xbe2dddc5	-0.1697913
109	0x3db9ac92	0.09066118
110	0x3dd0187a	0.101609185
111	0xbe04c453	-0.12965517
112	0x3d4fb245	0.05070712
113	0xbd8358fb	-0.06413456
114	0x3e171a2b	0.14756076
115	0xbd6a4870	-0.057197988
116	0x3e17d782	0.14828303
117	0x3dfbac80	0.12288761
118	0x3de8b0b2	0.11361827
119	0x3df4f7cd	0.11961327
120	0x3d89f6bb	0.06736513
121	0x3d5cf7ee	0.05394738
122	0xbe356b58	-0.1771673
123	0xbd287fbe	-0.04113745
124	0xbca4a705	-0.020099172
125	0x3da884c0	0.08228445
126	0xbdb756eb	-0.08952125
127	0x3d97bd4a	0.07409151
128	0x3df0c8f6	0.1175708
129	0x3d91c641	0.07117892
130	0x3daf2fc7	0.08554035
131	0xbcb254e9	-0.021769004
132	0x3dbf26f3	0.09333601
133	0xbd84ed95	-0.06490628
134	0x3e10a01f	0.14123581
135	0x3bdc99f9	0.006732222
136	0xbbee74d0	-0.0072771087
137	0xbe20f96d	-0.15720148
138	0x3e23d859	0.16000499
139	0xbd1bb639	-0.038015578
140	0x3e07ea4a	0.13272968
141	0xbdf537b0	-0.11973512
142	0xbe125e39	-0.14293756
143	0xbca59ec1	-0.020217301
144	0xbe0b974c	-0.13631934
145	0x3cf8c0a0	0.030365288
146	0x3b86fd8f	0.004119582
147	0xbd836949	-0.06416566
148	0x3ddb9e73	0.10723581
149	0x3e0018aa	0.12509409
150	0xbe185654	-0.14876682
151	0xbe0fa2e1	-0.14026977
152	0x3db246b8	0.08704895
153	0xbdd2c89f	-0.10292172
154	0x3cb6bee0	0.022307813
155	0xbd32420c	-0.04352002
156	0x3cc3c494	0.023897447
157	0xbdc2ee59	-0.095181175
158	0xbb922545	-0.0044600093
159	0xbd6201bd	-0.05517744
160	0xbda6cd47	-0.08144622
161	0xbdc61f64	-0.09673956
162	0x3d30ec0c	0.04319386
163	0x3dfc564c	0.12321147
164	0xbbfc0260	-0.007690713
165	0xbb7c988c	-0.0038543073
166	0x3e11d8c8	0.14242852
167	0x3e099ab8	0.13437927
168	0xbcee6a7a	-0.029103506
169	0xbe0b7f6c	-0.13622826
170	0x3d3f6e44	0.046736017
171	0x3d77224e	0.06033545
172	0xbe1212b8	-0.14264953
173	0xbe2522cf	-0.1612656
174	0x3cbd40d7	0.023102207
175	0x3e2b4167	0.16724168
176	0xbe1dcbbf	-0.15409754
177	0xbdb00333	-0.0859436
178	0xbd79304d	-0.06083708
179	0xbe1d0662	-0.15334466
180	0xbde45d58	-0.111506164
181	0x3e0f00c3	0.13965134
182	0x3e0f93ba	0.14021197
183	0xbe074da1	-0.13213207
184	0x3b7abcef	0.0038259586
185	0xbe130b50	-0.14359784
186	0x3d864da8	0.065577805
187	0xbdf21f13	-0.11822333
188	0xbdbc1832	-0.091843024
189	0xbdae0954	-0.08497873
190	0x3cef8372	0.029237483
191	0x3debe33a	0.115179494
192	0xbd948b33	-0.07253113
193	0x3d071a25	0.032983918
194	0x3e137442	0.14399818
195	0xbc0a4ec6	-0.008441633
196	0x3c6221e6	0.013802027
197	0x3c5e9119	0.013584399
198	0x3c480ba1	0.012209804
199	0x3dd2a0d6	0.10284583
200	0x3dc7345f	0.09726786
201	0xbdcf000c	-0.10107431
202	0x3e280802	0.16409305
203	0x3dc73057	0.09726017
204	0xbcba9e2b	-0.022780498
205	0x3e20ed37	0.1571549
206	0x3c251da1	0.010077865
207	0x3de11f74	0.10992327
208	0xbe1c9064	-0.15289456
209	0x3e207e38	0.15673149
210	0x3e2a3b0c	0.16624087
211	0xbe01c327	-0.12672101
212	0xbe239da4	-0.15978104
213	0xbd4bc87d	-0.049751747
214	0xbdfe8212	-0.12427153
215	0x3d627a54	0.055292442
216	0x3dd424bc	0.10358569
217	0xbcabfd24	-0.02099473
218	0x3de90708	0.11378294
219	0x3c2dd348	0.010609455
220	0xbd563f18	-0.052306265
221	0xbe225930	-0.15854335
222	0x3d62ad34	0.05534096
223	0xbe32949e	-0.17439505
224	0x3bedaff7	0.0072536427
225	0x3ce2b09e	0.027672108
226	0xbde5a187	-0.112124495
227	0x3d844f8c	0.06460485
228	0x3cd809d7	0.02637188
229	0x3e01cf29	0.12676682
230	0x3dc255a9	0.09488995
231	0xbe1dd1ac	-0.15412015
232	0xbe0e44a3	-0.1389337
233	0xbd520423	-0.051273476
234	0xbdf226ee	-0.118238315
235	0x3d83d45d	0.064369895
236	0xbdffac79	-0.124840684
237	0xbe072a2f	-0.13199686
238	0x3d3a6087	0.045502212
239	0x3dbdfdc8	0.092769206
240	0xbd7311b9	-0.059343074
241	0xbe321c39	-0.17393579
242	0x3c9550cd	0.018227005
243	0x3da6dd0a	0.081476286
244	0x3e04bb40	0.12962055
245	0x3c8e03a1	0.017335715
246	0x3e00d3bd	0.12580772
247	0xbe1e375c	-0.15450805
248	0x3e240514	0.16017562
249	0xbdff115c	-0.12454483
250	0xbdd7068e	-0.10499297
251	0x3df8bd4b	0.1214548
252	0xbcffede2	-0.031241361
253	0x3de84460	0.113411665
254	0xbdc8a3f7	-0.09796899
255	0x3e096f42	0.13421348

blocks.0.attn.proj.bias f4 [32]
0	0x3df75ee0	0.12078643
1	0x3c6748ea	0.014116505
2	0x3e27639f	0.16346596
3	0xbdbbf940	-0.091784
4	0xbd7801db	-0.060548645
5	0x3b572708	0.003282966
6	0x3dc46922	0.09590365
7	0xbe16e532	-0.14735869
8	0xbd509e76	-0.05093237
9	0x3e0aa118	0.13538015
10	0x3d33ecc8	0.043926984
11	0x3dff31ab	0.12460645
12	0xbd82e633	-0.06391563
13	0xbde78488	-0.11304575
14	0xbde370a3	-0.11105468
15	0xbde03b8d	-0.109488584
16	0xbe053dbb	-0.1301183
17	0x3da4d478	0.08048338
18	0x3d5afc19	0.053463075
19	0xbde93c42	-0.113884464
20	0x3e1933c0	0.14961147
21	0x3d329fa1	0.043609265
22	0x3d866a28	0.065632164
23	0xbd92642f	-0.07148015
24	0x3df87b60	0.12132907
25	0xbdeeb0ca	-0.116548136
26	0x3df83b72	0.12120713
27	0xbdba0e7a	-0.090847924
28	0x3d92442f	0.07141911
29	0xbd914cfb	-0.07094761
30	0x3de073fa	0.10959621
31	0xbe109bb9	-0.14121903

blocks.0.norm2.weight f4 [32]
0	0x3f82d93a	1.0222542
1	0x3f8166ee	1.0109537
2	0x3f8258f1	1.0183393
3	0x3f80692a	1.0032094
4	0x3f7a6f9f	0.9782657
5	0x3f7b32d4	0.9812443
6	0x3f7f6706	0.99766576
7	0x3f81544c	1.010385
8	0x3f81f8a6	1.0154006
9	0x3f80fa59	1.00764
10	0x3f7dc5dc	0.99130034
11	0x3f81151e	1.008457
12	0x3f820663	1.0158199
13	0x3f7d53da	0.9895607
14	0x3f7f4397	0.9971251
15	0x3f80092d	1.00028
16	0x3f823ab1	1.0174161
17	0x3f7fa27a	0.99857295
18	0x3f7ba3e3	0.98296946
19	0x3f7f769d	0.99790365
20	0x3f800fb7	1.0004796
21	0x3f7bee9c	0.98410964
22	0x3f7f0273	0.9961311
23	0x3f81e4bd	1.014793
24	0x3f80f9bb	1.0076212
25	0x3f819407	1.0123299
26	0x3f8049c8	1.0022516
27	0x3f80b5cc	1.005548
28	0x3f808e50	1.004343
29	0x3f822dec	1.0170264
30	0x3f7fb6ca	0.9988829
31	0x3f827d81	1.0194551

blocks.0.norm2.bias f4 [32]
0	0x3b428073	0.0029678612
1	0xbb925100	-0.0044652224
2	0xbbc521fc	-0.006016014
3	0xbc8eabd9	-0.017415928
4	0xbb3007e1	-0.0026860165
5	0x3b7f49a2	0.00389538
6	0x3bbe5bf8	0.0058093034
7	0xbbadc7a7	-0.0053033414
8	0x3a40297f	0.0007330402
9	0x3b023283	0.0019866533
10	0x3c03469b	0.008012439
11	0xbc35f7b6	-0.011106422
12	0x3b4de539	0.0031417145
13	0xbcaf7298	-0.021416947
14	0x3b4d00c0	0.0031280965
15	0xbb33e0a5	-0.002744713
16	0x3aa57103	0.0012622181
17	0xbb9bdbe5	-0.004756438
18	0x3c5d0430	0.013489768
19	0xbbe01457	-0.006838362
20	0x39c181f8	0.00036908663
21	0xbbb1f6ad	-0.0054310174
22	0x3b001caf	0.0019548347
23	0x3b8b2363	0.004246162
24	0x3c0ce134	0.0085986145
25	0xb97543d3	-0.00023390287
26	0xbb30d7f3	-0.0026984185
27	0xbb5159ed	-0.003194447
28	0xbc12d930	-0.008962914
29	0x3b0045df	0.0019572896
30	0xbb3570ed	-0.0027685717
31	0x3bcd561a	0.0062663676

blocks.0.mlp.fc1.weight f4 [128, 32]
0	0xbcb587eb	-0.022159537
1	0xbd761818	-0.06008157
2	0xbe114c6c	-0.14189309
3	0xbd97126f	-0.07376563
4	0xbd56a260	-0.052400947
5	0x3c220a4c	0.00989015
6	0x3e03633f	0.12830828
7	0xbd03702a	-0.03208939
8	0x3e45846f	0.192888
9	0xbd9a13c0	-0.07523298
10	0xbd86f1e7	-0.06589108
11	0xbbb501a7	-0.0055238786
12	0xbd2c3f03	-0.04205228
13	0x3d732e70	0.059370458
14	0x3e2ef9af	0.17087434
15	0x3d7d08ee	0.061776094
16	0xbe125e4c	-0.14293784
17	0xbda178e0	-0.07884383
18	0xbcc36777	-0.023853047
19	0xbe1c7b3c	-0.15281385
20	0x3d5eb28d	0.054369498
21	0x3e562fc0	0.20916653
22	0x3d6ba0b1	0.057526294
23	0x39ce3472	0.00039330457
24	0xbcb874be	-0.022516605
25	0xbda7c8e4	-0.08192614
26	0xbce51a26	-0.02796657
27	0x3e22670a	0.15859619
28	0xbdeba643	-0.11506321
29	0x3d0bc90b	0.034127276
30	0xbdedd1db	-0.116122924
31	0xbd445ea0	-0.047941804
32	0x3c989219	0.018624352
33	0xbe16fd0c	-0.14744967
34	0x3cfab598	0.030604169
35	0xbe1ed79b	-0.15511934
36	0xbdb7790d	-0.089586355
37	0x3de13216	0.10995881
38	0x3e3ae065	0.18249662
39	0xbcce9e35	-0.025221923
40	0xbdcf2f7e	-0.1011648
41	0xbe2066f3	-0.15664272
42	0xbca48175	-0.020081261
43	0xbda550e5	-0.0807207
44	0x3e17cb2f	0.14823602
45	0xbe0d7eab	-0.13817851
46	0x3dd4d0b3	0.10391369
47	0x3d285885	0.041100044
48	0xbd320e11	-0.043470446
49	0x3e108c92	0.14116123
50	0x3dc9e6f1	0.09858502
51	0x3c18adef	0.009318813
52	0xbde6e6f8	-0.112745225
53	0xbcf6bf76	-0.030120593
54	0x3d0e0880	0.034676075
55	0x3e254fbb	0.16143696
56	0xbd6592a0	-0.056048036
57	0xbdaf8fcc	-0.08572349
58	0xbe264e22	-0.16240743
59	0x3dc6a690	0.09699738
60	0x3e4c15de	0.19930217
61	0x3e029fb9	0.12756242
62	0xbdc4298e	-0.095782384
63	0x3dfe81fa	0.12427135
64	0xbd66faf0	-0.056391656
65	0x3dcc19e4	0.09965876
66	0x3de6d4c2	0.11271049
67	0xbe1514e7	-0.14558755
68	0x3d3a10a3	0.045426022
69	0x3d95bbd9	0.0731122
70	0xbde963c0	-0.11395979
71	0x3e2d4f06	0.16924676
72	0x3dffe301	0.124944694
73	0x3e18939d	0.1490006
74	0xbc43caac	-0.011950176
75	0xbde82bed	-0.11336503
76	0xbdcae6a0	-0.099072695
77	0x3d8af3cb	0.06784781
78	0xbd23f988	-0.040032893
79	0x3e0c8d85	0.1372586
80	0x3e239d4d	0.15977974
81	0x3c0bfbde	0.008543937
82	0xbe1847ca	-0.14871135
83	0x3d85b984	0.06529525
84	0x3e2696e7	0.16268502
85	0xbd172375	-0.03689905
86	0xbdd39828	-0.10331756
87	0xbd1cb06a	-0.03825418
88	0x3ceabb36	0.028653722
89	0xbdfa6a57	-0.12227314
90	0x3dd21de6	0.10259609
91	0x3d93d741	0.07218791
92	0xbd8c204a	-0.06842096
93	0xbd7f6dfa	-0.06236074
94	0xbd97ead7	-0.07417839
95	0x3e0651d3	0.13117151
96	0x3df39247	0.118931346
97	0x3d436f0e	0.047713332
98	0xbcc3b526	-0.02389009
99	0x3d21c65b	0.039495807
100	0x3e261284	0.16218
101	0x3d1d60e1	0.03842247
102	0xbd9e3f04	-0.07726863
103	0x3d71e195	0.059053022
104	0xbda7357a	-0.08164497
105	0xbbde6496	-0.006786893
106	0xbde79d92	-0.11309351
107	0x3b92137a	0.004457888
108	0x3c9e5bc3	0.019330865
109	0xbdd21a4e	-0.102589235
110	0x3dd6134c	0.10452899
111	0x3e2b4d2a	0.16728655
112	0xbe3b3a3a	-0.1828393
113	0x3d7cb81d	0.06169902
114	0xbe036337	-0.12830816
115	0xbcbd7fc6	-0.023132216
116	0x3db9ce61	0.09072567
117	0x3b33b51f	0.002742119
118	0x3d73910a	0.059464492
119	0xbd49c007	-0.049255397
120	0x3e354c5a	0.17704907
121	0xbdb910df	-0.09036421
122	0x3d131134	0.035905078
123	0x3c1dcb7c	0.009631034
124	0x3dddd9c1	0.10832549
125	0x3d0b019a	0.033937074
126	0x3dfc7b4f	0.12328207
127	0x3d1ef7c9	0.038810525
128	0x3e0090ac	0.12555188
129	0xbc50e76e	-0.01275049
130	0x3d91b598	0.071147144
131	0x3e3b20c4	0.18274218
132	0xbd5f2817	-0.054481592
133	0xbd75ff09	-0.060057674
134	0x3e0170b8	0.12640655
135	0x3d967ffe	0.07348631
136	0xbe27e550	-0.1639607
137	0x3d931af5	0.07182876
138	0xbe3199ec	-0.17343873
139	0xbdc442b4	-0.09583035
140	0x3d7b3564	0.061330214
141	0x3dadc7ce	0.08485375
142	0xbd105d78	-0.03524539
143	0x3e0eb367	0.13935624
144	0x3e3722f2	0.17884424
145	0x3e0912a7	0.13386022
146	0xbe137383	-0.14399533
147	0xbd7cc690	-0.0617128
148	0x3b815ba1	0.0039476906
149	0x3e1682ab	0.14698283
150	0xbd0c4911	-0.03424937
151	0x3d1af7be	0.03783392
152	0x3dac628f	0.08417236
153	0xbdb3ca14	-0.08778778
154	0xbde60a3a	-0.11232419
155	0x3e2aee08	0.16692364
156	0xbb961f37	-0.004581358
157	0x3df64f41	0.12026835
158	0xbe41ce96	-0.18926463
159	0xbd947591	-0.072489865
160	0x3e0a68d6	0.13516554
161	0xbcda0333	-0.026612854
162	0x3d6ca40d	0.05777364
163	0xbe1aada7	-0.15105306
164	0x3e277803	0.16354375
165	0xbdb2221f	-0.08697914
166	0xbb173fae	-0.0023078728
167	0xbdf795b3	-0.120891
168	0xbd894122	-0.06701876
169	0xbe1cbaa3	-0.15305571
170	0xbe1895bd	-0.1490087
171	0xbcd00e8a	-0.025397558
172	0xbd9e4fff	-0.07730102
173	0x3dfd6268	0.12372285
174	0xb82e72a6	-4.1591607e-05
175	0x3e0a462a	0.13503328
176	0xbd211ea0	-0.039335847
177	0x3d2b0b05	0.041758556
178	0x3e2dca10	0.16971612
179	0xbe047a21	-0.12937213
180	0xbda5d4c0	-0.080972195
181	0x3e0b8cb8	0.13627899
182	0xbcd5e999	-0.026112365
183	0xbd6f221c	-0.05838214
184	0x3c80881b	0.0156899
185	0xbdd1cc4a	-0.10244043
186	0x3c0d83a7	0.008637345
187	0xbd8e2a11	-0.06941617
188	0x3d78fe68	0.060789496
189	0xbd11c437	-0.035587516
190	0xbd79572c	-0.06087415
191	0xbd6e6c3e	-0.058208697
192	0x3cfd8ae7	0.030950023
193	0x3daf8d90	0.08571923
194	0xbe3617fc	-0.17782587
195	0xbe02e9e7	-0.12784539
196	0xbe2c5d63	-0.16832499
197	0x3dbd0746	0.09229903
198	0x3e00b002	0.12567142
199	0xbe29c6ce	-0.16579744
200	0x3cb97136	0.022636991
201	0x3d252e9d	0.040327657
202	0xbdca278f	-0.098708265
203	0x3d0ecba2	0.034862168
204	0x3e09eb8e	0.13468763
205	0x3e401aa5	0.18760164
206	0x3d8a37d6	0.06748931
207	0xbd1ac151	-0.037782017
208	0xbde7c4b6	-0.113168165
209	0xbda6066a	-0.08106692
210	0xbb6d7f7e	-0.0036239321
211	0xbc2e80ea	-0.010650853
212	0x3e05036b	0.12989585
213	0xbe0ed4a9	-0.13948311
214	0x3c2d7d32	0.010588931
215	0xbd4cafcc	-0.04997234
216	0x3c4db1ab	0.012554566
217	0x3e403102	0.18768695
218	0x3c009435	0.007847835
219	0xbcb6bc3d	-0.022306556
220	0xbd58d98c	-0.052941844
221	0xbe2008f0	-0.1562841
222	0xbe1fad57	-0.15593468
223	0x3da39257	0.079868965
224	0xbdc75fc8	-0.09735066
225	0x3db5f2b6	0.08884184
226	0xbd5f7c19	-0.054561708
227	0x3d10923b	0.035295706
228	0x3e0e05e5	0.13869436
229	0xba2a493a	-0.0006495897
230	0x3d90ca3d	0.07069824
231	0x3e066eee	0.13128254
232	0xbd91b352	-0.07114281
233	0x3e0787ec	0.13235444
234	0xbe22ae0d	-0.15886708
235	0x3e36cb7b	0.17851059
236	0xbd37c8ea	-0.04486934
237	0x3b715f44	0.0036830464
238	0x3db9b880	0.09068394
239	0x3ce30560	0.027712524
240	0x3e077f1d	0.13232084
241	0xbd8522e6	-0.06500797
242	0xbdd882eb	-0.105718456
243	0x3e29b694	0.16573554
244	0xbdcc0135	-0.09961168
245	0x3de7e844	0.11323598
246	0x3e2ad0fb	0.16681282
247	0x3e08cfc8	0.13360512
248	0xbd6025c0	-0.0547235
249	0xbbaa3e76	-0.005195434
250	0xbe226be7	-0.15861474
251	0xbdc42e10	-0.09579098
252	0xbd5cb2e1	-0.05388153
253	0xbddab1ed	-0.10678468
254	0x3daf562c	0.08561358
255	0x3dc4bf57	0.09606808

blocks.0.mlp.fc2.weight f4 [32, 128]
0	0x3b73c955	0.003719886
1	0xbc47e288	-0.012200005
2	0xbda4972e	-0.08036648
3	0x3c59f48d	0.013302934
4	0xbda3714e	-0.079805955
5	0x3bbaa7c5	0.005696269
6	0xbc0b5257	-0.008503518
7	0x3d5f6e33	0.054548454
8	0xbd040686	-0.032232784
9	0x3d967a8d	0.073475935
10	0xbc1c8772	-0.009553777
11	0xbc543887	-0.01295293
12	0xbdb1714e	-0.08664189
13	0x3d9e717f	0.077364914
14	0x3bf1e493	0.0073819845
15	0xbd8df8f6	-0.06932251
16	0x3bd92b5f	0.0066274847
17	0x3d28a6d6	0.041174732
18	0xbcd46182	-0.025925402
19	0x3d5feef4	0.054671243
20	0x3d273877	0.040825333
21	0xbc6f31f8	-0.014599316
22	0x3dc8096c	0.09767422
23	0x3d8fc8ef	0.07020747
24	0xbbbcab24	-0.0057577062
25	0xbbaa442c	-0.005196115
26	0x3d422797	0.047401037
27	0xbcf0fe90	-0.02941826
28	0x3d86c6f9	0.0658092
29	0xbd96d5d5	-0.07365004
30	0xbd422562	-0.047398932
31	0x3d3d7dba	0.04626248
32	0xbdcf4262	-0.101200834
33	0xbd3fa3dd	-0.04678713
34	0xbd32970a	-0.043601073
35	0x3d3983c1	0.045291666
36	0xbb806f04	-0.003919484
37	0xbd8e944c	-0.06961879
38	0x3da34898	0.079728305
39	0xbd28ccff	-0.041211125
40	0xbba0aebf	-0.004903644
41	0x3d0eb54d	0.03484087
42	0xbda5a19a	-0.08087464
43	0xbbb5116b	-0.005525758
44	0xbcca3948	-0.024685517
45	0xbd0a4e45	-0.03376605
46	0xbceca728	-0.0288883
47	0x3d80a504	0.06281474
48	0xbd5648ff	-0.05231571
49	0xbd5f27f6	-0.05448147
50	0x3d260ed0	0.04054147
51	0x3d0b1c6c	0.033962652
52	0xb95a3d89	-0.00020813024
53	0x3bb43296	0.0054991944
54	0x3da4c3ed	0.080451824
55	0xbce6a005	-0.028152475
56	0xbd9f75b0	-0.07786119
57	0xbdaf3fcb	-0.085570894
58	0x3ccbdd13	0.02488569
59	0x3d0c9320	0.034319997
60	0xbc73e7a4	-0.01488677
61	0xbd97e587	-0.07416826
62	0xbd989f48	-0.074522555
63	0xbd842eab	-0.06454214
64	0x3d890910	0.06691182
65	0x3cb8809b	0.022522261
66	0xbd55d84d	-0.052208234
67	0xbdc17031	-0.09445227
68	0x3d532b3a	0.051554896
69	0x3921ae4c	0.00015419087
70	0x3da9c9aa	0.082904175
71	0xbd74d678	-0.059774846
72	0xbd938005	-0.07202152
73	0x3cc15320	0.023599207
74	0x3d820f95	0.06350628
75	0x3d9cad70	0.07650268
76	0x3dc04d04	0.093896896
77	0x3d73b0e9	0.059494887
78	0x3cf47436	0.02984057
79	0xbd566937	-0.052346434
80	0x3db5e0b9	0.08880753
81	0xbd0e18fa	-0.03469179
82	0x3d8c533e	0.06851815
83	0x3d21f2ef	0.03953832
84	0xbd3cefe8	-0.04612723
85	0xbc3b644c	-0.011437487
86	0xbc1fe832	-0.0097599495
87	0x3d9c420f	0.07629787
88	0x3d722420	0.059116483
89	0x3c7c2182	0.015388848
90	0xbd677cf2	-0.05651564
91	0x3c41f9ba	0.011839325
92	0x3d9019cb	0.070361696
93	0xbd37d037	-0.044876304
94	0x3d97fe22	0.07421519
95	0x3abf9e3f	0.0014619305
96	0x3d726dbc	0.059186682
97	0x3d0a5152	0.03376896
98	0x3d4a7b38	0.049433917
99	0xbd849df3	-0.06475439
100	0x3d1fc564	0.039006606
101	0xbdba2046	-0.09088187
102	0xbc364be5	-0.011126493
103	0x3d97889c	0.07399103
104	0xbd9a1226	-0.07522993
105	0xbd828364	-0.06372717
106	0xbd07466c	-0.033026144
107	0x3b75e66e	0.003752138
108	0xbc432fd7	-0.011913261
109	0xbd89f5f6	-0.067363665
110	0x3caff46d	0.021478856
111	0xbc98a812	-0.01863483
112	0xbd303fa7	-0.043029454
113	0x3c0d7676	0.0086342
114	0x3d0688f7	0.032845464
115	0x3c5e1783	0.01355541
116	0xbd4571cd	-0.048204232
117	0x3d4bf55c	0.04979454
118	0x3c12fc4a	0.008971283
119	0xbd2c826e	-0.042116575
120	0x3d9751d1	0.07388652
121	0x3ce46af0	0.027883023
122	0x3d5c176b	0.05373327
123	0x3d8d66a1	0.069043405
124	0x3b5b78a5	0.0033488658
125	0x3d8000ea	0.06250174
126	0x3c92fbf2	0.017942403
127	0x3d8e7753	0.06956353
128	0x3c23c6b0	0.009996101
129	0x3d9db9fd	0.0770149
130	0x3d32891a	0.04358778
131	0xbd3394f7	-0.043843236
132	0x3da20176	0.07910435
133	0x3b3fd420	0.0029270723
134	0xbb7f1661	-0.003892325
135	0xbda6470d	-0.081190206
136	0xbca29c42	-0.0198499
137	0x3d75b5ae	0.059987716
138	0xbd823932	-0.063585654
139	0x3d0ffd62	0.035153754
140	0x3d886096	0.06659047
141	0xbd9fb4fc	-0.07798192
142	0xbbbb4968	-0.005715538
143	0x3c3620ec	0.011116248
144	0x3d9e492d	0.07728801
145	0xbae9273a	-0.001778818
146	0xbdabc02f	-0.083862655
147	0xbd229189	-0.039689574
148	0x3d167d95	0.036740858
149	0xbd8fbbd3	-0.070182465
150	0xbdb07a40	-0.08617067
151	0xbc8fe382	-0.017564539
152	0x3cf3d3b0	0.029764026
153	0xbd83e2d1	-0.06439746
154	0xbd97738f	-0.07395088
155	0x3d63f8f3	0.05565734
156	0xbd609896	-0.054833017
157	0xbd6d3495	-0.057911474
158	0xbd16657e	-0.036717884
159	0x3d97aa8a	0.074055746
160	0xbc58a4b4	-0.013222862
161	0xbd6e65ac	-0.05820243
162	0xbd93384d	-0.07188473
163	0xbce4e969	-0.02794333
164	0x3d9c1403	0.076210044
165	0x3d2a8f88	0.04164079
166	0xbd2d8b98	-0.042369455
167	0xbd9ca249	-0.07648141
168	0xbd17996a	-0.03701154
169	0x3d000316	0.031252943
170	0x3db0e32e	0.08637081
171	0x3d5091f4	0.05092044
172	0xbd7be253	-0.061495136
173	0x3d026c57	0.031841602
174	0xbb25e368	-0.0025312547
175	0x3ccb82d2	0.024842653
176	0x3d268ba3	0.04066051
177	0xbccdf29f	-0.025140105
178	0x3c5e5316	0.013569614
179	0x3c0b13f8	0.008488648
180	0x3c8a555f	0.016886411
181	0xbd37c5e3	-0.044866454
182	0x3d54c90d	0.05194955
183	0xbda9e7a7	-0.08296137
184	0x3d3acf54	0.04560788
185	0xbd841af4	-0.064504534
186	0xbd3cfd14	-0.04613979
187	0xbd626609	-0.05527309
188	0xbb9d587c	-0.004801808
189	0xbc5d318b	-0.0135005815
190	0xbdc4ef1d	-0.0961592
191	0x3d6f0026	0.05834975
192	0x3b444fbe	0.0029954757
193	0x3da48b60	0.08034396
194	0xbd571084	-0.052505985
195	0xbd606a96	-0.05478915
196	0x3cc62bf5	0.024190882
197	0x3d894eff	0.067045204
198	0x3db56625	0.08857373
199	0x3cb77295	0.022393504
200	0x3c9f027c	0.019410364
201	0x3ca9a081	0.020706417
202	0xbd4fc885	-0.05072834
203	0xbd983c1c	-0.0743334
204	0xbd914291	-0.07092775
205	0xbd8637f2	-0.065536395
206	0x3c38a89b	0.011270667
207	0x3d8457ed	0.06462083
208	0x3d941415	0.07230393
209	0xbd52bd2e	-0.051449947
210	0xbbc387f5	-0.005967135
211	0x3da48ae3	0.08034303
212	0x3b2c80f0	0.002632197
213	0x3a1a5fe6	0.0005888924
214	0xbd5d88e4	-0.054085627
215	0xb9ef2a8c	-0.00045617332
216	0x3d7145a7	0.058904316
217	0xbd3c9418	-0.04603967
218	0xbceb5cdd	-0.028730804
219	0x3cc16665	0.023608396
220	0xbcfaeb56	-0.030629795
221	0xbd0af530	-0.033925235
222	0x3c17f183	0.0092738895
223	0x3d66f188	0.056382686
224	0xbba059bc	-0.0048935097
225	0x3c2c94ca	0.010533521
226	0xbd717b11	-0.058955256
227	0x3d45adfa	0.04826162
228	0x3c0e267a	0.008676166
229	0xbd300b8d	-0.042979766
230	0xbdc356bc	-0.09538028
231	0xbd24b6c1	-0.04021335
232	0xbd8f25af	-0.069896095
233	0x3bf7d77c	0.0075635295
234	0x3d99dceb	0.0751284
235	0xbbfc051e	-0.0076910397
236	0x3d95cd57	0.07314556
237	0xbca8230a	-0.02052452
238	0xbcd396c5	-0.025828728
239	0xbdc35700	-0.09538078
240	0xbd506f5f	-0.05088746
241	0x3d6ac780	0.057319164
242	0x3d5d0eb7	0.05396911
243	0x3d6711bf	0.05641341
244	0xbc55447a	-0.013016814
245	0x3cd98858	0.026554272
246	0xbca86afb	-0.020558825
247	0x3da2cbbb	0.07949015
248	0xbda7f8fe	-0.08201788
249	0xbd38b653	-0.045095753
250	0xbdd8584d	-0.10563717
251	0x3c96ad5b	0.01839321
252	0xbd29a3cb	-0.04141597
253	0xbcd25a7c	-0.025677912
254	0x3d0dd3b6	0.03462573
255	0x3daed236	0.08536188

blocks.1.norm1.weight f4 [32]
0	0x3f836cca	1.0267575
1	0x3f830981	1.0237275
2	0x3f822c8d	1.0169846
3	0x3f80b6f8	1.0055838
4	0x3f80238c	1.0010848
5	0x3f807108	1.0034494
6	0x3f80c26c	1.0059333
7	0x3f7baa8d	0.98307115
8	0x3f8214fe	1.0162656
9	0x3f80390b	1.0017408
10	0x3f83ea39	1.0305854
11	0x3f7facef	0.9987325
12	0x3f805beb	1.0028051
13	0x3f805798	1.0026731
14	0x3f7ed79a	0.9954773
15	0x3f7d81c2	0.9902612
16	0x3f80cf6a	1.0063298
17	0x3f811099	1.008319
18	0x3f8009f5	1.0003039
19	0x3f7fa53c	0.998615
20	0x3f800469	1.0001346
21	0x3f7e3711	0.99302775
22	0x3f81af84	1.0131688
23	0x3f837795	1.0270869
24	0x3f7e80a8	0.99415064
25	0x3f80cf96	1.006335
26	0x3f7dd560	0.9915371
27	0x3f8016a5	1.000691
28	0x3f83e221	1.0303384
29	0x3f82e849	1.0227138
30	0x3f846728	1.0343981
31	0x3f802df3	1.0014023

blocks.1.norm1.bias f4 [32]
0	0x3ac5fd16	0.0015105333
1	0xbc507ddc	-0.01272532
2	0xbc1aa939	-0.00943976
3	0xbbb0e93d	-0.005398898
4	0xba0bc9d1	-0.0005332502
5	0x3a989ce4	0.0011643437
6	0xbbf110f3	-0.007356757
7	0x3c397830	0.011320159
8	0xba94b69f	-0.0011345929
9	0x3bb08471	0.005386882
10	0xbb255ff3	-0.0025234192
11	0xba95fbf4	-0.0011442886
12	0xba17f02c	-0.0005795981
13	0xbba06aef	-0.00489556
14	0x3ba2ab20	0.0049642473
15	0xbbe78620	-0.0070655495
16	0x3b96dc3b	0.0046038902
17	0xbc9b3ffd	-0.01895141
18	0x3bc5571d	0.0060223476
19	0x3a99abbe	0.0011724157
20	0xb9366aec	-0.00017396704
21	0xbb03b1d3	-0.0020095005
22	0xbb857765	-0.004073071
23	0xb9547554	-0.00020261604
24	0xbc0487e1	-0.008089037
25	0xbabdce36	-0.0014481011
26	0xba2e2372	-0.0006642855
27	0x3b945d4c	0.0045277234
28	0xb80cdaaf	-3.3582266e-05
29	0x3a07f6f1	0.00051866384
30	0xbbb5c0d5	-0.005546669
31	0xbaf26313	-0.0018492661
