image_encoder/trained_models/vit_20241108_163611.pth (torch, 561019 bytes, 77 tensors)

cls_token f4 [1, 1, 32]
00000000: c76f 13bc 747e 1e3d 878f 833c 35d1 ba3c
00000010: 0a55 52bd fb23 d6bb 5f43 b93c 0a1d 143d
00000020: f691 38bd 5810 3bbd 34ad 233c c979 4dbc
00000030: a858 4abc 9749 5f3c 97d8 0ebd c0e7 27bd
00000040: 8c9e 8c3b 01e7 6aba 9618 013d 82c5 993d
00000050: 7a90 d23c 6d93 93bc 74e1 3cbd d7ed 453d
00000060: cbb4 40bd 4a80 3bbc 142a 2e3c 11cb 103c
00000070: 207d 533d 455c b3bc 83d1 a63b 5aa9 f7bc
-0.008998818 0.038694814 0.01605965 0.022804836 -0.05135063 -0.006535051 0.022615133 0.036160506
-0.045061074 -0.045669883 0.009990025 -0.012541243 -0.012350239 0.013628385 -0.034874525 -0.0409925
0.004291361 -0.0008960814 0.031517588 0.07508375 0.025703657 -0.018014634 -0.046113446 0.048322525
-0.047047418 -0.011444161 0.010630149 0.008837477 0.051633 -0.021894583 0.0050908937 -0.03023212

pos_enc f4 [32, 32, 32]
00000000: 0000 0000 0000 803f 0000 0000 0000 803f
00000010: 0000 0000 0000 803f 0000 0000 0000 803f
00000020: 0000 0000 0000 803f 0000 0000 0000 803f
00000030: 0000 0000 0000 803f 0000 0000 0000 803f
00000040: 0000 0000 0000 803f 0000 0000 0000 803f
00000050: 0000 0000 0000 803f 0000 0000 0000 803f
00000060: 0000 0000 0000 803f 0000 0000 0000 803f
00000070: 0000 0000 0000 803f 0000 0000 0000 803f
00000080: 0000 0000 0000 803f 0000 0000 0000 803f
00000090: 0000 0000 0000 803f 0000 0000 0000 803f
000000a0: 0000 0000 0000 803f 0000 0000 0000 803f
000000b0: 0000 0000 0000 803f 0000 0000 0000 803f
000000c0: a46a 573f 4151 0a3f ba7d 083f 0d94 583f
000000d0: 3e39 9f3e 6b4e 733f 3a23 353e 83f6 7b3f
000000e0: 7775 cc3d 98b8 7e3f af36 663d 6898 7f3f
000000f0: 5c81 013d 3cdf 7f3f 42ab 913c a3f5 7f3f
00000100: 0000 0000 0000 803f 0000 0000 0000 803f
00000110: 0000 0000 0000 803f 0000 0000 0000 803f
00000120: 0000 0000 0000 803f 0000 0000 0000 803f
00000130: 0000 0000 0000 803f 0000 0000 0000 803f
00000140: b7c7 683f 3311 d5be 0af2 663f b2e8 dc3e
00000150: 1b54 173f ec7b 4e3f f647 b23e a6fa 6f3f
00000160: f96f 4b3e a5e5 7a3f 87d9 e53d f361 7e3f
00000170: c970 813d f97c 7f3f 5ca5 113d 8ed6 7f3f
00000180: 0000 0000 0000 803f 0000 0000 0000 803f
00000190: 0000 0000 0000 803f 0000 0000 0000 803f
000001a0: 0000 0000 0000 803f 0000 0000 0000 803f
000001b0: 0000 0000 0000 803f 0000 0000 0000 803f
000001c0: c381 103e 2670 7dbf d745 7e3f ab7f edbd
000001d0: c209 503f 582f 153f 6d2f 023f 296d 5c3f
000001e0: 6d4e 973e ef90 743f d8ee 2b3e 9e5d 7c3f
000001f0: c1ff c13d 4fd9 7e3f 4e69 5a3d c3a2 7f3f
00000200: 0000 0000 0000 803f 0000 0000 0000 803f
00000210: 0000 0000 0000 803f 0000 0000 0000 803f
00000220: 0000 0000 0000 803f 0000 0000 0000 803f
00000230: 0000 0000 0000 803f 0000 0000 0000 803f
00000240: cfbd 41bf 3055 27bf ec49 473f 9eaf 20bf
00000250: de1d 743f b12e 9a3e bc1f 273f edeb 413f
00000260: d861 c73e a7ca 6b3f c665 643e 098d 793f
00000270: 892e 013e 69f4 7d3f c88d 913d 465a 7f3f
00000280: 0000 0000 0000 803f 0000 0000 0000 803f
00000290: 0000 0000 0000 803f 0000 0000 0000 803f
000002a0: 0000 0000 0000 803f 0000 0000 0000 803f
000002b0: 0000 0000 0000 803f 0000 0000 0000 803f
000002c0: 107c 75bf 2c3c 913e d8da a53e 4032 72bf
000002d0: 7ffc 7f3f e972 29bc abca 463f f14c 213f
000002e0: 4477 f53e 40a9 603f ed11 8e3e 7cf2 753f
000002f0: 1e3c 213e 81ce 7c3f 21db b53d 1efd 7e3f
00000300: 0000 0000 0000 803f 0000 0000 0000 803f
00000310: 0000 0000 0000 803f 0000 0000 0000 803f
00000320: 0000 0000 0000 803f 0000 0000 0000 803f
00000330: 0000 0000 0000 803f 0000 0000 0000 803f
00000340: 8c0f 8fbe b8cd 753f 76e5 6bbe 531d 79bf
00000350: 4e78 723f 6d3f a4be 8930 603f 322f f73e
00000360: 698c 103f 3249 533f fd7d a93e e290 713f
00000370: 6f20 413e e367 7b3f c219 da3d 518b 7e3f
00000380: 0000 0000 0000 803f 0000 0000 0000 803f
00000390: 0000 0000 0000 803f 0000 0000 0000 803f
000003a0: 0000 0000 0000 803f 0000 0000 0000 803f
000003b0: 0000 0000 0000 803f 0000 0000 0000 803f
000003c0: 4630 283f bdff 403f 6db6 36bf 614f 33bf
000003d0: 6ee8 4c3f bc74 19bf 4484 723f b6f8 a33e
000003e0: 73eb 243f b3cc 433f de60 c43e c66b 6c3f
000003f0: 51d3 603e eac0 793f ba46 fe3d e904 7e3f
0.0 1.0 0.0 1.0 0.0 1.0 0.0 1.0
0.0 1.0 0.0 1.0 0.0 1.0 0.0 1.0
0.0 1.0 0.0 1.0 0.0 1.0 0.0 1.0
0.0 1.0 0.0 1.0 0.0 1.0 0.0 1.0
0.0 1.0 0.0 1.0 0.0 1.0 0.0 1.0
0.0 1.0 0.0 1.0 0.0 1.0 0.0 1.0
0.84147096 0.54030234 0.53316844 0.8460091 0.3109836 0.9504153 0.17689219 0.9842302
0.09983342 0.9950042 0.056204494 0.9984193 0.031617507 0.99950004 0.017781857 0.99984187
0.0 1.0 0.0 1.0 0.0 1.0 0.0 1.0
0.0 1.0 0.0 1.0 0.0 1.0 0.0 1.0
0.9092974 -0.41614684 0.9021307 0.43146282 0.5911271 0.8065784 0.34820527 0.93741834
0.19866933 0.9800666 0.11223131 0.9936821 0.0632034 0.9980007 0.03555809 0.9993676
0.0 1.0 0.0 1.0 0.0 1.0 0.0 1.0
0.0 1.0 0.0 1.0 0.0 1.0 0.0 1.0
0.14112 -0.9899925 0.9932532 -0.11596616 0.8126489 0.58275366 0.50853616 0.86104065
0.29552022 0.9553365 0.1679033 0.9858035 0.09472609 0.99550337 0.053323083 0.9985773
0.0 1.0 0.0 1.0 0.0 1.0 0.0 1.0
0.0 1.0 0.0 1.0 0.0 1.0 0.0 1.0
-0.7568025 -0.6536436 0.7784717 -0.6276797 0.95358074 0.30113748 0.652828 0.7575062
0.38941836 0.921061 0.22304448 0.9748083 0.12615408 0.99201065 0.07107121 0.9974712
0.0 1.0 0.0 1.0 0.0 1.0 0.0 1.0
0.0 1.0 0.0 1.0 0.0 1.0 0.0 1.0
-0.9589243 0.2836622 0.32393527 -0.94607925 0.99994653 -0.010342338 0.77652997 0.6300803
0.47942555 0.87758255 0.2774805 0.96073127 0.15745589 0.987526 0.08879686 0.99604976
0.0 1.0 0.0 1.0 0.0 1.0 0.0 1.0
0.0 1.0 0.0 1.0 0.0 1.0 0.0 1.0
-0.2794155 0.96017027 -0.23036751 -0.9731037 0.9471482 -0.3207964 0.8757406 0.48278195
0.5646425 0.8253356 0.33103934 0.943617 0.18860029 0.98205394 0.10649444 0.9943133
0.0 1.0 0.0 1.0 0.0 1.0 0.0 1.0
0.0 1.0 0.0 1.0 0.0 1.0 0.0 1.0
0.6569866 0.75390226 -0.7137211 -0.70043 0.8004216 -0.5994375 0.9473307 0.3202569
0.64421767 0.7648422 0.38355154 0.9235195 0.21955611 0.9755999 0.12415834 0.9922624

norm.weight f4 [32]
00000000: cf32 c63f 1535 df3f 19df ce3f dadd c43f
00000010: 9c33 dc3f 770a d03f 3173 d43f e366 d43f
00000020: 5ef1 e43f ebb4 d83f 8a68 e83f 727b d13f
00000030: cfbb ce3f 03db d03f e740 e23f dd56 cf3f
00000040: 385e c03f 7e6e df3f 49a8 e63f 4ab3 d73f
00000050: bb00 d23f d80b e53f 237d e43f d7f7 bf3f
00000060: 9a5c da3f 72c7 e63f 3992 ec3f 47b3 c83f
00000070: 7a32 db3f a83a db3f f3fb cd3f 6e5c cd3f
1.5484256 1.7438074 1.6161834 1.5380204 1.720325 1.6253194 1.6597654 1.6593899
1.788616 1.6930212 1.8156903 1.6365798 1.6151065 1.6316837 1.7676057 1.6198384
1.5028753 1.7455595 1.8020107 1.685159 1.6406473 1.789424 1.7850689 1.499751
1.705951 1.8029616 1.8482124 1.5679711 1.7124779 1.7127275 1.6092514 1.6043832

norm.bias f4 [32]
00000000: 0703 8f3d 4137 9d3e aa04 8c3e bfab 11be
00000010: 9082 29bd 05c4 f53d 006a ab3c bc15 a63e
00000020: 66bb f2bd 0f6e 98be 0e67 b0bd 1d4a 5e3e
00000030: 2ef6 94be 618d afbe 6b41 bc3b 43a2 103d
00000040: 5403 ffbe 49eb ee3c fa20 873e 9bcf df3e
00000050: 26bb 1c3d 245a d23d b490 97be 1c9a dc3d
00000060: c829 9c3d db80 ecbe 41b2 8e3e 4ea2 8fbd
00000070: ae3a 803e 4ae7 afbe 03fe 903e d940 05be
0.06982999 0.30706218 0.27347308 -0.14225672 -0.04138428 0.120002784 0.020924568 0.32438457
-0.1185215 -0.29771468 -0.08613406 0.2170796 -0.2909407 -0.3428755 0.005745103 0.035310995
-0.49807227 0.029164927 0.26392347 0.43713078 0.038264416 0.10271099 -0.29602587 0.107715815
0.07625157 -0.4619206 0.27870372 -0.07013379 0.2504477 -0.34356147 0.28318796 -0.13013019

patch_embeddings.weight f4 [14, 32]
00000000: 876b 813e eb4d ddbd 91ce c8be 92f4 58bf
00000010: 794b 293f a7e5 cbbc 5bdf 673f a167 af3d
00000020: a353 bc3e 7bd5 973f 7893 b4bf c2c2 00bf
00000030: 92fb 3a3e 07ae 80be af74 6cbf 583a cb3f
00000040: c4fe a83f 693e c0bd de1c 9a3e a1ec 6c3f
00000050: 4541 04c0 50af fd3e d18e c13f 3501 233f
00000060: b21e a13d e845 c7bf 8957 8fbf efce bebe
00000070: 01a7 d13e 1e93 46bf eecd b93f 18d6 1d40
00000080: f4d5 31bf 3922 a3be 8b90 863f 63d1 c63d
00000090: 55a7 f23d 6fca 933f f0b6 96bf 1f34 adbe
000000a0: e85d 08bf 8591 61bf 1e72 153f 71e4 b7bf
000000b0: 0469 95bf e1aa 1b3f 5995 10bf e9dd 42bf
000000c0: 89fd d53f dca0 50bf 2865 ae3f 6c04 65be
000000d0: 9abb c2bf a933 0340 2da8 2f40 0cb6 d8bf
000000e0: 5edd b73f 8130 c2bf 8e2b 543f dddd 53be
000000f0: ed0e 433f ca08 c03f 98e8 d63f d7fa f0be
00000100: 27aa 4fbf ca3a 0d3f 2213 d7bd de7f 8abb
00000110: 4870 febe 63cc fa3e 9316 92be 23ff 87bf
00000120: c83f 0540 652c fabe 6abc 843e 9b9a 343f
00000130: 727c aebf 8e1b 643f c584 b23d a7ca 6f3e
00000140: ff6d 1e40 3217 a0bf 06f1 853f f293 073f
00000150: 2b97 cbbf b334 a5bf e3bb 2d3f 60cd 46be
00000160: 3ae6 b53e 7bf3 b4be cb78 c83e bd71 46bf
00000170: 3e38 dfbe 7f55 b4be 4c05 7bbf 20db dfbe
00000180: 2333 d5bf e43e b0bf f080 33be 59b7 753f
00000190: a6f8 c83c 29f4 3bbf 37b9 89be 9777 053d
000001a0: f147 3fbe 01c3 06be 18b0 9c3e 8d93 ad3f
000001b0: bfae 203e 3108 2240 b5fe 15bf a2e7 febf
000001c0: 0ba3 c1be fc73 383d 09ae 673f 1650 ebbf
000001d0: 1df3 053e 4e75 ff3e 4daf dbbf 755a 133f
000001e0: df08 e13f 6c48 a43e f514 9a3e 5dfb 27bf
000001f0: f990 2ebf 467d 973e 7129 1fbf db1e bbbf
00000200: f785 02c0 d70e ec3f 3588 ac3f 879c 00bf
00000210: 2c55 ac3f f1c2 d63f 3db8 babd 4f8f debf
00000220: 9aa7 0cbd b035 f23d d866 7c3f 2da1 2c3f
00000230: e69a 993e 9db5 35bf 91e5 403f 533a 643f
00000240: 206e 0d40 8608 7f3f dbd7 bcbf 6348 7fbe
00000250: 9bb6 3ebd 8f2c 86be 2aa7 1fbf 115c 8e3f
00000260: aec4 7ebf e12f 2e3e 974c 9f3f df09 8abe
00000270: 1497 8cbf 8e27 34bf 6851 c73f da10 32bf
00000280: 5f63 63bf a019 9e3d 8efe 60bd ffc3 1640
00000290: 9629 2cc0 10a5 043f f32c 5cbf 76ab 85be
000002a0: afe5 813b 56d1 0140 2a88 2abe 494a 83be
000002b0: 7385 a5bf 5dcd d9bd 1038 eebf 1a9b afbf
000002c0: a032 aabe 16d3 96bf 1124 523d 8701 643e
000002d0: a341 483f 7d65 573f c0ac dabf 0baa a23f
000002e0: 5467 723f e8cf 873f df0f 1f3f da61 9ebf
000002f0: daa9 25bf e8a8 0640 0c44 093f 582e 9b3f
00000300: 6bd4 613e f13d b8be 654a ee3f 7962 b43f
00000310: 99c2 8d3f 8051 2cbf 679e fcbe d54f 1a3f
00000320: 2a98 743c 4961 d5bf 39b3 853f 8027 f23e
00000330: bfc4 9dbf afbb 74bf b281 01be dc1b 083e
00000340: c81c 853e f0b3 34bf 306f bebe 6453 f4be
00000350: d728 123f 052c 243f aaaa 9c3f b459 4d3f
00000360: 2e2d f33e 4083 5e3f 4a8d 64be 57ca 45bf
00000370: 6f2e 13bf b8cc b23e 893b 03bf aeb5 b1be
00000380: 8f9d 1fbf 2d75 50be cc76 09bc 8518 98be
00000390: 330c 9abd afac 443f 7a16 563c bdeb d1be
000003a0: a949 573f df6b c0bf aea6 1f3f 30a9 f4bf
000003b0: 238b 79bf 9c2c d93d 3420 e1be 4a7e ecbe
000003c0: 3e43 bb3f 1ac0 153d 5df7 39bf f735 94bf
000003d0: 37a4 053f 0b53 62be 8c76 0bbc e927 52bf
000003e0: 1388 b0be 506f 763e 7beb 6fbf a398 9dbf
000003f0: 4c86 8d3f bdb9 fbbf ee2a 14bf b8c3 8c3f
0.2527735 -0.10805877 -0.39220098 -0.84748185 0.6613079 -0.02488978 0.9057519 0.085646875
0.3678256 1.1862024 -1.4107504 -0.50297177 0.18260029 -0.25132772 -0.92365545 1.587718
1.3202748 -0.09386904 0.3010015 0.9254857 -2.0664837 0.49547815 1.5121709 0.63673717
0.07867183 -1.5568209 -1.1198589 -0.37267253 0.40947726 -0.77568233 1.451597 2.4661922
-0.6946709 -0.31862047 1.0512861 0.09707906 0.11848322 1.1546153 -1.1774578 -0.33828828
-0.5326829 -0.8811267 0.58377254 -1.436659 -1.1672673 0.60807616 -0.56477886 -0.7611986
1.6717998 -0.8149545 1.362462 -0.22364968 -1.5213501 2.050028 2.7446396 -1.6930556
1.4364431 -1.5171052 0.8287896 -0.20690103 0.7619465 1.5002682 1.6789732 -0.47066376
-0.81119007 0.5516783 -0.10501696 -0.0042266687 -0.4969504 0.4898406 -0.28532848 -1.0624737
2.082018 -0.48861995 0.25925 0.7054841 -1.3631728 0.89104545 0.0871673 0.2341715
2.4754636 -1.2507079 1.046418 0.5296012 -1.5905508 -1.2906708 0.6786482 -0.19414282
0.3552721 -0.3534201 0.39154658 -0.775173 -0.43597597 -0.35221478 -0.9805496 -0.43721867
-1.6656231 -1.3769193 -0.17529655 0.9598289 0.024532627 -0.73419434 -0.2689912 0.032584753
-0.18679787 -0.13160326 0.306031 1.3560654 0.1569166 2.53175 -0.5859178 -1.9914439
-0.37819704 0.045032486 0.9049993 -1.8383815 0.13081022 0.49894184 -1.7162873 0.575599
1.7580832 0.32086504 0.30094114 -0.65617925 -0.6818996 0.29587764 -0.6217261 -1.4618791
-2.0394266 1.8442029 1.3479067 -0.5023884 1.3463492 1.6778241 -0.09117172 -1.7387484
-0.034339525 0.11826646 0.9859443 0.67433435 0.3000099 -0.70980245 0.7535029 0.89151496
2.2098465 0.9962238 -1.4753374 -0.24929957 -0.046560865 -0.2620587 -0.6236445 1.1121846
-0.9951886 0.17010452 1.2445248 -0.26960656 -1.0983605 -0.70372856 1.5571718 -0.69556963
-0.88823503 0.07719731 -0.054930262 2.3557127 -2.6900382 0.51814365 -0.8600609 -0.26107377
0.003964148 2.0284019 -0.16653505 -0.25642613 -1.293135 -0.10634873 -1.8610859 -1.3719208
-0.3324175 -1.1783168 0.051303927 0.22266208 0.78225154 0.84139234 -1.7083969 1.2708143
0.94688916 1.0610323 0.6213359 -1.2373612 -0.647123 2.1040592 0.53619456 1.2123518
0.22053687 -0.35984758 1.8616453 1.4092551 1.1075011 -0.6731186 -0.493396 0.60278064
0.014928857 -1.6670314 1.044532 0.4729576 -1.2325667 -0.9559888 -0.12647131 0.13291878
0.2599852 -0.7058706 -0.37194204 -0.47719872 0.57093567 0.6412967 1.2239583 0.80215
0.47495407 0.8691902 -0.22319523 -0.7726187 -0.5749273 0.34921813 -0.5126272 -0.34708923
-0.6234979 -0.20357199 -0.00839014 -0.29706207 -0.07521858 0.76825994 0.013066882 -0.41000167
0.8409677 -1.503292 0.6236371 -1.9114132 -0.9747793 0.10604212 -0.43969882 -0.461901
1.4629896 0.036560155 -0.7264307 -1.1578969 0.52203697 -0.22101991 -0.0085121505 -0.8209215
-0.34478816 0.240659 -0.9371869 -1.2312206 1.1056609 -1.9666058 -0.57878006 1.0997229

blocks.0.norm1.weight f4 [32]
00000000: 4205 883f c4c7 873f dddf 823f 107f 803f
00000010: 7941 7f3f 3264 813f 5b8b 893f 1b17 833f
00000020: 4d5b 883f c52b 7f3f 7f2d 7d3f 29d4 823f
00000030: fc2c 7e3f c3d3 833f e026 853f ecdb 813f
00000040: 0aa0 7c3f 8301 823f 9d82 7d3f bbb9 7b3f
00000050: 1b5c 873f b459 843f cf24 8e3f 4259 843f
00000060: 23ed 813f 9e98 843f cdcc 803f 57e4 7d3f
00000070: 38e1 823f f5a4 833f 0a8e 823f b76c 803f
1.0626605 1.0607839 1.0224568 1.0038776 0.9970928 1.0108702 1.0745653 1.0241426
1.0652863 0.9967616 0.98897547 1.0220996 0.9928739 1.0299 1.0402489 1.014524
0.986817 1.0156711 0.99027425 0.9833028 1.0574983 1.0339875 1.1104983 1.0339739
1.0150493 1.0359075 1.00625 0.99176544 1.0224981 1.0284716 1.0199597 1.0033177

blocks.0.norm1.bias f4 [32]
00000000: b244 c2bb ffb9 8dbc 052b e6bc a74d aeba
00000010: 94dc 993a 2b50 e03b 20f3 4fbc ca01 afbc
00000020: 3ee9 84bb 4729 373a b2ef 583c 9331 4fbc
00000030: dfb6 6d3b c5d2 49bc 0e19 783b 0f2e 963b
00000040: 76b9 23bc 8b31 a83c 18d4 93bc d9be d2ba
00000050: 4f84 3bbc defb 0a3a 3af8 0c3b 2aae cabc
00000060: 1a31 c9bb 0e54 b93c 216a 87bb 3b3d a53c
00000070: 285f 083d 1bd0 5f3c 6c44 813c ccc7 033c
-0.0059285993 -0.017300604 -0.028096685 -0.0013298289 0.0011738711 0.0068454943 -0.012692243 -0.021363158
-0.004056125 0.0006987047 0.013240742 -0.012646097 0.003627233 -0.012318318 0.003785673 0.0045831273
-0.009992948 0.020531436 -0.01804547 -0.0016078606 -0.011445119 0.00053018134 0.002151026 -0.024741251
-0.0061398866 0.022623088 -0.0041325246 0.020170799 0.033293873 0.013660456 0.015779696 0.008043241

blocks.0.attn.qkv.weight f4 [96, 32]
00000000: 8fea eb3d a608 e4bd 2d1b 7cbd 52a5 753c
00000010: f180 ac3d a714 95bd 8c10 5d3d 8cb3 0ebe
00000020: 00d1 c03d e537 c8bc 513b 38be 23e4 923d
00000030: 7581 353c 71bc ca3c f8a3 c3bc 4602 34be
00000040: 868f 39be 846b 993d 7f26 373e b70d e83d
00000050: 8573 86bc 3d14 d83d 247f 333d 8ff0 91bd
00000060: a406 34be ea2d bdba f2c8 623c 5cad 463c
00000070: 8db7 a7bd e8bd d43d ad63 c1bd 00ec c4bd
00000080: 5446 173c 177a 23be c0c8 0e3d d01c fc3d
00000090: 8c90 8e3d 3e6e 07be 5059 98bc 3843 a23d
000000a0: 2c84 5abe e644 973d 536b bd3d a4e0 cf3d
000000b0: b630 e0bd 0d22 3bbe c09d 023d d97c 9ebd
000000c0: 2057 78bd 6d3c 5bbe f9d3 48be 5c32 273e
000000d0: 5c1f 853e 0548 80be 6690 64be ccb7 b63c
000000e0: 7995 c6bc 0abb 33be d90c 47be 7ae0 743d
000000f0: a0c8 55be b924 07bd 78a0 593d f414 253e
00000100: 41d8 003d 71fd 1a3e 4377 ab3d f6d9 923b
00000110: 2a2b 5b3e 80da 4c3e 299a 9d3c be7e 85bd
00000120: 78a8 aebd b7de 31be 666d 633d 0f10 a73d
00000130: 1219 553e 4dd9 593c 3261 6a3d 057c f23d
00000140: b3ae b2bc aee6 bb3d 132f cebb aa35 263d
00000150: 5b40 0f3e 47d4 433d 30a3 2ebd 9da0 34be
00000160: 9e10 a8bd 53f8 d43c ddcf 143d fb9e 573d
00000170: 3f07 683e 201e 99bc ab2d 2dbd dffa c23b
00000180: d500 43be f1ab 053b 57f2 e1bd 37db 0ebd
00000190: a23f 6f3d 06a1 39be 2644 303b a7de 443d
000001a0: 072d c43d 2df9 993d b6f2 72bd b011 0abe
000001b0: 3f1c 783d 1d80 f73d 7bf3 47be c790 33be
000001c0: 68b6 e73d e41e 40be 119d f4bd 46e2 00be
000001d0: 00ee 2bbe 4293 febd d1b3 5a3d bb6e e53d
000001e0: d233 1abe e12e 28be cb48 99bd 2672 cfbd
000001f0: 767b d23d d53f e8bd 78ca 8cbd e834 203e
00000200: 23fc 913d 5f6d 0f3d a4a5 05be c522 21be
00000210: 7af2 cfbd 3f04 743e 4788 70be 0412 873d
00000220: e903 b03d a415 983d eaca 3fbd df2b dbbd
00000230: 12c7 b3bd 6908 c1bb db00 99bd 1193 573e
00000240: eaa0 e7bd 5be2 86bd 9383 15be d7ae 1a3d
00000250: a628 da3d 323e 803e c029 d03c 0029 2ebe
00000260: 4671 aabc a165 9f3b 5e45 85bd 59ee 1cbe
00000270: 7d47 163e c572 b83c e04e 07bc ea5f 193e
00000280: 493a 7c3e 1dfb 513e 74cc 02be 418b 293c
00000290: 6a79 f3bd 9377 e33c 5898 903d afd4 dabd
000002a0: 8eec b6bd 997a 14bd c8f4 0c3d 9828 18bb
000002b0: 5e46 14be 7634 3abd a54d 623e 02ae 213d
000002c0: f6bc 92be 8b88 0d3e f391 0ebe f0fb 5dbe
000002d0: b4e2 c8bd 0ed8 7a3e 6eb3 b33d eea1 08be
000002e0: a53f 073e 3295 0a3e f1c2 3b3e ec7c 323e
000002f0: 9101 3a3e 4c94 1bbe 9776 863d 1392 28bd
00000300: d99f b7bd 114c 1d3e 6409 253e 01ee 3fbd
00000310: ded5 0ebe db14 16be 30bb 4d3e 359b d3bd
00000320: e8f8 b83b af9b f43d 4f15 163e 0d58 4c3d
00000330: 29f6 45bc 6bd3 5a3e c36e c5bd 03c6 23be
00000340: 70a1 b4bd 65de f33d ef0b a23d 9c67 3c3e
00000350: 9ddf 8d3d 15f7 95bc 313a 7c3d 6aa4 62bd
00000360: 0597 4cbe 6a1c abbd 9f4e 613e b614 d63d
00000370: e3f6 993d 7a3c 39bd 1d40 28bc d9e4 2cbe
00000380: 2d77 db3d 46bf 443e e5ce 16be 7255 1cbe
00000390: 3b20 fcbc 0127 c23d 44b1 0ebe 17e1 853d
000003a0: ab01 3e3e 1349 a23c fe40 dabd eba8 183e
000003b0: 9b1d ccbd b360 4b3d 9e0f 603e 4f02 d63d
000003c0: e92d f5bd a9b7 9abd 574b adbd a787 babd
000003d0: 3c1f 38be 25f9 463e 3697 6c3e b953 c2bd
000003e0: f50d 7bbd c0fb b6bd ff07 2a3e 73ff 89bc
000003f0: 891d 4fbd 16c4 b23d bed3 933d da98 363e
0.11519348 -0.11134462 -0.061549354 0.014993029 0.08423031 -0.0727933 0.05397086 -0.13935679
0.094148636 -0.024440715 -0.17991377 0.0717242 0.011078228 0.024748059 -0.023881897 -0.17578992
-0.18121156 0.0749121 0.17885779 0.11330741 -0.016412506 0.10550735 0.043822423 -0.07125961
-0.17580658 -0.0014433239 0.013841854 0.012126293 -0.081893064 0.10387784 -0.0944284 -0.09615326
0.009233076 -0.15964542 0.03485942 0.12310183 0.06961164 -0.13225648 -0.018597275 0.07922977
-0.21339482 0.07386188 0.09248986 0.10150269 -0.10946791 -0.18274708 0.031888723 -0.077386566
-0.060629964 -0.2140977 -0.19612111 0.16327804 0.26000488 -0.25054947 -0.22320709 0.022304438
-0.024241196 -0.17551818 -0.19438495 0.05978439 -0.20877314 -0.032994006 0.05313155 0.16121274
0.031456236 0.15135743 0.08372357 0.0044815494 0.21403185 0.20005226 0.019238548 -0.06518315
-0.085282266 -0.17370115 0.055524252 0.0815736 0.20810345 0.013296437 0.0572216 0.11840061
-0.021811819 0.09174858 -0.006292233 0.04057852 0.13989393 0.047809865 -0.042636096 -0.17639394
-0.082062945 0.025997316 0.036331046 0.05264185 0.22659014 -0.018691123 -0.04227988 0.0059503163
-0.19043286 0.0020396675 -0.11032551 -0.03487703 0.058410294 -0.18127832 0.0026896088 0.0480639
0.09578901 0.0751823 -0.0593135 -0.1348331 0.060573813 0.120849825 -0.19526474 -0.17535697
0.11314088 -0.18761784 -0.119440205 -0.12586316 -0.16790009 -0.12430431 0.053394143 0.11202761
-0.1505883 -0.16424133 -0.07484587 -0.10129194 0.102774546 -0.113403 -0.06874555 0.15645182
0.071281694 0.035016414 -0.13051468 -0.1573592 -0.101536706 0.23829745 -0.23489486 0.06595233
0.08594496 0.074260026 -0.046824373 -0.10701727 -0.08778204 -0.005890895 -0.07470866 0.21052195
-0.11309989 -0.06586143 -0.14600973 0.037764397 0.10652284 0.2504745 0.025410533 -0.17007828
-0.020805966 0.00486441 -0.06507371 -0.15325297 0.14675708 0.022515664 -0.008258551 0.14977995
0.24631609 0.20505948 -0.12773305 0.010348142 -0.11888392 0.027766978 0.07060307 -0.106850974
-0.08931838 -0.03624973 0.03441313 -0.0023217555 -0.14479968 -0.045460187 0.22099932 0.039472587
-0.2865979 0.13821618 -0.13922863 -0.21678138 -0.09808865 0.24496481 0.08774458 -0.13343021
0.13207872 0.13533476 0.18336083 0.17430466 0.1816466 -0.1519329 0.06565588 -0.041154932
-0.089660354 0.15361048 0.16116863 -0.046857838 -0.13948771 -0.14656393 0.20090938 -0.10332338
0.0056449063 0.11943757 0.14656566 0.04988866 -0.012082615 0.21369712 -0.09640267 -0.15993504
-0.08819854 0.11907653 0.079124324 0.18398899 0.069274165 -0.018306294 0.061578933 -0.05533258
-0.19979484 -0.08355029 0.22002648 0.10453169 0.07517793 -0.04522369 -0.010269192 -0.16884173
0.1071609 0.1921359 -0.14727362 -0.1526697 -0.030777087 0.09480096 -0.13934809 0.06537073
0.18555324 0.019810235 -0.106569275 0.14908187 -0.09966584 0.049652766 0.21880957 0.10449659
-0.11971647 -0.07554562 -0.084616356 -0.09107905 -0.17980665 0.19430979 0.23104557 -0.09488625
-0.061292607 -0.08934736 0.16604613 -0.01684544 -0.050565276 0.08728807 0.07218121 0.17831746

blocks.0.attn.proj.weight f4 [32, 32]
00000000: a478 003e 7b75 16bd 3af9 57bc 6b4c d3bd
00000010: 73cf 513d 9967 59bd 55d9 a4bd fc32 6a3c
00000020: a73f b33b e275 17bd d4f1 8ebd 5627 43be
00000030: a727 d9bd e7d9 f63d 6551 043e 3721 edbd
00000040: 9312 1ebe 502f f8bd 551c adbc cae8 c13d
00000050: 1304 2bbe e015 04be 37ae 59bd 3851 f1bd
00000060: 688a ed3d 29f1 03bd 32e0 a73c 7ee1 0fbe
00000070: f380 2ebe a563 45be 2f43 2bbd d18e 33be
00000080: 37ac 54bd 259a 9c3d b20a 75bc 7900 183c
00000090: 3c2b 103e ce33 f03d 1711 9ebd ed0f db3c
000000a0: 8e95 c03d ddef b2bd d7d6 3d3d 5fc1 4c3e
000000b0: 7c58 37be 8613 9f3d 8da3 4bbd 6616 ae3d
000000c0: 1618 163d e777 ef3d a006 5abd b250 3b3e
000000d0: 961a 293e b49f 043e 3b36 283e abe1 af3d
000000e0: 3f60 3abe be32 f13d 5e34 37bd 8a21 b43d
000000f0: fafa 0a3e cebb 8fbd 9b71 b2bd c85b f6bc
00000100: 3eb9 153e 54cd 9a3d 0075 0cbe 73a0 b33d
00000110: c2a3 c0bd fab5 023e e400 963c fc8d 103e
00000120: 458e 543a e286 703d bf90 ca3c 055d 01be
00000130: 577e 083e 160e bf3d ca12 a5bc ff41 0e3d
00000140: 6d06 9ebd 702c be3d 8752 f23d 1a92 a2bd
00000150: 6a9d 20be 25b2 2bbd 59fd e1bd 4b05 c1bd
00000160: 487d 03be b7bb 26bc 384a dd3c d494 033d
00000170: 7f38 28be 0270 47be b0b0 123e 3c15 72bd
00000180: 33b1 b73b b02e 0cbe 4eb3 7dbd 8081 cb3d
00000190: 3e46 a6bd 41c4 25bd 4494 23be 94f1 293e
000001a0: 51e0 f63c 9384 ce3d 62fe cdbd e919 0d3e
000001b0: fed8 b0bc fd74 b2bd 3097 313d 2d24 49bb
000001c0: 6b10 823d a9bc 8cbd 64ce a9bd 803a e53d
000001d0: d510 173e 9017 173d 5235 b13d 3a7e d5bd
000001e0: ea8d 163d f41a 14be e91a 1e3c 0cea c23c
000001f0: 664a 15bd be32 b4bc c3dc 85bb da20 723c
00000200: 423b 883c 3fa9 7abd 0721 06be df93 c73c
00000210: 8eec b93d 4f51 29bd 04b9 b03c 3deb 59bd
00000220: ed69 b6bd 5437 d43d 869f c6bd e78f 133e
00000230: 4203 b03d 4aa1 aabd 5f34 63bd 1378 173d
00000240: bb3a e53c 0db0 18be 6b8a 0f3d 2e99 fbbd
00000250: 787a 82bc d2bb 8dbd 32fe 00be a341 3bbe
00000260: fcda ee3d c139 08bd b358 51bd 4b9d dbbd
00000270: 084d 993d 8b37 bb3d 9d8c 47bc d6ba 043d
00000280: 06cf 01be 7ce3 00be 65a2 3a3e a336 90bd
00000290: 8e4d 9abc 0b6a 2c3e 4c0f 833d dc62 e9bd
000002a0: f546 fc3d 5f28 153d ccab 1bbe 582a 473e
000002b0: 3aea dbbc ee89 003e 4822 043e 6778 03be
000002c0: 8aa6 0a3d de53 97bd c13c 103d 1cc3 41bd
000002d0: ea1b 143e 7467 c1bd 9911 c5bd e88c 9d3b
000002e0: 6694 90bc a708 ab3c bce9 0bbd ce81 e7bd
000002f0: 048b d3bd aa07 55bd cd63 7c3d caef 0abe
00000300: c4c1 7c3d 9f54 4ebd f9a1 243e a7a0 513d
00000310: 2345 e4bc 4ddf fd3d a087 1c3b 821d 3d3e
00000320: 73f9 d2bd ae62 693d 77e0 98bd 292a a93d
00000330: 7d7f 4a3c e287 2bbd 6735 f43d 9e39 16be
00000340: c22f 403d e41c e8bb f941 92bb b79b 073d
00000350: 61cb 2abd 97b8 42be c731 3e3e c945 a8bd
00000360: 954e 3abc 589b 8cbb a246 953d 5d99 03bd
00000370: a22d b53c 0969 bbbc c01d cf3d a118 bd39
00000380: efe7 2bbd 427a f8bc eae6 423d 5301 88bd
00000390: 7f61 00be e7ba 433e ecca 0cbe 38a7 cc3d
000003a0: 1718 64bd d407 363d 9b9c e9bd 95b0 00be
000003b0: cacd 3ebd 5f93 bb3d abf4 793d 9b4a a73c
000003c0: bdd7 25bd e15d 453e e8c3 24bd 9943 dcbc
000003d0: 623f 243e 9550 0a3d 40df 30be 5eca 05be
000003e0: 7e90 e7bd 1c0f fdbd e679 27be 2722 0a3e
000003f0: 3adf fa3d 007c cbbd 3037 20bd 0664 8d3d
0.12546021 -0.03673313 -0.013181979 -0.1031731 0.05122323 -0.053077314 -0.08049265 0.014294382
0.0054702344 -0.036977656 -0.06979719 -0.19057974 -0.10603266 0.1205328 0.12921675 -0.11578601
-0.15436773 -0.12118399 -0.021131674 0.09468229 -0.16700773 -0.1289897 -0.05314466 -0.11783069
0.115986645 -0.03221241 0.020492647 -0.14050862 -0.17041378 -0.19276293 -0.04181212 -0.17534949
-0.05192205 0.07646588 -0.014956163 0.009277456 0.14078993 0.11728631 -0.077181034 0.026740992
0.09403525 -0.087371565 0.046347465 0.1999564 -0.17904848 0.07767396 -0.04971652 0.08500366
0.036644064 0.116927914 -0.053228974 0.18292502 0.16514048 0.12951547 0.16426937 0.085879646
-0.18200777 0.117772564 -0.044727676 0.087954596 0.13572302 -0.07018243 -0.08713075 -0.030073062
0.14621446 0.075586945 -0.13716507 0.08770838 -0.09406234 0.12764731 0.018310972 0.14116663
0.0008108358 0.058722384 0.024727223 -0.1263314 0.13329445 0.093288586 -0.02015056 0.034730908
-0.07716069 0.092858195 0.11832147 -0.07938023 -0.15685049 -0.04191794 -0.1103465 -0.09424838
-0.1284076 -0.010176591 0.02701293 0.032124355 -0.16427802 -0.19476321 0.14325213 -0.059102282
0.0056058406 -0.13689685 -0.061938576 0.099368095 -0.081188664 -0.040470365 -0.15974528 0.16596061
0.03013626 0.1008388 -0.10058285 0.13779415 -0.021587845 -0.0871372 0.043357074 -0.0030691728
0.06350788 -0.068719216 -0.08291319 0.111927986 0.14752515 0.036887705 0.08652748 -0.104244664
0.036756434 -0.14463407 0.009649971 0.023793243 -0.036447905 -0.021996852 -0.0040851547 0.01477834
0.016629819 -0.061196562 -0.13098536 0.024362503 0.09078322 -0.041337308 0.021572597 -0.053202856
-0.089069225 0.103621155 -0.096983954 0.14410363 0.085943714 -0.08331545 -0.055469867 0.036979746
0.027982106 -0.14910908 0.035044115 -0.12285076 -0.015927538 -0.069205895 -0.12596968 -0.18286757
0.11662862 -0.033258203 -0.05110998 -0.10723361 0.07485396 0.09141453 -0.012179521 0.032404743
-0.1267663 -0.12586778 0.18226011 -0.07041671 -0.01883581 0.16837327 0.06399402 -0.11395809
0.123182215 0.036415454 -0.15202254 0.19449747 -0.026845086 0.12552616 0.12903702 -0.12838899
0.03385023 -0.07389043 0.03521419 -0.04730521 0.14463773 -0.0944356 -0.09622497 0.004808057
-0.017648887 0.02087815 -0.034158453 -0.11304055 -0.103292495 -0.052009262 0.061618615 -0.13568035
0.061708227 -0.05037367 0.16077413 0.0511786 -0.027864998 0.12396107 0.002388455 0.18468288
-0.10301485 0.056978874 -0.07464688 0.082599945 0.012359497 -0.041877635 0.11924248 -0.14670417
0.046920545 -0.007083522 -0.004463431 0.033107486 -0.041697863 -0.19015728 0.18573676 -0.082164355
-0.0113712745 -0.0042909794 0.07288863 -0.03212868 0.022116486 -0.022877233 0.10113096 0.0003606724
-0.041969236 -0.030331735 0.047583498 -0.066408776 -0.12537192 0.19114266 -0.13749284 0.09992832
-0.055687036 0.04444106 -0.11406823 -0.1256736 -0.046582974 0.09158968 0.06102435 0.020421317
-0.040488947 0.19274093 -0.040225893 -0.026887702 0.16039804 0.033768255 -0.17272663 -0.13065478
-0.113068566 -0.123563975 -0.16355094 0.1348959 0.12249608 -0.099357605 -0.03911513 0.069038436

blocks.0.attn.proj.bias f4 [32]
00000000: b8f8 57bd b314 9c3d 8da9 cb3d da46 a5bd
00000010: 8cfe 4c3d 2f59 ce3d 6f46 e6bd 775e f83d
00000020: b073 b6bd 966e adbd 8752 bd3d 6847 34bd
00000030: cbdc e13c 9d7a de3d c6fd 73bd e689 4cbd
00000040: 66f3 0abe 4e4c b53d 065f 1b3d a348 2b3e
00000050: 5516 fa3d bdea 343d 7b25 083d fa45 163e
00000060: caed 0dbe eeb2 0cbe 7589 1a3e 8c71 54bd
00000070: b2d2 3e3d a689 5fbd bc16 12be 5efb 05be
-0.05272743 0.076211356 0.099444486 -0.080701545 0.050047442 0.10075604 -0.11243903 0.12127393
-0.089087844 -0.08468358 0.092442565 -0.04401341 0.027571103 0.108632304 -0.05956819 -0.049936198
-0.13569412 0.088524446 0.03793242 0.16726927 0.12211291 0.044169176 0.03323887 0.14675131
-0.1386024 -0.13740131 0.15091498 -0.0518661 0.046587653 -0.05457463 -0.14266485 -0.1308417

blocks.0.norm2.weight f4 [32]
00000000: 6010 7f3f 52d6 7e3f 6bd9 763f cb88 7c3f
00000010: 55ed 7b3f aaef 773f ef88 6c3f 7b96 7c3f
00000020: 5915 853f 2ebd 7a3f 4442 813f 20fc 803f
00000030: 9dbd 813f ef4d 823f 593a 803f 09da 843f
00000040: d555 813f 9b13 803f 8c89 7c3f 54c6 6a3f
00000050: 3592 783f 9a70 763f d0f9 803f 5e57 783f
00000060: 42fd 793f ed2b 853f fdb1 833f 56f1 823f
00000070: de0f 7c3f 2e6d 803f c4c4 833f 21f0 7c3f
0.9963436 0.99545777 0.96425503 0.9864623 0.98409015 0.96850073 0.92396444 0.98667115
1.039714 0.97944915 1.0098348 1.0076942 1.013599 1.0180033 1.0017806 1.0379039
1.0104319 1.0005983 0.9864738 0.91708875 0.97098094 0.96265566 1.0076237 0.9700831
0.97652066 1.040403 1.0288693 1.02299 0.9846171 1.0033319 1.0294423 0.9880391

blocks.0.norm2.bias f4 [32]
00000000: 0a9a 5a3c 3828 453b e941 b73b 8c46 d53c
00000010: 625f 3ebd 6a88 ecbc f3aa 073d f255 113c
00000020: 4fe3 813c 1a83 f03c 0b29 543b f58f 3b3a
00000030: 13a5 6ebb d35f a73c 5d57 d73b d9c4 0f3c
00000040: 371c d3ba 397c 00ba 9859 0e3c b6ec 933d
00000050: 1165 9d3c 6312 debb bc55 22bc a166 3f3d
00000060: 042b 8dbc b304 453c 4ab1 c63b ee82 2b3a
00000070: 6f88 58bc 3411 1bbb 4a53 75bc 7f05 70bd
0.01334239 0.0030083787 0.005592574 0.026034616 -0.046477683 -0.028873641 0.033122014 0.008870589
0.01585546 0.02935939 0.0032373096 0.0007154935 -0.003641431 0.020431435 0.006571694 0.0087749595
-0.0016106431 -0.0004901323 0.008688353 0.072228834 0.019213231 -0.006777094 -0.009908136 0.046728734
-0.017232426 0.012025046 0.006063615 0.00065426424 -0.013216122 -0.0023661377 -0.014973471 -0.05859899

blocks.0.mlp.fc1.weight f4 [128, 32]
00000000: bb6a f43c fe3c e0b8 ee57 993d 4844 13be
00000010: c241 54bc e04e 983b bf70 eebd 2325 4d3e
00000020: e344 68bd 7406 d8ba 50c8 e03d 04c3 2dbe
00000030: 4a02 47be 2226 ba3d e2c2 203e 75b2 0abe
00000040: 36d6 10be 5d08 2f3e 9091 083e 0153 323e
00000050: 9a6b 32bd 2a41 1fbd 9485 a33d cae8 bcbc
00000060: ef34 1a3e 28b0 e0bd b7bc 2b3e 08b3 fc3d
00000070: 3ea8 353d 8cb6 293e afa1 69bd 361f 0fbd
00000080: 365e e03d 1fc4 413e 97c7 d03d 43bf b43d
00000090: 3193 20be b2c5 1dbe e61a 65bd 5235 bbbd
000000a0: 6c6f 383e 7f3b 813d dbf0 903d 3ceb 033d
000000b0: 40d2 f33d f683 34be 1264 7dbd 011e 1b3e
000000c0: e2d6 103d 6ab2 f2bd 4986 093e 6a64 dc3d
000000d0: 30e6 bcbc baef 763d 6456 4a3e 548b b7bb
000000e0: 2de1 4ebc b131 d83d 39a7 cabc 2a9e d83d
000000f0: bd10 cbbd dcb1 c63b 4ba5 163e 3bf4 953d
00000100: d451 01be d41f 453d d1e8 df3d 812f 0fbe
00000110: 4a36 253e 6004 6c3c 2059 1ebe 93ee 07be
00000120: a46b 173e 4343 143e 3ad1 d9bc fddf 50bd
00000130: 42d8 223d e420 b23d b92c 9bbc 35b6 173e
00000140: 5e09 e9bd d93a 1e3e e868 0cbe 4600 fb3c
00000150: 94ba 963c 836e b3bc df89 873d ad94 03be
00000160: 8e9d 1f3d 4d9c b0bc eae7 1d3e 6d55 e1bd
00000170: 0f54 0ebe 62d8 01be f3b1 63bd 6ec5 d9bd
00000180: fb21 093e 181e 9bbd 250f fa3d 13b9 c8bd
00000190: abc7 233e be37 173e c4a0 0abe 5ca2 203e
000001a0: 3f04 fabb 9488 d73d 96f3 87bd b191 023e
000001b0: 705a 15bd 184b b5bb c816 0cbd 97e5 863d
000001c0: 1439 033d d89c 19be 4f68 833c f383 613d
000001d0: df2b 753d e324 a7bd bee9 5e3d 5995 a53b
000001e0: 9952 d93d ecde 033e 2a03 843c 13b7 d2bd
000001f0: 4a0e e33d 56b3 673d 2071 633d 31f4 2bbd
00000200: 30e6 573d e44e 91bd e2b7 31be 4618 323e
00000210: ad5c 233d badf 023e 1b65 29be 0af4 f1bc
00000220: f867 39bd 136b 133e f6ea fc3c 3748 c5bd
00000230: b59f 20be 87a7 da3d 019f 2b3e a631 903d
00000240: e3b8 213e 1301 3dbe e015 093e 3181 bdbb
00000250: f7a0 82bd 8aef 40be 5ff8 5f3d 30a5 c13d
00000260: c9db c33d 1b42 933d 9245 a5bc 68a3 73bd
00000270: 4090 abbd a6ae 943d 0519 4b3d 6657 f53d
00000280: 52da 073d 321b c03d ca8a 4cbd 1c5d 3dbe
00000290: f02d 1fba 2e61 b03d 5dec 15be ebea 933d
000002a0: 61f8 5c3d 1119 753d 5016 293c edfc e4bd
000002b0: 09b7 19be c528 143d fb2f 6b3d 119d 823d
000002c0: a150 143e 387f 9fbd 5a5d acbd 2037 c2bd
000002d0: 66d3 073e c13f 663c dc78 15be 3565 b23d
000002e0: 0baf 2cbe 8d22 16be 1b59 0bbe 3dca b93d
000002f0: 6d16 803c 7dbe 373e 96e5 113d de3e 8bbd
00000300: 0ba7 a4bd 6e97 043e 357f ed3c 6bd0 24be
00000310: 68e4 423c 6649 ea3d 6118 5dbd ca61 a13d
00000320: a183 d7bd dcab b63d 08a9 6d3d 897d 063e
00000330: 1b2e 243e 0c7d e63b 9f53 78bc 1a58 e4bd
00000340: cd7b 033d 1fae a83d 5c57 18be e163 b53d
00000350: 9eca 183e 305c c2bc c593 ba3d a441 bcbd
00000360: 3e88 e93c 6b68 1abe edb2 a03d 8251 1a3e
00000370: 3930 c1bd d10c 05be ccb1 cc3d abf1 573c
00000380: bdae 96bd 2747 edbd 9b15 3c3e 93f1 88bd
00000390: ded6 033e 4bf8 cebc 8546 8ebc d5e0 a7bd
000003a0: 39cf 26bd 0483 acba ce59 273e 2453 493e
000003b0: ad24 10bd 6b70 053e 9fd1 f73d 7900 5c3c
000003c0: f590 bf3d 8295 683d 7e4b 143d c974 6abd
000003d0: 24c3 c5bc 97c2 6dbd e299 463d a242 02bd
000003e0: 382f 223d 2696 113e aa6e ce3d 510a 673b
000003f0: f9ce 32be 24aa 78bd 1f77 80bd 0bc5 e1bd
0.02983605 -0.00010692513 0.074874744 -0.14381516 -0.012955131 0.0046480745 -0.11642598 0.20033698
-0.05670632 -0.0016481415 0.109757066 -0.16968924 -0.19434467 0.090893045 0.15699342 -0.13544638
-0.14144215 0.17093034 0.13336778 0.17414476 -0.043559648 -0.038880505 0.079844624 -0.023060221
0.15059255 -0.10971099 0.16771208 0.12338835 0.0443499 0.16573542 -0.05703896 -0.034941874
0.10955469 0.1892247 0.10194319 0.08825543 -0.15681149 -0.15407446 -0.055933855 -0.091410294
0.18011254 0.06310176 0.070771895 0.03220676 0.119053364 -0.17628464 -0.061863013 0.15148164
0.03536118 -0.11850436 0.13430132 0.1076134 -0.02305898 0.060287215 0.19759518 -0.005601326
-0.012626928 0.10556353 -0.024737941 0.105770424 -0.09915302 0.006063683 0.14711492 0.07321974
-0.12628871 0.048126057 0.10933078 -0.13982965 0.16133991 0.01440534 -0.15463686 -0.13274603
0.14787155 0.14478783 -0.026589025 -0.050994862 0.03975702 0.0869768 -0.018942224 0.148156
-0.1137874 0.15452136 -0.13711894 0.030639779 0.018399514 -0.021903282 0.06618094 -0.12849684
0.038968615 -0.021558905 0.154205 -0.11002622 -0.13899253 -0.126802 -0.055589627 -0.1063336
0.13391869 -0.07574099 0.1220992 -0.09800925 0.15994136 0.14767358 -0.1353789 0.15686935
-0.0076299007 0.10524097 -0.06638257 0.1275089 -0.0364632 -0.0055326335 -0.034201413 0.065867595
0.032036856 -0.15001237 0.01604095 0.055057477 0.05985629 -0.081613325 0.054422133 0.005053204
0.106114574 0.12878007 0.01611479 -0.10288825 0.1108671 0.056567512 0.055527806 -0.041980926
0.05270976 -0.07095125 -0.17355302 0.17392072 0.039883304 0.12780657 -0.16542475 -0.029535312
-0.045265168 0.14396314 0.030873757 -0.096329145 -0.15685923 0.106764846 0.16759874 0.0704072
0.15793185 -0.18457441 0.13387251 -0.005783223 -0.06378358 -0.18841377 0.054680225 0.09455335
0.09563405 0.07190343 -0.020174775 -0.05948201 -0.08377123 0.07259874 0.049584407 0.119795606
0.03316719 0.09380187 -0.049937047 -0.1849255 -0.0006072214 0.086122856 -0.14640947 0.072225414
0.05394781 0.05983836 0.010320261 -0.11181054 -0.15011229 0.036171693 0.057418805 0.06377614
0.14483882 -0.07787937 -0.08416243 -0.094831705 0.13264236 0.014053286 -0.14596885 0.0871071
-0.16863649 -0.14661618 -0.1360821 0.09071777 0.015635693 0.1794376 0.03561934 -0.067991
-0.080396734 0.12948391 0.028991321 -0.1609513 0.011895277 0.11439781 -0.053978328 0.0787998
-0.10523153 0.08919498 0.05802253 0.13133825 0.16033213 0.0070339497 -0.015156656 -0.111496165
0.032100488 0.08236336 -0.14877075 0.08856941 0.14921042 -0.023725599 0.09110216 -0.091922075
0.028507348 -0.15078895 0.078466274 0.15070155 -0.09433026 -0.1299317 0.099948496 0.013180177
-0.073575474 -0.11585837 0.18367617 -0.066867016 0.12874934 -0.02526488 -0.01736761 -0.0819718
-0.040724967 -0.0013161604 0.16342852 0.19660622 -0.035191227 0.13031165 0.12100529 0.013427847
0.0935382 0.056783207 0.036204807 -0.05724028 -0.024140902 -0.058046903 0.048486598 -0.031801827
0.039595813 0.14217433 0.10079701 0.0035253952 -0.17461766 -0.060709134 -0.062727205 -0.11023911

blocks.0.mlp.fc2.weight f4 [32, 128]
00000000: 520d ccbd 1c84 48bd 1305 f53c ecdf 8abc
00000010: 31ca 44ba 7521 893d d43d 693c 6ff1 1bbd
00000020: d8ad 88bc 282b 4bbc f5c8 9f3d d8a0 683c
00000030: 7b83 733d 6be6 0d3e 89b2 20bb 2c05 42bd
00000040: 947a 0a3d b475 c6bd 195a 4cbd 5d45 e1bc
00000050: c3a7 05bd c098 cbbc 4c8a c8bb 34a9 653d
00000060: bb1c 98bd 14bb cfbc 3deb 77bd ca3d 343d
00000070: 7c48 1c3d 406a 8d3d d0e0 a63d f417 4d3d
00000080: 5cd7 b7bc b106 65bd ab13 b7bd 50fa 533d
00000090: c594 1abd bba2 2c3d c511 00be 4933 b83c
000000a0: 540b 0e3d 1c8a c53c 0033 30bd c7f2 bb3d
000000b0: 365b 1a3d 53bf 1c3d edcf 62bb 9fe4 8bbb
000000c0: d729 173d 9682 29bc e5ef 94bd 9e01 a63c
000000d0: b885 0ebb 79be a0bd b2b4 043d af7c 653b
000000e0: aee6 8ebc 4b8f da3c b57e 903d c905 a2bd
000000f0: 5b2a da3d 7560 b23d 6d79 70bc 62f6 843d
00000100: eeeb 963b 5cdf 183d b6c6 9d3c fb9c e4bd
00000110: 1429 063d 865a a43d 9c8b 763d 70fe 8d3d
00000120: 81a2 b0bd b3f0 8c3d 31ad dd3c fceb a5bd
00000130: a149 81bd 483d f0bc ea0a 3e3d e207 bfbd
00000140: 6097 e73d 991c 873d 46d1 393d e911 e43d
00000150: 3376 28bd 042d 59bd 9f2c 1bbd 4aab b4bc
00000160: d4b3 423d e630 5dbd 505d d63d 928d aa3c
00000170: f3da 1b3b 2c78 643c c4eb 8d3d 2c43 54bd
00000180: 3a91 853d daa2 a3bc a558 70bc d20b aabd
00000190: c82e 4b3c 2474 17bd 566c a1bd 0ad5 943b
000001a0: 461e 9b3d 68a6 acbc bc92 013d b300 5ebd
000001b0: 370f 01bd 3884 5f3d 3761 30bd d8c9 52bd
000001c0: d245 34bd 3290 d03c 5382 9abd 136e 933d
000001d0: cd5c 9dbd d50d 853d 1a3c 58bd 338f b8bc
000001e0: 1195 ad3d fa84 ef3c 880e 09bd 6b5a 4fbd
000001f0: 8372 d23d a3e7 e5bc 7267 d73c 5179 503d
00000200: 130a 1cbd 06b7 9ebd b721 933d a97e 063c
00000210: d598 c53c d29c 5c3d 51b9 643d 0b8b 6e3d
00000220: 883d 82bb f3ae c83c 4cf1 173d 3dda 113c
00000230: 55fa 833d 5c1c a3bb 2d07 353b a709 843d
00000240: b71b 2a3b edc6 0e3d 719c 06bd aa13 a1bd
00000250: 6ef8 89bd 2b62 abbd c2aa 98bd 2731 763c
00000260: b207 023d c9e5 a33d 77c0 b73d 6ad2 d8bb
00000270: ff6a 8bbc 8a57 76bc 8bc9 2d3c 7810 d3bd
00000280: 1226 f1bc dd31 973b 3a23 a6bd f187 d5bc
00000290: 36da c93b dd83 ddbc bc60 ff3c eddf 0c3d
000002a0: 6b9d 803d f11a 07bd 4b57 0dbc ada7 da3b
000002b0: a170 6f3d f78b 4abd 0d2d 583d 5ec2 85bd
000002c0: 8c48 bbbd 3fb1 5f3d 8d60 80bd 68a8 b13c
000002d0: 166e 6abb ada8 673a 894a a8bd 67f2 b43d
000002e0: 5298 073d e4fd 89bd b547 42bd 18d3 97bd
000002f0: e761 a53d a98d e33b f891 b3bc 279e 1bbd
00000300: d5cc a5bc 41db 35bd 2ddf 86bd 31b5 3f3d
00000310: 90cc 0a3e 7439 743c 01e2 ba3d 0de2 993d
00000320: 72a0 cd3c fa3a 7d3d 6ce4 4cbd c646 97bc
00000330: e10e 5abd 239b 6e3c 95a0 3cbd c8df c63c
00000340: e08b 9bbb b8e4 81bc 4515 663d e93e 42bc
00000350: 3a1a 403c e1f4 533c 5f93 c2bc 6443 0c3d
00000360: 26a8 343c 6218 aabd 4d75 943d 2924 94bd
00000370: 078b 1abd bde3 443d ab09 41bb cca3 8dbc
00000380: 0c68 663c 7fa6 ff3d bd3f cebd 725d edbd
00000390: 3e5e 1abd 2f1c 923c dc4a 593d 0bc9 dd3d
000003a0: 619c 0d3c 916b 4b3d 8cc6 52bd 976a 8d3d
000003b0: 9224 283d 653d 8939 7b02 94bd c5aa 963d
000003c0: fb23 b63c 7497 8a3c 0fe5 0a3d 8129 f1bc
000003d0: 6216 753d 2657 4cbd 17d3 283d 2666 b53d
000003e0: c8c1 debd bf6c aa3c 56f2 52bd 2189 dd3c
000003f0: c3cc b03d 46a9 053e 335e 783c 4dc4 b43d
-0.09963478 -0.048954114 0.029909646 -0.016952477 -0.00075069355 0.066958345 0.014235932 -0.038072046
-0.016684458 -0.012400426 0.078020014 0.014198504 0.05945156 0.13857429 -0.0024520478 -0.047368214
0.033808306 -0.09690419 -0.04989061 -0.027498895 -0.032630693 -0.02485311 -0.006120002 0.056069568
-0.07427355 -0.02535776 -0.060527075 0.04400424 0.038155064 0.06905031 0.08148348 0.05007167
-0.022441559 -0.055914585 -0.08939298 0.05175239 -0.037739534 0.04214738 -0.12506779 0.022485392
0.034678772 0.024113707 -0.043017387 0.091771655 0.03768464 0.0382684 -0.0034608797 -0.004269197
0.036905136 -0.0103460755 -0.07272319 0.020264443 -0.0021747183 -0.0784883 0.032398887 0.0035016944
-0.017443981 0.026679656 0.070554174 -0.0791126 0.1065261 0.08709804 -0.014677388 0.06492306
0.0046057617 0.037322387 0.019259792 -0.11162754 0.03275402 0.080250785 0.060191736 0.06933296
-0.08624745 0.06881847 0.027060123 -0.08101651 -0.06312872 -0.029326096 0.046397127 -0.093276754
0.11308169 0.065972514 0.045365594 0.111362286 -0.04112835 -0.053021446 -0.03788435 -0.022054333
0.04753478 -0.05400171 0.10467017 0.02081946 0.0023781627 0.013944667 0.06929734 -0.051821873
0.065218404 -0.019975115 -0.014669572 -0.08303036 0.01240129 -0.036975995 -0.078819916 0.004541998
0.075741336 -0.021075442 0.031634077 -0.054199886 -0.03150865 0.054569453 -0.04306146 -0.051462024
-0.0440119 0.025459383 -0.075443886 0.07198729 -0.07683716 0.06496779 -0.052791692 -0.02252922
0.08475698 0.029238213 -0.033461124 -0.05062334 0.102757476 -0.028064555 0.026294444 0.050896946
-0.038095545 -0.07749753 0.07184165 0.008208909 0.024120728 0.053860493 0.055840794 0.05823807
-0.0039746203 0.024497485 0.037095353 0.00890213 0.064442314 -0.004977746 0.0027622685 0.064471535
0.002595646 0.03485768 -0.032864038 -0.07865079 -0.06736837 -0.083683334 -0.074544445 0.015026367
0.03174562 0.080028124 0.08972257 -0.00661688 -0.017018793 -0.015035519 0.010607134 -0.103058755
-0.029437099 0.0046140985 -0.08112188 -0.026065798 0.006160046 -0.027040416 0.031174056 0.03439324
0.06280025 -0.032984678 -0.008626769 0.0066728205 0.05845702 -0.049449887 0.05277734 -0.06531213
-0.091446966 0.054612394 -0.062684156 0.021686748 -0.0035771183 0.00088370853 -0.082173415 0.08835297
0.03310425 -0.06737879 -0.047431666 -0.0741331 0.08075314 0.0069443774 -0.02192019 -0.037992623
-0.020239273 -0.04439855 -0.06585536 0.046803657 0.13554597 0.014906276 0.09125138 0.07513819
0.02510092 0.061823823 -0.050022528 -0.018466365 -0.053236846 0.014563355 -0.04605158 0.02427663
-0.004746899 -0.015856132 0.056172628 -0.011855819 0.011725003 0.012936802 -0.023751913 0.034243956
0.011026418 -0.08305432 0.07248936 -0.072334595 -0.037730243 0.04806875 -0.0029455225 -0.017290018
0.014062893 0.124829285 -0.10070751 -0.11590089 -0.037687533 0.017835705 0.053049907 0.108293615
0.008643241 0.04966313 -0.05145888 0.06905096 0.0410505 0.0002617642 -0.072270356 0.073567905
0.022233954 0.016917922 0.033909854 -0.029438736 0.0598358 -0.0498878 0.041216936 0.08857374
-0.108768046 0.020803807 -0.05150064 0.027042927 0.08632805 0.13052854 0.015159178 0.08826504

blocks.1.norm1.weight f4 [32]
00000000: 08f4 803f dbfb 863f ed6f 853f b525 823f
00000010: 2567 833f 5c5c 833f 4a02 893f 11c2 7a3f
00000020: e1d3 853f 0a0f 833f f074 7e3f adea 833f
00000030: 5ebd 833f 86b0 803f 79d7 813f 95b9 843f
00000040: 7bef 873f e216 813f f5f3 7e3f 68c7 7a3f
00000050: 212b 853f 52a4 843f 3691 883f d997 833f
00000060: 0874 783f 5417 843f e279 823f 6dcb 7e3f
00000070: 2e32 873f 2059 853f 262c 843f 1fc5 853f
1.0074472 1.054561 1.0424782 1.0167757 1.0265852 1.0262561 1.0703824 0.9795237
1.0455285 1.0238965 0.9939718 1.0305992 1.0292165 1.0053871 1.0143882 1.0369135
1.0619959 1.0085108 0.99591 0.9796052 1.0403787 1.0362647 1.0669315 1.0280715
0.9705205 1.0319619 1.0193446 0.99529153 1.0562189 1.0417824 1.0325973 1.0450782

blocks.1.norm1.bias f4 [32]
00000000: e40f 893c 1593 ba3a b092 083b 34cf 7d3c
00000010: c8c6 073c 3996 b5ba 0567 dbbc 321b e5ba
00000020: b3e5 1cbc 1450 97bb 525a ca3a b151 6a3c
00000030: ac7a 703c ac77 57bc fd6b 323c 7daf 29b8
00000040: 7be4 66bc 47e4 e93b 0f3d 523b d99e 613c
00000050: 9ce1 21bd 182d 4a3b 6f34 d2bb 1f8a 383c
00000060: 370e 59bc f0dc 00bc 1005 703c e6a2 6ebc
00000070: a072 203b 2c6d e13c 24fa 20bc 2747 7bbc
0.01673121 0.0014234508 0.0020839386 0.015491296 0.008287139 -0.0013853974 -0.026782522 -0.0017479418
-0.009576249 -0.0046177004 0.0015438295 0.014301703 0.014677685 -0.013151091 0.010890004 -4.0456176e-05
-0.01409256 0.0071378085 0.003207985 0.013770782 -0.0395218 0.0030849632 -0.006414942 0.011263399
-0.013248018 -0.007865176 0.0146496445 -0.014565205 0.0024482384 0.027517878 -0.009825263 -0.015336788

blocks.1.attn.qkv.weight f4 [96, 32]
00000000: 7859 d33c a2ff d8bc f011 28bb 0d95 2cbe
00000010: 75ca b23d deda 1d3d f83d 07be 8028 0bbe
00000020: 07df 9fbd c2bf 053e de0f 563d af70 61bd
00000030: b4be b63d 398e b6bc 03cf 0cbe 736f 8b3d
00000040: ae9b 5f3d e8c1 963d d26c 243e 9aea d13b
00000050: 1610 8d3c f0e1 85bd 2335 293e a38c 9fbd
00000060: 4d07 c3bd 0d03 53bd b2fd 9bbd 661f df3d
00000070: 7e18 0e3e 50ae 2a3d e4fb 72bd 7289 113e
00000080: d6a5 783c 571d c2bd 6309 13bd 0467 843c
00000090: 7b5d 353e 67ef f2bc db00 3cbe 70ec 5cbe
000000a0: 44ab b0bd f30e b1bd a017 7abd 3eed 963d
000000b0: 4bba 873c f6ad 88bd d9ed 143e 12ee ebbd
000000c0: 83ae 82bc 18b4 aa3c 7f84 4fbd 517f e3bd
000000d0: cca6 61bc 34dd 3c3e 6105 453e 0626 ed3c
000000e0: 41f8 92bb 3237 f23d 92d2 3f3d 57d5 59bd
000000f0: bc61 47bd 8dcb f43d 1e25 a2bd 1ab5 c13c
00000100: 3724 663d c034 ed3c 9a02 33be c74f b8bc
00000110: 166f 563e 2f9b 6c3e 1c2c babc 1ba2 f03d
00000120: 0123 343d e62f dc3c 978c d23b 59e6 953b
00000130: 0ea4 debd b8a7 26be ef81 753e ee28 c43b
00000140: 2de6 5fbe fa5b 65bd 4f4c 063e 71d4 c5bd
00000150: 2dd6 f6bd 9ed9 1e3e da38 0ebc 165d 80bd
00000160: 8f3b 243c 7ff5 003e 5f41 c23d 3fb4 b4bd
00000170: 5ac7 183e bf29 ab3d 7223 3d3e 01f3 edbd
00000180: dab5 113e 8bc8 a73d 26b6 37be 6c54 fb38
00000190: 3f93 19be 986d 2a3d 61e7 093e 7d5d 1a3e
000001a0: 465b ebbd 1c1a e43d 03ee 79bd 71d4 20be
000001b0: 86a3 123c dc25 0a3e ce49 debd ec2b a3bd
000001c0: 9183 f43d 67a3 043e 682f 89bd 0908 81bd
000001d0: da22 5d3d 407b 363e 0f10 49be fc07 e0bc
000001e0: 50a8 b6bd 689e 1abe a923 3b3c 3177 1e3d
000001f0: 0dde 013d 3479 bcbd 1a91 17be ad46 863c
00000200: 42d3 edbd 1504 87bc d8b2 033e 466a 46bd
00000210: 0994 343e a81b 1cbe ea00 103e 818d 093e
00000220: ca61 0cbe 6011 c9bd 17f7 1a3e b835 6fbb
00000230: 917b 48be 36da 92bd 7b7f 253e 3d2b eb3d
00000240: c68f 773d bc00 0e3e 7256 323d 03cf 58bd
00000250: d060 0f3e d92f b23d 12e8 a0bd f12c 2b3e
00000260: 812c 133e 2547 36bd 849d 26be cb91 12be
00000270: e540 c23d a9c2 e5bb 021a bfbd fa40 33bc
00000280: 76a2 13bc 54b2 833c f062 4a3e 3ce8 573e
00000290: c890 e4bd 34bf 1ebe 7e93 4c3d aea5 563d
000002a0: 862a 183e 55a8 483e ed19 713e 5939 00be
000002b0: 112d 923d 081b e8bc 45e4 38be 3ceb 8cbd
000002c0: 5a75 613d dfcc 9cbd d8b5 0d3e ab64 b13c
000002d0: c1c0 2dbd ac0e f6bd 78ad f03d 7149 b33c
000002e0: dbd1 cebc fea6 e4bc 3b79 11be cf6a fcbd
000002f0: 3702 2dbe fe15 4cbe f663 9b3d 6bb3 14be
00000300: 4ce7 43be b564 b33d 0545 c53c 80f3 373e
00000310: acd2 5ebe 26b1 283d a243 353e 8930 5ebd
00000320: 2211 7ebd 4988 07bd 206d bc3c 0333 2cbe
00000330: d0f6 5f3c b3cb c63d 5a2e 1abe 7cea d43d
00000340: 915f c13c 7ac3 bfbd 0fde b7bd 2eb7 e5bd
00000350: 2fd6 7bbd 77aa 5abe 3724 9a3d 533e bdbd
00000360: 4c15 f93d bc35 e73c 16e5 4c3e 1d57 b83d
00000370: 4fee 4a3d 17de 91bc 5dd5 013e 3c04 37bd
00000380: be38 963d 17b7 27be 22af 6dbc 8c1d 323e
00000390: 9f68 89bd 6451 3ebe 0bfd 163e 2286 123d
000003a0: 7fca 7fbd 66c4 583d 4e6b 173e 12e4 10be
000003b0: c9a5 1c3c c90d ce3c ac5f cd3d 8bde 6dbd
000003c0: d315 5c3e 21b3 33be 7aa8 a53d 631c 4dbd
000003d0: 7a76 603d 93a2 c2bd 8215 0fbe 81ce 8838
000003e0: e860 1bbd a078 59bd 1cc2 a13b c9ed 813d
000003f0: ff36 b2bc bdba c1bd e453 8a3d 72be 433d
0.025799498 -0.026489083 -0.0025645457 -0.16853733 0.08730022 0.038538806 -0.13207233 -0.13589668
-0.07806211 0.13061431 0.052261226 -0.055039104 0.089230925 -0.022284614 -0.13750844 0.068083666
0.054591827 0.073612034 0.16057137 0.0064061405 0.017219584 -0.06537235 0.16524176 -0.07790496
-0.09522877 -0.05151658 -0.07616748 0.10894661 0.1387653 0.041670144 -0.059322253 0.14212587
0.015176257 -0.094782524 -0.035897624 0.016162403 0.17711441 -0.029655172 -0.18359701 -0.21574569
-0.08626416 -0.086454295 -0.061057687 0.07369469 0.016568324 -0.066738054 0.14543857 -0.11520018
-0.015952354 0.020837829 -0.050663467 -0.11108268 -0.013772678 0.18443757 0.19240333 0.028948795
-0.0044851606 0.11826934 0.046831675 -0.053181972 -0.04867719 0.11952887 -0.07917236 0.023645926
0.05618688 0.028955817 -0.17481461 -0.022498978 0.20940813 0.23106073 -0.022726111 0.11749669
0.043978695 0.026878309 0.006425451 0.0045745787 -0.10871135 -0.16274917 0.23975347 0.0059863245
-0.21865149 -0.05599592 0.13115047 -0.096596606 -0.120525695 0.15512702 -0.008680547 -0.06267755
0.0100239655 0.1259365 0.09485125 -0.08823442 0.14919797 0.08357572 0.18470553 -0.11618615
0.14229527 0.081925474 -0.17940578 0.000119843375 -0.14997576 0.041608423 0.1346717 0.15074725
-0.114920184 0.111377925 -0.061018 -0.1570604 0.00895012 0.13491005 -0.10853921 -0.07967362
0.11939157 0.12952958 -0.06698495 -0.06300361 0.053988315 0.17820454 -0.19635032 -0.027347557
-0.08918822 -0.1509949 0.011422076 0.03868789 0.031705905 -0.09202805 -0.14801446 0.016391123
-0.1161256 -0.016481439 0.12861192 -0.048441194 0.17634596 -0.15244925 0.14062849 0.13432886
-0.13709179 -0.09817767 0.1513332 -0.0036500525 -0.19578387 -0.07170527 0.16161911 0.114828564
0.060439847 0.13867468 0.043539472 -0.052931797 0.14001775 0.087005325 -0.07856764 0.16716363
0.14372446 -0.044501442 -0.16271025 -0.14313428 0.09485034 -0.0070117307 -0.093311325 -0.010940785
-0.009010902 0.016076244 0.19764304 0.21084684 -0.11160427 -0.15502626 0.049945347 0.0524041
0.14859971 0.19595464 0.23545046 -0.12521876 0.07137502 -0.028333202 -0.18055828 -0.06880805
0.055043556 -0.076562636 0.13838899 0.021654448 -0.042420153 -0.12014517 0.117518365 0.021885606
-0.025246551 -0.02791166 -0.14206402 -0.123250596 -0.16895376 -0.19930264 0.075874254 -0.14521568
-0.19131202 0.08759443 0.024080763 0.17963982 -0.21760052 0.041184567 0.17701581 -0.054245505
-0.062028058 -0.033088956 0.023001254 -0.16816334 0.0136696845 0.09706821 -0.15056744 0.10396287
0.02360514 -0.09363456 -0.08977901 -0.112165794 -0.06148356 -0.2135409 0.07526439 -0.09240403
0.12162265 0.028223865 0.20009264 0.090009905 0.049543675 -0.017806096 0.12679048 -0.044681773
0.073350415 -0.16378437 -0.014507087 0.17394084 -0.06709408 -0.18585736 0.14744966 0.03577245
-0.062448975 0.052921675 0.14787027 -0.14149502 0.009561011 0.025153058 0.100280136 -0.05807356
0.214927 -0.17548801 0.08088775 -0.0500759 0.054800488 -0.09503665 -0.13973048 6.52345e-05
-0.037934214 -0.053093553 0.0049364697 0.06344182 -0.02175474 -0.094594456 0.06754282 0.047789045
