image_encoder/trained_models/vit_20241108_162433.pth (torch, 561019 bytes, 77 tensors)

cls_token f4 [1, 1, 32]
-0.00937957 0.01907859 0.012595516 0.018154792 -0.02838245 -0.011085769 0.017661985 0.026894437
-0.03115087 -0.030649282 0.007306018 -0.008705605 -0.0058598127 0.02390101 -0.031316962 -0.03629937
-0.00047914786 -0.0031226478 0.03505339 0.049096774 0.027634269 -0.013462084 -0.030216236 0.03943483
-0.035746314 -0.014087391 0.00398003 0.003640713 0.039497767 -0.018708061 0.00018239267 -0.021355018
00000000: c5ac 19bc b44a 9c3c 6c5d 4e3c 5cb9 943c
00000010: 5082 e8bc 16a1 35bc deaf 903c b951 dc3c
00000020: 1c30 ffbc 3414 fbbc 5267 ef3b f4a1 0ebc
00000030: ac03 c0bb 0dcc c33c 3746 00bd a6ae 14bd
00000040: 2336 fbb9 56a5 4cbb 2594 0f3d b319 493d
00000050: 4361 e23c 1390 5cbc 0a88 f7bc 6b86 213d
00000060: ba6a 12bd cdce 66bc e96a 823b 0799 6e3b
00000070: 69c8 213d a641 99bc a940 3f39 b8f0 aebc

pos_enc f4 [32, 32, 32]
0.0 1.0 0.0 1.0 0.0 1.0 0.0 1.0
0.0 1.0 0.0 1.0 0.0 1.0 0.0 1.0
0.0 1.0 0.0 1.0 0.0 1.0 0.0 1.0
0.0 1.0 0.0 1.0 0.0 1.0 0.0 1.0
0.0 1.0 0.0 1.0 0.0 1.0 0.0 1.0
0.0 1.0 0.0 1.0 0.0 1.0 0.0 1.0
0.84147096 0.54030234 0.53316844 0.8460091 0.3109836 0.9504153 0.17689219 0.9842302
0.09983342 0.9950042 0.056204494 0.9984193 0.031617507 0.99950004 0.017781857 0.99984187
0.0 1.0 0.0 1.0 0.0 1.0 0.0 1.0
0.0 1.0 0.0 1.0 0.0 1.0 0.0 1.0
0.9092974 -0.41614684 0.9021307 0.43146282 0.5911271 0.8065784 0.34820527 0.93741834
0.19866933 0.9800666 0.11223131 0.9936821 0.0632034 0.9980007 0.03555809 0.9993676
0.0 1.0 0.0 1.0 0.0 1.0 0.0 1.0
0.0 1.0 0.0 1.0 0.0 1.0 0.0 1.0
0.14112 -0.9899925 0.9932532 -0.11596616 0.8126489 0.58275366 0.50853616 0.86104065
0.29552022 0.9553365 0.1679033 0.9858035 0.09472609 0.99550337 0.053323083 0.9985773
0.0 1.0 0.0 1.0 0.0 1.0 0.0 1.0
0.0 1.0 0.0 1.0 0.0 1.0 0.0 1.0
-0.7568025 -0.6536436 0.7784717 -0.6276797 0.95358074 0.30113748 0.652828 0.7575062
0.38941836 0.921061 0.22304448 0.9748083 0.12615408 0.99201065 0.07107121 0.9974712
0.0 1.0 0.0 1.0 0.0 1.0 0.0 1.0
0.0 1.0 0.0 1.0 0.0 1.0 0.0 1.0
-0.9589243 0.2836622 0.32393527 -0.94607925 0.99994653 -0.010342338 0.77652997 0.6300803
0.47942555 0.87758255 0.2774805 0.96073127 0.15745589 0.987526 0.08879686 0.99604976
0.0 1.0 0.0 1.0 0.0 1.0 0.0 1.0
0.0 1.0 0.0 1.0 0.0 1.0 0.0 1.0
-0.2794155 0.96017027 -0.23036751 -0.9731037 0.9471482 -0.3207964 0.8757406 0.48278195
0.5646425 0.8253356 0.33103934 0.943617 0.18860029 0.98205394 0.10649444 0.9943133
0.0 1.0 0.0 1.0 0.0 1.0 0.0 1.0
0.0 1.0 0.0 1.0 0.0 1.0 0.0 1.0
0.6569866 0.75390226 -0.7137211 -0.70043 0.8004216 -0.5994375 0.9473307 0.3202569
0.64421767 0.7648422 0.38355154 0.9235195 0.21955611 0.9755999 0.12415834 0.9922624
00000000: 0000 0000 0000 803f 0000 0000 0000 803f
00000010: 0000 0000 0000 803f 0000 0000 0000 803f
00000020: 0000 0000 0000 803f 0000 0000 0000 803f
00000030: 0000 0000 0000 803f 0000 0000 0000 803f
00000040: 0000 0000 0000 803f 0000 0000 0000 803f
00000050: 0000 0000 0000 803f 0000 0000 0000 803f
00000060: 0000 0000 0000 803f 0000 0000 0000 803f
00000070: 0000 0000 0000 803f 0000 0000 0000 803f
00000080: 0000 0000 0000 803f 0000 0000 0000 803f
00000090: 0000 0000 0000 803f 0000 0000 0000 803f
000000a0: 0000 0000 0000 803f 0000 0000 0000 803f
000000b0: 0000 0000 0000 803f 0000 0000 0000 803f
000000c0: a46a 573f 4151 0a3f ba7d 083f 0d94 583f
000000d0: 3e39 9f3e 6b4e 733f 3a23 353e 83f6 7b3f
000000e0: 7775 cc3d 98b8 7e3f af36 663d 6898 7f3f
000000f0: 5c81 013d 3cdf 7f3f 42ab 913c a3f5 7f3f
00000100: 0000 0000 0000 803f 0000 0000 0000 803f
00000110: 0000 0000 0000 803f 0000 0000 0000 803f
00000120: 0000 0000 0000 803f 0000 0000 0000 803f
00000130: 0000 0000 0000 803f 0000 0000 0000 803f
00000140: b7c7 683f 3311 d5be 0af2 663f b2e8 dc3e
00000150: 1b54 173f ec7b 4e3f f647 b23e a6fa 6f3f
00000160: f96f 4b3e a5e5 7a3f 87d9 e53d f361 7e3f
00000170: c970 813d f97c 7f3f 5ca5 113d 8ed6 7f3f
00000180: 0000 0000 0000 803f 0000 0000 0000 803f
00000190: 0000 0000 0000 803f 0000 0000 0000 803f
000001a0: 0000 0000 0000 803f 0000 0000 0000 803f
000001b0: 0000 0000 0000 803f 0000 0000 0000 803f
000001c0: c381 103e 2670 7dbf d745 7e3f ab7f edbd
000001d0: c209 503f 582f 153f 6d2f 023f 296d 5c3f
000001e0: 6d4e 973e ef90 743f d8ee 2b3e 9e5d 7c3f
000001f0: c1ff c13d 4fd9 7e3f 4e69 5a3d c3a2 7f3f
00000200: 0000 0000 0000 803f 0000 0000 0000 803f
00000210: 0000 0000 0000 803f 0000 0000 0000 803f
00000220: 0000 0000 0000 803f 0000 0000 0000 803f
00000230: 0000 0000 0000 803f 0000 0000 0000 803f
00000240: cfbd 41bf 3055 27bf ec49 473f 9eaf 20bf
00000250: de1d 743f b12e 9a3e bc1f 273f edeb 413f
00000260: d861 c73e a7ca 6b3f c665 643e 098d 793f
00000270: 892e 013e 69f4 7d3f c88d 913d 465a 7f3f
00000280: 0000 0000 0000 803f 0000 0000 0000 803f
00000290: 0000 0000 0000 803f 0000 0000 0000 803f
000002a0: 0000 0000 0000 803f 0000 0000 0000 803f
000002b0: 0000 0000 0000 803f 0000 0000 0000 803f
000002c0: 107c 75bf 2c3c 913e d8da a53e 4032 72bf
000002d0: 7ffc 7f3f e972 29bc abca 463f f14c 213f
000002e0: 4477 f53e 40a9 603f ed11 8e3e 7cf2 753f
000002f0: 1e3c 213e 81ce 7c3f 21db b53d 1efd 7e3f
00000300: 0000 0000 0000 803f 0000 0000 0000 803f
00000310: 0000 0000 0000 803f 0000 0000 0000 803f
00000320: 0000 0000 0000 803f 0000 0000 0000 803f
00000330: 0000 0000 0000 803f 0000 0000 0000 803f
00000340: 8c0f 8fbe b8cd 753f 76e5 6bbe 531d 79bf
00000350: 4e78 723f 6d3f a4be 8930 603f 322f f73e
00000360: 698c 103f 3249 533f fd7d a93e e290 713f
00000370: 6f20 413e e367 7b3f c219 da3d 518b 7e3f
00000380: 0000 0000 0000 803f 0000 0000 0000 803f
00000390: 0000 0000 0000 803f 0000 0000 0000 803f
000003a0: 0000 0000 0000 803f 0000 0000 0000 803f
000003b0: 0000 0000 0000 803f 0000 0000 0000 803f
000003c0: 4630 283f bdff 403f 6db6 36bf 614f 33bf
000003d0: 6ee8 4c3f bc74 19bf 4484 723f b6f8 a33e
000003e0: 73eb 243f b3cc 433f de60 c43e c66b 6c3f
000003f0: 51d3 603e eac0 793f ba46 fe3d e904 7e3f

norm.weight f4 [32]
1.4333993 1.5570638 1.4839777 1.4194121 1.5486767 1.4697695 1.4996957 1.4865952
1.6142193 1.5124649 1.6139381 1.4813253 1.4754226 1.4933119 1.5841671 1.4774078
1.3832154 1.585902 1.6159362 1.5324922 1.5085639 1.6116462 1.590227 1.3723829
1.5342509 1.6149936 1.6425911 1.440807 1.562233 1.5414125 1.4873569 1.4769193
00000000: a179 b73f de4d c73f fbf2 bd3f 4caf b53f
00000010: 0a3b c63f 6821 bc3f 07f6 bf3f c048 be3f
00000020: bd9e ce3f 7398 c13f 8695 ce3f 119c bd3f
00000030: a6da bc3f d824 bf3f fdc5 ca3f b31b bd3f
00000040: 340d b13f d6fe ca3f ffd6 ce3f b428 c43f
00000050: 9f18 c13f 6c4a ce3f 8f8c cb3f 3eaa af3f
00000060: 5562 c43f 1cb8 ce3f 6d40 d23f 5d6c b83f
00000070: 40f7 c73f 014d c53f b661 be3f b10b bd3f

norm.bias f4 [32]
0.05848476 0.22804448 0.22114968 -0.11302019 -0.018894615 0.086089075 0.025753526 0.24657659
-0.10109526 -0.24296439 -0.06753112 0.17807825 -0.2267359 -0.2742171 -0.009260658 0.020590117
-0.3929386 0.01566699 0.21426204 0.3445553 0.039509095 0.07551046 -0.23455773 0.07713034
0.054609098 -0.35984063 0.22222532 -0.055360164 0.19801104 -0.27503878 0.23412023 -0.107622914
00000000: b78d 6f3d 7e84 693e 1075 623e 2177 e7bd
00000010: e1c8 9abc 784f b03d 0ff9 d23c 937e 7c3e
00000020: 080b cfbd a8cb 78be c14d 8abd 255a 363e
00000030: 752d 68be 2f66 8cbe 04ba 17bc 9bac a83c
00000040: 402f c9be 0f58 803c 8267 5b3e 8d69 b03e
00000050: 4ad4 213d 3aa5 9a3d e72f 70be 83f6 9d3d
00000060: caad 5f3d 083d b8be 098f 633e 57c1 62bd
00000070: 68c3 4a3e e2d1 8cbe 37bd 6f3e 6769 dcbd

patch_embeddings.weight f4 [14, 32]
0.25118244 -0.09978935 -0.39199913 -0.85521984 0.6573272 -0.019036599 0.92238533 0.08905244
0.37673056 1.1846746 -1.4077885 -0.50823957 0.18942465 -0.25762486 -0.92927223 1.5810733
1.3228385 -0.10279787 0.29821345 0.9231744 -2.0638578 0.49637336 1.5128102 0.6287284
0.0843091 -1.5590686 -1.127353 -0.366818 0.41495594 -0.7783278 1.4608302 2.4789302
-0.69341093 -0.31465262 1.0505761 0.10142019 0.1298331 1.1560065 -1.1823542 -0.33851314
-0.53107727 -0.8877422 0.5774668 -1.4393284 -1.1714188 0.6101802 -0.56681794 -0.7559771
1.673636 -0.82141703 1.3611149 -0.23430832 -1.5314105 2.0592673 2.7556088 -1.6986989
1.4509695 -1.5115743 0.8272595 -0.21100482 0.7672595 1.5066421 1.680341 -0.45952654
-0.822057 0.56068087 -0.10322746 -0.0156124635 -0.50784075 0.4912184 -0.28078794 -1.0734987
2.0705714 -0.49221194 0.26119506 0.7052391 -1.3683869 0.8923201 0.09346796 0.23477097
2.4855316 -1.2521242 1.0442312 0.5406364 -1.5884635 -1.2879968 0.6819226 -0.19496858
0.35270783 -0.35352212 0.39989474 -0.7751612 -0.4350026 -0.3607339 -0.9790924 -0.43684217
-1.6683869 -1.3808231 -0.17392753 0.96374416 0.024340833 -0.7397277 -0.26873562 0.02765437
-0.17937297 -0.13090467 0.3074556 1.3636752 0.15168846 2.536848 -0.588682 -1.9970669
-0.3678211 0.04214167 0.9106445 -1.8433491 0.1278108 0.4907345 -1.7230014 0.5766378
1.7580947 0.31672445 0.30445775 -0.65970623 -0.6854936 0.29958296 -0.6182675 -1.4670249
-2.045173 1.8469876 1.3454605 -0.49777895 1.3414685 1.684892 -0.0984741 -1.7316267
-0.030152157 0.11669661 0.9927938 0.67450714 0.30039403 -0.7115926 0.7575531 0.88738334
2.225708 0.9969017 -1.4837381 -0.2464932 -0.057211697 -0.26685205 -0.62486583 1.1167979
-0.98870003 0.16725887 1.2515734 -0.26909196 -1.0987681 -0.70227516 1.5539378 -0.6992787
-0.8892862 0.071461916 -0.05980095 2.359961 -2.6954565 0.5183704 -0.856749 -0.26284644
-0.0003189828 2.0338132 -0.16094555 -0.25622842 -1.2991499 -0.098043256 -1.8652933 -1.3766011
-0.33771604 -1.179141 0.06283693 0.21698382 0.7823285 0.8531009 -1.7156487 1.2750857
0.95493513 1.0643684 0.62252134 -1.247314 -0.650104 2.1099465 0.5394657 1.2159057
0.2228725 -0.35041288 1.8561403 1.4091774 1.1112982 -0.66394824 -0.4947795 0.5996691
0.013209674 -1.6734333 1.0519439 0.47843048 -1.2362361 -0.96265244 -0.120762266 0.13595405
0.26260063 -0.7055741 -0.36567426 -0.47895554 0.589653 0.64457333 1.2268105 0.7878724
0.47497076 0.8717961 -0.2301082 -0.77127534 -0.5774272 0.3526359 -0.5223637 -0.3477406
-0.6251992 -0.20538592 -0.00595012 -0.3003009 -0.07332204 0.77448696 0.010458178 -0.41188955
0.8425843 -1.5134572 0.62042123 -1.9150153 -0.9759324 0.10095303 -0.4401401 -0.45595613
1.4663931 0.030294491 -0.73211306 -1.1605251 0.5152624 -0.22593622 -0.01095056 -0.8264486
-0.34237242 0.23769693 -0.9402239 -1.2326657 1.1081592 -1.9685413 -0.57911986 1.099215
00000000: fc9a 803e 5c5e ccbd 1cb4 c8be b0ef 5abf
00000010: 9846 283f a4f2 9bbc 7221 6c3f 2061 b63d
00000020: d4e2 c03e 6ba3 973f 6a32 b4bf fd1b 02bf
00000030: 89f8 413e 68e7 83be c9e4 6dbf 9c60 ca3f
00000040: c652 a93f b187 d2bd 6faf 983e 2855 6c3f
00000050: 3f16 04c0 a624 fe3e c4a3 c13f 58f4 203f
00000060: 40aa ac3d 8f8f c7bf 1a4d 90bf 92cf bbbe
00000070: 1b75 d43e 7e40 47bf 7cfc ba3f cba6 1e40
00000080: 6183 31bf 261a a1be 4779 863f 63b5 cf3d
00000090: f8f2 043e 05f8 933f 6257 97bf 9851 adbe
000000a0: aef4 07bf 1343 63bf ddd4 133f ea3b b8bf
000000b0: 0df1 95bf c534 1c3f fb1a 11bf b787 41bf
000000c0: b439 d63f 6348 52bf 0339 ae3f 85ee 6fbe
000000d0: 4205 c4bf 09cb 0340 e55b 3040 f76e d9bf
000000e0: 5eb9 b93f 447b c1bf 47c7 533f a611 58be
000000f0: 1e6b 443f a6d9 c03f 6a15 d73f 1047 ebbe
00000100: 5472 52bf c888 0f3f eb68 d3bd 6bcb 7fbc
00000110: da01 02bf fa80 fb3e 70c3 8fbe 6868 89bf
00000120: 3e84 0440 3403 fcbe 5cbb 853e 8d8a 343f
00000130: 4d27 afbf 176f 643f 216c bf3d cd67 703e
00000140: f312 1f40 9b45 a0bf 5ea9 853f 2667 0a3f
00000150: c652 cbbf 14dd a4bf 7b92 2e3f d8a5 47be
00000160: 1f96 b43e da00 b5be 01bf cc3e f770 46bf
00000170: a9b8 debe 1db2 b8be cda5 7abf c7a9 dfbe
00000180: b48d d5bf d0be b0bf 0f1a 32be f0b7 763f
00000190: 6d66 c73c cb5e 3dbf b797 89be 6b8b e23c
000001a0: 8cad 37be e00b 06be d26a 9d3e e98c ae3f
000001b0: 3854 1b3e b85b 2240 ddb3 16bf e39f ffbf
000001c0: 0c53 bcbe be9c 2c3d ff1f 693f ddf2 ebbf
000001d0: d6e0 023e 8d41 fb3e 4f8b dcbf 899e 133f
000001e0: 3f09 e13f b529 a23e e3e1 9b3e 82e2 28bf
000001f0: 827c 2fbf f062 993e c746 1ebf 79c7 bbbf
00000200: 1de4 02c0 176a ec3f 0d38 ac3f e2dc febe
00000210: 3db5 ab3f 8baa d73f caac c9bd f2a5 ddbf
00000220: a801 f7bc a2fe ee3d bc27 7e3f 80ac 2c3f
00000230: 3fcd 993e ef2a 36bf 00ef 413f 8e2b 633f
00000240: 0072 0e40 f334 7f3f 21eb bdbf b768 7cbe
00000250: d056 6abd d5a0 88be 35f7 1fbf 3cf3 8e3f
00000260: 721b 7dbf e945 2b3e 8f33 a03f 6cc6 89be
00000270: 6fa4 8cbf 4ec8 33bf 6fe7 c63f ee03 33bf
00000280: 43a8 63bf a05a 923d d7f1 74bd 9a09 1740
00000290: 5c82 2cc0 ecb3 043f e753 5bbf cf93 86be
000002a0: 263d a7b9 ff29 0240 e9ce 24be 5f30 83be
000002b0: 8b4a a6bf e7ca c8bd eec1 eebf 7734 b0bf
000002c0: 1ee9 acbe 18ee 96bf a6b0 803d 0231 5e3e
000002d0: ae46 483f d264 5a3f 609a dbbf 0236 a33f
000002e0: a176 743f 393d 883f 8f5d 1f3f fca7 9fbf
000002f0: 376d 26bf 5d09 0740 6d1a 0a3f cca2 9b3f
00000300: b038 643e 5169 b3be 0196 ed3f ed5f b43f
00000310: 053f 8e3f 83f8 29bf bd53 fdbe ea83 193f
00000320: 636d 583c 1033 d6bf 19a6 863f d7f4 f43e
00000330: fc3c 9ebf 6470 76bf 3552 f7bd 8a37 0b3e
00000340: 9773 863e 81a0 34bf a839 bbbe a939 f5be
00000350: 80f3 163f c202 253f 2008 9d3f 01b2 493f
00000360: 5e2f f33e 072e 5f3f 7ca1 6bbe 4d72 45bf
00000370: 45d2 13bf b18c b43e a1b9 05bf 0e0b b2be
00000380: 0e0d 20bf b050 52be 39f9 c2bb 0ac1 99be
00000390: de29 96bd c744 463f c758 2b3c 30e3 d2be
000003a0: 9bb3 573f f7b8 c1bf edd3 1e3f 391f f5bf
000003b0: b5d6 79bf 76c0 ce3d 0b5a e1be 1573 e9be
000003c0: c5b2 bb3f 272c f83c c36b 3bbf 168c 94bf
000003d0: 3de8 033f d35b 67be fa69 33bc 2392 53bf
000003e0: 704b afbe d366 733e 83b2 70bf fdc7 9dbf
000003f0: 29d8 8d3f 29f9 fbbf 3341 14bf 14b3 8c3f

blocks.0.norm1.weight f4 [32]
1.0584375 1.058813 1.0217096 1.0060252 1.0007962 1.0110431 1.0652493 1.0209758
1.0592291 0.9996875 0.99429256 1.0185965 0.9956146 1.0261818 1.0315298 1.0152627
0.9913412 1.0162446 0.9923448 0.9831308 1.0591028 1.030802 1.1036007 1.0352069
1.010894 1.0332342 1.0045228 0.9930492 1.0222427 1.031846 1.0197543 1.0054996
00000000: e17a 873f 2f87 873f 61c7 823f 6fc5 803f
00000010: 171a 803f dc69 813f 175a 883f 56af 823f
00000020: d294 873f 85eb 7f3f f589 7e3f 5f61 823f
00000030: 99e0 7e3f ed59 833f 2b09 843f 21f4 813f
00000040: 89c8 7d3f 4e14 823f 4f0a 7e3f 76ae 7b3f
00000050: ae90 873f 52f1 833f ca42 8d3f a981 843f
00000060: f964 813f 0541 843f 3494 803f 7938 7e3f
00000070: d9d8 823f 8813 843f 4f87 823f 36b4 803f

blocks.0.norm1.bias f4 [32]
-0.0036587273 -0.0156829 -0.027080724 -0.0009333598 0.0012059563 0.006421725 -0.010737204 -0.021539811
-0.0038168689 0.0023670148 0.012939431 -0.009346776 0.0055682887 -0.011441645 0.003380511 0.0043521198
-0.008832618 0.019039415 -0.015042154 0.0008600216 -0.009606696 -0.00060686754 0.001012047 -0.020957986
-0.008334796 0.022498142 -0.0034690571 0.018180309 0.029152017 0.0139127355 0.010791101 0.0077137556
00000000: 42c7 6fbb 6d79 80bc 65d8 ddbc b7ac 74ba
00000010: 2e11 9e3a 556d d23b 19eb 2fbc 4274 b0bc
00000020: 6f24 7abb eb1f 1b3b e8ff 533c 3823 19bc
00000030: 3176 b63b bd75 3bbc 908b 5d3b 3a9c 8e3b
00000040: afb6 10bc 8cf8 9b3c 5e73 76bc 1373 613a
00000050: 6765 1dbc 3116 1fba aaa6 843a 15b0 abbc
00000060: ab8e 08bc 064e b83c 1f59 63bb dfee 943c
00000070: 36d0 ee3c 3ef2 633c 28cd 303c acc3 fc3b

blocks.0.attn.qkv.weight f4 [96, 32]
0.103744075 -0.114036225 -0.06144709 0.009917765 0.096715875 -0.0712372 0.05299686 -0.15319625
0.10096483 -0.035795875 -0.16836388 0.06798112 0.012265029 0.021378413 -0.019531913 -0.16825029
-0.17439015 0.07558074 0.16326456 0.105615325 -0.015656814 0.10440029 0.05282312 -0.078730546
-0.17022802 -0.0029296274 0.013268571 0.012495436 -0.07820803 0.10669327 -0.08788317 -0.0899172
0.014664278 -0.1508938 0.025858384 0.1124882 0.065964215 -0.1341837 -0.026991978 0.07496422
-0.19784737 0.07318578 0.0788568 0.10160434 -0.109217815 -0.18062079 0.037736133 -0.07441691
-0.067946084 -0.21064728 -0.18469979 0.15923952 0.25425658 -0.24188174 -0.21555991 0.01875217
-0.021599595 -0.17044671 -0.17977619 0.060695358 -0.20054041 -0.040786404 0.0556047 0.16331452
0.038577303 0.15494013 0.09145828 0.0034691442 0.21204843 0.19852069 0.023442348 -0.07184385
-0.08122236 -0.17766738 0.06900631 0.076008566 0.20272662 0.012669471 0.053973064 0.120715864
-0.009689476 0.09137408 -0.015785586 0.050630573 0.12744473 0.04285489 -0.041640636 -0.18259493
-0.08223632 0.011687358 0.04147464 0.04863076 0.22485255 -0.01908767 -0.037286576 0.00731366
-0.19474365 0.00097431475 -0.118385084 -0.034290586 0.061049506 -0.17900547 -0.0016397508 0.05077635
0.09424432 0.078347474 -0.06999204 -0.122445635 0.07095494 0.115893975 -0.18519747 -0.17541075
0.09687264 -0.18255243 -0.117309414 -0.13450517 -0.15813282 -0.12209536 0.05255236 0.11650531
-0.14923546 -0.15053874 -0.077862374 -0.09642191 0.10443618 -0.11187701 -0.07289674 0.15446645
0.07290187 0.03640448 -0.12308425 -0.15767308 -0.10369563 0.23794337 -0.23088546 0.056168687
0.08827786 0.07141822 -0.02929233 -0.1119192 -0.092232585 -0.0070655937 -0.07918009 0.21466224
-0.09914773 -0.06861648 -0.16026473 0.045933396 0.09757107 0.24460164 0.024790788 -0.17465234
-0.022001477 -0.008007772 -0.06444848 -0.15734196 0.14176624 0.02320286 -0.0024481693 0.15371849
0.24450523 0.20182036 -0.11536794 0.01513034 -0.119792834 0.021800522 0.08220207 -0.109169185
-0.096489266 -0.040087607 0.058803122 -0.014526245 -0.1540222 -0.042377535 0.2094034 0.035197392
-0.26680145 0.13138135 -0.1460954 -0.20638838 -0.10178966 0.23920439 0.081705235 -0.13380882
0.12799957 0.11898908 0.17517795 0.17102477 0.17428175 -0.15167497 0.06490526 -0.042172253
-0.099309094 0.1547553 0.1544164 -0.045102783 -0.13589835 -0.14726886 0.19837597 -0.10564186
0.007872387 0.12287377 0.13562185 0.062292896 -0.010089255 0.21156438 -0.09048737 -0.15854877
-0.10020289 0.12463618 0.08233954 0.17423058 0.08293318 -0.0149884 0.06221496 -0.047874846
-0.19992264 -0.067623615 0.22037147 0.103886314 0.07569924 -0.044893693 -0.014340531 -0.17257538
0.11444014 0.18864827 -0.13807602 -0.1337701 -0.036922984 0.08779918 -0.12781382 0.07388466
0.16570546 0.028706329 -0.10500793 0.15384091 -0.10850379 0.050692596 0.20588176 0.096749276
-0.10393078 -0.07965278 -0.08949981 -0.070572436 -0.17553699 0.18689707 0.22157873 -0.0824287
-0.07584236 -0.09345769 0.15960927 -0.023387529 -0.06808687 0.09397563 0.069246985 0.17345642
00000000: c677 d43d d38b e9bd f2af 7bbd 1f7e 223c
00000010: f912 c63d cfe4 91bd 3c13 593d 7adf 1cbe
00000020: a6c6 ce3d b29e 12bd 9567 2cbe af39 8b3d
00000030: 43f3 483c c821 af3c 6401 a0bc ce49 2cbe
00000040: 5593 32be 13ca 9a3d d32e 273e d94c d83d
00000050: b842 80bc d2cf d53d 0e5d 583d 7b3d a1bd
00000060: 4150 2ebe fefe 3fbb 6c64 593c a8b9 4c3c
00000070: 882b a0bd 0082 da3d 17fc b3bd 8226 b8bd
00000080: 7142 703c e883 1abe f6d4 d33c 3760 e63d
00000090: 3f18 873d 7467 09be 481e ddbc d786 993d
000000a0: 8098 4abe 6de2 953d ad7f a13d f015 d03d
000000b0: 97ad dfbd a8f4 38be 3491 1a3d e567 98bd
000000c0: 5127 8bbd ecb3 57be f121 3dbe af0f 233e
000000d0: eb2d 823e d9af 77be bdbb 5cbe 279e 993c
000000e0: a2f1 b0bc 9589 2ebe 4017 38be b29b 783d
000000f0: 775a 4dbe a50f 27bd c1c1 633d ec3b 273e
00000100: 3c03 1e3d a0a8 1e3e 7b4e bb3d 955a 633b
00000110: 3923 593e 0249 4b3e 2b0a c03c de22 93bd
00000120: e957 a6bd 70ee 35be 2e53 8d3d 61aa 9b3d
00000130: 9197 4f3e 9d93 4f3c dc12 5d3d e139 f73d
00000140: 9cc0 1ebc 5522 bb3d c650 81bc 0162 4f3d
00000150: df80 023e 9c88 2f3d 5f8f 2abd 2afa 3abe
00000160: 846b a8bd 557c 3f3c 50e1 293d 0c31 473d
00000170: bf3f 663e bf5d 9cbc cfb9 18bd 6da7 ef3b
00000180: e16a 47be 2869 7f3a e173 f2bd 4974 0cbd
00000190: 0c0f 7a3d 364d 37be e8ec d6ba ddfa 4f3d
000001a0: 2b03 c13d a474 a03d fd57 8fbd c7c4 fabd
000001b0: d350 913d d259 ed3d 68a4 3dbe e09e 33be
000001c0: 2a65 c63d 06ef 3abe eb3f f0bd b9bb 09be
000001d0: 92ed 21be 220d fabd 2541 573d 569a ee3d
000001e0: 2ed1 18be d426 1abe 4f76 9fbd da78 c5bd
000001f0: a3e2 d53d c61f e5bd e34a 95bd 742c 1e3e
00000200: 934d 953d dd1c 153d 9813 fcbd 0d75 21be
00000210: 605e d4bd 6da7 733e 3d6d 6cbe 2311 663d
00000220: 06cb b43d b743 923d 78f6 efbc e535 e5bd
00000230: 70e4 bcbd 7f86 e7bb 2c29 a2bd 6bd0 5b3e
00000240: f70d cbbd cc86 8cbd 701c 24be a824 3c3d
00000250: 57d3 c73d da78 7a3e 0d16 cb3c 10d8 32be
00000260: 713c b4bc 0833 03bc 91fd 83bd 401e 21be
00000270: 2b2b 113e ed13 be3c 7771 20bb 6168 1d3e
00000280: 945f 7a3e ffa9 4e3e 0746 ecbd 3fe5 773c
00000290: f255 f5bd 0297 b23c 8f59 a83d 1894 dfbd
000002a0: 2a9c c5bd e732 24bd 8bdb 703d 7dff 6dbc
000002b0: ffb7 1dbe 1194 2dbd d86d 563e 242b 103d
000002c0: 339a 88be d588 063e 089a 15be 7a57 53be
000002d0: 1977 d0bd fff1 743e 1355 a73d 2e05 09be
000002e0: 5212 033e 8cb0 f33d d961 333e 1e21 2f3e
000002f0: ea76 323e af50 1bbe 0ded 843d d0bc 2cbd
00000300: 9162 cbbd 2c78 1e3e 551f 1e3e b2bd 38bd
00000310: f028 0bbe a6cd 16be 1223 4b3e c25a d8bd
00000320: 2ffb 003c 3ea5 fb3d 74e0 0a3e d626 7f3d
00000330: 674d 25bc 55a4 583e 7151 b9bd 9c5a 22be
00000340: 2c37 cdbd 4141 ff3d a2a1 a83d 8069 323e
00000350: dfd8 a93d e891 75bc 1dd5 7e3d 6a18 44bd
00000360: 85b8 4cbe 407e 8abd 0fa9 613e 59c2 d43d
00000370: 3408 9b3d 73e2 37bd 8cf4 6abc 9ab7 30be
00000380: 985f ea3d 032d 413e cd63 0dbe 07fb 08be
00000390: 8e3c 17bd 0ed0 b33d a0e1 02be d750 973d
000003a0: b1ae 293e 8929 eb3c 660e d7bd 7988 1d3e
000003b0: 3c37 debd 0aa3 4f3d abd2 523e 7c24 c63d
000003c0: a9d9 d4bd ff20 a3bd ad4b b7bd 4888 90bd
000003d0: f8bf 33be f261 3f3e 89e5 623e 61d0 a8bd
000003e0: 3d53 9bbd bf66 bfbd 9d70 233e 3497 bfbc
000003f0: 2171 8bbd 4c76 c03d 5dd1 8d3d 8f9e 313e

blocks.0.attn.proj.weight f4 [32, 32]
0.1131604 -0.032383066 -0.025246548 -0.09728629 0.05698504 -0.058190268 -0.0809146 0.003920744
0.0054396354 -0.04044202 -0.070013344 -0.19135086 -0.10731503 0.11449951 0.13256401 -0.110878125
-0.161642 -0.12407978 -0.020381212 0.078252606 -0.16430116 -0.13192001 -0.055858262 -0.108341
0.12676013 -0.041642044 0.01948391 -0.1331026 -0.16105118 -0.18440127 -0.053427096 -0.16671707
-0.052688204 0.07295992 -0.018760446 0.007965152 0.13344374 0.11257556 -0.07999068 0.026160048
0.09844772 -0.088023745 0.04646565 0.18717895 -0.17176904 0.08037681 -0.053054377 0.08422821
0.03013351 0.11390632 -0.051163528 0.18209776 0.16907635 0.1325822 0.16219945 0.0882277
-0.17846134 0.11507609 -0.044914402 0.09379816 0.13677321 -0.06516022 -0.0894076 -0.03416478
0.14584574 0.07260656 -0.13707103 0.09396762 -0.09878332 0.122737475 0.015561739 0.14464727
0.003589723 0.057094064 0.022675509 -0.12604463 0.14130037 0.08965011 -0.02265412 0.034735166
-0.08404749 0.08621521 0.12348327 -0.0879212 -0.15863547 -0.050265703 -0.10946869 -0.094230816
-0.12677146 -0.022129303 0.030250112 0.040204916 -0.15415266 -0.18754868 0.14119866 -0.062609375
0.008502206 -0.1402414 -0.0589201 0.10058834 -0.081722885 -0.041363835 -0.16049203 0.1684967
0.023116095 0.09347958 -0.10387989 0.14050892 -0.024133814 -0.093001455 0.042648714 0.0063343677
0.056787144 -0.0759435 -0.071683615 0.11553711 0.15155853 0.04053555 0.08540752 -0.11139075
0.03542187 -0.14248674 0.0093011195 0.010287258 -0.040148005 -0.027140396 -0.0066254535 0.015795534
0.027525704 -0.06675048 -0.11389369 0.020360438 0.0945177 -0.028534548 0.02686401 -0.048110545
-0.088746555 0.10322732 -0.09392596 0.14083293 0.090606466 -0.081725664 -0.057581525 0.043490198
0.02619002 -0.14402272 0.02718022 -0.12623493 -0.011153034 -0.06760016 -0.13204779 -0.17549843
0.12041962 -0.030659614 -0.050109796 -0.104330614 0.07161501 0.095599346 -0.0074469573 0.02777687
-0.124441765 -0.12784815 0.1779004 -0.081085145 -0.016465193 0.17497675 0.064514235 -0.119068526
0.13183288 0.043501325 -0.14997447 0.1802259 -0.021953955 0.13658504 0.12404701 -0.14213729
0.035054352 -0.071234934 0.029592833 -0.03952071 0.14101557 -0.092525125 -0.095031366 0.0040517948
-0.01876613 0.024314024 -0.029161846 -0.11356834 -0.10364079 -0.054308735 0.068470865 -0.13635664
0.06002068 -0.0496555 0.1584565 0.04830358 -0.026257992 0.12471568 0.003507474 0.17724857
-0.117338076 0.050298173 -0.07845628 0.089812845 0.011569149 -0.04103686 0.12052284 -0.14356048
0.05032425 -0.003789816 0.0005884538 0.037980203 -0.039163165 -0.18444255 0.18253559 -0.08007858
-0.0083290255 -0.0074073803 0.07528266 -0.030959493 0.025205636 -0.020234315 0.09712279 0.002856746
-0.048820622 -0.034625746 0.042676073 -0.055785388 -0.12718336 0.18476696 -0.14258543 0.094633095
-0.058073875 0.041911796 -0.11781603 -0.12196775 -0.050833352 0.08389894 0.06254476 0.025388021
-0.04252922 0.19114584 -0.03420533 -0.029396966 0.16295998 0.032330453 -0.17536311 -0.13297746
-0.115214884 -0.13101925 -0.1629719 0.13789219 0.12749581 -0.09950057 -0.046097618 0.07151671
00000000: a4c0 e73d 1ba4 04bd d9d1 cebc 093e c7bd
00000010: 2569 693d eb58 6ebd 8eb6 a5bd 9679 803b
00000020: f83e b23b 88a6 25bd 2863 8fbd 7bf1 43be
00000030: fcc7 dbbd b87e ea3d dcbe 073e 1214 e3bd
00000040: 7b85 25be 8a1d febd 80f6 a6bc e742 a03d
00000050: 903e 28be 0a16 07be a2cb 64bd e3e1 ddbd
00000060: 68cd 013e d990 2abd b99c 9f3c 0c4c 08be
00000070: 9aea 24be b0d3 3cbe 5fd6 5abd e1b7 2abe
00000080: 96cf 57bd 036c 953d 82af 99bc 4580 023c
00000090: 7aa5 083e 048e e63d 27d2 a3bd 994d d63c
000000a0: f59e c93d cb45 b4bd c452 3e3d d7ab 3f3e
000000b0: 39e4 2fbe 999c a43d 8c4f 59bd d77f ac3d
000000c0: 8dda f63c b747 e93d d990 51bd d677 3a3e
000000d0: 5a22 2d3e a1c3 073e 9d17 263e b9b0 b43d
000000e0: 92be 36be 03ad eb3d 2af8 37bd 4019 c03d
000000f0: 470e 0c3e b972 85bd 551b b7bd 5ef0 0bbd
00000100: 9658 153e c0b2 943d 595c 0cbe 1872 c03d
00000110: e94e cabd c95d fb3d aaf6 7e3c 6a1e 143e
00000120: 8f41 6b3b 77db 693d fdc1 b93c d811 01be
00000130: 0bb1 103e 7a9a b73d 2295 b9bc 7646 0e3d
00000140: 1721 acbd 9a91 b03d cce4 fc3d 0810 b4bd
00000150: 5671 22be 69e3 4dbd 1f31 e0bd 16fc c0bd
00000160: 61d0 01be 8348 b5bc 15cf f73c e9ad 243d
00000170: 32da 1dbe c30c 40be 6296 103e 5839 80bd
00000180: d64c 0b3c 719b 0fbe 3456 71bd 4201 ce3d
00000190: 545e a7bd 206d 29bd 0658 24be 668a 2c3e
000001a0: f75d bd3c 3972 bf3d fbbe d4bd 92e1 0f3e
000001b0: 47b4 c5bc 8c77 bebd 6bb0 2e3d 8790 cf3b
000001c0: a399 683d 4488 9bbd dcce 92bd b89e ec3d
000001d0: 2932 1b3e 9b08 263d 23ea ae3d d520 e4bd
000001e0: 8616 113d 0be8 11be b963 183c e38b 283c
000001f0: 3c72 24bd 8955 debc 551a d9bb a365 813c
00000200: 967d e13c 7ab4 88bd 1841 e9bd efca a63c
00000210: 7f92 c13d 49c1 e9bc ea11 dc3c 900f 45bd
00000220: c1c0 b5bd d868 d33d 415c c0bd 8236 103e
00000230: e28f b93d c95f a7bd 9bda 6bbd c722 323d
00000240: 748c d63c b17a 13be 0da9 de3c bb43 01be
00000250: 37bb 36bc f471 8abd 8937 07be dcb5 33be
00000260: 909e f63d df29 fbbc ee3f 4dbd 4aab d5bd
00000270: e4aa 923d 97c9 c33d 9b05 f4bb 528c e33c
00000280: 53db febd a0ea 02be 862b 363e f80f a6bd
00000290: 03e2 86bc 1b2d 333e 0a20 843d 33da f3bd
000002a0: 33ff 063e 722e 323d e892 19be 238d 383e
000002b0: c8d8 b3bc f3dc 0b3e 5c0c fe3d 708c 11be
000002c0: 2795 0f3d 9fe3 91bd ab6c f23c 78e0 21bd
000002d0: 6366 103e d07d bdbd ce9f c2bd ebc4 843b
000002e0: 6dbb 99bc 342e c73c d3e4 eebc 8596 e8bd
000002f0: 9f41 d4bd d672 5ebd 743a 8c3d 13a1 0bbe
00000300: 3fd8 753d 9163 4bbd 6c42 223e fad9 453d
00000310: 001b d7bc ef6a ff3d a6dd 653b a680 353e
00000320: f24e f0bd 7505 4e3d b0ad a0bd ccef b73d
00000330: 878c 3d3c 4416 28bd aed4 f63d 8501 13be
00000340: cd20 4e3d 905e 78bb 7742 1a3a 2191 1b3d
00000350: 8e69 20bd 82de 3cbe 9cea 3a3e 3d00 a4bd
00000360: 7776 08bc 9cb9 f2bb cc2d 9a3d c39e fdbc
00000370: 0d7c ce3c 6fc2 a5bc 50e8 c63d 3f38 3b3b
00000380: 22f8 47bd bad3 0dbd 1bcd 2e3d 387f 64bd
00000390: 5b3c 02be 8d33 3d3e ea01 12be ffce c13d
000003a0: dfde 6dbd b4ab 2b3d 8849 f1bd 3aca f9bd
000003b0: a236 50bd 35d3 ab3d 7817 803d 8afa cf3c
000003c0: 1f33 2ebd bcbb 433e e31a 0cbd e8d1 f0bc
000003d0: fbde 263e f06c 043d 6392 33be 3e2b 08be
000003e0: c8f5 ebbd e929 06be 1be2 26be 9c33 0d3e
000003f0: 438e 023e f4c6 cbbd dbd0 3cbd 5a77 923d

blocks.0.attn.proj.bias f4 [32]
-0.0567383 0.07492533 0.09953692 -0.08260632 0.051643863 0.107702926 -0.11430369 0.12010921
-0.09072355 -0.085010506 0.09335856 -0.04523678 0.030489825 0.10675147 -0.060294446 -0.051356122
-0.13849135 0.08682632 0.037185393 0.16575815 0.12020236 0.04526495 0.034103774 0.1471226
-0.13923262 -0.13820544 0.15353993 -0.052033186 0.046804465 -0.05215979 -0.14176323 -0.1318464
00000000: 6b66 68bd 7472 993d 03da cb3d 812d a9bd
00000010: 8488 533d 5a93 dc3d 0e18 eabd d1fb f53d
00000020: 45cd b9bd fd19 aebd c632 bf3d 344a 39bd
00000030: ccc5 f93c 84a0 da3d 4ff7 76bd cc5a 52bd
00000040: add0 0dbe ffd1 b13d b64f 183d 81bc 293e
00000050: a82c f63d bd67 393d 66b0 0b3d 4fa7 163e
00000060: ff92 0ebe ba85 0dbe 9239 1d3e c020 55bd
00000070: 0ab6 3f3d 81a5 55bd 612a 11be be02 07be

blocks.0.norm2.weight f4 [32]
1.0030516 0.99641085 0.97234994 0.9937017 0.98801893 0.9745512 0.9386176 0.9935928
1.0358644 0.98450524 1.0095123 1.0079083 1.0182811 1.017366 1.0035604 1.0377337
1.0124224 0.9989273 0.9886341 0.9252867 0.97733843 0.96728814 1.0067548 0.97181135
0.9829378 1.037129 1.0246794 1.0221186 0.98568267 1.0037873 1.0227021 0.9905955
00000000: ff63 803f c814 7f3f edeb 783f 3c63 7e3f
00000010: cfee 7c3f 307c 793f 3e49 703f 195c 7e3f
00000020: 3497 843f 8908 7c3f b337 813f 2403 813f
00000030: 0957 823f 0d39 823f ab74 803f 75d4 843f
00000040: 0f97 813f b3b9 7f3f 2017 7d3f 97df 6c3f
00000050: da32 7a3f 32a0 773f 57dd 803f a1c8 783f
00000060: d0a1 7b3f a5c0 843f b228 833f c8d4 823f
00000070: b355 7c3f 1a7c 803f e7e7 823f ab97 7d3f

blocks.0.norm2.bias f4 [32]
0.009448024 0.0038147941 0.005532156 0.023865143 -0.042286757 -0.025013799 0.026303845 0.00695723
0.018117461 0.024242442 0.003149025 -0.0012636735 -0.00261879 0.01299187 0.006349511 0.009967677
0.0016178146 -0.00244293 0.007886102 0.058968373 0.01478263 -0.0023706483 -0.011630402 0.04221105
-0.0146231735 0.008507877 0.0073352484 0.0017878022 -0.008867658 -0.0014807557 -0.013525317 -0.05367511
00000000: e3cb 1a3c a001 7a3b 1747 b53b d580 c33c
00000010: e134 2dbd bde9 ccbc 297b d73c 7af9 e33b
00000020: 126b 943c 1698 c63c df5f 4e3b d9a1 a5ba
00000030: 01a0 2bbb dadb 543c 8f0f d03b 784f 233c
00000040: da0c d43a 9019 20bb b634 013c d288 713d
00000050: d832 723c e15c 1bbb 718d 3ebc 7ee5 2c3d
00000060: 0996 6fbc 9f64 0b3c 865c f03b b054 ea3a
00000070: a749 11bc eb15 c2ba 4b99 5dbc 6fda 5bbd

blocks.0.mlp.fc1.weight f4 [128, 32]
0.021093642 -0.012148857 0.07617016 -0.14394565 -0.009939237 0.0059959767 -0.11852102 0.20311402
-0.04988565 -0.0007218461 0.101557165 -0.1604694 -0.19670828 0.09224587 0.15684018 -0.13255665
-0.14174855 0.1647566 0.1411668 0.1721801 -0.037480507 -0.04074308 0.08083642 -0.0214291
0.1523416 -0.09974838 0.1618329 0.11875423 0.0450051 0.16348776 -0.06434028 -0.031140111
0.10367471 0.18966807 0.10191665 0.08980612 -0.15624313 -0.15544309 -0.053350292 -0.089469895
0.18117207 0.06346956 0.07471689 0.026718866 0.123222 -0.17551477 -0.06607922 0.15421383
0.031397734 -0.11748762 0.13264783 0.10940937 -0.02320228 0.060228277 0.19392693 -0.0021950884
-0.014420235 0.10179095 -0.027102608 0.107424 -0.09522618 0.006602247 0.15023014 0.07297661
-0.1322298 0.05182264 0.108775765 -0.14078748 0.1646321 0.023359168 -0.16290092 -0.14324714
0.14545973 0.14151819 -0.028777337 -0.047631666 0.05060154 0.079162456 -0.006933599 0.15425704
-0.11761086 0.15936445 -0.14042209 0.019463755 0.01956809 -0.017340915 0.068034545 -0.13026673
0.0424479 -0.02181219 0.15541089 -0.106121205 -0.13871361 -0.12232024 -0.050386734 -0.10774405
0.12443476 -0.06739774 0.12605733 -0.09867001 0.1585596 0.14957324 -0.13594589 0.15668601
-0.004583324 0.1047149 -0.057564143 0.13114913 -0.034170534 -0.0046695773 -0.03514294 0.068369426
0.033008594 -0.15461712 0.008141531 0.05543106 0.05226405 -0.087623835 0.055579543 0.0019543064
0.10987731 0.12444901 0.021214735 -0.102457836 0.11162982 0.05894092 0.05777294 -0.03978713
0.056015477 -0.07460719 -0.17803185 0.16908602 0.040185135 0.13075918 -0.17298418 -0.03883788
-0.041699804 0.14112471 0.02903077 -0.09495645 -0.14851828 0.09789051 0.1742955 0.0708628
0.15238807 -0.18407637 0.1396953 -0.009510675 -0.060226884 -0.17495002 0.05400735 0.093916416
0.10030278 0.07815015 -0.024156934 -0.052867297 -0.08359409 0.07734462 0.047085043 0.118053816
0.034091935 0.09953313 -0.055740178 -0.1905824 0.0040277895 0.09360444 -0.1518685 0.0690827
0.049606353 0.055967875 0.009790262 -0.11742149 -0.15409268 0.03508448 0.060922336 0.068613164
0.14554514 -0.07401999 -0.082247876 -0.10103959 0.13564773 0.021051263 -0.14415917 0.0872023
-0.16816787 -0.14378768 -0.14054912 0.08719039 0.018610608 0.18080756 0.032516122 -0.06821783
-0.084814765 0.1289997 0.02959151 -0.16578418 0.015838917 0.11762179 -0.055990137 0.073496416
-0.10264377 0.0895031 0.05523315 0.13276254 0.16208954 0.004202414 -0.0151269995 -0.1084971
0.034358438 0.080103114 -0.14927205 0.08398372 0.15615371 -0.022883398 0.09294413 -0.09030491
0.028522432 -0.14914788 0.07823788 0.14988187 -0.095623806 -0.13259538 0.10505872 0.016982293
-0.077051654 -0.11822741 0.1842678 -0.06334393 0.122857064 -0.024900896 -0.012748296 -0.08201325
-0.044816773 0.0042903298 0.16375105 0.19509105 -0.032727726 0.13525368 0.12253543 0.004764186
0.092448875 0.06004972 0.039438345 -0.052798476 -0.022899022 -0.05498609 0.043398276 -0.033839256
0.03664943 0.1399096 0.09776187 0.0065482073 -0.17326389 -0.060571417 -0.062009938 -0.11124465
00000000: 93cc ac3c 000c 47bc 1aff 9b3d 7d66 13be
00000010: 2ed8 22bc e679 c43b 26bb f2bd 1ffd 4f3e
00000020: e554 4cbd 463a 3dba 34fd cf3d 1752 24be
00000030: e56d 49be 67eb bc3d b69a 203e eebc 07be
00000040: 8826 11be f4b5 283e 088e 103e fb4f 303e
00000050: 2985 19bd 37e2 26bd 918d a53d 148c afbc
00000060: 70ff 1b3e e148 ccbd 86b7 253e 6b35 f33d
00000070: 4557 383d 5669 273e d6c4 83bd 8c19 ffbc
00000080: 6853 d43d 5938 423e adb9 d03d 45ec b73d
00000090: 33fe 1fbe 792c 1fbe d685 5abd fe3b b7bd
000000a0: 2c85 393e 54fc 813d 2b05 993d 86e1 da3c
000000b0: d15b fc3d 25ba 33be 8b54 87bd 3bea 1d3e
000000c0: e99a 003d 599d f0bd d5d4 073e 0512 e03d
000000d0: b512 bebc edb1 763d c894 463e 79db 0fbb
000000e0: d942 6cbc c677 d03d 4a06 debc 1d01 dc3d
000000f0: f205 c3bd a957 d83b eed5 193e c374 953d
00000100: 4067 07be fa43 543d d4c5 de3d 982a 10be
00000110: 5195 283e ba5b bf3c 80cf 26be 61af 12be
00000120: 65f3 143e 25ea 103e 73be ebbc 6c19 43bd
00000130: 8f43 4f3d ed1f a23d 3e33 e3bb 8ff5 1d3e
00000140: f6dd f0bd 6f30 233e cfca 0fbe 7472 9f3c
00000150: 424d a03c 890e 8ebc b255 8b3d a464 05be
00000160: d9dd 2d3d 7aaf b2bc 0824 1f3e 1356 d9bd
00000170: f10a 0ebe 0983 fabd 5262 4ebd eaa8 dcbd
00000180: a7d7 fe3d d407 8abd 2c15 013e 8113 cabd
00000190: 735d 223e ba29 193e 6635 0bbe 4c72 203e
000001a0: b52f 96bb c474 d63d 61c8 6bbd f54b 063e
000001b0: 67f6 0bbd 4103 99bb 0bf2 0fbd 4505 8c3d
000001c0: 0534 073d f353 1ebe 0e64 053c ae0b 633d
000001d0: d412 563d 2074 b3bd 60a7 633d d213 003b
000001e0: 5b07 e13d 1fdf fe3d 86ca ad3c 6ad5 d1bd
000001f0: 2d9e e43d 096c 713d 51a3 6c3d d4f7 22bd
00000200: 7c70 653d a8cb 98bd fb4d 36be e324 2d3e
00000210: 2b99 243d bce5 053e c422 31be 7814 1fbd
00000220: 6acd 2abd ff82 103e f0d1 ed3c 8778 c2bd
00000230: 2d15 18be d27a c83d 857a 323e 8420 913d
00000240: 9e0b 1c3e 847e 3cbe 490c 0f3e aad2 1bbc
00000250: 77b0 76bd 1926 33be d036 5d3d 4057 c03d
00000260: 8b6b cd3d 300d a03d c3e4 c5bc 618b 58bd
00000270: 6133 abbd db66 9e3d 3fdc 403d 33c6 f13d
00000280: fca3 0b3d 07d8 cb3d d04f 64bd 0828 43be
00000290: 8cfb 833b afb3 bf3d 6b83 1bbe 3b7b 8d3d
000002a0: 0830 4b3d 923e 653d 5667 203c ae7a f0bd
000002b0: 79ca 1dbe beb4 0f3d b389 793d 0f85 8c3d
000002c0: c909 153e cb97 97bd 9371 a8bd d8ed cebd
000002d0: 3de7 0a3e b373 ac3c 769e 13be 1f97 b23d
000002e0: 3334 2cbe 143d 13be 1cec 0fbe e090 b23d
000002f0: 4675 983c 9e25 393e a02f 053d cab5 8bbd
00000300: 5db3 adbd 7f18 043e e569 f23c 54c3 29be
00000310: 9ec0 813c b1e3 f03d ea55 65bd 4a85 963d
00000320: e636 d2bd 674d b73d 283c 623d e7f2 073e
00000330: cdfa 253e 67b4 893b 3cd7 77bc ba33 debd
00000340: 6fbb 0c3d 1a0d a43d c6da 18be a8ff ab3d
00000350: c2e6 1f3e f775 bbbc 7e59 be3d c8f1 b8bd
00000360: e0a7 e93c 39ba 18be 2e3b a03d a27a 193e
00000370: 6ad6 c3bd 15c7 07be 0729 d73d 731e 8b3c
00000380: 42cd 9dbd 3621 f2bd b3b0 3c3e 76ba 81bd
00000390: 7c9c fb3d f7fc cbbc 3bde 50bc 90f6 a7bd
000003a0: cb91 37bd e595 8c3b 5bae 273e f3c5 473e
000003b0: 820d 06bd f17f 0a3e dbf3 fa3d e41c 9c3b
000003c0: d655 bd3d b2f6 753d 1a8a 213d 3743 58bd
000003d0: bb96 bbbc 1839 61bd 64c2 313d 089b 0abd
000003e0: b61d 163d 7644 0f3e 6037 c83d 5892 d63b
000003f0: 176c 31be bc19 78bd 22fe 7dbd 3cd4 e3bd

blocks.0.mlp.fc2.weight f4 [32, 128]
-0.090767786 -0.052239068 0.02465038 -0.017191136 3.362572e-05 0.06599298 0.013689882 -0.0421524
-0.012943677 -0.013577643 0.07727737 0.009168204 0.04826668 0.13389505 -0.010224105 -0.048028775
0.033962026 -0.09418501 -0.04745836 -0.023825932 -0.03549086 -0.024613058 0.005041318 0.061249945
-0.076061666 -0.023036707 -0.059720278 0.044925336 0.045691874 0.06393331 0.08189433 0.04985419
-0.023954283 -0.056233175 -0.07970486 0.04634272 -0.039725196 0.040391322 -0.12127687 0.026671588
0.0347804 0.025501274 -0.04857876 0.08830869 0.024982 0.04218007 -0.007886981 -0.004475645
0.03688524 -0.011734469 -0.07209115 0.021668116 -0.004102656 -0.07380522 0.033835173 0.005463307
-0.013235985 0.030085212 0.07069698 -0.076688245 0.10309627 0.08068942 -0.022933532 0.06691745
-0.00039652208 0.03852257 0.024384165 -0.11190045 0.044384412 0.07863954 0.055468656 0.06614049
-0.08632945 0.06814377 0.021946445 -0.07943785 -0.064503804 -0.028108332 0.04519683 -0.08442383
0.10701799 0.069203265 0.043737307 0.10366338 -0.038189564 -0.05182737 -0.033037983 -0.026526816
0.054866794 -0.045577955 0.096505314 0.013153349 -0.0021555822 0.011348061 0.07001485 -0.05559723
0.067384996 -0.017250901 -0.004167625 -0.07764402 0.009946195 -0.042940263 -0.080865756 0.0023219965
0.07573889 -0.018501269 0.028930267 -0.046922125 -0.03731602 0.05465393 -0.044634413 -0.056025006
-0.04096415 0.024289677 -0.08214825 0.06730723 -0.07996255 0.06349078 -0.051954787 -0.022632496
0.08150863 0.02503312 -0.024488812 -0.047788695 0.09844443 -0.024647813 0.024967102 0.052807566
-0.03664217 -0.07408973 0.07150226 0.0005479437 0.018660804 0.052705165 0.057286758 0.05533859
-0.0025716764 0.027136764 0.0343857 0.010331982 0.06505484 -0.007978713 0.0028275375 0.06532801
0.0038558943 0.03685871 -0.034677066 -0.0795899 -0.06435657 -0.083011664 -0.07196217 0.012021104
0.032619815 0.07544682 0.08804259 -0.007267329 -0.02162611 -0.012742448 0.0064120116 -0.10512671
-0.031184979 0.0020649037 -0.08035657 -0.024723025 0.004789405 -0.025567615 0.027246878 0.033320554
0.060449317 -0.03275532 -0.0005947692 0.005181405 0.060802944 -0.054489944 0.053338677 -0.06971093
-0.092782184 0.052668624 -0.06194485 0.019739747 -0.009452897 0.0058354656 -0.081213556 0.0877363
0.03729743 -0.067352556 -0.049737595 -0.07507554 0.08075211 0.008891552 -0.021804167 -0.035954397
-0.019056344 -0.046449177 -0.06308409 0.0484391 0.121337265 0.010730922 0.09131982 0.07393056
0.02258832 0.060565367 -0.05155757 -0.020225925 -0.057578832 0.010908768 -0.044973545 0.02200567
-0.0026941148 -0.015122373 0.049792573 -0.011134638 0.00792578 0.011398528 -0.021362515 0.04247352
0.009942406 -0.07796256 0.07038975 -0.06481316 -0.03914323 0.042204246 -0.00063171587 -0.015602414
0.0074860873 0.11015266 -0.10373391 -0.11098931 -0.040995166 0.023412576 0.057894424 0.09889048
0.011776425 0.04478918 -0.055270232 0.06984071 0.040034488 -0.0014364447 -0.07350463 0.07542803
0.023744073 0.017036159 0.0399297 -0.031153504 0.057515044 -0.052397158 0.0397849 0.08328529
-0.104655586 0.016145 -0.05530031 0.020234644 0.07708947 0.12162834 0.016528571 0.08516457
00000000: 76e4 b9bd a2f8 55bd 98ef c93c 6dd4 8cbc
00000010: 5809 0d38 5427 873d 874b 603c ffa7 2cbd
00000020: b711 54bc c374 5ebc 9943 9e3d 3c36 163c
00000030: 48b3 453d c91b 093e 0183 27bc d2b9 44bd
00000040: c41b 0b3d 12e4 c0bd b363 42bd 9a2e c3bc
00000050: dd5e 11bd 53a1 c9bc a431 a53b 39e1 7a3d
00000060: 38c6 9bbd 7ab7 bcbc 409d 74bd a103 383d
00000070: 6727 3b3d 78ef 823d 37b8 a73d e833 4c3d
00000080: c63b c4bc c254 66bd 4d3c a3bd ddd1 3d3d
00000090: e3b6 22bd 5f71 253d 0260 f8bd 607e da3c
000000a0: e575 0e3d 0ce8 d03c 86fa 46bd 30db b43d
000000b0: 0da7 cc3c 02c5 2c3d 6538 01bc 6ea8 92bb
000000c0: fa14 173d ee41 40bc 86a4 93bd 5581 b13c
000000d0: 936f 86bb 3127 97bd c096 0a3d 8a05 b33b
000000e0: bfdb 58bc 4375 f63c 94c9 903d ba0e 9dbd
000000f0: 2324 d33d 7f40 a53d 1adf bbbc 040c 893d
00000100: 4be4 cfb9 d8c9 1d3d 4dc1 c73c 102c e5bd
00000110: 6ecc 353d c40d a13d 1a33 633d aa74 873d
00000120: 7fcd b0bd f68e 8b3d 08c9 b33c 50b0 a2bd
00000130: 921a 84bd 7243 e6bc 5020 393d 67e6 acbd
00000140: 3f2c db3d 71ba 8d3d e425 333d 774d d43d
00000150: a96c 1cbd f048 54bd d652 07bd c44e d9bc
00000160: 01bc 603d f3af 3abd 94a4 c53d 2581 573c
00000170: ab44 0dbb 38ed 393c f263 8f3d ecb9 63bd
00000180: 2501 8a3d c351 8dbc 9390 88bb d403 9fbd
00000190: 5ef5 223c 21e2 2fbd f29c a5bd a32c 183b
000001a0: fe1c 9b3d f98f 97bc 2bff ec3c 6a31 40bd
000001b0: afd8 18bd cddc 5f3d 93d2 36bd 7a7a 65bd
000001c0: 06ca 27bd 25fb c63c 573d a8bd 5fd8 893d
000001d0: 68c3 a3bd 7407 823d 8bce 54bd c967 b9bc
000001e0: ffed a63d 4212 cd3c c39c c8bc 14be 43bd
000001f0: 3c9d c93d 36ea c9bc cf87 cc3c bf4c 583d
00000200: 1a16 16bd 5bbc 97bd c76f 923d e1a3 0f3a
00000210: 8bde 983c 5fe1 573d 85a5 6a3d b8aa 623d
00000220: 9289 28bb eb4d de3c 05d8 0c3d 7947 293c
00000230: 793b 853d 26b9 02bc 354e 393b b1ca 853d
00000240: 2cb3 7c3b 29f9 163d 8a09 0ebd 0800 a3bd
00000250: 61cd 83bd 0502 aabd e760 93bd 2af4 443c
00000260: 5b9c 053d dd83 9a3d ac4f b43d c622 eebb
00000270: 3d29 b1bc b3c5 50bc da1b d23b ac4c d7bd
00000280: a477 ffbc 5653 073b fc91 a4bd f187 cabc
00000290: 71f0 9c3b 2d73 d1bc d834 df3c 227b 083d
000002a0: b499 773d 712a 06bd 49ea 1bba c7c8 a93b
000002b0: 820c 793d d930 5fbd a879 5a3d 9bc4 8ebd
000002c0: 9604 bebd 0ebb 573d e2b9 7dbd 40b5 a13c
000002d0: 53e0 1abc 6f37 bf3b 4b53 a6bd 17af b33d
000002e0: 31c5 183d 23f0 89bd a6b9 4bbd 34c1 99bd
000002f0: 5d61 a53d dfad 113c a79e b2bc eb44 13bd
00000300: 0d1c 9cbc 7e41 3ebd 3b32 81bd 1468 463d
00000310: ac7f f83d c0d0 2f3c e305 bb3d e868 973d
00000320: 240b b93c 6413 783d 082e 53bd d7b0 a5bc
00000330: c8d7 6bbd b0ba 323c 2e36 38bd 3c45 b43c
00000340: bf8f 30bb d4c3 77bc 4cf3 4b3d 0f6e 36bc
00000350: 21db 013c e4c0 3a3c 7100 afbc b7f8 2d3d
00000360: 79e5 223c d6aa 9fbd 8028 903d c3bc 84bd
00000370: a754 20bd 5cde 2c3d bc99 25ba 44a1 7fbc
00000380: da4d f53b b897 e13d 7272 d4bd 5d4e e3bd
00000390: 8cea 27bd bbcb bf3c b422 6d3d 1887 ca3d
000003a0: e8f1 403c dc74 373d 0a63 62bd a508 8f3d
000003b0: 34fb 233d 1647 bcba 9889 96bd 037a 9a3d
000003c0: ee82 c23c 6a8f 8b3c 538d 233d a235 ffbc
000003d0: e594 6b3d 679e 56bd 7ef5 223d 7a91 aa3d
000003e0: ab55 d6bd 8542 843c 9482 62bd 20c3 a53c
000003f0: 16e1 9d3d 4718 f93d ed66 873c c36a ae3d

blocks.1.norm1.weight f4 [32]
1.013097 1.057004 1.0449467 1.0201843 1.024632 1.024382 1.0726596 0.9876302
1.0508816 1.025651 0.99525607 1.0328565 1.0337944 1.0087736 1.0184286 1.0401627
1.0644506 1.0212681 0.99397296 0.9793084 1.0471436 1.0375293 1.0657396 1.0354216
0.9767298 1.0341349 1.0263824 1.0012234 1.0570012 1.0420628 1.0372193 1.0483365
00000000: 2aad 813f e84b 873f d0c0 853f 6695 823f
00000010: 2427 833f f31e 833f e94c 893f 55d5 7c3f
00000020: 4a83 863f 8848 833f 1ac9 7e3f a434 843f
00000030: 6053 843f 7e1f 813f de5b 823f 0d24 853f
00000040: eb3f 883f eab8 823f 0375 7e3f f5b3 7a3f
00000050: cd08 863f c3cd 843f 286a 883f b288 843f
00000060: f70a 7a3f 885e 843f 8060 833f 1728 803f
00000070: d14b 873f 5062 853f 9ac3 843f e42f 863f

blocks.1.norm1.bias f4 [32]
0.014310783 0.0006345211 -0.0013555405 0.009577541 0.007943136 0.0017364812 -0.024666103 -0.0011148773
-0.0112870205 -0.0039364933 0.00066455296 0.008411729 0.009298597 -0.012252768 0.010478897 0.0013796869
-0.013777715 0.008026845 0.0053168414 0.013100428 -0.03746381 0.005276422 -0.0050011785 0.006902829
-0.0110530555 -0.005563251 0.011413879 -0.0109438095 0.004344777 0.024178429 -0.008555913 -0.010630224
00000000: c677 6a3c fd55 263a 64ac b1ba 1eeb 1c3c
00000010: ed23 023c a49a e33a 9110 cabc 1321 92ba
00000020: 32ed 38bc b3fd 80bb 6535 2e3a 59d1 093c
00000030: 2559 183c d5bf 48bc aeaf 2b3c 9cd6 b43a
00000040: edbb 61bc 0783 033c e638 ae3b 2da3 563c
00000050: a773 19bd d6e5 ac3b ede0 a3bb 2031 e23b
00000060: e017 35bc ef4b b6bb 4701 3b3c aa4d 33bc
00000070: a25e 8e3b d711 c63c 1a2e 0cbc 642a 2ebc

blocks.1.attn.qkv.weight f4 [96, 32]
0.034101732 -0.021566125 -0.004630074 -0.16378848 0.088684306 0.039121203 -0.13355762 -0.12948513
-0.07758333 0.13093957 0.046546016 -0.05586128 0.08665842 -0.023156924 -0.14211817 0.06939287
0.04777063 0.07492668 0.15704606 0.013286759 0.012391926 -0.06996739 0.16628875 -0.0785295
-0.09533676 -0.05760131 -0.07616184 0.10805211 0.14438729 0.042173766 -0.050502617 0.1433113
0.016721739 -0.08483308 -0.031040939 0.019342845 0.17039996 -0.029339712 -0.18455929 -0.2062504
-0.088161156 -0.085838914 -0.060345452 0.08154651 0.009842068 -0.06706756 0.14095159 -0.114345945
-0.014830188 0.019682253 -0.067247294 -0.100949265 -0.023393035 0.17491601 0.19156988 0.025357714
-0.0029931613 0.11257502 0.06464353 -0.058936097 -0.043305818 0.119422644 -0.07205027 0.01937062
0.056877363 0.038005885 -0.17578983 -0.011471887 0.19546598 0.2278796 -0.020954393 0.103112124
0.045446638 0.02263875 0.019284394 0.004314084 -0.11299903 -0.16089222 0.23658027 0.003672871
-0.21330413 -0.04797108 0.124305435 -0.08589335 -0.12528987 0.15057157 -0.017010935 -0.06330655
0.008480072 0.120540954 0.11386607 -0.095527925 0.15224744 0.081965886 0.1886864 -0.11803784
0.13079758 0.08187555 -0.17517862 -0.00583731 -0.14381428 0.048376173 0.13070673 0.1504139
-0.10951142 0.10518507 -0.059932742 -0.15127046 0.011612621 0.13028452 -0.102516115 -0.074272566
0.11440401 0.12565784 -0.07702935 -0.07950576 0.056420185 0.17851065 -0.1875074 -0.034356862
-0.0792782 -0.15030295 0.018580563 0.046259608 0.03573761 -0.08711706 -0.15126008 0.01848412
-0.12511298 -0.022105725 0.13394383 -0.05399939 0.18091519 -0.151261 0.1417233 0.1418164
-0.14274171 -0.09533287 0.15699703 -0.0025604768 -0.19582134 -0.071867935 0.16713397 0.115720846
0.06174351 0.13417648 0.041987494 -0.061574124 0.13849787 0.08462438 -0.071069315 0.16061871
0.14942175 -0.040169694 -0.15623014 -0.14165391 0.0947869 -0.0018558239 -0.10245924 -0.012053745
-0.0012083144 0.014727095 0.19466446 0.20467435 -0.10802715 -0.15256324 0.047508597 0.055071123
0.15215561 0.19889888 0.2264254 -0.12840465 0.07665126 -0.030740136 -0.17766806 -0.06553242
0.049190987 -0.08275648 0.14182788 0.015713682 -0.04395721 -0.11452162 0.12629734 0.01979861
-0.023010977 -0.02377184 -0.15509424 -0.119111694 -0.1673848 -0.19769666 0.07760012 -0.1442414
-0.18152277 0.08511052 0.023852872 0.17629004 -0.21136557 0.04673493 0.17372668 -0.045474242
-0.063476354 -0.03276688 0.0074243993 -0.1693724 0.017564483 0.09353973 -0.1493387 0.107774734
0.0148517545 -0.09958985 -0.086352564 -0.11863287 -0.059496664 -0.20950513 0.08167957 -0.09139909
0.12278167 0.034780007 0.18167531 0.09767368 0.050005365 -0.016475255 0.1271572 -0.042872354
0.07101988 -0.16821216 -0.010645601 0.1642999 -0.06160896 -0.18383117 0.14828353 0.049801487
-0.0642448 0.05962487 0.14084569 -0.14448512 0.012290486 0.025347685 0.10283948 -0.056625225
0.21099752 -0.1822104 0.08809002 -0.057566427 0.053454086 -0.09497941 -0.13408875 -0.0019440607
-0.036708836 -0.04914064 -0.0025596477 0.065703735 -0.019643623 -0.0949859 0.06819994 0.04707392
00000000: 42ae 0b3d 71ab b0bc e0b7 97bb 2bb8 27be
00000010: 1ea0 b53d 8e3d 203d 54c3 08be c097 04be
00000020: 02e4 9ebd 0615 063e 09a7 3e3d ccce 64bd
00000030: f879 b13d 97b3 bdbc 6d87 11be d91d 8e3d
00000040: 23ab 433d 2973 993d afd0 203e b5b0 593c
00000050: 8107 4b3c 104b 8fbd 9947 2a3e 13d4 a0bd
00000060: eb3f c3bd 5aef 6bbd bdfa 9bbd 6d4a dd3d
00000070: 43da 133e 66be 2c3d d5db 4ebd 33c0 123e
00000080: 07fc 883c f7bc adbd 9149 febc e374 9e3c
00000090: 547d 2e3e d659 f0bc 1cfd 3cbe 4e33 53be
000000a0: d68d b4bd 50cc afbd cb2c 77bd db01 a73d
000000b0: a040 213c b85a 89bd 9d55 103e 352e eabd
000000c0: 51fa 72bc ad3c a13c f3b8 89bd 7dbe cebd
000000d0: c0a2 bfbc 2f1d 333e e52a 443e fbba cf3c
000000e0: ea28 44bb bb8d e63d d463 843d fa66 71bd
000000f0: 7161 31bd dc93 f43d 188f 93bd 22af 9e3c
00000100: 3df8 683d 0fac 1b3d 4002 34be 95f4 3bbc
00000110: 3c28 483e 4559 693e 8ca8 abbc 732c d33d
00000120: 4126 3a3d e674 b93c 4efa 9d3c 295d 8d3b
00000130: 096c e7bd eec0 24be 1942 723e 8db4 703b
00000140: 666c 5abe 537d 44bd d993 fe3d dae8 afbd
00000150: fd4b 00be 6f2f 1a3e 845a 8bbc dda6 81bd
00000160: 00f0 0a3c 2dde f63d 9d32 e93d 25a4 c3bd
00000170: c1e6 1b3e bbdd a73d 0237 413e d3bd f1bd
00000180: cdef 053e 5eae a73d 0662 33be e846 bfbb
00000190: 0d44 13be 1826 463d fcd7 053e 1a06 1a3e
000001a0: 8647 e0bd 456b d73d 097c 75bd a5e6 1abe
000001b0: dd42 3e3c 4e69 053e f8f3 d1bd 371c 98bd
000001c0: a64c ea3d 73ac 003e 90c1 9dbd ead3 a2bd
000001d0: da18 673d 7fcb 363e f101 40be c8b9 0cbd
000001e0: 9c5c a2bd 04e9 19be 4436 983c b77a 3d3d
000001f0: 9a61 123d 6e6a b2bd ece3 1abe 026c 973c
00000200: 9e1d 00be 1117 b5bc 9228 093e 772e 5dbd
00000210: d541 393e 2ae4 1abe ea1f 113e 5238 113e
00000220: e22a 12be e13d c3bd d4c3 203e accd 27bb
00000230: 6485 48be 7f2f 93bd 2b25 2b3e 0dff ec3d
00000240: c3e6 7c3d 8f65 093e 14fb 2b3d 2635 7cbd
00000250: 63d2 0d3e 8c4f ad3d ca8c 91bd 3b79 243e
00000260: 0402 193e fa88 24bd cbfa 1fbe b90d 11be
00000270: a21f c23d 1e3f f3ba 26d6 d1bd 127d 45bc
00000280: 4e60 9eba ea49 713c 1f56 473e 2796 513e
00000290: 573d ddbd 8a39 1cbe 6098 423d 4292 613d
000002a0: aece 1b3e 26ac 4b3e 0fdc 673e 827c 03be
000002b0: 56fb 9c3d bdd2 fbbc 9eee 35be dd35 86bd
000002c0: 7d7c 493d 3b7c a9bd 543b 113e fbb9 803c
000002d0: 7a0c 34bd 508a eabd 1754 013e b230 a23c
000002e0: 8481 bcbc 29bd c2bc 06d1 1ebe d5f0 f3bd
000002f0: ec66 2bbe fe70 4abe d0ec 9e3d 04b4 13be
00000300: 1be1 39be 6d4e ae3d 1967 c33c 6085 343e
00000310: 3770 58be 206d 3f3d 68e5 313e 3343 3abd
00000320: e4ff 81bd 9036 06bd 6048 f33b f56f 2dbe
00000330: 64e3 8f3c c291 bf3d 3fec 18be 00b9 dc3d
00000340: c654 733c c3f5 cbbd 9dd9 b0bd caf5 f2bd
00000350: c6b2 73bd 8388 56be 9e47 a73d 722f bbbd
00000360: f574 fb3d 7b75 0e3d 1809 3a3e 2309 c83d
00000370: 6dd2 4c3d 1df7 86bc 7f35 023e ec9a 2fbd
00000380: df72 913d cf3f 2cbe e36a 2ebc 3c3e 283e
00000390: ad59 7cbd 3d3e 3cbe a3d7 173e a5fc 4b3d
000003a0: c792 83bd 3539 743d da39 103e e8f3 13be
000003b0: 095e 493c f3a5 cf3c 819d d23d daef 67bd
000003c0: bc0f 583e 5d95 3abe 8a68 b43d c6ca 6bbd
000003d0: acf2 5a3d 9184 c2bd 904e 09be dacf feba
000003e0: 015c 16bd b247 49bd c3bf 27bb ae8f 863d
000003f0: aaeb a0bc f887 c2bd 69ac 8b3d 95d0 403d
