image_encoder/trained_models/vit_20241110_184505.pth (torch, 454617 bytes, 59 tensors)

cls_token f4 [1, 1, 32]
0	0x3c000fbd	0.007816252
1	0x3c6feadb	0.014643396
2	0xbb2bfb39	-0.002624227
3	0x3bceddf1	0.0063130786
4	0x3c0053ad	0.00783245
5	0xb9a3f818	-0.00031274627
6	0xbc91b327	-0.017785622
7	0xbc0c7a36	-0.008574059
8	0xb8e8a1b3	-0.00011092741
9	0x3aa138fb	0.0012300307
10	0x3c06c3c3	0.008225384
11	0xbba5a363	-0.0050548776
12	0xba985944	-0.0011623283
13	0x3ba840a8	0.0051346608
14	0xbc0a63dd	-0.008446661
15	0xba0c5300	-0.0005352944
16	0x3ba2e07b	0.004970608
17	0xbc332896	-0.010934969
18	0x3c07a1a2	0.008278282
19	0xbc1fdabc	-0.00975674
20	0x3b18f1fb	0.002333759
21	0x3bb2a21f	0.0054514552
22	0x3c0515aa	0.008122841
23	0x3c36ee75	0.011165251
24	0xba37f4c0	-0.00070173666
25	0x3abfc388	0.0014630416
26	0xba96be32	-0.0011500774
27	0x3c3bda38	0.011465602
28	0xbb34565f	-0.0027517301
29	0xbc1d9e75	-0.009620299
30	0xbbe18161	-0.0068818782
31	0xbc6ac7e1	-0.014329881

pos_enc f4 [32, 32, 32]
0	0x00000000	0.0
1	0x3f800000	1.0
2	0x00000000	0.0
3	0x3f800000	1.0
4	0x00000000	0.0
5	0x3f800000	1.0
6	0x00000000	0.0
7	0x3f800000	1.0
8	0x00000000	0.0
9	0x3f800000	1.0
10	0x00000000	0.0
11	0x3f800000	1.0
12	0x00000000	0.0
13	0x3f800000	1.0
14	0x00000000	0.0
15	0x3f800000	1.0
16	0x00000000	0.0
17	0x3f800000	1.0
18	0x00000000	0.0
19	0x3f800000	1.0
20	0x00000000	0.0
21	0x3f800000	1.0
22	0x00000000	0.0
23	0x3f800000	1.0
24	0x00000000	0.0
25	0x3f800000	1.0
26	0x00000000	0.0
27	0x3f800000	1.0
28	0x00000000	0.0
29	0x3f800000	1.0
30	0x00000000	0.0
31	0x3f800000	1.0
32	0x00000000	0.0
33	0x3f800000	1.0
34	0x00000000	0.0
35	0x3f800000	1.0
36	0x00000000	0.0
37	0x3f800000	1.0
38	0x00000000	0.0
39	0x3f800000	1.0
40	0x00000000	0.0
41	0x3f800000	1.0
42	0x00000000	0.0
43	0x3f800000	1.0
44	0x00000000	0.0
45	0x3f800000	1.0
46	0x00000000	0.0
47	0x3f800000	1.0
48	0x3f576aa4	0.84147096
49	0x3f0a5141	0.54030234
50	0x3f087dba	0.53316844
51	0x3f58940d	0.8460091
52	0x3e9f393e	0.3109836
53	0x3f734e6b	0.9504153
54	0x3e35233a	0.17689219
55	0x3f7bf683	0.9842302
56	0x3dcc7577	0.09983342
57	0x3f7eb898	0.9950042
58	0x3d6636af	0.056204494
59	0x3f7f9868	0.9984193
60	0x3d01815c	0.031617507
61	0x3f7fdf3c	0.99950004
62	0x3c91ab42	0.017781857
63	0x3f7ff5a3	0.99984187
64	0x00000000	0.0
65	0x3f800000	1.0
66	0x00000000	0.0
67	0x3f800000	1.0
68	0x00000000	0.0
69	0x3f800000	1.0
70	0x00000000	0.0
71	0x3f800000	1.0
72	0x00000000	0.0
73	0x3f800000	1.0
74	0x00000000	0.0
75	0x3f800000	1.0
76	0x00000000	0.0
77	0x3f800000	1.0
78	0x00000000	0.0
79	0x3f800000	1.0
80	0x3f68c7b7	0.9092974
81	0xbed51133	-0.41614684
82	0x3f66f20a	0.9021307
83	0x3edce8b2	0.43146282
84	0x3f17541b	0.5911271
85	0x3f4e7bec	0.8065784
86	0x3eb247f6	0.34820527
87	0x3f6ffaa6	0.93741834
88	0x3e4b6ff9	0.19866933
89	0x3f7ae5a5	0.9800666
90	0x3de5d987	0.11223131
91	0x3f7e61f3	0.9936821
92	0x3d8170c9	0.0632034
93	0x3f7f7cf9	0.9980007
94	0x3d11a55c	0.03555809
95	0x3f7fd68e	0.9993676
96	0x00000000	0.0
97	0x3f800000	1.0
98	0x00000000	0.0
99	0x3f800000	1.0
100	0x00000000	0.0
101	0x3f800000	1.0
102	0x00000000	0.0
103	0x3f800000	1.0
104	0x00000000	0.0
105	0x3f800000	1.0
106	0x00000000	0.0
107	0x3f800000	1.0
108	0x00000000	0.0
109	0x3f800000	1.0
110	0x00000000	0.0
111	0x3f800000	1.0
112	0x3e1081c3	0.14112
113	0xbf7d7026	-0.9899925
114	0x3f7e45d7	0.9932532
115	0xbded7fab	-0.11596616
116	0x3f5009c2	0.8126489
117	0x3f152f58	0.58275366
118	0x3f022f6d	0.50853616
119	0x3f5c6d29	0.86104065
120	0x3e974e6d	0.29552022
121	0x3f7490ef	0.9553365
122	0x3e2beed8	0.1679033
123	0x3f7c5d9e	0.9858035
124	0x3dc1ffc1	0.09472609
125	0x3f7ed94f	0.99550337
126	0x3d5a694e	0.053323083
127	0x3f7fa2c3	0.9985773
128	0x00000000	0.0
129	0x3f800000	1.0
130	0x00000000	0.0
131	0x3f800000	1.0
132	0x00000000	0.0
133	0x3f800000	1.0
134	0x00000000	0.0
135	0x3f800000	1.0
136	0x00000000	0.0
137	0x3f800000	1.0
138	0x00000000	0.0
139	0x3f800000	1.0
140	0x00000000	0.0
141	0x3f800000	1.0
142	0x00000000	0.0
143	0x3f800000	1.0
144	0xbf41bdcf	-0.7568025
145	0xbf275530	-0.6536436
146	0x3f4749ec	0.7784717
147	0xbf20af9e	-0.6276797
148	0x3f741dde	0.95358074
149	0x3e9a2eb1	0.30113748
150	0x3f271fbc	0.652828
151	0x3f41ebed	0.7575062
152	0x3ec761d8	0.38941836
153	0x3f6bcaa7	0.921061
154	0x3e6465c6	0.22304448
155	0x3f798d09	0.9748083
156	0x3e012e89	0.12615408
157	0x3f7df469	0.99201065
158	0x3d918dc8	0.07107121
159	0x3f7f5a46	0.9974712
160	0x00000000	0.0
161	0x3f800000	1.0
162	0x00000000	0.0
163	0x3f800000	1.0
164	0x00000000	0.0
165	0x3f800000	1.0
166	0x00000000	0.0
167	0x3f800000	1.0
168	0x00000000	0.0
169	0x3f800000	1.0
170	0x00000000	0.0
171	0x3f800000	1.0
172	0x00000000	0.0
173	0x3f800000	1.0
174	0x00000000	0.0
175	0x3f800000	1.0
176	0xbf757c10	-0.9589243
177	0x3e913c2c	0.2836622
178	0x3ea5dad8	0.32393527
179	0xbf723240	-0.94607925
180	0x3f7ffc7f	0.99994653
181	0xbc2972e9	-0.010342338
182	0x3f46caab	0.77652997
183	0x3f214cf1	0.6300803
184	0x3ef57744	0.47942555
185	0x3f60a940	0.87758255
186	0x3e8e11ed	0.2774805
187	0x3f75f27c	0.96073127
188	0x3e213c1e	0.15745589
189	0x3f7cce81	0.987526
190	0x3db5db21	0.08879686
191	0x3f7efd1e	0.99604976
192	0x00000000	0.0
193	0x3f800000	1.0
194	0x00000000	0.0
195	0x3f800000	1.0
196	0x00000000	0.0
197	0x3f800000	1.0
198	0x00000000	0.0
199	0x3f800000	1.0
200	0x00000000	0.0
201	0x3f800000	1.0
202	0x00000000	0.0
203	0x3f800000	1.0
204	0x00000000	0.0
205	0x3f800000	1.0
206	0x00000000	0.0
207	0x3f800000	1.0
208	0xbe8f0f8c	-0.2794155
209	0x3f75cdb8	0.96017027
210	0xbe6be576	-0.23036751
211	0xbf791d53	-0.9731037
212	0x3f72784e	0.9471482
213	0xbea43f6d	-0.3207964
214	0x3f603089	0.8757406
215	0x3ef72f32	0.48278195
216	0x3f108c69	0.5646425
217	0x3f534932	0.8253356
218	0x3ea97dfd	0.33103934
219	0x3f7190e2	0.943617
220	0x3e41206f	0.18860029
221	0x3f7b67e3	0.98205394
222	0x3dda19c2	0.10649444
223	0x3f7e8b51	0.9943133
224	0x00000000	0.0
225	0x3f800000	1.0
226	0x00000000	0.0
227	0x3f800000	1.0
228	0x00000000	0.0
229	0x3f800000	1.0
230	0x00000000	0.0
231	0x3f800000	1.0
232	0x00000000	0.0
233	0x3f800000	1.0
234	0x00000000	0.0
235	0x3f800000	1.0
236	0x00000000	0.0
237	0x3f800000	1.0
238	0x00000000	0.0
239	0x3f800000	1.0
240	0x3f283046	0.6569866
241	0x3f40ffbd	0.75390226
242	0xbf36b66d	-0.7137211
243	0xbf334f61	-0.70043
244	0x3f4ce86e	0.8004216
245	0xbf1974bc	-0.5994375
246	0x3f728444	0.9473307
247	0x3ea3f8b6	0.3202569
248	0x3f24eb73	0.64421767
249	0x3f43ccb3	0.7648422
250	0x3ec460de	0.38355154
251	0x3f6c6bc6	0.9235195
252	0x3e60d351	0.21955611
253	0x3f79c0ea	0.9755999
254	0x3dfe46ba	0.12415834
255	0x3f7e04e9	0.9922624

norm.weight f4 [32]
0	0x3f523f0d	0.8212746
1	0x3f6c0eb8	0.9220996
2	0x3f6284c3	0.8848383
3	0x3f5a7b08	0.8534398
4	0x3f5c5a2e	0.86075103
5	0x3f651a04	0.8949282
6	0x3f56009a	0.8359467
7	0x3f5f789d	0.87293416
8	0x3f53df4a	0.8276259
9	0x3f5672a5	0.83768684
10	0x3f57d969	0.84316117
11	0x3f5b6120	0.85695076
12	0x3f5c1d87	0.85982555
13	0x3f651da7	0.8949837
14	0x3f60d088	0.87818193
15	0x3f698bb6	0.91228807
16	0x3f5af480	0.8552933
17	0x3f60567d	0.8763197
18	0x3f55bae8	0.8348832
19	0x3f563c6f	0.83685964
20	0x3f6318f7	0.8870997
21	0x3f621cac	0.88325
22	0x3f581d53	0.84419745
23	0x3f624e6c	0.8840091
24	0x3f522284	0.82083917
25	0x3f61fcd6	0.8827642
26	0x3f64f5ac	0.89437366
27	0x3f60709e	0.8767184
28	0x3f543116	0.828874
29	0x3f71fade	0.9452342
30	0x3f5c6bee	0.8610219
31	0x3f4d1eab	0.8012492

norm.bias f4 [32]
0	0x3bfac89b	0.0076533086
1	0x3c88f481	0.016718151
2	0xbc2d4de4	-0.010577653
3	0x3deea2eb	0.11652168
4	0x3d6eac99	0.05827007
5	0x3d189036	0.037246905
6	0xbce75ec4	-0.02824343
7	0xbcbbb6e9	-0.022914367
8	0xbc95b72c	-0.01827582
9	0xbddf0c56	-0.10891025
10	0x3d3d6fb6	0.046249114
11	0x3d385ce5	0.045010466
12	0x3dc18bde	0.09450506
13	0x38c02acf	9.163247e-05
14	0xbd11c097	-0.03558406
15	0xbd030e49	-0.031996045
16	0xbd01adca	-0.03165988
17	0x3ca09653	0.01960293
18	0xbd3922a5	-0.045199055
19	0x3d58c55d	0.052922595
20	0x3d9401c0	0.07226896
21	0x3c739986	0.014868146
22	0x3d887b30	0.06664121
23	0xbca20f7c	-0.019782774
24	0x3cc259e9	0.023724513
25	0xbd8e79df	-0.06956839
26	0xbc919628	-0.017771795
27	0xbde58007	-0.1120606
28	0xbc65610c	-0.014000189
29	0xbb737492	-0.0037148339
30	0x3dbc5694	0.09196201
31	0xbe19ba47	-0.15012465

patch_embeddings.weight f4 [14, 32]
0	0x3ff8de5a	1.9442856
1	0x3fbccb81	1.4749604
2	0x3f6c515a	0.9231163
3	0xc0069e2d	-2.1034043
4	0x3f2f8902	0.6856843
5	0xbfa01667	-1.2506837
6	0xbd8b6fe3	-0.0680845
7	0xbfce1496	-1.6100032
8	0xbf416025	-0.7553733
9	0x3fd121df	1.6338462
10	0xbec3fe41	-0.38279918
11	0xbfb385c2	-1.4025195
12	0xbf34d7f2	-0.70642006
13	0xbf10af65	-0.5651763
14	0xbf45eadf	-0.7731151
15	0x3f433221	0.76248366
16	0x3fd383e0	1.652462
17	0xbe009121	-0.12555362
18	0xbeef37d1	-0.46722272
19	0x3ee6e8e7	0.45099565
20	0xbf362a1b	-0.71158
21	0x3f8b6367	1.088971
22	0x3f440ff3	0.76586837
23	0x3fd9993f	1.6999892
24	0x3fa0680e	1.2531755
25	0x3fa9e052	1.3271582
26	0x3f1643fd	0.5869749
27	0x3fa78b79	1.3089439
28	0xbe780c92	-0.24223545
29	0x3d042ab3	0.032267284
30	0xbe851c65	-0.25998226
31	0x3f5cc13f	0.8623237
32	0xbfb58e1b	-1.4183992
33	0xbf6105cd	-0.87899476
34	0xbe4e9b8a	-0.20176521
35	0x3fde74fa	1.7379448
36	0x3e980b8a	0.29696304
37	0xbec848cc	-0.3911804
38	0x3ea3682a	0.31915408
39	0xbf3de701	-0.7418061
40	0xbfc3ad20	-1.5287209
41	0x3f80a946	1.0051658
42	0xbf648785	-0.89269286
43	0xbf1b65b1	-0.60702044
44	0xbfa2a1ee	-1.2705667
45	0x4006b787	2.1049516
46	0xbf9c24b5	-1.2198702
47	0xbf02c69b	-0.510843
48	0xbf67bded	-0.9052418
49	0xbf25bd0a	-0.64741576
50	0x3d86fb91	0.06590951
51	0x3f0353e2	0.5129987
52	0xbefe309f	-0.4964647
53	0x3f96d9da	1.1785233
54	0xbf4d0565	-0.80086356
55	0xbf3c841d	-0.7363909
56	0xbfb3f45f	-1.4058951
57	0xbb38bcb3	-0.0028188645
58	0xbd5677df	-0.05236041
59	0x3f290580	0.6602402
60	0xbdc8abe8	-0.097984135
61	0x3feae6da	1.83517
62	0xbf96a8aa	-1.1770222
63	0x3fb2dff2	1.3974593
64	0x3fb4c490	1.4122486
65	0x3f61f753	0.8826801
66	0x400c8b9f	2.1960218
67	0x3f026105	0.5092929
68	0x3ea3e107	0.3200762
69	0xbe1f3f64	-0.15551525
70	0xbf8265d6	-1.0187328
71	0x3fa5c8b6	1.2951877
72	0xbdfdc0d2	-0.12390293
73	0x3f12f0ab	0.5739848
74	0x3d94a642	0.07258274
75	0x3ed00567	0.40629122
76	0x3f17a191	0.59230906
77	0xbf270512	-0.6524211
78	0xc00ca6ee	-2.1976886
79	0xbf428ce6	-0.75996244
80	0xbbe15144	-0.0068761427
81	0xbebf4861	-0.37359908
82	0xbfb0bca9	-1.3807575
83	0xbf0a0cd6	-0.53925836
84	0x3f0062f0	0.50150967
85	0x3f043b3c	0.51652884
86	0x3f94e4ed	1.1632363
87	0x3c4c24ec	0.012459975
88	0x3f3452be	0.70438755
89	0xbf038cb4	-0.5138657
90	0xbf8702f7	-1.054778
91	0x3f107f14	0.56443906
92	0xbfdfcadd	-1.7483784
93	0xbf48e58e	-0.7847527
94	0x3faedfb2	1.3662016
95	0x3eeefb26	0.46675986
96	0xc01f7a2a	-2.4918313
97	0x3ef355a4	0.47526276
98	0x3f4a6772	0.79064095
99	0x3b66584f	0.003514785
100	0x3f2137fe	0.6297606
101	0x3f157279	0.58377796
102	0x3f88068e	1.0627
103	0xbeea238a	-0.4573024
104	0xbe59eef0	-0.21282554
105	0x3f436a78	0.76334333
106	0x3ecc470e	0.3989796
107	0x3e591000	0.2119751
108	0x3e8a3794	0.26995528
109	0x3fa589d0	1.2932682
110	0xbc07ee14	-0.008296508
111	0xbeaca313	-0.33718166
112	0xbfb8d148	-1.4438868
113	0xbdc0578e	-0.093917
114	0xbf1124f1	-0.56696993
115	0x3f05026b	0.51956815
116	0x3f395b6b	0.7240512
117	0x3dfa2dfc	0.12215802
118	0xbed5ad72	-0.4173389
119	0x3f0675ce	0.52523506
120	0xbd189f55	-0.037261326
121	0x3e87b68b	0.26506457
122	0x3de3f956	0.111315414
123	0x3f379304	0.71708703
124	0x3f8dc689	1.1076213
125	0x3ebbc7b9	0.36675814
126	0x3f368272	0.71292794
127	0x3ed146c4	0.40874302
128	0x3ff9bee2	1.9511378
129	0x3f80ad5e	1.0052907
130	0xbfb8427c	-1.439529
131	0xbf912cf8	-1.1341848
132	0xbe129e3d	-0.14318176
133	0x3fcf1f6a	1.6181462
134	0x3f2a9db1	0.6664687
135	0x3f15e6e0	0.5855541
136	0x3f90553b	1.127601
137	0x3cd41738	0.025889978
138	0xbfe60427	-1.7970017
139	0x3f6a24b8	0.9146228
140	0xbebfcecd	-0.37462464
141	0x3f87ae55	1.0600077
142	0xbf368401	-0.7129517
143	0x3f1ea184	0.61965203
144	0xbf73bfea	-0.9521471
145	0x3f73482c	0.95032
146	0x3fcb6084	1.5888829
147	0x3fb921e3	1.4463466
148	0x3e8c414f	0.27393577
149	0xbe3fcac3	-0.18729691
150	0xbf39b19b	-0.7253663
151	0x3ddd625a	0.10809775
152	0x3ea5f16a	0.32410747
153	0x3f74cd25	0.95625526
154	0xbef73a4c	-0.48286664
155	0x3fcb9fca	1.5908139
156	0xc01d9924	-2.462472
157	0xbecc7f31	-0.3994079
158	0xbf9a188d	-1.2038742
159	0x3f4bd1f9	0.7961727
160	0xbff4962b	-1.9108328
161	0x3e686961	0.22696449
162	0x3b882839	0.0041551855
163	0xbeaa1f98	-0.3322723
164	0x3e8d83d3	0.27639636
165	0xbf3770e3	-0.71656626
166	0x3e4c17cd	0.19930954
167	0xbf87977d	-1.0593106
168	0xbfca1dc0	-1.5790329
169	0x3faf5b36	1.369971
170	0x3fa4eb0a	1.2884228
171	0x3d12e41e	0.03586208
172	0xbfc7c723	-1.5607647
173	0x3f3a723b	0.7283055
174	0x3f4cdde9	0.8002611
175	0x40009b0a	2.0094628
176	0x3d100f0a	0.035170592
177	0x3e1aeeae	0.15130112
178	0xbf4d9e7c	-0.8031995
179	0xbe544b78	-0.20731914
180	0xbf6d5865	-0.92713004
181	0xbfcc9499	-1.5982848
182	0xbf8c88d2	-1.0979254
183	0xbf0d5584	-0.5520861
184	0xbf00fb1f	-0.5038318
185	0xbfbb42de	-1.4629781
186	0xbff9cbc6	-1.9515312
187	0x3e0a49f0	0.13504767
188	0x3f83ad66	1.0287292
189	0xbf0eeddf	-0.5583171
190	0x3f2a56da	0.66538775
191	0x3f2e21f4	0.6802056
192	0x3fe5e6cc	1.7961059
193	0xbf698a66	-0.91226804
194	0x3f7adb37	0.97990745
195	0xbeb32ce0	-0.34995174
196	0xbf92d862	-1.1472285
197	0x3eb8acd0	0.36069345
198	0x3eee6b3a	0.46566182
199	0x3fac21e0	1.3447838
200	0x3efd761c	0.49504173
201	0x4003f492	2.0618024
202	0xbf05bdfd	-0.52243024
203	0xbf6d5a26	-0.9271568
204	0x3e4e89d9	0.20169772
205	0x3f8905e2	1.070492
206	0x3fa53986	1.290818
207	0x3ed2a841	0.41143993
208	0xbf45623f	-0.77103037
209	0xbf84130d	-1.0318314
210	0xbefa5f12	-0.48900658
211	0xbf23ab58	-0.63933325
212	0x3e20b155	0.15692647
213	0x3eeb4be5	0.4595634
214	0xbe3feb3e	-0.18742082
215	0xc015806c	-2.3359632
216	0xbed2c903	-0.41168985
217	0x3f8a23bb	1.0792154
218	0xbfe07beb	-1.7537817
219	0x3fbfe1be	1.4990766
220	0x3ea98859	0.33111838
221	0xbf056b76	-0.521171
222	0x3f88c90f	1.0686358
223	0x3fdda4bb	1.7315897
224	0xbd151f77	-0.03640696
225	0x3fdb80b4	1.7148652
226	0x3e1e2587	0.15444003
227	0xbf892602	-1.0714724
228	0xbf15cbc0	-0.5851402
229	0x3e01c74f	0.12673686
230	0x3edddbc8	0.43331742
231	0x3ffc4160	1.9707451
232	0xbd492318	-0.049105734
233	0xbf630b72	-0.8868934
234	0xc003431b	-2.0509708
235	0xbf8cb10c	-1.099153
236	0x3d8f0c89	0.06984813
237	0x3ddab838	0.10679668
238	0x3e606506	0.21913537
239	0x3ec4aeee	0.3841471
240	0xbf732f08	-0.9499364
241	0x3e902713	0.2815481
242	0xbf0f76c6	-0.5604061
243	0x3f03557b	0.5130231
244	0xbf693d55	-0.9110921
245	0xbc9977d0	-0.018733889
246	0xbea90c1b	-0.33017048
247	0x3fb3ea41	1.4055864
248	0x3f9cf7ac	1.2263083
249	0xbf37bcf7	-0.7177271
250	0x3f5964ab	0.8491923
251	0x3ef5a083	0.47974023
252	0x3f05f92f	0.5233335
253	0x3f136bd3	0.575864
254	0x3f0dabea	0.55340445
255	0x3e2f6caa	0.17131296

blocks.0.norm1.weight f4 [32]
0	0x3f82eddb	1.0228838
1	0x3f812aa4	1.0091138
2	0x3f7d0c14	0.98846555
3	0x3f7e6580	0.99373627
4	0x3f80f88a	1.0075848
5	0x3f7e5ef1	0.9936362
6	0x3f8211d8	1.0161695
7	0x3f7e877e	0.99425495
8	0x3f81e2b2	1.0147307
9	0x3f80ba4d	1.0056854
10	0x3f7e0587	0.99227184
11	0x3f806970	1.0032177
12	0x3f8085fa	1.0040886
13	0x3f80e47c	1.0069728
14	0x3f7ec794	0.9952328
15	0x3f7fe719	0.99962
16	0x3f80e8a6	1.0070999
17	0x3f7fb9ed	0.99893075
18	0x3f80aca5	1.0052687
19	0x3f809a51	1.0047094
20	0x3f800158	1.000041
21	0x3f8136dc	1.0094867
22	0x3f810227	1.0078782
23	0x3f7dd713	0.991563
24	0x3f80c795	1.0060908
25	0x3f802132	1.001013
26	0x3f807ab2	1.0037444
27	0x3f7d1f3f	0.988758
28	0x3f7db844	0.9910929
29	0x3f80a2f1	1.0049726
30	0x3f7e5fd6	0.99364984
31	0x3f80d7ca	1.0065854

blocks.0.norm1.bias f4 [32]
0	0x3bc944e4	0.0061422456
1	0x3b89fb40	0.0042108595
2	0xbb4fc03d	-0.0031700276
3	0x3b1c8883	0.0023885078
4	0xbc1bd677	-0.009511582
5	0x3c728dcf	0.014804318
6	0xbbe0210c	-0.006839877
7	0x39c5dd79	0.00037739778
8	0xbbb9013a	-0.005645898
9	0x394dcb48	0.00019626052
10	0x3c5346a9	0.012895265
11	0x39d5830e	0.0004072417
12	0xbb10ea03	-0.0022112138
13	0x3bfe8c58	0.007768195
14	0xbb199f3b	-0.0023440856
15	0xbabc0e28	-0.0014347481
16	0x3c0a40c3	0.008438292
17	0xbbba9a23	-0.005694644
18	0xbbba69c7	-0.005688879
19	0x3b531b55	0.0032212336
20	0xbb673c82	-0.0035283868
21	0x3b6e4c10	0.0036361255
22	0xbbbce0cc	-0.0057641026
23	0x3c6ef2d6	0.014584264
24	0x3b965dc9	0.004588817
25	0xbb7f4439	-0.0038950576
26	0xbbeb15a0	-0.0071742088
27	0xbb56ed93	-0.0032795414
28	0x3b1d1ca1	0.0023973363
29	0x3a888898	0.0010416685
30	0xbb87f825	-0.004149454
31	0x3b563a10	0.0032688417

blocks.0.attn.qkv.weight f4 [96, 32]
0	0x3e114811	0.14187647
1	0xbe149ae9	-0.14512219
2	0xbcc11e07	-0.023573888
3	0xbe35e3c4	-0.17762667
4	0xbe13af60	-0.14422369
5	0x3c90f1a9	0.017693358
6	0x3d26dd09	0.04073814
7	0x3ccc88c4	0.024967559
8	0xbd917b6e	-0.071036205
9	0x3e17efa3	0.14837508
10	0x3cd1c83d	0.025608176
11	0xbdb6ff5d	-0.089354254
12	0x3b114232	0.00221647
13	0x3d3e06fd	0.046393383
14	0x3d5e6da0	0.054303765
15	0xbdc23b57	-0.094839744
16	0x3d42e01b	0.047577005
17	0xbdb6405c	-0.08898994
18	0xbe22b4f2	-0.15889338
19	0xbdc4d46a	-0.09610827
20	0x3e47bb23	0.1950498
21	0x3e18adff	0.14910124
22	0x3e29c42d	0.16578741
23	0x3ddb6369	0.1071232
24	0x3e10cb58	0.1414007
25	0xbd1c515a	-0.03816352
26	0xbdccb318	-0.09995097
27	0x3db8c5eb	0.09022125
28	0xbdcbbe30	-0.09948385
29	0xbddcc85f	-0.10780405
30	0xbd5fb0a0	-0.054611802
31	0x3d26478b	0.040595572
32	0x3da47f18	0.08032054
33	0xbd5dbe74	-0.05413671
34	0xbd95acea	-0.07308371
35	0x3c82d83d	0.015972251
36	0xbdcce66d	-0.10004888
37	0xbdb479b9	-0.08812279
38	0x3dc7ee22	0.09762217
39	0x3bae5f03	0.005321385
40	0x3e3bf019	0.18353309
41	0x3e440610	0.19142938
42	0x3d163992	0.036675997
43	0x3d35621e	0.044283025
44	0x3ca67b62	0.020322505
45	0xbb11eaa1	-0.0022265094
46	0x3c04e154	0.008110363
47	0xbd005b54	-0.031337097
48	0x3db21a14	0.0869638
49	0x3e2166c0	0.15761852
50	0xbd0726bf	-0.032995936
51	0xbdaa66ea	-0.083204105
52	0xbdabeae6	-0.08394413
53	0xbd9eea64	-0.0775955
54	0x3bac0d4a	0.0052506076
55	0x3de5687f	0.11201572
56	0x3df1ec3a	0.11812635
57	0x3dd222b7	0.102605276
58	0xbe0157da	-0.12631169
59	0xbdbce881	-0.09224034
60	0xba5b667f	-0.000836946
61	0xbd5137c9	-0.05107859
62	0x3c2b8143	0.01046783
63	0xbe22af0f	-0.15887092
64	0x3d695835	0.056968886
65	0xbe05597f	-0.13022421
66	0xbdce2fcf	-0.100677125
67	0xbe1bc735	-0.1521271
68	0x3e23b662	0.15987542
69	0xbe2b8cf0	-0.16752982
70	0x3dfdb659	0.12388296
71	0xb9c468ae	-0.00037462026
72	0xbcdb85dc	-0.026797228
73	0x3ddd5aee	0.10808359
74	0xbcca4752	-0.024692211
75	0x3de27f04	0.110593826
76	0x3dfbd08d	0.12295637
77	0xbe16d16f	-0.1472833
78	0x3d8a0f2e	0.067411765
79	0x3cf9474f	0.03042951
80	0x3d1fa3ce	0.038974576
81	0x3ca5b70f	0.02022889
82	0x3d44fd91	0.048093382
83	0xbdbf6c1f	-0.09346794
84	0xbca36b15	-0.019948522
85	0x3e31ad90	0.17351365
86	0x3df0cedc	0.11758205
87	0xbbfeb76f	-0.007773332
88	0xbe2b1981	-0.16708948
89	0x3c4c1a61	0.012457461
90	0xbdfecff0	-0.12442005
91	0x3e199412	0.1499789
92	0xbdc652b1	-0.09683741
93	0xbc897e22	-0.016783778
94	0xbd3b718c	-0.045762584
95	0x3d05efea	0.032699503
96	0x3e3f0db1	0.18657567
97	0x3ccaf4ea	0.024774987
98	0x3d721642	0.059103258
99	0x3e1e2a78	0.15445888
100	0x3e1aa752	0.1510289
101	0xbda2edf9	-0.07955546
102	0xbd654181	-0.055970673
103	0x3d44adbf	0.04801726
104	0xbd8bee72	-0.06832589
105	0x3d9f54e2	0.07779862
106	0xbc83509a	-0.016029645
107	0xbe01859e	-0.12648627
108	0x3d94d4f7	0.07267182
109	0x3d37841c	0.044803724
110	0x3d4e4655	0.050360043
111	0x3e450969	0.19241871
112	0x3dfcfdb1	0.12353075
113	0x3e2207a5	0.15823229
114	0x3c9866d3	0.018603718
115	0xbe24da42	-0.16098884
116	0xbdac8e25	-0.084255494
117	0xbdc54280	-0.096318245
118	0xbdff49ea	-0.1246527
119	0xbd77b24f	-0.060472783
120	0xbe1270d0	-0.14300847
121	0xbe27ccae	-0.16386673
122	0xbde782be	-0.11304234
123	0xbe23cf14	-0.15996963
124	0xbe15de62	-0.14635614
125	0x3d83745f	0.064186804
126	0x3e0912d9	0.13386096
127	0xbd8e67c8	-0.069533885
128	0xbd2cd880	-0.042198658
129	0x3dd31d5f	0.103083365
130	0xbdb8cf83	-0.09023955
131	0xbdaa0008	-0.08300787
132	0x3df85f70	0.12127578
133	0xbe259f73	-0.16174106
134	0x3bc07904	0.005873801
135	0x3e1b7330	0.1518066
136	0x3cb10263	0.021607583
137	0x3d2cdbb3	0.04220171
138	0xbdd5d691	-0.10441316
139	0xbb9e34dd	-0.004828079
140	0x3b66805d	0.0035171725
141	0x3d5d64cd	0.05405121
142	0x3d765729	0.060141716
143	0x3e219bd7	0.15782104
144	0xbe081e42	-0.13292792
145	0xbbc6a1bd	-0.006061761
146	0xbda7b815	-0.08189408
147	0xbe1c34d9	-0.15254535
148	0x3ac7e57c	0.0015250887
149	0xbe1222ab	-0.14271037
150	0x3e041c1a	0.12901345
151	0x3cde90d2	0.027168665
152	0xbdbee109	-0.09320266
153	0x3dc8ea1e	0.09810279
154	0xbe33383c	-0.1750192
155	0xbd6448fe	-0.055733673
156	0xbd0552d3	-0.03254969
157	0xbe223042	-0.15838721
158	0xbdfedaa9	-0.1244405
159	0xbd0ccdf9	-0.03437612
160	0x3e06c607	0.13161479
161	0x3e324db8	0.1741246
162	0x3e2497f3	0.16073589
163	0xbdea58a8	-0.11442691
164	0xbddc7e47	-0.10766273
165	0x3e2c0df8	0.16802204
166	0x3d6300c9	0.05542067
167	0x3ced68d1	0.028980644
168	0x3d29f55e	0.041493766
169	0xbe0bb471	-0.13643052
170	0xbd8cd9f8	-0.06877512
171	0x3e2f6b18	0.17130697
172	0xbd586402	-0.05282975
173	0xbc05c82e	-0.008165402
174	0xbe11956d	-0.14217158
175	0xbdf36a2b	-0.11885484
176	0x3ba26314	0.0049556587
177	0xbde87e9a	-0.11352272
178	0xbcd87fed	-0.026428187
179	0x3d7e98c3	0.062157404
180	0xbe4e842c	-0.20167607
181	0x3d5fdaf7	0.05465218
182	0xbe00f9ff	-0.12595366
183	0xbdbd531b	-0.09244367
184	0x3d81b5e3	0.0633352
185	0x3e191d3f	0.14952563
186	0xbd4b7bd1	-0.049678627
187	0xbd8a2f8e	-0.067473516
188	0xbe08c21e	-0.133553
189	0xbdc91617	-0.098186664
190	0xbe20e85a	-0.15713635
191	0xbd0d6a56	-0.034525238
192	0x3d05617f	0.032563683
193	0xbe28795f	-0.1645255
194	0x3e137db0	0.14403415
195	0x3de894ed	0.1135653
196	0xbe2ca0ad	-0.16858168
197	0xbdc919dc	-0.098193854
198	0x3d62a1b4	0.055329993
199	0xbd073cf9	-0.033017132
200	0xbcdb1154	-0.026741661
201	0xbda52114	-0.0806295
202	0x3e0da9d9	0.13834323
203	0xbdcbdf13	-0.099546574
204	0x3e16a2b9	0.14710511
205	0x3ca4e6c1	0.020129563
206	0x3d182420	0.037143826
207	0x3e1546fe	0.14577863
208	0xbd1ef2ba	-0.0388057
209	0xbdda06ac	-0.10645804
210	0xbcdbea74	-0.026845194
211	0x3e110f16	0.14165911
212	0xbdfdf0a1	-0.12399412
213	0x3d3ea9a3	0.046548497
214	0xbe398a46	-0.18119153
215	0x3db27660	0.087139845
216	0x3d78ccfe	0.06074237
217	0x3b32be7d	0.0027274184
218	0x3d967c32	0.07347907
219	0x3ba79a3a	0.005114821
220	0x3dd6679e	0.10468982
221	0xbe0e552e	-0.13899681
222	0xbcdef376	-0.0272157
223	0x3da4264b	0.08015116
224	0x3e370e69	0.17876591
225	0x3db8be2d	0.09020648
226	0xbe0e0cce	-0.13872072
227	0x3e0248c7	0.12723075
228	0xbd0b8777	-0.034064736
229	0xbd46ec4d	-0.048565198
230	0xbe2cb3aa	-0.16865411
231	0xbcf2a09f	-0.029617606
232	0x3de581d8	0.11206406
233	0x3c6a615a	0.014305437
234	0xbde186d2	-0.11012043
235	0x3d73c08f	0.05950981
236	0xbd5eca20	-0.05439198
237	0x3e2a7585	0.16646393
238	0xbe1f1101	-0.1553383
239	0xbd17a3f5	-0.037021596
240	0xbe33f66c	-0.17574471
241	0xbd98a27a	-0.07452865
242	0x3d5cb3f5	0.053882558
243	0x3e2796c2	0.16366103
244	0x3d3a5fc1	0.045501474
245	0x3e367c9b	0.1782097
246	0x3d142cab	0.03617541
247	0x3dd1fae2	0.1025293
248	0x3e1391ba	0.14411059
249	0x3e15b7c0	0.14620876
250	0xbdd649e6	-0.10463314
251	0x3e2cf3b2	0.16889837
252	0x3de0544b	0.109535776
253	0xbda81872	-0.082077876
254	0xbdb8f882	-0.09031774
255	0xbe1518ae	-0.14560196

blocks.0.attn.proj.weight f4 [32, 32]
0	0xbd836956	-0.064165756
1	0x3df4af24	0.11947468
2	0xbe01bf2a	-0.1267058
3	0xbe13c9e0	-0.14432478
4	0xbe098d45	-0.13432796
5	0xbdd690b5	-0.104768194
6	0x3e28623e	0.16443726
7	0x3ce5d082	0.028053526
8	0xbcd09dc2	-0.02546585
9	0xbd55061a	-0.052007772
10	0xbe0c4af9	-0.13700475
11	0xbd5c0e18	-0.05372438
12	0x3dbab607	0.0911675
13	0x3dfe408a	0.124146536
14	0x3e04c013	0.12963895
15	0x3c4a1209	0.0123334015
16	0xbdc3b1e1	-0.09555412
17	0xbdd31982	-0.103075996
18	0x3e2b4d94	0.16728812
19	0xbe268d75	-0.16264899
20	0x3d2a5cb9	0.041592333
21	0xbc9aa21b	-0.018876126
22	0x3e358a3c	0.17728513
23	0x3dd5f0a8	0.10446292
24	0xbd6a01ae	-0.057130508
25	0xbe14385a	-0.14474621
26	0x3d31ac6a	0.043377317
27	0xbdf64fa5	-0.1202691
28	0xbccff47f	-0.02538514
29	0x3d3bfcab	0.04589526
30	0x3dbfb4c0	0.09360647
31	0xbd2af161	-0.041734103
32	0xbddd71b0	-0.108127
33	0xbe04aaab	-0.1295573
34	0xbe3c985b	-0.18417494
35	0x3cafec21	0.0214749
36	0xbdf3a31e	-0.118963465
37	0x3c6f4503	0.014603856
38	0xbdb1d58e	-0.086833104
39	0xbdfa34bf	-0.12217092
40	0x3debb26c	0.11508641
41	0x3dd4b343	0.10385754
42	0x3e05ed2e	0.13078758
43	0x3e463f6b	0.1936013
44	0xbe08b308	-0.13349545
45	0xbddb02e9	-0.106939144
46	0xbe1411d4	-0.14459926
47	0x3dec39c4	0.115344554
48	0x3db421ce	0.0879551
49	0x3e1740df	0.1477084
50	0xbe073e31	-0.13207318
51	0xbdd95afb	-0.10613056
52	0x3e29a49f	0.16566704
53	0xbe03943c	-0.12849516
54	0xbe18e3c4	-0.14930636
55	0x3d9da709	0.07697875
56	0xbe1c6c00	-0.15275574
57	0xbd5ae2a7	-0.05343881
58	0x3dd45417	0.10367601
59	0x3e0bbaee	0.13645527
60	0xbc3ee02a	-0.011650125
61	0xbe153942	-0.14572623
62	0x3dda4da7	0.10659342
63	0x3e3d0f14	0.18462783
64	0xbe0b038d	-0.13575573
65	0x3b99e327	0.004696268
66	0xbe039ac0	-0.12852001
67	0xbdeac5f4	-0.11463538
68	0x3d8f7765	0.070051946
69	0x3d95c51e	0.07312988
70	0x3d859f9f	0.06524586
71	0xbe1323ca	-0.14369121
72	0xbd059e12	-0.03262145
73	0x3d4fb065	0.050705332
74	0xbcdbdc60	-0.026838481
75	0xbdbd10c2	-0.09231712
76	0xbdb2173b	-0.08695837
77	0x3e2cd96d	0.16879816
78	0xbe10df46	-0.14147672
79	0xbde05b01	-0.109548576
80	0x3e09569f	0.1341195
81	0xbdfda769	-0.123854466
82	0x3df25451	0.11832488
83	0xbdb56708	-0.08857542
84	0xbc08ad13	-0.008342045
85	0xbda94571	-0.08265198
86	0x3e0bea18	0.13663518
87	0x3de8b2fc	0.113622636
88	0x3d06bcc5	0.03289487
89	0x3c5997ef	0.013280853
90	0xbd8ed542	-0.069742694
91	0xbdb7b3a7	-0.08969813
92	0xbd8c16c9	-0.068402834
93	0x3d6b83dd	0.0574988
94	0xbcb682e5	-0.022279212
95	0x3ddfd9b2	0.10930194
96	0x3cb6b499	0.022302913
97	0xbc18d49e	-0.009328036
98	0xbdb71690	-0.0893985
99	0x3d9a588b	0.075364195
100	0xbe252288	-0.16126454
101	0x3d21b4f1	0.0394792
102	0x3d90d2c7	0.070714526
103	0x3cddc8ea	0.027073342
104	0x3df7f744	0.12107709
105	0x3d34a9b7	0.044107165
106	0xbd440f5a	-0.047866203
107	0xbe152e58	-0.1456846
108	0xbe2c4c7a	-0.16826048
109	0x3dc1f18a	0.09469898
110	0x3dcf13a6	0.101111695
111	0xbe03b2dc	-0.12861198
112	0x3d518860	0.051155448
113	0xbd82b242	-0.06381656
114	0x3e167da0	0.1469636
115	0xbd6a5315	-0.05720814
116	0x3e190c58	0.14946115
117	0x3e01e362	0.12684396
118	0x3dec1e55	0.11529223
119	0x3df6db22	0.12053515
120	0x3d8b8ff0	0.06814563
121	0x3d5ca501	0.053868297
122	0xbe369add	-0.17832513
123	0xbd262be8	-0.040569216
124	0xbca0fc7a	-0.01965164
125	0x3da6792a	0.08128579
126	0xbdbad841	-0.091232784
127	0x3d906cf0	0.07052028
128	0x3df1efe8	0.118133366
129	0x3d94758d	0.072489835
130	0x3daa82b1	0.08325709
131	0xbcaedd9b	-0.021345904
132	0x3dbf311e	0.0933554
133	0xbd83a5a4	-0.06428078
134	0x3e10f924	0.1415754
135	0x3bdebb95	0.006797264
136	0xbbef5123	-0.0073033734
137	0xbe2063f1	-0.15663125
138	0x3e241a0d	0.16025563
139	0xbd09adbe	-0.03361296
140	0x3e079cbc	0.13243383
141	0xbdf8a4a3	-0.12140777
142	0xbe129a7f	-0.14316748
143	0xbcaf3bb6	-0.021390777
144	0xbe0caaec	-0.13737077
145	0x3cf65bac	0.03007301
146	0x3b8198b2	0.0039549703
147	0xbd81c75d	-0.06336854
148	0x3ddbc3f7	0.10730737
149	0x3df9848b	0.12183484
150	0xbe1a6440	-0.15077305
151	0xbe109b46	-0.14121732
152	0x3dbee207	0.09320455
153	0xbdd1e9dc	-0.10249683
154	0x3cbb955d	0.02289837
155	0xbd3330b5	-0.043747623
156	0x3cc7c6c4	0.024386771
157	0xbdc39f99	-0.09551925
158	0xbb744012	-0.0037269634
159	0xbd61181a	-0.054954626
160	0xbda6859b	-0.08130952
161	0xbdc4be2f	-0.09606587
162	0x3d2403f5	0.040042836
163	0x3dfccbd5	0.123435654
164	0xbbf86dfa	-0.0075814696
165	0xbb768bb8	-0.00376199
166	0x3e0d766d	0.13814707
167	0x3e0a019b	0.13477175
168	0xbcf0d232	-0.029397104
169	0xbe0a5a63	-0.13511042
170	0x3d40180a	0.046897925
171	0x3d77dd40	0.060513735
172	0xbe11a5b8	-0.14223373
173	0xbe25550c	-0.16145724
174	0x3cbac913	0.022800958
175	0x3e2993b7	0.16560255
176	0xbe1cadfc	-0.15300745
177	0xbdb3006f	-0.08740317
178	0xbd715349	-0.058917318
179	0xbe1e1a48	-0.15439713
180	0xbddcd2db	-0.10782405
181	0x3e0dc82b	0.1384589
182	0x3e0c8b6e	0.13725063
183	0xbe09541c	-0.13410991
184	0x3a97a2a1	0.0011568853
185	0xbe12b844	-0.14328104
186	0x3d848d16	0.064722225
187	0xbdf288d4	-0.11842504
188	0xbdbb6c58	-0.09151524
189	0xbdad0f74	-0.08450213
190	0x3cdaf824	0.02672965
191	0x3decee03	0.11568835
192	0xbd914114	-0.07092491
193	0x3d0b5dc4	0.03402497
194	0x3e14504d	0.14483757
195	0xbbdc1c2e	-0.0067172265
196	0x3c277003	0.010219577
197	0x3c725b3a	0.014792258
198	0x3c673e5a	0.014113987
199	0x3dcb262a	0.099193886
200	0x3dc61ed0	0.09673846
201	0xbdcdae42	-0.10043003
202	0x3e289e28	0.16466582
203	0x3dc543ca	0.0963207
204	0xbccb4af9	-0.024816023
205	0x3e1fec1e	0.15617415
206	0x3c1552ee	0.00911401
207	0x3de1c80f	0.11024486
208	0xbe1e40d1	-0.15454413
209	0x3e21156a	0.15730825
210	0x3e271ebb	0.16320316
211	0xbe035c71	-0.12828232
212	0xbe24cb28	-0.16093123
213	0xbd43acea	-0.047772326
214	0xbe03524f	-0.12824367
215	0x3d6e0368	0.058108717
216	0x3dce6ad8	0.100789726
217	0xbcb4d7e2	-0.022075597
218	0x3df04ac1	0.11733008
219	0x3c287295	0.010281225
220	0xbd5511bd	-0.05201887
221	0xbe20f98b	-0.15720193
222	0x3d391575	0.04518648
223	0xbe329519	-0.17439689
224	0x3bdc0cad	0.0067153783
225	0x3cd7590e	0.026287582
226	0xbde6b909	-0.112657614
227	0x3d826631	0.06367148
228	0x3ce23d59	0.027617143
229	0x3e00ba67	0.12571107
230	0x3db75a83	0.089528106
231	0xbe1ca220	-0.15296221
232	0xbe0e5660	-0.13900137
233	0xbd4edb83	-0.05050231
234	0xbdf247af	-0.11830079
235	0x3d7fef81	0.062484268
236	0xbdfe0c04	-0.124046355
237	0xbe058ac7	-0.1304122
238	0x3d3a6a4c	0.04551153
239	0x3dc0bb67	0.09410744
240	0xbd6a9aad	-0.057276417
241	0xbe3377a6	-0.17526111
242	0x3caac8b3	0.020847654
243	0x3da526b0	0.0806402
244	0x3e070ae6	0.13187751
245	0x3c80ec61	0.015737714
246	0x3e07bad0	0.13254857
247	0xbe1fbe21	-0.15599872
248	0x3e206ea2	0.15667203
249	0xbdfe95cb	-0.124309145
250	0xbddc2c2d	-0.10750613
251	0x3df89fee	0.12139879
252	0xbcfdedc2	-0.03099716
253	0x3de74aef	0.11293589
254	0xbdbf4c83	-0.09340765
255	0x3e075fee	0.13220188

blocks.0.attn.proj.bias f4 [32]
0	0x3df63fcd	0.12023888
1	0x3c5b3367	0.0133789545
2	0x3e26db02	0.16294482
3	0xbdbb421c	-0.09143469
4	0xbd74fbca	-0.059810437
5	0x3b61264d	0.0034355104
6	0x3dc501bb	0.09619471
7	0xbe173365	-0.14765699
8	0xbd50d82c	-0.050987408
9	0x3e0a7ec7	0.13524924
10	0x3d335f1a	0.043791868
11	0x3dfea61a	0.12434025
12	0xbd82aec2	-0.06380989
13	0xbde83360	-0.11337924
14	0xbde0b1de	-0.109714255
15	0xbddcd7a0	-0.10783315
16	0xbe0514c8	-0.12996209
17	0x3da28e5c	0.07937309
18	0x3d594cfa	0.053051926
19	0xbde6d335	-0.11270753
20	0x3e17774a	0.14791599
21	0x3d2de316	0.042452894
22	0x3d868423	0.06568172
23	0xbd927535	-0.07151262
24	0x3df676e3	0.120343946
25	0xbdee7d18	-0.116449535
26	0x3df74233	0.120731734
27	0xbdb84ab7	-0.08998626
28	0x3d9015c1	0.07035399
29	0xbd8f7d48	-0.070063174
30	0x3ddf724f	0.109104745
31	0xbe0e1f37	-0.13879095

blocks.0.norm2.weight f4 [32]
0	0x3f83139a	1.0240357
1	0x3f81d320	1.0142555
2	0x3f823054	1.0170999
3	0x3f80c4be	1.0060041
4	0x3f79163d	0.9729956
5	0x3f7a59db	0.9779336
6	0x3f7ef15f	0.99587053
7	0x3f81502f	1.0102595
8	0x3f81841f	1.0118445
9	0x3f80b8e9	1.005643
10	0x3f7ea312	0.99467576
11	0x3f810b8f	1.0081652
12	0x3f820500	1.0157776
13	0x3f7cf5d7	0.9881262
14	0x3f7eb433	0.9949371
15	0x3f7f3f4f	0.99705976
16	0x3f8230a7	1.0171098
17	0x3f7ee461	0.9956723
18	0x3f7a79e0	0.97842216
19	0x3f7f0fdc	0.99633574
20	0x3f7f25c4	0.99667
21	0x3f7b8011	0.9824229
22	0x3f7edbe4	0.99554276
23	0x3f8235f0	1.017271
24	0x3f80a551	1.005045
25	0x3f816545	1.010903
26	0x3f80326d	1.0015389
27	0x3f80670e	1.003145
28	0x3f80d042	1.0063555
29	0x3f826d31	1.0189573
30	0x3f7fb3ce	0.99883735
31	0x3f8237f4	1.0173326

blocks.0.norm2.bias f4 [32]
0	0x3b244633	0.0025066256
1	0xbba1a765	-0.004933285
2	0xbbf16062	-0.007366226
3	0xbca09bcf	-0.019605545
4	0xbb8c9eb8	-0.0042913817
5	0x3b63ac4a	0.0034740143
6	0x3bed9bc9	0.007251237
7	0xbbcd1af9	-0.006259319
8	0x3a52a92c	0.0008036073
9	0x3b529c8f	0.0032136773
10	0x3bf6ec8b	0.0075355223
11	0xbc3bb43b	-0.0114565445
12	0x3b1b47a8	0.0023693834
13	0xbcbe0fad	-0.023200834
14	0x3bbf64d9	0.0058408794
15	0xbb3c4b49	-0.0028731397
16	0x3b259d90	0.0025270917
17	0xbba15bc3	-0.004924269
18	0x3c785461	0.015156836
19	0xbbe0e07b	-0.0068626977
20	0xbaf36424	-0.0018569273
21	0xbbbf6774	-0.00584119
22	0x3b3c056a	0.002868975
23	0x3b5a48ac	0.0033307476
24	0x3c045084	0.008075837
25	0xb95e7b36	-0.0002121747
26	0xbb628068	-0.00345614
27	0xbb071dab	-0.0020617049
28	0xbc0d94aa	-0.008641401
29	0x3a8ccadc	0.0010741609
30	0xbb9601a4	-0.0045778323
31	0x3c032e79	0.008006685

blocks.0.mlp.fc1.weight f4 [128, 32]
0	0xbcc256fa	-0.023723114
1	0xbd6b990d	-0.057519007
2	0xbe1bf152	-0.15228775
3	0xbd85f577	-0.06540959
4	0xbd68eb30	-0.056864917
5	0x3c3b64d3	0.011437613
6	0x3e06cc95	0.1316398
7	0xbd0e7ebe	-0.03478884
8	0x3e4bc0b7	0.19897734
9	0xbd93e794	-0.072219044
10	0xbd8bb801	-0.06822205
11	0xbc1d0417	-0.009583495
12	0xbd4a29eb	-0.049356382
13	0x3d757d50	0.05993396
14	0x3e33a460	0.17543173
15	0x3d71891a	0.05896864
16	0xbe0adf9e	-0.13561866
17	0xbda35b82	-0.07976438
18	0xbcab23e9	-0.020891147
19	0xbe17c992	-0.14822987
20	0x3d4ece2f	0.0504896
21	0x3e623caf	0.22093461
22	0x3d475f02	0.04867459
23	0x3b3f2183	0.0029164262
24	0xbcd0a43d	-0.02546894
25	0xbda5d836	-0.080978796
26	0xbcf0b824	-0.02938468
27	0x3e2191a1	0.1577821
28	0xbdf2c777	-0.11854451
29	0x3d138ffb	0.036025982
30	0xbde63783	-0.11241057
31	0xbd488744	-0.048957124
32	0x3c9235fa	0.017848004
33	0xbe190bb2	-0.14945868
34	0x3cf1c2da	0.029511858
35	0xbe233475	-0.1593798
36	0xbdcc421d	-0.099735476
37	0x3de2ef86	0.11080842
38	0x3e414405	0.18873604
39	0xbce13d5b	-0.027495077
40	0xbdc88d10	-0.097925305
41	0xbe1ea155	-0.15491231
42	0xbcc00a32	-0.023442362
43	0xbda3d9d4	-0.08000532
44	0x3e153402	0.1457062
45	0xbe109e6c	-0.14122933
46	0x3dd4dfee	0.10394274
47	0x3d2e9ce7	0.042630102
48	0xbd2fe51b	-0.0429431
49	0x3e0efc15	0.13963349
50	0x3dc7ce76	0.09756176
51	0x3c4f86b0	0.012666389
52	0xbde137fc	-0.10997006
53	0xbcf83bf0	-0.030302018
54	0x3ce91a5a	0.028454948
55	0x3e26d5ce	0.16292498
56	0xbd5c887b	-0.053841095
57	0xbdb8f5ab	-0.090312324
58	0xbe22f347	-0.15913115
59	0x3dc29dd5	0.0950276
60	0x3e598ccf	0.2124512
61	0x3e044b5f	0.12919377
62	0xbdc02527	-0.09382086
63	0x3e0007e7	0.12503015
64	0xbd6206eb	-0.05518238
65	0x3dc85083	0.097809814
66	0x3deb3178	0.11484045
67	0xbe15260c	-0.14565295
68	0x3d38b6d2	0.045096226
69	0x3d99e50e	0.07514392
70	0xbdebcad9	-0.115132995
71	0x3e2ea4f0	0.17055106
72	0x3e00c0a3	0.12573485
73	0x3e186349	0.14881624
74	0xbc4a0018	-0.012329124
75	0xbdebaba5	-0.11507348
76	0xbdc85b95	-0.09783093
77	0x3d8e3f52	0.06945671
78	0xbd25034a	-0.04028634
79	0x3e089cfe	0.13341138
80	0x3e20e038	0.15710533
81	0x3c33e6fa	0.010980362
82	0xbe18fd7c	-0.14940447
83	0x3d8434f4	0.064554125
84	0x3e2728a7	0.16324101
85	0xbd18549b	-0.03719006
86	0xbdd50516	-0.10401361
87	0xbd16af23	-0.036788117
88	0x3cf4b36a	0.029870708
89	0xbdf713b1	-0.12064303
90	0x3dd4160c	0.103557676
91	0x3d8d8c13	0.06911483
92	0xbd9251fa	-0.07144542
93	0xbd74f7c2	-0.059806593
94	0xbd918131	-0.071047194
95	0x3e0362ee	0.12830707
96	0x3de38c30	0.11110723
97	0x3d474ff1	0.048660222
98	0xbcb3e60c	-0.02196028
99	0x3d22e816	0.039772116
100	0x3e23f25f	0.16010426
101	0x3d1de1a4	0.038545266
102	0xbd9b8f74	-0.07595721
103	0x3d7573c3	0.059924852
104	0xbd9b5050	-0.07583678
105	0xbbd5b42c	-0.0065217223
106	0xbdf23ab9	-0.11827607
107	0x3bd0ba44	0.006369861
108	0x3ca74326	0.020417761
109	0xbdcc8ae6	-0.0998743
110	0x3dd4338f	0.103613965
111	0x3e2863e0	0.1644435
112	0xbe4041f8	-0.18775165
113	0x3d7bf9bf	0.061517473
114	0xbe0356bc	-0.12826055
115	0xbcae8b1b	-0.021306565
116	0x3dbc9042	0.092072025
117	0x3c31fe39	0.010863834
118	0x3d7382b4	0.05945082
119	0xbd4d7651	-0.050161663
120	0x3e34ff47	0.17675506
121	0xbdb8d213	-0.090244435
122	0x3d1188c3	0.035530817
123	0x3c100721	0.008790762
124	0x3dd5c361	0.10437656
125	0x3d0b46ef	0.034003194
126	0x3dff2e7c	0.12460038
127	0x3d167ef8	0.03674218
128	0x3e04f9b3	0.12985878
129	0xbc783a09	-0.015150555
130	0x3d960518	0.0732519
131	0x3e35c7ec	0.17752045
132	0xbd5ea915	-0.054360468
133	0xbd77d9ea	-0.060510553
134	0x3e01a5ec	0.1266095
135	0x3d939235	0.07205621
136	0xbe256733	-0.16152649
137	0x3d9784a6	0.073983476
138	0xbe2f4de3	-0.17119555
139	0xbdc5747b	-0.096413575
140	0x3d76e31c	0.060275182
141	0x3daa7317	0.08322733
142	0xbd14ec53	-0.03635819
143	0x3e109c90	0.14122224
144	0x3e345249	0.17609514
145	0x3e097a8e	0.13425657
146	0xbe133ba1	-0.14378215
147	0xbd824bc9	-0.06362111
148	0x3b9517fc	0.0045499783
149	0x3e16bca8	0.14720404
150	0xbd0c4ec4	-0.034254804
151	0x3d24eb88	0.040263683
152	0x3dad24ab	0.084542595
153	0xbdb09759	-0.08622617
154	0xbde5db73	-0.11223497
155	0x3e27ebd3	0.16398554
156	0xbaf7720d	-0.0018878594
157	0x3df928ab	0.1216596
158	0xbe40a706	-0.18813714
159	0xbd975a26	-0.07390241
160	0x3e1065c2	0.14101318
161	0xbcc01a23	-0.023449963
162	0x3d670c1e	0.05640804
163	0xbe1893c8	-0.14900124
164	0x3e261362	0.16218331
165	0xbdafe2e1	-0.085881956
166	0xbb1304b6	-0.0022433228
167	0xbdf87e3a	-0.12133451
168	0xbd904274	-0.07043925
169	0xbe1d1fd4	-0.15344173
170	0xbe1ac3c5	-0.15113743
171	0xbccd40da	-0.025055338
172	0xbd9cbcbc	-0.07653186
173	0x3dfadfb1	0.12249697
174	0xb9accafc	-0.00032957632
175	0x3e09edaf	0.13469575
176	0xbd185908	-0.03719428
177	0x3d29db03	0.04146863
178	0x3e2d9f2d	0.16955252
179	0xbe03c640	-0.12868595
180	0xbda5a7f5	-0.08088676
181	0x3e05c977	0.13065134
182	0xbcc34000	-0.023834229
183	0xbd73033f	-0.059329268
184	0x3c7c9685	0.015416746
185	0xbdd0bb37	-0.101919584
186	0x3c04004e	0.008056713
187	0xbd8aa3cb	-0.06769522
188	0x3d78ff70	0.06079048
189	0xbd19055c	-0.037358627
190	0xbd7f5529	-0.062337074
191	0xbd6a79c2	-0.057245024
192	0x3d013553	0.031544995
193	0x3da4683f	0.08027696
194	0xbe3d8a6b	-0.18509834
195	0xbe000135	-0.1250046
196	0xbe31e51d	-0.17372556
197	0x3dba2977	0.0908994
198	0x3df30bb6	0.11867468
199	0xbe2d6b0d	-0.16935368
200	0x3c92dc3b	0.01792728
201	0x3d0bb3e3	0.0341071
202	0xbdb5a475	-0.08869258
203	0x3d215072	0.03938336
204	0x3e1412e0	0.14460325
205	0x3e3bc5be	0.18337151
206	0x3d851ec4	0.06500009
207	0xbd0ea67b	-0.034826737
208	0xbde87504	-0.11350444
209	0xbd9a1f19	-0.07525463
210	0xbbe893b0	-0.007097684
211	0xbbc9522a	-0.006143828
212	0x3e064e07	0.13115703
213	0xbe0aedf1	-0.1356733
214	0x3c6b563b	0.014363821
215	0xbd38c4e0	-0.04510963
216	0x3c7bfaf4	0.015379656
217	0x3e393459	0.18086375
218	0x3c2513d9	0.010075533
219	0xbcea58f8	-0.028606877
220	0xbd5b8814	-0.05359657
221	0xbe15ab54	-0.14616138
222	0xbe1cbb3a	-0.15305796
223	0x3d9dd08f	0.07705795
224	0xbdcc45de	-0.099742636
225	0x3dc16f6d	0.09445081
226	0xbd6a5001	-0.057205204
227	0x3d0716ba	0.032980658
228	0x3e0eec34	0.13957292
229	0xbb13087c	-0.0022435477
230	0x3d9d4a84	0.07680228
231	0x3e07bc32	0.13255385
232	0xbd934426	-0.07190733
233	0x3e0415f0	0.12898993
234	0xbe2914a0	-0.16511774
235	0x3e385d7b	0.1800441
236	0xbd2aff0a	-0.04174713
237	0x3be22fa5	0.0069026523
238	0x3dbcedd7	0.09225052
239	0x3d00e820	0.03147137
240	0x3df78ece	0.12087785
241	0xbd83546c	-0.064125866
242	0xbdd78d79	-0.10525031
243	0x3e29883d	0.16555877
244	0xbdd6cc36	-0.10488169
245	0x3de09cc5	0.109674014
246	0x3e2ad66a	0.16683355
247	0x3e097ca4	0.13426453
248	0xbd66a767	-0.05631199
249	0xbb8a4c91	-0.004220553
250	0xbe25388a	-0.16134849
251	0xbdb527fd	-0.08845518
252	0xbd55ddd1	-0.052213494
253	0xbddc5a0f	-0.10759365
254	0x3da1d78a	0.07902439
255	0x3dd2def7	0.102964334

blocks.0.mlp.fc2.weight f4 [32, 128]
0	0x3b8eb8f9	0.0043555466
1	0xbbf52bba	-0.0074820193
2	0xbda55cfe	-0.080743775
3	0x3c55aec0	0.013042152
4	0xbda1cbba	-0.07900186
5	0x3bb56e63	0.0055368408
6	0xbbb5bae7	-0.005545962
7	0x3d688526	0.056767605
8	0xbcf9833b	-0.030458083
9	0x3d97640b	0.073921286
10	0xbc138c7a	-0.00900566
11	0xbc7b4809	-0.015336999
12	0xbdb24b88	-0.08705813
13	0x3d9d6156	0.07684581
14	0x3bdfff45	0.0068358504
15	0xbd901736	-0.07035677
16	0x3bf91646	0.007601532
17	0x3d3aa62a	0.045568623
18	0xbcd5f88b	-0.026119491
19	0x3d664b8a	0.056224383
20	0x3d2316bc	0.039816603
21	0xbc73fe69	-0.014892199
22	0x3dc9377e	0.098250374
23	0x3d8edc54	0.06975618
24	0xbbd86a2c	-0.0066044535
25	0xbb4261c3	-0.0029660321
26	0x3d592965	0.053017993
27	0xbcd8dd10	-0.026472598
28	0x3d819b2a	0.06328423
29	0xbd99f1bf	-0.075168125
30	0xbd30b7cd	-0.043144036
31	0x3d31383b	0.043266516
32	0xbdcfa32f	-0.10138547
33	0xbd3f9038	-0.046768397
34	0xbd2fe5e9	-0.04294387
35	0x3d320cdf	0.043469306
36	0xbbe961b9	-0.007122245
37	0xbd927b83	-0.07152464
38	0x3da3bc7d	0.07994936
39	0xbd2a9f30	-0.04165572
40	0xbb7ab5fc	-0.0038255444
41	0x3d0d2c2c	0.034465954
42	0xbdaa64f3	-0.08320036
43	0xbbe5de42	-0.0070150206
44	0xbccc9083	-0.024971252
45	0xbd12da7f	-0.035852905
46	0xbcdf552a	-0.02726229
47	0x3d696e75	0.056990106
48	0xbd574b9d	-0.052562345
49	0xbd45af4c	-0.04826288
50	0x3d28eed5	0.041243393
51	0x3d084583	0.033269417
52	0x3ac6561e	0.0015131866
53	0x3bfa96c4	0.007647367
54	0x3da6a697	0.08137243
55	0xbd012d2d	-0.031537224
56	0xbd9fd116	-0.07803552
57	0xbdabd8bf	-0.083909504
58	0x3ccb9f46	0.02485622
59	0x3d055275	0.03254934
60	0xbc83b265	-0.016076276
61	0xbd955f9b	-0.07293626
62	0xbd9208ef	-0.0713061
63	0xbd8d37ef	-0.06895434
64	0x3d93c687	0.072156005
65	0x3cb35444	0.021890767
66	0xbd4ff1a8	-0.05076757
67	0xbdc97a9b	-0.09837838
68	0x3d4e2a2b	0.050333183
69	0x3ac0bd11	0.0014704784
70	0x3daa3aa9	0.0831197
71	0xbd6cd55a	-0.057820655
72	0xbd92458a	-0.0714217
73	0x3cc0d0a3	0.023536986
74	0x3d838b26	0.06423025
75	0x3dae774e	0.08518849
76	0x3dbba8a7	0.09163027
77	0x3d6e589d	0.058189977
78	0x3cf38d8d	0.029730583
79	0xbd4ff784	-0.05077316
80	0x3db3ea76	0.08784954
81	0xbd09adbe	-0.03361296
82	0x3d8d0b4a	0.06886919
83	0x3d222c2b	0.039592903
84	0xbd42a500	-0.047520638
85	0xbc4c7228	-0.012478389
86	0xbc08290f	-0.00831057
87	0x3dad3dc7	0.08459049
88	0x3d6e2793	0.05814321
89	0x3c5bc71d	0.0134141715
90	0xbd6a899a	-0.057260133
91	0x3c4aa938	0.012369446
92	0x3d8f13d0	0.06986201
93	0xbd238d2c	-0.039929554
94	0x3d98ae6a	0.07455142
95	0x3a99c527	0.001173173
96	0x3d716a80	0.058939457
97	0x3d0cd587	0.034383323
98	0x3d40e637	0.04709455
99	0xbd7aef0d	-0.061263133
100	0x3d296631	0.041357223
101	0xbdb48bf1	-0.08815754
102	0xbc086c33	-0.008326578
103	0x3d95e176	0.07318394
104	0xbd9a50c9	-0.0753494
105	0xbd8fc957	-0.070208244
106	0xbd021a61	-0.031763438
107	0x3ba15054	0.004922906
108	0xbc7b73ff	-0.01534748
109	0xbd8abbb6	-0.06774084
110	0x3c92d854	0.017925419
111	0xbca2eaad	-0.019887293
112	0xbd34b361	-0.04411638
113	0x3c03654b	0.008019756
114	0x3d04088e	0.03223472
115	0x3c68e42d	0.014214558
116	0xbd412b01	-0.047160152
117	0x3d4c3bea	0.049861826
118	0x3c06a3d3	0.00821777
119	0xbd25e1b0	-0.040498435
120	0x3d9f0128	0.077638924
121	0x3ce22787	0.027606739
122	0x3d580f33	0.05274887
123	0x3d8c306b	0.068451725
124	0x3b190345	0.0023347896
125	0x3d7e01f0	0.062013566
126	0x3ceb8eaf	0.02875456
127	0x3d8dccc2	0.0692382
128	0x3c187b74	0.009306777
129	0x3db6deb6	0.089291975
130	0x3d3487d6	0.044074856
131	0xbd3318f6	-0.043724976
132	0x3d928e37	0.071560316
133	0xbadc26a2	-0.0016796181
134	0xbc66fa8f	-0.014097824
135	0xbda63e6e	-0.08117376
136	0xbc8a522c	-0.016884886
137	0x3d81fda6	0.06347208
138	0xbd7882ce	-0.06067162
139	0x3d1705ff	0.036870953
140	0x3d783ab5	0.060602862
141	0xbd9e0453	-0.077156685
142	0xbbfba5d3	-0.00767968
143	0x3c7cf568	0.015439369
144	0x3d9ef3aa	0.07761319
145	0x3bd4105a	0.006471676
146	0xbdaf0af6	-0.085470125
147	0xbd360d44	-0.044446245
148	0x3d1e3e0d	0.038633395
149	0xbd87f8e5	-0.0663927
150	0xbdb5c669	-0.08875734
151	0xbc8cf27a	-0.017205466
152	0x3d00038e	0.03125339
153	0xbd864f9e	-0.065581545
154	0xbda550a7	-0.08072024
155	0x3d564911	0.052315775
156	0xbd63cc3d	-0.0556147
157	0xbd78b681	-0.060720924
158	0xbd074b57	-0.033030834
159	0x3d96ca08	0.07362753
160	0xbc51d61a	-0.012807393
161	0xbd766364	-0.06015338
162	0xbd8c1f71	-0.068419345
163	0xbcc6d0c2	-0.024269465
164	0x3da107fe	0.078628525
165	0x3d456263	0.048189532
166	0xbd11e2fa	-0.035616852
167	0xbd9e71ea	-0.07736571
168	0xbd0d13b7	-0.03444263
169	0x3d0c2f47	0.034224775
170	0x3db8999a	0.09013672
171	0x3d5b171d	0.05348884
172	0xbd94054a	-0.07227571
173	0x3ce07500	0.02739954
174	0xbaa8ac50	-0.0012868736
175	0x3cf8d076	0.03037284
176	0x3d2b7301	0.041857723
177	0xbceea2cd	-0.029130364
178	0x3c283228	0.010265864
179	0x3ca65001	0.02030182
180	0x3c8d9eaa	0.017287571
181	0xbd444f38	-0.04792711
182	0x3d4e63d7	0.050388183
183	0xbdad94b3	-0.08475628
184	0x3d31123a	0.043230273
185	0xbd81b60c	-0.06333551
186	0xbd314c4e	-0.04328566
187	0xbd590ef6	-0.052992783
188	0xbc03b559	-0.008038842
189	0xbc35f41d	-0.011105564
190	0xbdc3d714	-0.09562507
191	0x3d6dfcb1	0.058102313
192	0xbb13f507	-0.0022576468
193	0x3da8de98	0.082455814
194	0xbd3d68b8	-0.046242446
195	0xbd5f8efe	-0.054579727
196	0x3cbb37f8	0.022853836
197	0x3d886f01	0.06661797
198	0x3dca882a	0.098892525
199	0x3cbedc8c	0.023298524
200	0x3c9bf517	0.019037766
201	0x3c4273a5	0.011868392
202	0xbd51a21a	-0.051179983
203	0xbd952f20	-0.07284379
204	0xbd93f8e0	-0.072252035
205	0xbd87e487	-0.06635385
206	0x3bfbeb56	0.0076879663
207	0x3d83a8a3	0.06428649
208	0x3d96d0b1	0.073640235
209	0xbd52058d	-0.051274825
210	0xbc48122a	-0.012211362
211	0x3da401af	0.080081336
212	0x3adb7c2c	0.001674538
213	0x3ac5626f	0.0015059243
214	0xbd538254	-0.051637962
215	0xba0a544f	-0.0005276845
216	0x3d63e476	0.0556378
217	0xbd3d854d	-0.046269704
218	0xbcf6c4bd	-0.030123109
219	0x3c84ead9	0.016225265
220	0xbd0b8f0f	-0.03407198
221	0xbcf9cfa0	-0.030494511
222	0x3be0e0a2	0.006862716
223	0x3d5244ce	0.05133515
224	0xbb5bfe78	-0.0033568423
225	0x3c6e6bf6	0.014552107
226	0xbd6d48d6	-0.05793079
227	0x3d41a37d	0.047275055
228	0x3bb26491	0.0054441174
229	0xbd1f6034	-0.038910106
230	0xbdcbba5c	-0.099476546
231	0xbd1d863a	-0.038458087
232	0xbd981637	-0.07426112
233	0x3a23c39b	0.0006247104
234	0x3d9481af	0.07251298
235	0xbbdc7f44	-0.0067290384
236	0x3d9985a3	0.07496192
237	0xbcb1dd5a	-0.021711994
238	0xbcbf4fce	-0.023353484
239	0xbdc9c787	-0.0985251
240	0xbd54831b	-0.051882844
241	0x3d7460d2	0.059662648
242	0x3d54ca9a	0.05195103
243	0x3d5f2516	0.054478727
244	0xbc318aae	-0.0108362865
245	0x3ca3dee9	0.020003753
246	0xbcbc9847	-0.02302183
247	0x3d9dd623	0.07706859
248	0xbdaaedea	-0.0834616
249	0xbd422328	-0.04739681
250	0xbdd612d6	-0.104528114
251	0x3c9c39c1	0.019070508
252	0xbd04e6d4	-0.032446697
253	0xbccee836	-0.025257211
254	0x3d14685f	0.03623235
255	0x3da965a1	0.08271337

blocks.1.norm1.weight f4 [32]
0	0x3f8239b7	1.0173863
1	0x3f84be07	1.0370492
2	0x3f824ca4	1.0179639
3	0x3f80228c	1.0010543
4	0x3f7fdc24	0.9994528
5	0x3f801ac3	1.0008167
6	0x3f806aa3	1.0032543
7	0x3f7aa0db	0.97901696
8	0x3f8272a6	1.0191238
9	0x3f7fbdbe	0.998989
10	0x3f836a82	1.0266879
11	0x3f7f1d14	0.99653745
12	0x3f7ff03c	0.99975944
13	0x3f7fb3c3	0.9988367
14	0x3f7e63ae	0.9937085
15	0x3f7ddbcf	0.99163526
16	0x3f806597	1.0031003
17	0x3f80ce58	1.0062971
18	0x3f7ec1c0	0.9951439
19	0x3f7edf6f	0.9955968
20	0x3f7f09f7	0.9962458
21	0x3f7cf22b	0.9880702
22	0x3f81b0bf	1.0132064
23	0x3f838168	1.0273867
24	0x3f7d94ac	0.9905498
25	0x3f804f61	1.0024225
26	0x3f7d564c	0.98959804
27	0x3f7f6b23	0.9977285
28	0x3f83c0bb	1.0293192
29	0x3f8315b6	1.0241001
30	0x3f84d587	1.0377663
31	0x3f7feede	0.9997386

blocks.1.norm1.bias f4 [32]
0	0x3b054738	0.002033664
1	0xbc5e5890	-0.01357092
2	0xbc0c0c03	-0.008547786
3	0xbb823b45	-0.0039743506
4	0x399a1be5	0.00029393952
5	0x3ae6f4e5	0.0017620592
6	0xbbd3faa3	-0.006469087
7	0x3c2f670f	0.010705723
8	0xbab59d49	-0.0013856079
9	0x3c053a16	0.008131525
10	0xbb7871b8	-0.0037909579
11	0xbace629d	-0.0015745942
12	0xbb2548ef	-0.0025220474
13	0xbbb72cf2	-0.0055900747
14	0x3b879420	0.004137531
15	0xbbeac9f4	-0.007165188
16	0x3ba9661d	0.0051696436
17	0xbc8dfdc2	-0.017332915
18	0x3bef5542	0.0073038647
19	0x3b5992e4	0.0033199126
20	0xba86091d	-0.0010226105
21	0xbb0bc98c	-0.0021329848
22	0xbb7963c3	-0.0038053847
23	0xba66e959	-0.0008808575
24	0xbc23098a	-0.009951005
25	0xba4ef9a5	-0.00078954763
26	0xb981ae81	-0.00024734813
27	0x3b06600f	0.0020504033
28	0xba68dfe5	-0.00088834605
29	0x39efebd4	0.00045761338
30	0xbbb38acb	-0.005479192
31	0xbb28910e	-0.0025721225
