image_encoder/trained_models/vit_20241108_161256.pth (torch, 561019 bytes, 77 tensors)

cls_token f4 [1, 1, 32]
00000000: e7e2 08bc 4ebf 923c 15ea 1f3c 2a77 343c
00000010: d310 aabc f18a 50bc 420f 243c 6d96 a33c
00000020: 2dbb bbbc 65fd 57bc 44e4 8dba f5bd a6bb
00000030: c943 9bb8 b84b cf3c 810c afbc 9e9c bfbc
00000040: bc86 813a a802 c7ba 1faf cd3c 4678 c43c
00000050: bfae a13c 635b c8bb 2429 adbc 7e4d db3c
00000060: 2aa9 e9bc 5e50 63bc d440 7f3a a4b5 133b
00000070: 2364 ca3c bb33 8fbc 32c0 e5b9 b006 9cbc
-0.008354879 0.017913487 0.009760399 0.011014739 -0.020759976 -0.012728439 0.010013403 0.01996919
-0.0229164 -0.013182973 -0.0010825475 -0.0050885626 -7.403602e-05 0.02530466 -0.021368267 -0.02339011
0.0009882073 -0.0015183287 0.025107918 0.023983132 0.019736646 -0.00611441 -0.021137781 0.02677035
-0.028523047 -0.0138741415 0.0009737138 0.0022538686 0.024705952 -0.017480722 -0.0004382148 -0.019046158

pos_enc f4 [32, 32, 32]
00000000: 0000 0000 0000 803f 0000 0000 0000 803f
00000010: 0000 0000 0000 803f 0000 0000 0000 803f
00000020: 0000 0000 0000 803f 0000 0000 0000 803f
00000030: 0000 0000 0000 803f 0000 0000 0000 803f
00000040: 0000 0000 0000 803f 0000 0000 0000 803f
00000050: 0000 0000 0000 803f 0000 0000 0000 803f
00000060: 0000 0000 0000 803f 0000 0000 0000 803f
00000070: 0000 0000 0000 803f 0000 0000 0000 803f
00000080: 0000 0000 0000 803f 0000 0000 0000 803f
00000090: 0000 0000 0000 803f 0000 0000 0000 803f
000000a0: 0000 0000 0000 803f 0000 0000 0000 803f
000000b0: 0000 0000 0000 803f 0000 0000 0000 803f
000000c0: a46a 573f 4151 0a3f ba7d 083f 0d94 583f
000000d0: 3e39 9f3e 6b4e 733f 3a23 353e 83f6 7b3f
000000e0: 7775 cc3d 98b8 7e3f af36 663d 6898 7f3f
000000f0: 5c81 013d 3cdf 7f3f 42ab 913c a3f5 7f3f
00000100: 0000 0000 0000 803f 0000 0000 0000 803f
00000110: 0000 0000 0000 803f 0000 0000 0000 803f
00000120: 0000 0000 0000 803f 0000 0000 0000 803f
00000130: 0000 0000 0000 803f 0000 0000 0000 803f
00000140: b7c7 683f 3311 d5be 0af2 663f b2e8 dc3e
00000150: 1b54 173f ec7b 4e3f f647 b23e a6fa 6f3f
00000160: f96f 4b3e a5e5 7a3f 87d9 e53d f361 7e3f
00000170: c970 813d f97c 7f3f 5ca5 113d 8ed6 7f3f
00000180: 0000 0000 0000 803f 0000 0000 0000 803f
00000190: 0000 0000 0000 803f 0000 0000 0000 803f
000001a0: 0000 0000 0000 803f 0000 0000 0000 803f
000001b0: 0000 0000 0000 803f 0000 0000 0000 803f
000001c0: c381 103e 2670 7dbf d745 7e3f ab7f edbd
000001d0: c209 503f 582f 153f 6d2f 023f 296d 5c3f
000001e0: 6d4e 973e ef90 743f d8ee 2b3e 9e5d 7c3f
000001f0: c1ff c13d 4fd9 7e3f 4e69 5a3d c3a2 7f3f
00000200: 0000 0000 0000 803f 0000 0000 0000 803f
00000210: 0000 0000 0000 803f 0000 0000 0000 803f
00000220: 0000 0000 0000 803f 0000 0000 0000 803f
00000230: 0000 0000 0000 803f 0000 0000 0000 803f
00000240: cfbd 41bf 3055 27bf ec49 473f 9eaf 20bf
00000250: de1d 743f b12e 9a3e bc1f 273f edeb 413f
00000260: d861 c73e a7ca 6b3f c665 643e 098d 793f
00000270: 892e 013e 69f4 7d3f c88d 913d 465a 7f3f
00000280: 0000 0000 0000 803f 0000 0000 0000 803f
00000290: 0000 0000 0000 803f 0000 0000 0000 803f
000002a0: 0000 0000 0000 803f 0000 0000 0000 803f
000002b0: 0000 0000 0000 803f 0000 0000 0000 803f
000002c0: 107c 75bf 2c3c 913e d8da a53e 4032 72bf
000002d0: 7ffc 7f3f e972 29bc abca 463f f14c 213f
000002e0: 4477 f53e 40a9 603f ed11 8e3e 7cf2 753f
000002f0: 1e3c 213e 81ce 7c3f 21db b53d 1efd 7e3f
00000300: 0000 0000 0000 803f 0000 0000 0000 803f
00000310: 0000 0000 0000 803f 0000 0000 0000 803f
00000320: 0000 0000 0000 803f 0000 0000 0000 803f
00000330: 0000 0000 0000 803f 0000 0000 0000 803f
00000340: 8c0f 8fbe b8cd 753f 76e5 6bbe 531d 79bf
00000350: 4e78 723f 6d3f a4be 8930 603f 322f f73e
00000360: 698c 103f 3249 533f fd7d a93e e290 713f
00000370: 6f20 413e e367 7b3f c219 da3d 518b 7e3f
00000380: 0000 0000 0000 803f 0000 0000 0000 803f
00000390: 0000 0000 0000 803f 0000 0000 0000 803f
000003a0: 0000 0000 0000 803f 0000 0000 0000 803f
000003b0: 0000 0000 0000 803f 0000 0000 0000 803f
000003c0: 4630 283f bdff 403f 6db6 36bf 614f 33bf
000003d0: 6ee8 4c3f bc74 19bf 4484 723f b6f8 a33e
000003e0: 73eb 243f b3cc 433f de60 c43e c66b 6c3f
000003f0: 51d3 603e eac0 793f ba46 fe3d e904 7e3f
0.0 1.0 0.0 1.0 0.0 1.0 0.0 1.0
0.0 1.0 0.0 1.0 0.0 1.0 0.0 1.0
0.0 1.0 0.0 1.0 0.0 1.0 0.0 1.0
0.0 1.0 0.0 1.0 0.0 1.0 0.0 1.0
0.0 1.0 0.0 1.0 0.0 1.0 0.0 1.0
0.0 1.0 0.0 1.0 0.0 1.0 0.0 1.0
0.84147096 0.54030234 0.53316844 0.8460091 0.3109836 0.9504153 0.17689219 0.9842302
0.09983342 0.9950042 0.056204494 0.9984193 0.031617507 0.99950004 0.017781857 0.99984187
0.0 1.0 0.0 1.0 0.0 1.0 0.0 1.0
0.0 1.0 0.0 1.0 0.0 1.0 0.0 1.0
0.9092974 -0.41614684 0.9021307 0.43146282 0.5911271 0.8065784 0.34820527 0.93741834
0.19866933 0.9800666 0.11223131 0.9936821 0.0632034 0.9980007 0.03555809 0.9993676
0.0 1.0 0.0 1.0 0.0 1.0 0.0 1.0
0.0 1.0 0.0 1.0 0.0 1.0 0.0 1.0
0.14112 -0.9899925 0.9932532 -0.11596616 0.8126489 0.58275366 0.50853616 0.86104065
0.29552022 0.9553365 0.1679033 0.9858035 0.09472609 0.99550337 0.053323083 0.9985773
0.0 1.0 0.0 1.0 0.0 1.0 0.0 1.0
0.0 1.0 0.0 1.0 0.0 1.0 0.0 1.0
-0.7568025 -0.6536436 0.7784717 -0.6276797 0.95358074 0.30113748 0.652828 0.7575062
0.38941836 0.921061 0.22304448 0.9748083 0.12615408 0.99201065 0.07107121 0.9974712
0.0 1.0 0.0 1.0 0.0 1.0 0.0 1.0
0.0 1.0 0.0 1.0 0.0 1.0 0.0 1.0
-0.9589243 0.2836622 0.32393527 -0.94607925 0.99994653 -0.010342338 0.77652997 0.6300803
0.47942555 0.87758255 0.2774805 0.96073127 0.15745589 0.987526 0.08879686 0.99604976
0.0 1.0 0.0 1.0 0.0 1.0 0.0 1.0
0.0 1.0 0.0 1.0 0.0 1.0 0.0 1.0
-0.2794155 0.96017027 -0.23036751 -0.9731037 0.9471482 -0.3207964 0.8757406 0.48278195
0.5646425 0.8253356 0.33103934 0.943617 0.18860029 0.98205394 0.10649444 0.9943133
0.0 1.0 0.0 1.0 0.0 1.0 0.0 1.0
0.0 1.0 0.0 1.0 0.0 1.0 0.0 1.0
0.6569866 0.75390226 -0.7137211 -0.70043 0.8004216 -0.5994375 0.9473307 0.3202569
0.64421767 0.7648422 0.38355154 0.9235195 0.21955611 0.9755999 0.12415834 0.9922624

norm.weight f4 [32]
00000000: 4360 a33f 54a0 aa3f a673 a63f 0423 a03f
00000010: 360c ab3f 7ba4 a13f 018a a43f 39a2 a33f
00000020: 4176 b13f 38b1 a43f 0879 b03f f28d a33f
00000030: 37a4 a53f 65b1 a63f 07e4 ac3f 61c8 a43f
00000040: 68e7 9b3f 12d8 ae3f a8d4 b03f d8a0 a93f
00000050: a213 a83f 33f9 af3f b46c ad3f 4ba1 9a3f
00000060: d3b1 a93f fc57 af3f 21e9 b23f 5e6b a23f
00000070: 2a8a ad3f fcb4 a93f e989 a73f 7f7e a63f
1.2763752 1.3330178 1.3004043 1.2510686 1.3363101 1.262832 1.2854615 1.2783881
1.3864213 1.2866583 1.3786936 1.2777693 1.2940739 1.3022887 1.3507088 1.2873651
1.2179995 1.365969 1.3814898 1.3252211 1.3130991 1.3747925 1.3548799 1.2080473
1.3257393 1.3698726 1.3977395 1.2689016 1.3557789 1.3258357 1.3088962 1.3007354

norm.bias f4 [32]
00000000: 077b 093d dab1 093e dd5e 143e da56 8dbd
00000010: 22b3 69bb f461 2e3d 98c6 b73c 1e47 1a3e
00000020: 4bec 8ebd d761 1bbe a664 1bbd 48db ee3d
00000030: 84ba 0dbe edc3 34be 4c78 89bc 9c39 223c
00000040: f8bb 75be 9e1c ee38 71bd 0a3e 18da 573e
00000050: 0eee ed3c 588c 2b3d 1fdb 19be 1a01 343d
00000060: b3ae e13c 8aed 61be 3c62 133e 4b86 0cbd
00000070: d586 fb3d 2142 34be 1eeb 1a3e d3be 92bd
0.033564594 0.13446751 0.14489312 -0.06901331 -0.003565975 0.042573884 0.022433564 0.15066192
-0.06978663 -0.15174042 -0.037937783 0.11662918 -0.13840681 -0.17652865 -0.016780995 0.00990143
-0.23997486 0.00011354055 0.13548829 0.2107929 0.029044177 0.04188189 -0.15024994 0.043946363
0.027549123 -0.2206327 0.14392942 -0.03430776 0.122815765 -0.17603351 0.15128753 -0.07165303

patch_embeddings.weight f4 [14, 32]
00000000: 6688 763e 072c b3bd 0f5d c8be d1e2 5ebf
00000010: 36b8 273f 05e4 b8bb de36 6f3f 8620 ac3d
00000020: 4a79 c13e 7eba 973f 2bfc b2bf 0656 03bf
00000030: a41d 4a3e 61f6 82be 335d 6ebf 61da c93f
00000040: 56ec a93f 22b2 d5bd c8aa 963e cad6 6b3f
00000050: b84e 03c0 d271 ff3e 3278 c13f 1364 1e3f
00000060: f389 b73d 7942 c8bf cc54 91bf 77df b8be
00000070: ef30 d63e 7247 48bf 6fed bb3f 864f 1f40
00000080: 67d6 31bf f592 9bbe 9273 863f a565 df3d
00000090: 1cb4 0e3e 44bd 933f ed8a 97bf 1ed8 acbe
000000a0: 7437 06bf afb5 65bf 9d30 123f 0fa8 b8bf
000000b0: 9e18 96bf 6290 1b3f e911 13bf e5c7 3fbf
000000c0: b070 d63f d549 53bf 3743 ad3f 2d8a 75be
000000d0: 035c c4bf 5067 0440 c4b3 3040 1b93 dabf
000000e0: 86e0 ba3f 330a c1bf bbf1 533f 47fd 5abe
000000f0: 5126 453f 6229 c23f 4e23 d73f eb7f e4be
00000100: 28d0 52bf b7c1 103f 52f8 cabd 985e d9bc
00000110: 9260 02bf 992d fa3e 0e7e 8ebe 6203 8abf
00000120: db1e 0440 caae febe 3566 863e 89bc 333f
00000130: 0128 b0bf fab8 643f 2b9c cf3d 943d 733e
00000140: 0899 1f40 0d0f a0bf cf78 843f b72e 0a3f
00000150: 480e cbbf 725b a4bf a1be 2f3f aff6 46be
00000160: 76a4 b43e b544 b3be 2453 d13e 3360 48bf
00000170: 091f debe 575c c0be bd98 7cbf b9c7 dcbe
00000180: 94c2 d5bf edd2 b0bf 97b8 2dbe cf29 783f
00000190: 4954 a13c 78e8 3fbf d3cf 87be 07ec e63c
000001a0: 7346 37be be1f 09be fe94 9d3e a1a7 ae3f
000001b0: 0c08 173e 9b84 2240 8661 17bf a646 00c0
000001c0: f345 b9be 6295 143d 36f3 693f 5577 ecbf
000001d0: 6077 083e 5f46 f93e 6bc1 ddbf f2f3 133f
000001e0: 6e69 e13f 1308 a03e eab2 9e3e c01a 29bf
000001f0: 6d68 2fbf 1e7d 9b3e 79ee 1bbf d9b1 bcbf
00000200: 890a 03c0 e9c0 ec3f efc8 ab3f d368 fbbe
00000210: 1fc2 ab3f 63e8 d73f ebc3 d5bd a509 ddbf
00000220: 6244 c4bc 2652 e93d 12b2 7f3f 946b 2d3f
00000230: 6f57 9a3e e4d4 37bf 7b25 443f 0931 643f
00000240: 0a4b 0f40 a006 7f3f 367b bebf aaee 7dbe
00000250: 669c 97bd aa33 89be 2e8e 1fbf ef66 8f3f
00000260: 4305 7ebf ea02 2b3e b6d7 a03f b20f 8abe
00000270: 9897 8cbf 6f67 33bf ccb5 c63f a533 33bf
00000280: cb70 64bf 7718 843d 6250 77bd fa32 1740
00000290: 24cd 2cc0 96b5 043f f1db 5abf 559b 87be
000002a0: 7a00 7ebb 0de5 0240 d178 20be 9d0e 80be
000002b0: 8d82 a7bf b51e a8bd ddc7 efbf 940b b1bf
000002c0: f2e2 adbe 9d46 97bf 4f3b ad3d ef3c 543e
000002d0: da57 473f b1b9 5c3f 4257 dcbf f4a2 a33f
000002e0: 4fe7 773f 5b79 883f ae79 1f3f c010 a1bf
000002f0: 0e7f 27bf 7f5d 0740 477f 093f a1be 9b3f
00000300: 57c3 653e 8a0b aebe bb5f ec3f ad41 b43f
00000310: 9502 8f3f 0e6f 26bf 800f fabe 92c8 163f
00000320: 3712 693c 92a1 d6bf 46e7 873f 27ce f83e
00000330: 31b0 9ebf 1bdc 77bf beda f1bd 4858 0e3e
00000340: 0760 873e 6860 34bf 4455 b8be 8d11 f5be
00000350: f4cc 1d3f 5049 253f b930 9d3f 0eb6 453f
00000360: ec13 f23e 33c6 5e3f 6711 77be 9d54 45bf
00000370: 1fe5 14bf 2282 b73e 3483 06bf 8afa b4be
00000380: 4d2f 1fbf e18c 58be 59ca 98ba 897c 9bbe
00000390: fe31 94bd 421d 483f eba6 fe3b f589 d3be
000003a0: 2cac 583f 69c9 c2bf 54aa 1c3f 77f6 f4bf
000003b0: e677 7abf 9934 c23d a548 e2be 680c e3be
000003c0: 27f7 bb3f 6b3a 9a3c eaa5 3ebf 6afb 94bf
000003d0: 1064 fd3e 27e8 74be 803e 0ebc 2dbf 54bf
000003e0: 60ba adbe 1aea 6e3e f271 71bf 01e9 9dbf
000003f0: 5d6e 8e3f d4f2 fbbf 0259 12bf 21a8 8b3f
0.2407547 -0.08748632 -0.39133498 -0.87064844 0.6551546 -0.0056424164 0.93443096 0.08404641
0.3778785 1.1853788 -1.3983206 -0.51303136 0.1973787 -0.25578597 -0.9311096 1.5769769
1.3275249 -0.10434367 0.2942717 0.9212462 -2.0516796 0.49891526 1.5114806 0.6187145
0.089618586 -1.5645286 -1.1354003 -0.3610799 0.41834208 -0.78234017 1.4681834 2.4892287
-0.69467777 -0.30385557 1.0504019 0.10908059 0.13935894 1.1542134 -1.1839272 -0.33758634
-0.52428365 -0.8973035 0.5710543 -1.4426287 -1.1726263 0.60767186 -0.57449204 -0.7491439
1.675314 -0.82534534 1.3536137 -0.23978491 -1.534058 2.0688057 2.760972 -1.7076143
1.4599769 -1.5081238 0.82790726 -0.2138568 0.7701159 1.5168879 1.6807649 -0.44628844
-0.8234887 0.56545585 -0.099106446 -0.026534364 -0.50928605 0.48862913 -0.27830547 -1.0782282
2.0643833 -0.49742728 0.26249853 0.70209557 -1.3762208 0.8934475 0.101372086 0.23753959
2.4937153 -1.2504593 1.0349368 0.5397753 -1.5863733 -1.2840407 0.6865025 -0.1943004
0.35281724 -0.35013357 0.40883744 -0.7827179 -0.43383053 -0.3757045 -0.9867056 -0.43121126
-1.6700006 -1.381437 -0.16964947 0.96938795 0.01969351 -0.74964094 -0.26525745 0.028188718
-0.17897968 -0.13391015 0.30777735 1.3644906 0.14749163 2.5393436 -0.59133184 -2.004312
-0.3618618 0.036275275 0.91386735 -1.8473917 0.13326788 0.486865 -1.7324651 0.57794106
1.76103 0.3125616 0.30995876 -0.6605644 -0.68518716 0.30368894 -0.60910755 -1.4741775
-2.047518 1.8496372 1.3420695 -0.49103412 1.3418616 1.6867794 -0.10437759 -1.7268568
-0.023958389 0.11392622 0.9988109 0.67742276 0.30144832 -0.7180922 0.7661969 0.8913732
2.238955 0.99619484 -1.4881351 -0.24798074 -0.074028775 -0.2679723 -0.62326324 1.1203288
-0.9922678 0.1670033 1.256583 -0.269651 -1.0983763 -0.700797 1.552423 -0.7000068
-0.8923461 0.06449979 -0.060379393 2.3624864 -2.7000208 0.5183958 -0.85491854 -0.26485696
-0.0038757608 2.0452302 -0.15671088 -0.2501115 -1.3086716 -0.08208982 -1.8732868 -1.3831658
-0.33962208 -1.1818424 0.08458578 0.2072637 0.77868426 0.8622084 -1.7214129 1.2784104
0.96837324 1.0662035 0.62295043 -1.2583237 -0.65428245 2.1150815 0.53709835 1.216755
0.22437797 -0.3399318 1.8466715 1.4082543 1.1172663 -0.65013206 -0.4883995 0.58899796
0.014225534 -1.6768057 1.0617454 0.48594782 -1.2397519 -0.9682023 -0.118093 0.13900864
0.2644045 -0.70459604 -0.36002553 -0.47864953 0.6164086 0.6456499 1.2280494 0.7723092
0.47280824 0.8702118 -0.24127732 -0.77082235 -0.5816211 0.3584147 -0.5254395 -0.35347396
-0.6218155 -0.21147491 -0.0011656984 -0.3036845 -0.07236098 0.78169644 0.007771363 -0.4131619
0.84637713 -1.5217716 0.611974 -1.9137715 -0.978392 0.094826885 -0.44196048 -0.44345403
1.46848 0.018826684 -0.74471915 -1.1639225 0.49490404 -0.23916684 -0.008681893 -0.8310421
-0.33931255 0.2333149 -0.9431449 -1.2336732 1.112743 -1.968348 -0.57167065 1.0910684

blocks.0.norm1.weight f4 [32]
00000000: acf3 863f adac 873f b7fa 823f 423b 813f
00000010: 0aac 803f 9f1d 813f 3a2c 873f f68e 823f
00000020: e6df 863f bf7c 803f 4d1f 7f3f 8f09 823f
00000030: d9a2 7e3f f5bb 823f 0c47 833f df60 823f
00000040: 15a3 7f3f 4810 823f 182b 7f3f b05d 7c3f
00000050: 4881 863f 0ca1 833f 6973 8b3f a57c 843f
00000060: b9eb 803f 8e66 833f 38a0 803f f31e 803f
00000070: 1143 833f fdbe 833f 1089 823f 7669 803f
1.0543113 1.0599571 1.0232762 1.0096209 1.0052502 1.0087165 1.0560372 1.0199878
1.0537078 1.003807 0.99657136 1.0159167 0.99467236 1.021361 1.0256057 1.0185813
0.9985822 1.0161219 0.9967513 0.98580456 1.0508204 1.0283523 1.0894595 1.0350538
1.0071937 1.0265672 1.0048895 1.0009445 1.0254842 1.029266 1.0198078 1.0032184

blocks.0.norm1.bias f4 [32]
00000000: 5fe7 d0ba d37f 42bc 51e1 cbbc ec27 10bb
00000010: 993f c93a a1fd 903b 0923 15bc 5223 adbc
00000020: 85ac 90bb 6ed9 d23b 5050 293c c011 f3bb
00000030: 2e27 a13b 40d2 4abc 9c47 6e3b 5a31 c73b
00000040: 14b2 99bb 8a08 9d3c ed1f 45bc c7d4 7b3b
00000050: 00a4 07bc c0d0 5cbb 75a9 24bb 7916 8cbc
00000060: 6c8b 21bc 237e b53c d60a b7ba 33a1 903c
00000070: 8820 a53c b2cd 1b3c 4815 cc3b 8a62 dd3b
-0.0015938095 -0.011871296 -0.024887713 -0.0021996452 0.0015354037 0.004424766 -0.009102591 -0.021135006
-0.004415097 0.006434611 0.010334089 -0.0074178874 0.0049180007 -0.012379229 0.00363586 0.006078881
-0.004690418 0.01916911 -0.0120315375 0.0038426386 -0.008278847 -0.003369376 -0.0025125418 -0.01710056
-0.009859901 0.022154873 -0.0013965021 0.01765499 0.020157114 0.009509491 0.006228123 0.0067561315

blocks.0.attn.qkv.weight f4 [96, 32]
00000000: 6056 c53d 7732 f1bd 1caf 8abd b879 9f3b
00000010: 9944 e73d 8be8 88bd 8390 403d 19ee 2bbe
00000020: 126a dd3d 88be 45bd 0001 27be 44f9 9a3d
00000030: 51a8 4b3c e38d 923c 62f3 2abc 6725 20be
00000040: 82b3 33be d4f6 983d a1df 203e 1c95 c43d
00000050: ce0a a3bc f2e1 df3d 77ea 883d 07f9 b0bd
00000060: 26fd 28be 76a6 f639 8a92 253c c87f 453c
00000070: e1da 98bd 18cb e63d e874 b1bd e43c acbd
00000080: 22b4 9d3c bc03 15be 063a 553c 7bbb c43d
00000090: 9233 8a3d cd4c f8bd 5f92 28bd 6f45 993d
000000a0: 5b4c 41be 531f 953d 6630 713d 4194 c03d
000000b0: f4b9 e0bd e727 37be d1b2 383d b33e 91bd
000000c0: 59b8 a6bd daa3 41be 72fa 2ebe 181e 1d3e
000000d0: 8615 6d3e 7058 67be 4167 55be 80c3 3d3c
000000e0: 079d 3abc 77c5 36be d037 2cbe 7940 6a3d
000000f0: 0997 37be 4ca5 40bd 11cf 903d ac16 273e
00000100: e13c 2a3d 3f98 1d3e 1fd8 d13d 9d3d 2a3c
00000110: 574e 503e 75d6 433e 4181 043d c959 a6bd
00000120: 6351 98bd f2fd 37be a286 b03d e6e1 973d
00000130: 2d75 473e 7a15 8d3c 034e 453d d96e f53d
00000140: f139 dc3b e700 b73d c8e0 e4bc b7f0 7a3d
00000150: aff2 fd3d fdf3 fb3c be54 22bd 0851 3fbe
00000160: 147e afbd 2a39 f939 48b5 463d bcb5 303d
00000170: 406b 5f3e be9b afbc 55ac 1dbd ea40 013c
00000180: a993 43be 7878 193c 350a 03be e7b1 24bd
00000190: 8eb3 833d 8877 32be d27f 1fbc bc0d 643d
000001a0: f834 bb3d 1d23 a63d cfec aebd 0a5c f8bd
000001b0: 69e2 a83d a341 dd3d ce0a 34be cc68 34be
000001c0: 69ef a23d 197b 36be 27a4 e1bd f295 0fbe
000001d0: dc05 1fbe 5b7e ebbd ad26 4d3d c978 f53d
000001e0: 2206 17be 2a59 0ebe 157c 9fbd 10c2 b5bd
000001f0: 0e5d df3d 01b8 e3bd 34bd 8fbd 248a 1c3e
00000200: 1f3f 973d 2937 0b3d 40ec e0bd 8c80 18be
00000210: adfc e4bd d8aa 693e cd48 62be e20b 323d
00000220: a4b6 c63d 2a30 8c3d 1e30 2ebb 8600 e1bd
00000230: 9030 cfbd 998b a4bb 174b b0bd dc6d 5e3e
00000240: 095b a5bd 241d a3bd 805a 38be 18c5 653d
00000250: 311b cb3d aee9 693e 84fa dd3c 9e8a 35be
00000260: a851 dcbc cb80 87bc 9e87 7bbd 93b0 26be
00000270: 67aa 033e ff23 bf3c 460f e0bb 068c 213e
00000280: c034 723e af27 483e ae04 d4bd a0e4 ea3c
00000290: 3082 01be 9716 0c3c 2b58 c83d 8884 f7bd
000002a0: 1aaf c8bd 34cf 2fbd 5f5b b53d e906 34bc
000002b0: a73d 2abe 88ce 09bd 1bb4 4a3e 9827 003d
000002c0: 291d 79be ddda f33d a1fd 22be b430 4abe
000002d0: 39a8 bcbd 53ef 6a3e 5935 a23d d2fa 07be
000002e0: dd02 f33d 1809 ea3d 77fe 2a3e ea56 2a3e
000002f0: 1f86 233e dea9 1abe 7945 4b3d 19f2 2abd
00000300: 053b cdbd 54fb 243e 213d 133e 3570 5dbd
00000310: 8bca 00be 5e27 0fbe 595d 413e 9740 d0bd
00000320: 67c7 833b 2853 003e 7872 f13d 8ced 8c3d
00000330: ab7b ecba b9f9 4b3e cbbc a3bd f68d 1dbe
00000340: 354b f5bd 2521 073e 35fa ba3d 443a 283e
00000350: a622 ab3d 86f5 10bb af50 813d c4f3 33bd
00000360: e065 49be 7769 4ebd fc0c 5f3e 410d e43d
00000370: d59a a23d be61 2bbd 17e2 2dbc d7b6 31be
00000380: b044 033e 2bbc 343e 8835 f0bd 912d e0bd
00000390: 6aed 32bd 2bbc 883d 7bce dcbd 0cb7 b43d
000003a0: e164 173e 69e4 053d 7167 bfbd eeb0 233e
000003b0: 2f13 e7bd 3b5b 323d e58a 433e a7bb b73d
000003c0: 820d b9bd d4bf c6bd 7781 ccbd b949 60bd
000003d0: ba5c 1bbe d738 303e 22ea 593e ea7d 8ebd
000003e0: efe9 bfbd be35 b0bd 0bf1 183e 1bf4 bcbc
000003f0: 2bfb c8bd 41fa cb3d 4cd4 523d 3048 343e
0.09635615 -0.117772035 -0.06771681 0.004866805 0.11292381 -0.06684979 0.047012817 -0.16790046
0.10811247 -0.048277408 -0.16308975 0.07567075 0.0124302665 0.017889922 -0.010434004 -0.15639268
-0.17548946 0.07468954 0.15710308 0.09598753 -0.019902613 0.109317675 0.066853456 -0.08641248
-0.16502818 0.000470448 0.010105738 0.012054391 -0.07463623 0.11269206 -0.08664876 -0.084100515
0.019250933 -0.14552206 0.013014322 0.096060716 0.067481175 -0.121240236 -0.041155215 0.074839465
-0.18876784 0.07281365 0.058884047 0.09403277 -0.10972968 -0.17886315 0.045092408 -0.07092037
-0.0814063 -0.1891016 -0.17087725 0.15343511 0.23152742 -0.2259233 -0.2084017 0.011582255
-0.011389977 -0.17848764 -0.16818166 0.057190392 -0.17928709 -0.04703264 0.07070745 0.16317242
0.041561965 0.15390109 0.102463 0.010390666 0.20342384 0.19124778 0.03234983 -0.08122594
-0.07437398 -0.17967966 0.08619429 0.074161336 0.19478293 0.017222155 0.0481701 0.11984033
0.0067207743 0.08935719 -0.027939215 0.06126472 0.12399804 0.030755991 -0.039631598 -0.18683255
-0.08568969 0.00047535572 0.048512727 0.043142065 0.21818256 -0.021436568 -0.038494427 0.007889012
-0.19099297 0.009367101 -0.12796862 -0.040208723 0.06430732 -0.1742841 -0.009735065 0.05567716
0.09140962 0.08112166 -0.085412614 -0.1212693 0.08246309 0.10803535 -0.17582247 -0.17618102
0.0795582 -0.17820396 -0.11017638 -0.14022043 -0.15529579 -0.1149871 0.050085712 0.119859286
-0.14748433 -0.13901201 -0.07787339 -0.08874905 0.10906421 -0.1111908 -0.070185095 0.15287071
0.07385086 0.03398815 -0.10982561 -0.14892787 -0.111810066 0.22819078 -0.22098084 0.043468364
0.09702805 0.06845124 -0.0026578973 -0.10986428 -0.101166844 -0.005021524 -0.08608072 0.21721596
-0.08074004 -0.079645425 -0.18003273 0.056096166 0.09917296 0.22843048 0.027096994 -0.1772866
-0.026894405 -0.016540905 -0.06140863 -0.16278295 0.12857972 0.023332594 -0.0068377582 0.15776071
0.23652935 0.19546388 -0.10352455 0.02867347 -0.12647319 0.008550308 0.09782442 -0.12085825
-0.09799023 -0.042922214 0.08855318 -0.010987976 -0.16625081 -0.03364423 0.19795267 0.03128776
-0.2432753 0.11906979 -0.15917064 -0.19745141 -0.092117734 0.22942857 0.079203315 -0.13279274
0.118657805 0.11427516 0.16698633 0.16634718 0.15969132 -0.15103862 0.0496268 -0.04173479
-0.10021023 0.16111499 0.14378788 -0.054062087 -0.12577264 -0.13979861 0.18883266 -0.101685695
0.0040215733 0.12531722 0.11789411 0.06881246 -0.0018042227 0.1991948 -0.07994994 -0.15386185
-0.11977235 0.13196237 0.091297545 0.16428477 0.08356218 -0.0022119 0.06314217 -0.043933645
-0.19667768 -0.050393548 0.21782297 0.111353405 0.07939688 -0.04184126 -0.010612986 -0.17354904
0.12819171 0.17649905 -0.1172896 -0.10946191 -0.043683447 0.06676515 -0.107815705 0.08823976
0.14784576 0.032688532 -0.09345902 0.15985462 -0.11282956 0.043544035 0.19095953 0.08971339
-0.090357795 -0.09704557 -0.09985631 -0.054757807 -0.15172091 0.17209183 0.21280721 -0.0695761
-0.09370791 -0.086040005 0.149357 -0.023065617 -0.098135315 0.099598415 0.051471993 0.17605662

blocks.0.attn.proj.weight f4 [32, 32]
00000000: beea c93d 6fc4 fabc d515 34bd 8c0f bdbd
00000010: fce0 773d 1bc0 8abd 1229 acbd b006 afbb
00000020: eb4b d63b c862 32bd 30ce 8fbd d5a4 44be
00000030: af29 dcbd f8a4 e03d ab37 083e f1b0 d9bd
00000040: d222 2abe 8876 05be 7005 80bc 0320 8e3d
00000050: 04fe 29be 57f8 0abe 169b 6abd d53f d5bd
00000060: 0081 073e d932 67bd 56e7 a83c cc94 f9bd
00000070: 2872 16be 5220 35be f096 81bd dc4c 21be
00000080: 0844 79bd e323 8e3d 4b50 0cbd 271d 163c
00000090: 6253 003e 10a3 ca3d e0e5 b1bd 11a1 cf3c
000000a0: 850b c73d 9f2c bcbd 102b 373d 03fe 353e
000000b0: 9224 2bbe 7515 a63d be10 73bd f911 b13d
000000c0: 48ce d13c 6f6e dd3d d7fa 5bbd b980 373e
000000d0: 99ce 2c3e b326 073e 87df 253e dbb4 b43d
000000e0: 8f63 37be e740 e73d cbc6 36bd 35a2 c43d
000000f0: 1a50 103e 2113 85bd 4e28 b9bd 76d0 07bd
00000100: 5dff 143e 5d4d 903d 0eba 11be fa43 bf3d
00000110: 643a d2bd 055d f33d 5c23 4a3c 2e6a 163e
00000120: 94bf df3b 08aa 6a3d 6829 a93c 02f2 f7bd
00000130: 5aca 1a3e a6d6 ad3d 5e51 d7bc b734 023d
00000140: eb33 b7bd 17a7 9e3d 23aa 013e f8a2 c3bd
00000150: 1f56 27be 3d1a 5cbd a745 dfbd a19e c3bd
00000160: bb68 01be 1a84 efbc 4a5d 043d 95e8 263d
00000170: 44e2 13be b280 3cbe 4e70 103e ea72 81bd
00000180: 2e53 153c 8495 12be fd8f 4cbd 8624 d93d
00000190: 9516 a3bd 0998 24bd 49da 24be 7dd4 2f3e
000001a0: e79e da3c c2fc b93d ef65 d5bd fb1e 163e
000001b0: 22a8 8cbc 8c53 bbbd f3a3 2d3d 2bce 363c
000001c0: fb1a 823d b20a a1bd 8694 70bd c3ff fa3d
000001d0: 840b 203e d485 2c3d 6672 a83d fcb5 f0bd
000001e0: 5db9 093d 9796 12be 8cdb fc3b 893c 0ebb
000001f0: 0ad3 3cbd feff 0ebd 392d 43bc 38eb 793c
00000200: 2481 343d 7393 92bd abf7 bcbd 4a7d 233c
00000210: 4eda c53d 6be5 debb 9d47 fc3c 1943 3dbd
00000220: 2aa8 bdbd 5821 cf3d 587e c1bd c899 073e
00000230: ddeb b83d fe5a 9ebd 78fa 7cbd 1e74 443d
00000240: 3587 c23c 1165 12be 7505 a83c 557b fcbd
00000250: 2143 31bc 91ff 79bd 03e8 0bbe 526b 31be
00000260: 4dda f63d 0798 fabc d746 3fbd 9d56 cdbd
00000270: b6b5 943d 9b01 ce3d 9c86 c53a fc42 a83c
00000280: f05d 01be 1f21 07be af2a 293e 5a94 bdbd
00000290: 894c 89bc 74df 343e efd1 7d3d 97ba 02be
000002a0: 475a 0b3e 5ec0 4a3d e964 19be bce4 2a3e
000002b0: adb1 c2bc 03e0 0d3e 7d13 f73d 9a79 1cbe
000002c0: 6c81 023d 3b8a 8cbd 2ec7 a23c 4aee 11bd
000002d0: 96f0 0c3e f2f6 b9bd fb92 bbbd 6622 253b
000002e0: 40e7 5abc ede9 063d e400 bfbc 8259 ecbd
000002f0: 128b d6bd 0e83 4ebd 1e31 953d df9e 0abe
00000300: 3e75 6d3d fa99 51bd 7ea8 1e3e 80dc 333d
00000310: 8b5e f3bc 5445 fd3d 961e 8c3a ba04 313e
00000320: 6d1c ffbd d448 3f3d 6727 a8bd 4593 c23d
00000330: 8b81 963c c1fa 0bbd 97da f43d b089 12be
00000340: 9528 753d 7e32 773b 11aa 093c a9a3 2f3d
00000350: c42e 17bd 70ba 38be efd1 373e ebba 9dbd
00000360: 4d62 01bc c90f 77bc 3c1c a03d 0254 ebbc
00000370: d51a ec3c 2722 80bc 3139 be3d 869c 163b
00000380: c00a 73bd 8211 12bd 5994 0e3d 3792 3abd
00000390: 425d 00be c2d1 363e 6951 15be 6bc5 b13d
000003a0: c37a 6dbd 4666 2e3d 1760 f4bd 71ae e7bd
000003b0: 4792 65bd beb0 9b3d 0cf2 853d b4c7 d83c
000003c0: 14a1 43bd 949a 3f3e 0e0c dabc 1438 fabc
000003d0: dabf 2a3e e706 0e3d b3ef 33be 3f70 0dbe
000003e0: b920 f2bd 9347 14be dd00 28be 256c 163e
000003f0: 0248 0d3e 30e3 c8bd fbe8 58bd 4fe4 903d
0.09859227 -0.030611245 -0.043966133 -0.09231481 0.060517296 -0.067749225 -0.08406271 -0.0053413734
0.006539812 -0.043551236 -0.07021749 -0.19203503 -0.10750138 0.10968965 0.13302486 -0.10629452
-0.16614845 -0.13033497 -0.015627593 0.069396995 -0.16600806 -0.13571297 -0.057276808 -0.104125656
0.13232803 -0.056444976 0.020618122 -0.12186584 -0.14691985 -0.1768811 -0.06327617 -0.15751976
-0.060855895 0.069404386 -0.03425626 0.009162224 0.12531808 0.09894383 -0.08686423 0.025345357
0.09718994 -0.09188198 0.044718802 0.17772679 -0.16713169 0.08109561 -0.05934214 0.08646006
0.025611058 0.10812079 -0.053706016 0.17920198 0.16875686 0.13198356 0.1619855 0.08823558
-0.17909072 0.11291676 -0.044623177 0.09601251 0.14093056 -0.06497789 -0.09040891 -0.03315779
0.14550538 0.07046006 -0.1423113 0.093391374 -0.102650434 0.118829764 0.012337532 0.14688942
0.006828258 0.05729106 0.020649627 -0.12106706 0.15116253 0.084882066 -0.026283916 0.031788554
-0.089454494 0.077467136 0.12662558 -0.09552568 -0.16341446 -0.05373596 -0.10901957 -0.095517404
-0.12637608 -0.029237796 0.03231553 0.04074915 -0.14441782 -0.18408468 0.14105341 -0.06320746
0.00911407 -0.14314848 -0.049942005 0.106026694 -0.079632916 -0.040184055 -0.16098894 0.17170902
0.026687099 0.09081413 -0.10419833 0.14660256 -0.017170016 -0.09146795 0.042392682 0.011157553
0.06352802 -0.07863368 -0.058735393 0.12255814 0.15629393 0.042119816 0.08224945 -0.11753461
0.03362404 -0.14315258 0.0077166017 -0.0021703562 -0.0460997 -0.034912102 -0.011912637 0.015253834
0.04406847 -0.0715703 -0.092269264 0.009978602 0.09660779 -0.006802251 0.030795867 -0.046206567
-0.092605904 0.10113782 -0.09447926 0.13242257 0.09029362 -0.07732199 -0.061762303 0.0479623
0.023746112 -0.14296366 0.020510415 -0.12328211 -0.010819227 -0.061034743 -0.13662724 -0.17326096
0.12053356 -0.03059007 -0.046698418 -0.10026286 0.07261221 0.100589 0.0015070024 0.020539753
-0.1263349 -0.13196228 0.16520189 -0.092568114 -0.016760128 0.17663366 0.061967786 -0.12766491
0.13608657 0.049499862 -0.149799 0.16688818 -0.023766363 0.13854985 0.12064264 -0.15280762
0.031861708 -0.06862303 0.019870367 -0.03562764 0.13763651 -0.09080304 -0.09158894 0.0025197505
-0.013360798 0.032937933 -0.023315854 -0.1154051 -0.10475744 -0.050417952 0.07284759 -0.13537167
0.05797314 -0.051172234 0.15493962 0.043911457 -0.029708168 0.12366739 0.0010690268 0.1728696
-0.12456594 0.046700314 -0.082106404 0.09500746 0.018372318 -0.034174684 0.11955755 -0.14310336
0.059853155 0.0037719305 0.008402363 0.042880688 -0.036909834 -0.1803987 0.17951177 -0.077016674
-0.007896972 -0.015079447 0.07817885 -0.028726581 0.028821388 -0.015641285 0.09288252 0.0022981479
-0.059336424 -0.035661228 0.034809444 -0.045549598 -0.12535575 0.17853454 -0.14581837 0.086802326
-0.057978403 0.042578004 -0.1193239 -0.11312569 -0.056047704 0.0760207 0.065403074 0.026462413
-0.047761038 0.1871131 -0.026617076 -0.030544318 0.16674748 0.03467455 -0.17571907 -0.1381235
-0.118226476 -0.14480428 -0.1640658 0.14689691 0.13797 -0.098089576 -0.052956562 0.070747964

blocks.0.attn.proj.bias f4 [32]
00000000: 9089 6dbd b0ba 9d3d 49d2 cf3d 80ea b1bd
00000010: 54c0 693d 9da6 e93d 72f6 edbd 4ac4 f23d
00000020: 6c8c bcbd febb b2bd c6c7 bb3d 443b 3cbd
00000030: 9384 013d 1197 e23d 163d 7cbd b155 56bd
00000040: 745c 12be c705 b23d 0890 083d af5e 233e
00000050: 5ee0 fb3d 42d8 403d 8274 173d 2c1c 183e
00000060: cc50 10be de95 0fbe 1738 1f3e a798 64bd
00000070: 41b4 473d 7215 4fbd 7ac0 10be 3686 07be
-0.057992518 0.077016234 0.101475306 -0.086873055 0.057068184 0.11408732 -0.11619271 0.118538454
-0.09206471 -0.08727263 0.09168963 -0.045954958 0.031620573 0.1106397 -0.061581694 -0.052327815
-0.1429308 0.08692508 0.033340484 0.15954088 0.12298654 0.04708124 0.036976345 0.14854497
-0.14093322 -0.14022014 0.1554874 -0.055809643 0.048755888 -0.05055756 -0.14135924 -0.13234791

blocks.0.norm2.weight f4 [32]
00000000: 30c3 803f 571b 7e3f 050b 7b3f 058b 7e3f
00000010: 3818 7d3f ef5c 7b3f 007a 753f dfdf 7f3f
00000020: 2acb 843f ffe2 7c3f a3b3 803f 2616 813f
00000030: e0d8 823f dfa0 813f 5662 803f cd01 853f
00000040: db85 813f 734e 803f 3c62 7f3f 0a0d 713f
00000050: 5b58 7a3f 09c3 773f 6ee7 803f 8285 793f
00000060: e702 7d3f 6118 843f 76c0 823f b5df 813f
00000070: d472 7e3f 226d 803f 8183 823f 6059 7e3f
1.0059566 0.9926047 0.9806369 0.99430877 0.9886508 0.9818868 0.9588928 0.99950975
1.0374501 0.9878387 1.0054821 1.0084884 1.0222435 1.0127219 1.003001 1.0391175
1.0118974 1.0023941 0.9975927 0.9416052 0.9779107 0.96781975 1.0070627 0.9746934
0.98832554 1.031994 1.0214984 1.0146395 0.99393964 1.0033305 1.0196382 0.99355125

blocks.0.norm2.bias f4 [32]
00000000: 111b 8c3b b149 f23a bc54 c33b 6a70 b03c
00000010: c670 0bbd c83e 98bc e49e 8f3c 19d6 483b
00000020: c19d 8a3c 81fe 853c c79f 3e3b f853 a9ba
00000030: 44f2 9ab9 14c9 be3b 0728 533b 458d 2b3c
00000040: 024b 763b 7ea7 1fbb 2db8 ac3b dd62 233d
00000050: 48ea 503c 95a7 3dba 3530 15bc 48ea 123d
00000060: e7c5 52bc ded9 093c e533 ab3b bae6 fd3a
00000070: 14fe 6cbb e19f a739 89d5 36bc 3bdd 24bd
0.0042756875 0.0018485097 0.005961029 0.021537978 -0.034043096 -0.018584624 0.01753182 0.003064519
0.016920926 0.016356708 0.0029086934 -0.0012918701 -0.0002955367 0.00582231 0.0032219903 0.010470693
0.003758133 -0.0024361308 0.005270979 0.039889205 0.0127511695 -0.00072347495 -0.009105732 0.03586796
-0.012864566 0.00841376 0.005224692 0.001937113 -0.0036162185 0.0003197184 -0.011159309 -0.040250044

blocks.0.mlp.fc1.weight f4 [128, 32]
00000000: 0078 753c c980 afbc a9e8 9b3d 26c8 10be
00000010: e238 16bc 5867 013c 287d f9bd 4ab7 4b3e
00000020: 2d1e 4ebd 595a 9dba d0ef ba3d bd55 25be
00000030: d165 49be 7bbd c93d 3cb7 1e3e e5e9 05be
00000040: 8062 10be c355 223e 0599 1d3e fed2 2f3e
00000050: 4fea 02bd 376e 20bd 7ef4 a93d 2f57 aebc
00000060: 8363 1c3e 2de5 bfbd 4884 243e a66b e23d
00000070: 77cc 483d 2b4e 233e 13b7 82bd 774f f2bc
00000080: 9cc4 c43d 319f 433e 6058 ce3d 86fa bd3d
00000090: 2097 23be 6811 1ebe 51ec 5abd d485 afbd
000000a0: ece1 3c3e 8111 813d 5cca 9e3d 3f08 c83c
000000b0: c3f7 ff3d 4a1c 31be 6505 99bd 6635 213e
000000c0: 8119 e73c ffef fabd 316f 083e 21d9 eb3d
000000d0: 77dd f0bc 017d 723d 6f11 433e d48c db3a
000000e0: f96f 1abc 059f c63d 2e62 dbbc 93cc d93d
000000f0: c54e b3bd ae0a 063c 7670 1a3e 55b4 943d
00000100: 7671 04be 7052 6a3d 8ce6 e73d 76b8 10be
00000110: 6276 2b3e c845 f43c d736 2dbe f0c1 17be
00000120: 9a8b 0d3e a886 0f3e 7046 dfbc 1059 3cbd
00000130: 5e6d 763d b65b 9b3d 1d4d 863a d5f1 1d3e
00000140: df6d f0bd 58f3 1e3e 76ac 0cbe eff4 3a3c
00000150: 6067 b83c b6d6 92bc 69a3 8b3d ec41 06be
00000160: 6743 313d 912f c7bc c2d4 1e3e 42cd d7bd
00000170: a93e 14be 4858 eebd 67b1 4fbd d84f e8bd
00000180: 3f70 ff3d 8b59 4ebd c266 f13d 7536 d4bd
00000190: a948 1f3e d893 1f3e 1b39 11be ec06 1d3e
000001a0: afde 683a 296c d33d 6fa6 68bd 5ea0 093e
000001b0: dc71 f5bc f45e c6bb 0334 0bbd 4c40 973d
000001c0: 424a 0c3d fd3e 21be f2b3 603b 5683 5d3d
000001d0: a5f9 203d ef04 aabd b7a9 673d 0c0d c4b9
000001e0: b11b e93d 2a20 fe3d 8955 ba3c 95b8 d2bd
000001f0: 636a ee3d c964 7c3d 8b0e 663d fff4 12bd
00000200: cde7 723d 18fa b0bd 2e24 37be bf59 283e
00000210: 2c0c 323d 2032 053e 2961 35be 5756 2ebd
00000220: e91a 23bd e733 0e3e b00b de3c b616 c6bd
00000230: a378 14be 8350 a93d 7f31 333e 863f 9c3d
00000240: 7b71 1b3e c64c 42be 58db 143e 5c74 1abc
00000250: 267d 83bd 10f5 24be c59c 653d 38d4 c73d
00000260: 926e d83d 5ad4 a63d d2a8 fabc 9c59 4abd
00000270: 77f0 afbd 1f00 a93d b4a0 473d e936 fc3d
00000280: dad6 253d 9f8c c23d cb71 51bd a937 3dbe
00000290: ceca e33a 8bca c23d 20d1 18be fddd 903d
000002a0: 5bd1 273d 6af5 683d b51b 3c3c 42e6 02be
000002b0: 1884 20be cf4f 173d ca94 6b3d 630a 8a3d
000002c0: 4d40 173e f937 9ebd 2995 a6bd cad8 d2bd
000002d0: 1d7e 173e a958 943c 6bb1 13be 07f4 b03d
000002e0: a856 31be b899 11be e8ee 14be 941f ac3d
000002f0: 6561 8d3c 8807 373e 6f0c f83c f134 89bd
00000300: 9c25 acbd 7900 023e d143 e53c 49a4 2abe
00000310: 25ba 853c 8507 f13d a326 6cbd 672e 8c3d
00000320: a21b d3bd 74ad bd3d ad5f 513d 34e5 083e
00000330: bae0 263e 7297 ba3b bff0 93bc 98e4 dabd
00000340: cee4 153d dbdc 9a3d 1915 16be 4f03 aa3d
00000350: c459 293e fd39 c1bc 84ab c63d 5a59 b4bd
00000360: ffb7 d53c 236e 14be 1e0c 9f3d f45d 173e
00000370: a743 cabd 4231 0abe 5983 db3d 62e0 a63c
00000380: 7661 9ebd 6a85 f7bd 9a17 393e 6aae 87bd
00000390: a4e4 f03d 581a b7bc dc8c 17bc f361 aebd
000003a0: 3dee 39bd 356e b23b 4a52 293e 2a8a 3f3e
000003b0: 10d0 ecbc 59dc 0a3e ed79 033e ec69 423a
000003c0: 6361 c13d f2b1 783d fc6d 2c3d 998a 49bd
000003d0: d85a c6bc 710d 49bd eccf 383d 79bd 2bbd
000003e0: afad 0c3d 96d1 083e e59b bf3d d308 293c
000003f0: 1094 29be c241 7abd 3859 73bd 8f7a d5bd
0.0149822235 -0.021423714 0.07612736 -0.1413885 -0.009168835 0.007898174 -0.12182075 0.19894138
-0.050321747 -0.0012005075 0.09127772 -0.16145988 -0.19667746 0.09850594 0.15499586 -0.13077505
-0.14100075 0.15853028 0.15390404 0.17170331 -0.031961735 -0.03916761 0.08298586 -0.021281807
0.15272336 -0.09369884 0.16066086 0.110556886 0.049023118 0.15947787 -0.06382575 -0.029578907
0.09607813 0.19103695 0.1007545 0.09276299 -0.15975618 -0.15436327 -0.053448025 -0.085704476
0.18445557 0.06302167 0.07753441 0.024417995 0.12498429 -0.17295948 -0.07471732 0.15743026
0.028210403 -0.12252807 0.13323666 0.115160234 -0.029402478 0.059201244 0.19049619 0.0016750344
-0.00942611 0.09698299 -0.026780214 0.106347226 -0.087552585 0.008181257 0.15081963 0.07260958
-0.12933907 0.057207525 0.1132327 -0.14132866 0.16744378 0.02981843 -0.16915451 -0.14820075
0.13822785 0.14016211 -0.027255267 -0.045983374 0.060162894 0.07585852 0.001024637 0.15424283
-0.11739706 0.15522516 -0.13737664 0.011410936 0.02251023 -0.017924648 0.068182774 -0.13111085
0.04327717 -0.024314674 0.15510848 -0.10537197 -0.14477028 -0.11637932 -0.050706293 -0.11343354
0.12472581 -0.050378364 0.117871776 -0.10361949 0.15555061 0.15583742 -0.1418194 0.15334672
0.000888328 0.10323364 -0.05679935 0.13440081 -0.029961519 -0.0060537998 -0.03398515 0.073853105
0.034250505 -0.15746684 0.0034286943 0.05408033 0.03930058 -0.08301722 0.056558337 -0.00037393754
0.11382235 0.124084786 0.022745864 -0.102891125 0.116413854 0.061619554 0.056166213 -0.035878178
0.059303094 -0.086414516 -0.17884895 0.16440485 0.04346864 0.13007402 -0.17712845 -0.04256281
-0.039820585 0.13886987 0.027105182 -0.096723005 -0.14499144 0.082673095 0.1749935 0.07629304
0.15180008 -0.18974599 0.14536798 -0.009427156 -0.064203545 -0.16109109 0.05605771 0.097572744
0.105679646 0.081459716 -0.030598078 -0.049401864 -0.08590787 0.08251976 0.048737243 0.12315161
0.0404881 0.094994776 -0.051133912 -0.18478264 0.0017379166 0.09511288 -0.14923525 0.07073591
0.04097114 0.05687467 0.011481215 -0.12783149 -0.1567539 0.036941346 0.057514943 0.06740262
0.14770623 -0.0772552 -0.08133919 -0.102952555 0.14794202 0.018108683 -0.14423148 0.086402945
-0.17318213 -0.14218795 -0.1454426 0.084044605 0.017258355 0.17873967 0.030279366 -0.06699551
-0.08405611 0.12695493 0.027986439 -0.16664232 0.016324112 0.11769012 -0.057654034 0.06844788
-0.10308005 0.09261599 0.051116634 0.13368684 0.16296664 0.005694323 -0.018059133 -0.10688132
0.03659516 0.07561656 -0.14656486 0.08301412 0.16538149 -0.023587221 0.09700683 -0.08806105
0.026088713 -0.14495139 0.07765983 0.14781934 -0.09876185 -0.13495353 0.10718412 0.020370666
-0.07733433 -0.120859936 0.1807541 -0.06625064 0.1176236 -0.022351429 -0.009249892 -0.08514776
-0.045393217 0.0054452666 0.16535297 0.18705049 -0.028907806 0.13560618 0.1283948 0.0007416296
0.09442403 0.060716577 0.042097077 -0.049204443 -0.02421324 -0.049085084 0.045120165 -0.041928742
0.034345325 0.133612 0.093559064 0.010317045 -0.16560388 -0.061097868 -0.059411258 -0.10423767

blocks.0.mlp.fc2.weight f4 [32, 128]
00000000: 0a36 adbd 39d7 50bd ba11 ec3c c8d5 a3bc
00000010: 6f85 763b 4028 893d 27b0 7a3c 2527 0dbd
00000020: 45cf 6cbc c334 8ebc 174a 9a3d 2cbb eb3b
00000030: df30 103d 40b6 023e a04f a2bc 69a5 47bd
00000040: ccbe 1e3d 69a9 bdbd ac79 45bd d99a dabc
00000050: 5dcd 01bd d9c0 c8bc ac1a 963c 7035 763d
00000060: 417c 93bd 7fce a2bc 8227 50bd 8eb8 383d
00000070: 97fc 4b3d 3488 853d 0e1f a63d c7e6 393d
00000080: 4c93 debc 89e1 6dbd 8629 89bd 232e 3e3d
00000090: 0897 28bd 2201 333d a503 dfbd 7dd1 013d
000000a0: 0693 203d bd8c be3c c1a8 51bd f16d b83d
000000b0: 87b8 303c 34af 453d bd39 36bb 15d6 61ba
000000c0: fc29 143d eebf 76bc c90c 9dbd 1832 423c
000000d0: 09e4 cabb 222d 8cbd cf3e 113d 1677 9f3b
000000e0: ad83 39bc d7ac 033d ab8b 973d 1d44 94bd
000000f0: b93d cf3d 396e 9b3d dacd d6bc f891 943d
00000100: bcda 98bb bbe0 2c3d b6e4 a43c 3233 d6bd
00000110: d6cd 793d 798a 9d3d e375 593d 582a 853d
00000120: 12c5 a4bd 3862 893d f389 9a3c dba3 a5bd
00000130: 5471 80bd 48a3 f8bc bffc 253d 7f30 9fbd
00000140: 3821 ca3d 097b 9d3d 14a6 2f3d b7f3 c93d
00000150: a7f5 1bbd 97f8 59bd ef95 ebbc 7400 07bd
00000160: be0d 7b3d 55fc 10bd 3cae b53d 8040 9c37
00000170: 8a19 43bc 5c69 9e3c 40de 9a3d 0a1a 66bd
00000180: dd6d 8a3d 48d4 32bc 022c a13c 3483 8abd
00000190: af02 343c fc97 1fbd e518 9cbd c58d 363b
000001a0: 048d 973d 31ef 69bc b4a9 ec3c de18 30bd
000001b0: d461 1fbd f2cc 653d fbde 39bd f74c 71bd
000001c0: 7e89 14bd 7c94 be3c 5358 a5bd e767 803d
000001d0: 12a2 9fbd ecb4 893d b088 50bd 84c0 96bc
000001e0: c3ea 9e3d 7693 df3c 83ef 68bc b177 46bd
000001f0: 92a8 bc3d 5866 88bc 17b6 eb3c 7509 4f3d
00000200: c140 02bd a814 82bd 8a65 843d fa60 23bc
00000210: b0f8 623c b2a8 573d 5716 733d c050 533d
00000220: 34f9 c73b 2793 d43c 5340 e73c ba2e 743c
00000230: 9295 8d3d 3722 dcbb c1a7 da3b 86d5 903d
00000240: 21de 9d3b b466 1f3d 2ce1 00bd 32c3 97bd
00000250: f9aa 80bd b94a a2bd 3de3 86bd 1f00 7a3c
00000260: cb57 033d 1008 9d3d 6bfc a63d 4637 15bc
00000270: 150a e8bc 2960 5ebc 2e93 fa3b 3fe5 c0bd
00000280: 5ef2 f6bc 98ff 08bb 6920 a2bd 1ae6 bfbc
00000290: 7c54 90ba f35b a8bc 0338 b63c a792 173d
000002a0: ef72 523d c187 0dbd 2911 f93b 791c 363b
000002b0: e7ad 823d 479e 6cbd b800 463d acb3 99bd
000002c0: 5e37 b5bd 3c14 7d3d 2c7e 61bd f27d d83c
000002d0: 4600 54bc e4ed 973c cff3 a8bd c1c4 b13d
000002e0: ec68 3d3d af58 7bbd 39c0 4bbd e5d5 9bbd
000002f0: ef59 a13d 18c5 3a3c 660b 9fbc c60d 16bd
00000300: 38d4 71bc 8739 4fbd 0ea7 59bd 1bde 363d
00000310: b3b8 c73d 09ea 0a3c 65d1 bb3d 8ba2 8f3d
00000320: cb0f ec3c cd4a 723d 4224 65bd d2be c5bc
00000330: a596 86bd 76ec c23b 5269 11bd 586d cf3c
00000340: cb16 3c3b 67bd 45bc 78b2 503d 85ff 0dbc
00000350: d725 0a3c a665 6c3c 636f 3bbc 76e2 553d
00000360: a2f2 523c f2cd 98bd e468 8a3d 9b80 47bd
00000370: 48cd 09bd 7a2b 043d 7ff7 343a c317 43bc
00000380: 70d0 ff3b fd51 ae3d 92d1 cfbd 9cbc dabd
00000390: 0f87 37bd a843 fa3c a3ab 713d 9c85 ad3d
000003a0: 3b7a 963c a6e2 2c3d d3f2 65bd 558e 973d
000003b0: 33c6 293d a765 8fbb 7e13 91bd 9f15 9e3d
000003c0: b2d9 ef3c 95fa ab3c eb89 3b3d 0d6e f6bc
000003d0: fd87 5f3d 4f33 49bd 9033 223d fad8 933d
000003e0: eb85 bdbd 2f6a 1c3c f277 59bd e96e b93c
000003f0: 8129 933d fada e83d 4e6c fe3b 7573 af3d
-0.08457573 -0.050986502 0.028817046 -0.0199994 0.0037616154 0.0669713 0.015300787 -0.03446116
-0.014453714 -0.017359143 0.07533663 0.0071939435 0.035202857 0.12764835 -0.019813359 -0.04874173
0.038756177 -0.09260828 -0.04821174 -0.026685165 -0.03168999 -0.02450602 0.018323265 0.060109556
-0.07201434 -0.019873856 -0.050818928 0.04509788 0.049801435 0.06520119 0.08111392 0.045386102
-0.027169846 -0.058076415 -0.06697373 0.04643072 -0.04115966 0.043702252 -0.10889367 0.031693924
0.039202712 0.023260469 -0.051186327 0.09005345 0.010786182 0.04826279 -0.002780541 -0.00086149696
0.036172852 -0.015060408 -0.07668454 0.011852764 -0.0061917347 -0.06844546 0.03546029 0.004866491
-0.011322898 0.032147255 0.073996864 -0.07239554 0.101191945 0.07589383 -0.026221205 0.07254404
-0.004664747 0.042206507 0.02012859 -0.104589835 0.060987316 0.07692427 0.05309094 0.06502217
-0.08045401 0.06708187 0.018864607 -0.080878936 -0.062716156 -0.030351296 0.04052424 -0.07772922
0.09869617 0.07689483 0.042882994 0.09860938 -0.03807607 -0.05321559 -0.028758017 -0.032959417
0.061292402 -0.035396893 0.08871123 1.8626684e-05 -0.011907944 0.019337349 0.07561922 -0.056177177
0.06759236 -0.01091487 0.019674305 -0.06763306 0.010986968 -0.038963303 -0.07621936 0.0027855497
0.073999435 -0.014278219 0.028889515 -0.042992465 -0.038911656 0.056103654 -0.045378666 -0.05891129
-0.036263935 0.023264162 -0.08073487 0.06269818 -0.07794584 0.06723961 -0.050911605 -0.018402345
0.07759621 0.027291995 -0.01421726 -0.04845399 0.0921184 -0.016650364 0.02877335 0.05054613
-0.031800035 -0.06351596 0.064646795 -0.0099718515 0.013853237 0.052651115 0.059347477 0.05159068
0.0061027054 0.025949074 0.028228914 0.014903719 0.06913294 -0.006717946 0.00667283 0.07071976
0.0048177396 0.038916305 -0.03146474 -0.074102774 -0.062826104 -0.079244085 -0.06586311 0.015258818
0.032066148 0.076675534 0.08153614 -0.0091074165 -0.02832512 -0.013572731 0.0076469397 -0.09418725
-0.030144867 -0.00209043 -0.07916338 -0.02342515 -0.0011011506 -0.020551657 0.022243505 0.037005093
0.05137914 -0.034553293 0.0076009226 0.0027787967 0.063808255 -0.057768133 0.04834053 -0.07504973
-0.08848451 0.061786875 -0.055051968 0.026427243 -0.012939518 0.018546052 -0.08249628 0.08680106
0.04624264 -0.061363872 -0.049743865 -0.076091565 0.078784816 0.01139953 -0.019414615 -0.03663423
-0.01476007 -0.05059197 -0.05313783 0.04464541 0.097520255 0.00847865 0.09170798 0.070134245
0.028816124 0.059153367 -0.05594278 -0.024138842 -0.06571702 0.0059485985 -0.035500832 0.025320694
0.002870011 -0.012069083 0.05095145 -0.008666878 0.008431873 0.014428532 -0.011440131 0.052217923
0.012875231 -0.07461156 0.067582875 -0.048706632 -0.033643037 0.032268025 0.0006903335 -0.011907521
0.00780683 0.08511732 -0.10147394 -0.10680506 -0.044806536 0.03054984 0.059001576 0.084727496
0.01836883 0.042208336 -0.05613978 0.074001946 0.041448783 -0.0043761316 -0.07083796 0.07718968
0.02927861 0.02099351 0.045785826 -0.030081773 0.054573048 -0.049121197 0.039599955 0.07219119
-0.092540585 0.0095468005 -0.053092904 0.022635894 0.071856506 0.113698915 0.007764376 0.085669436

blocks.1.norm1.weight f4 [32]
00000000: 70f1 813f 7075 873f 0467 853f db87 823f
00000010: e19f 823f 05e4 823f 38e6 883f 4b03 7f3f
00000020: b51d 873f f851 833f d756 7f3f 8311 843f
00000030: 1a58 843f 6041 813f 8eba 823f d33b 853f
00000040: 17ae 883f c8d7 823f 0f45 7f3f 7033 7b3f
00000050: ffe1 853f 05d1 843f c2d7 863f 442c 853f
00000060: 90bc 7b3f 2d00 843f 9df5 833f 7396 803f
00000070: fb23 873f a3ec 843f 9d74 843f 68bd 853f
1.0151806 1.0582714 1.0422063 1.019771 1.0205041 1.0225836 1.0695257 0.996144
1.0555941 1.025939 0.9974188 1.0317844 1.0339386 1.0098076 1.0213182 1.0408882
1.0678128 1.0222101 0.9971475 0.9812536 1.0459594 1.0376288 1.0534594 1.0404134
0.983346 1.0312554 1.030933 1.0045913 1.0557855 1.0384716 1.0348088 1.0448427

blocks.1.norm1.bias f4 [32]
00000000: 6671 463c 2249 083b 6074 57bb eb73 8d3a
00000010: 14d8 dc3b a8cb 423b 8796 a1bc 208e 9fba
00000020: 5b2c 34bc 8a4f 8ebb 2de1 13bb beda a03b
00000030: 4979 5e3b 2242 12bc 8b4b 063c c6d4 7eba
00000040: 57aa 3ebc 2e75 0d3c 60f0 a03b 4eff 233c
00000050: 1343 f3bc 10ad 1f3c 86e2 e1bb a31d ac3b
00000060: aae7 2abc b7f5 98bb 59c1 fa3b 7f60 30bc
00000070: faf9 873b 0f84 8f3c ddbe 19bc dbba 9bbb
0.012111997 0.0020795544 -0.0032875761 0.0010791993 0.0067396257 0.002972344 -0.019725097 -0.0012173094
-0.010996903 -0.004342978 -0.0022564635 0.0049088886 0.0033946803 -0.0089269 0.008196722 -0.0009721037
-0.011637292 0.008633895 0.0049114674 0.0100096 -0.02969507 0.009745851 -0.006893459 0.0052525564
-0.01043121 -0.0046679634 0.0076524434 -0.010765194 0.0041496726 0.017519025 -0.009383884 -0.0047524995

blocks.1.attn.qkv.weight f4 [96, 32]
00000000: 216d 1b3d c5c8 cabc a3b2 81bb 8a25 22be
00000010: da26 bc3d dc25 1f3d 784e 08be 6864 f3bd
00000020: 3c8d a5bd beec 063e 2a01 393d 179c 66bd
00000030: f1e5 a63d 1141 a4bc fc5c 18be 76c0 8d3d
00000040: 99eb 2f3d bf34 a13d a634 113e e98e bc3c
00000050: 2b7c 303c 052e 9bbd d8eb 273e acf2 a4bd
00000060: 265c c3bd 613c 9bbd e6ee 8fbd e2ec d53d
00000070: 069a 1b3e 27ff 343d ef46 25bd cbea 123e
00000080: 3d9b 8c3c 649e b2bd c6e0 ccbc 0d8c c03c
00000090: 9b41 253e 6122 01bd b0ac 3bbe 4638 44be
000000a0: 498e c0bd 98ec a9bd f918 5dbd 0740 a83d
000000b0: e1b5 5c3b 93fc 87bd a5a1 093e 7734 ebbd
000000c0: 5129 21bc 658f 213c 66e1 adbd e422 b9bd
000000d0: 47e5 e4bc 9760 283e acf2 413e 2133 aa3c
000000e0: ecfc f6ba e21d cd3d fd99 aa3d d9f9 72bd
000000f0: 0cbd 10bd 7019 f93d 19f7 77bd 43b7 8a3c
00000100: f4f0 493d 21b5 263d 7402 30be 4729 8b3b
00000110: c629 3a3e 6272 623e f0d5 88bc 1786 c53d
00000120: ed16 2e3d cfbd a23c 55dd 1c3d d37e 9a3b
00000130: 85cc dfbd 9509 24be 51bf 6d3e 6d3c 0abb
00000140: 9883 50be 791e 46bd 3345 ef3d a61f 98bd
00000150: 4fbd 02be afd6 113e 34d8 e6bc 03c2 89bd
00000160: 71bd 843b 1657 d93d ab22 043e f188 babd
00000170: 636c 183e 13bd ad3d 85af 453e b62e eabd
00000180: 1bd1 0f3e 07a6 af3d 88b6 30be e859 a4bc
00000190: cf8f 0cbe 891c 7a3d ab4d fa3d c13a 173e
000001a0: 16ef d3bd 6a65 c33d 9a1b 6ebd cded 1bbe
000001b0: 4503 cb3c 0089 fe3d 6d9a bebd 6bf2 82bd
000001c0: 3b10 dc3d 479f d73d 16d1 aabd 7048 c8bd
000001d0: 6c9f 373d ef30 3a3e 3d84 2ebe baf4 46bd
000001e0: bef7 87bd 9857 1ebe f7a1 b73c 40c9 6f3d
000001f0: bab8 293d 39fb 99bd e63d 1dbe a3dd f13c
00000200: f1b5 efbd 323d c3bc 491d 0a3e 89c2 86bd
00000210: 6540 403e 9826 15be 2c7d 0d3e 8c1f 123e
00000220: b318 12be 2001 c6bd 2f74 223e 2f6a c4bb
00000230: 7469 3dbe 526a 9dbd 1eea 363e d49e f73d
00000240: 0c59 6f3d 093a ff3d 2284 423d bcd3 9cbd
00000250: e825 083e a3c2 b23d ecde 63bd 71e0 1c3e
00000260: 32a0 1f3e 02dc b9bc 8c05 23be d32f 0cbe
00000270: 6872 c23d dfc7 693b b01a e5bd 41d5 eabb
00000280: 4901 203c c6e5 353c 077f 433e a66d 4d3e
00000290: b023 ddbd ea5b 1bbe 734d 423d f524 633d
000002a0: d668 1f3e cde6 513e f6c4 5c3e 22b1 08be
000002b0: 1d9a 953d 78e0 f4bc 92f9 35be c985 83bd
000002c0: 9b6d 3b3d 44f2 a8bd 69a5 173e 3f8d 513c
000002d0: ef11 21bd 73b1 ddbd 98a3 043e e765 dd3c
000002e0: 9be9 c3bc e2d5 4fbc d061 2abe 1fe2 00be
000002f0: 121d 28be 8e3e 51be 658b 9e3d 8d3f 1abe
00000300: d32b 2bbe ff7a 9e3d 43b1 d83c 5a5a 323e
00000310: 75e5 54be e936 533d 5e04 313e 5745 13bd
00000320: 27ec 8bbd 1603 edbc b36e 14bc 5b8a 30be
00000330: 4e36 3c3c 7403 c53d 7f04 1dbe fa81 df3d
00000340: b76f 0d3c fe5b cdbd 8ce9 abbd 262a f3bd
00000350: 999b 65bd 863d 52be cf18 a93d f505 adbd
00000360: 129e f93d 9249 263d f325 2d3e 870d bb3d
00000370: 38ed 573d 250d b1bc 3f29 013e af36 48bd
00000380: 86d6 9a3d 2962 30be d79b 48bc 8e86 1b3e
00000390: 72eb 6abd e6ed 37be f237 173e 50fd 6b3d
000003a0: d628 81bd 9aa9 853d f7bb 053e 79f7 1abe
000003b0: 7c26 063c 34b6 d23c b109 db3d bc5d 5abd
000003c0: 158f 523e 3111 38be 2113 c83d 67ac 86bd
000003d0: 093e 613d f30b b9bd 4151 04be 6f65 8a3a
000003e0: dc13 0fbd 6553 16bd 4232 31bc 759f 743d
000003f0: 9871 4abc 3c1b cfbd d28a 8b3d 36ed 293d
0.03794587 -0.024753937 -0.0039580627 -0.15834633 0.09187098 0.038854465 -0.13311183 -0.11884385
-0.08083579 0.13176247 0.045167126 -0.056301203 0.081493266 -0.020050557 -0.1487922 0.06921475
0.042949293 0.07871389 0.1418024 0.023017364 0.010771791 -0.07577137 0.16398561 -0.080540985
-0.0953906 -0.07579876 -0.07027988 0.104455724 0.15195474 0.044188645 -0.04035085 0.14347379
0.017163867 -0.08721617 -0.025009524 0.023504281 0.16138308 -0.031526927 -0.18327594 -0.19162092
-0.09402139 -0.0829708 -0.053978894 0.08215337 0.0033677744 -0.066399716 0.13440569 -0.11484616
-0.009836511 0.009860848 -0.08490257 -0.09039858 -0.02794136 0.16443096 0.18940228 0.020776333
-0.0018843687 0.10015465 0.08330152 -0.059320305 -0.03533654 0.12163055 -0.060538385 0.01693309
0.049302056 0.04070008 -0.17188436 0.004246864 0.18179998 0.22113946 -0.016703576 0.09644716
0.042502332 0.019865898 0.038297016 0.0047148257 -0.10927681 -0.1601928 0.23217513 -0.0021093145
-0.20362699 -0.048368905 0.116831206 -0.074279115 -0.12767528 0.14242052 -0.028179266 -0.06726458
0.0040509035 0.106123134 0.1290385 -0.09108151 0.14885096 0.08483329 0.19305237 -0.11434691
0.14044611 0.08576589 -0.1725713 -0.020062402 -0.13726734 0.06106237 0.12221845 0.14768507
-0.103483364 0.095408276 -0.05813179 -0.15227433 0.024781832 0.124284744 -0.09306798 -0.06393894
0.10745283 0.105284266 -0.08340661 -0.09779441 0.04482977 0.18182729 -0.17042632 -0.048573233
-0.0663905 -0.15463102 0.022416098 0.058541536 0.041435935 -0.0751862 -0.15355644 0.02952463
-0.117046244 -0.023832891 0.13487734 -0.065800734 0.18774565 -0.14565504 0.1381728 0.14269847
-0.14267235 -0.09668183 0.15864633 -0.0059941034 -0.18497258 -0.076862946 0.17862746 0.12090841
0.05843453 0.12462241 0.047489293 -0.076575726 0.1329571 0.0872853 -0.055632517 0.15319993
0.15588453 -0.022687916 -0.15920085 -0.13690118 0.094944775 0.003567211 -0.11186731 -0.007166535
0.009765931 0.011102146 0.19091426 0.20061359 -0.107978225 -0.15171781 0.047437143 0.055455167
0.15567335 0.204982 0.2155951 -0.13348821 0.073047854 -0.029892191 -0.17770985 -0.06422002
0.045758825 -0.082493335 0.14809193 0.012790023 -0.039323743 -0.108248614 0.12953031 0.02702613
-0.023915103 -0.012685271 -0.16638875 -0.12586258 -0.1641734 -0.20434019 0.07741431 -0.15063305
-0.16715936 0.077383034 0.026451712 0.17417279 -0.20790656 0.05156604 0.17286822 -0.0359548
-0.06832152 -0.028932136 -0.009059596 -0.17240278 0.011487557 0.09619799 -0.15333746 0.10913463
0.008632592 -0.10027312 -0.08394155 -0.118732736 -0.056056593 -0.20531282 0.08256685 -0.08448402
0.12188353 0.040597506 0.16909008 0.091334395 0.052716464 -0.021612713 0.1261339 -0.048880275
0.07560448 -0.17224945 -0.012244186 0.15188047 -0.057353444 -0.17961845 0.14767435 0.057614625
-0.06306617 0.065264896 0.13059984 -0.15133466 0.008187886 0.025721647 0.10695208 -0.05331205
0.20562394 -0.17975308 0.097692735 -0.06575852 0.054990802 -0.09035482 -0.12921621 0.0010558794
-0.03493105 -0.036700625 -0.010815205 0.059722383 -0.012356184 -0.101126164 0.06813587 0.041485988
