image_encoder/trained_models/vit_20241108_160119.pth (torch, 561019 bytes, 77 tensors)

cls_token f4 [1, 1, 32]
0	0xbb4cf29a	-0.0031272531
1	0x3c52d316	0.01286771
2	0x3b3b5866	0.0028586625
3	0x3b80f056	0.0039349003
4	0xbbef9d1f	-0.0073124315
5	0xbbb7f8d1	-0.005614378
6	0x3bc11397	0.005892228
7	0x3c7bcc66	0.015368557
8	0xbc196d5b	-0.009364451
9	0xbb2f1baa	-0.002671937
10	0xbc0dadc9	-0.008647391
11	0xbba6f630	-0.005095266
12	0x3be68d30	0.007035874
13	0x3c6c71f5	0.014431466
14	0xbc735f0c	-0.014854204
15	0xbc2fe10f	-0.0107348105
16	0xbb855413	-0.0040688603
17	0xbbc24cfc	-0.0059295874
18	0x3c83daed	0.016095603
19	0x3b2527f2	0.0025200811
20	0x3c15278c	0.009103667
21	0x3c040665	0.008058165
22	0xbc486f12	-0.0122335125
23	0x3c22013c	0.00988799
24	0xbc94a28b	-0.018143913
25	0xbc673fe9	-0.014114358
26	0xbba775bc	-0.0051104706
27	0x3a220c0d	0.0006181605
28	0x3c25c53f	0.010117828
29	0xbc1dbc33	-0.00962739
30	0x39c0e507	0.00036791732
31	0xbad7395e	-0.0016420295

pos_enc f4 [32, 32, 32]
0	0x00000000	0.0
1	0x3f800000	1.0
2	0x00000000	0.0
3	0x3f800000	1.0
4	0x00000000	0.0
5	0x3f800000	1.0
6	0x00000000	0.0
7	0x3f800000	1.0
8	0x00000000	0.0
9	0x3f800000	1.0
10	0x00000000	0.0
11	0x3f800000	1.0
12	0x00000000	0.0
13	0x3f800000	1.0
14	0x00000000	0.0
15	0x3f800000	1.0
16	0x00000000	0.0
17	0x3f800000	1.0
18	0x00000000	0.0
19	0x3f800000	1.0
20	0x00000000	0.0
21	0x3f800000	1.0
22	0x00000000	0.0
23	0x3f800000	1.0
24	0x00000000	0.0
25	0x3f800000	1.0
26	0x00000000	0.0
27	0x3f800000	1.0
28	0x00000000	0.0
29	0x3f800000	1.0
30	0x00000000	0.0
31	0x3f800000	1.0
32	0x00000000	0.0
33	0x3f800000	1.0
34	0x00000000	0.0
35	0x3f800000	1.0
36	0x00000000	0.0
37	0x3f800000	1.0
38	0x00000000	0.0
39	0x3f800000	1.0
40	0x00000000	0.0
41	0x3f800000	1.0
42	0x00000000	0.0
43	0x3f800000	1.0
44	0x00000000	0.0
45	0x3f800000	1.0
46	0x00000000	0.0
47	0x3f800000	1.0
48	0x3f576aa4	0.84147096
49	0x3f0a5141	0.54030234
50	0x3f087dba	0.53316844
51	0x3f58940d	0.8460091
52	0x3e9f393e	0.3109836
53	0x3f734e6b	0.9504153
54	0x3e35233a	0.17689219
55	0x3f7bf683	0.9842302
56	0x3dcc7577	0.09983342
57	0x3f7eb898	0.9950042
58	0x3d6636af	0.056204494
59	0x3f7f9868	0.9984193
60	0x3d01815c	0.031617507
61	0x3f7fdf3c	0.99950004
62	0x3c91ab42	0.017781857
63	0x3f7ff5a3	0.99984187
64	0x00000000	0.0
65	0x3f800000	1.0
66	0x00000000	0.0
67	0x3f800000	1.0
68	0x00000000	0.0
69	0x3f800000	1.0
70	0x00000000	0.0
71	0x3f800000	1.0
72	0x00000000	0.0
73	0x3f800000	1.0
74	0x00000000	0.0
75	0x3f800000	1.0
76	0x00000000	0.0
77	0x3f800000	1.0
78	0x00000000	0.0
79	0x3f800000	1.0
80	0x3f68c7b7	0.9092974
81	0xbed51133	-0.41614684
82	0x3f66f20a	0.9021307
83	0x3edce8b2	0.43146282
84	0x3f17541b	0.5911271
85	0x3f4e7bec	0.8065784
86	0x3eb247f6	0.34820527
87	0x3f6ffaa6	0.93741834
88	0x3e4b6ff9	0.19866933
89	0x3f7ae5a5	0.9800666
90	0x3de5d987	0.11223131
91	0x3f7e61f3	0.9936821
92	0x3d8170c9	0.0632034
93	0x3f7f7cf9	0.9980007
94	0x3d11a55c	0.03555809
95	0x3f7fd68e	0.9993676
96	0x00000000	0.0
97	0x3f800000	1.0
98	0x00000000	0.0
99	0x3f800000	1.0
100	0x00000000	0.0
101	0x3f800000	1.0
102	0x00000000	0.0
103	0x3f800000	1.0
104	0x00000000	0.0
105	0x3f800000	1.0
106	0x00000000	0.0
107	0x3f800000	1.0
108	0x00000000	0.0
109	0x3f800000	1.0
110	0x00000000	0.0
111	0x3f800000	1.0
112	0x3e1081c3	0.14112
113	0xbf7d7026	-0.9899925
114	0x3f7e45d7	0.9932532
115	0xbded7fab	-0.11596616
116	0x3f5009c2	0.8126489
117	0x3f152f58	0.58275366
118	0x3f022f6d	0.50853616
119	0x3f5c6d29	0.86104065
120	0x3e974e6d	0.29552022
121	0x3f7490ef	0.9553365
122	0x3e2beed8	0.1679033
123	0x3f7c5d9e	0.9858035
124	0x3dc1ffc1	0.09472609
125	0x3f7ed94f	0.99550337
126	0x3d5a694e	0.053323083
127	0x3f7fa2c3	0.9985773
128	0x00000000	0.0
129	0x3f800000	1.0
130	0x00000000	0.0
131	0x3f800000	1.0
132	0x00000000	0.0
133	0x3f800000	1.0
134	0x00000000	0.0
135	0x3f800000	1.0
136	0x00000000	0.0
137	0x3f800000	1.0
138	0x00000000	0.0
139	0x3f800000	1.0
140	0x00000000	0.0
141	0x3f800000	1.0
142	0x00000000	0.0
143	0x3f800000	1.0
144	0xbf41bdcf	-0.7568025
145	0xbf275530	-0.6536436
146	0x3f4749ec	0.7784717
147	0xbf20af9e	-0.6276797
148	0x3f741dde	0.95358074
149	0x3e9a2eb1	0.30113748
150	0x3f271fbc	0.652828
151	0x3f41ebed	0.7575062
152	0x3ec761d8	0.38941836
153	0x3f6bcaa7	0.921061
154	0x3e6465c6	0.22304448
155	0x3f798d09	0.9748083
156	0x3e012e89	0.12615408
157	0x3f7df469	0.99201065
158	0x3d918dc8	0.07107121
159	0x3f7f5a46	0.9974712
160	0x00000000	0.0
161	0x3f800000	1.0
162	0x00000000	0.0
163	0x3f800000	1.0
164	0x00000000	0.0
165	0x3f800000	1.0
166	0x00000000	0.0
167	0x3f800000	1.0
168	0x00000000	0.0
169	0x3f800000	1.0
170	0x00000000	0.0
171	0x3f800000	1.0
172	0x00000000	0.0
173	0x3f800000	1.0
174	0x00000000	0.0
175	0x3f800000	1.0
176	0xbf757c10	-0.9589243
177	0x3e913c2c	0.2836622
178	0x3ea5dad8	0.32393527
179	0xbf723240	-0.94607925
180	0x3f7ffc7f	0.99994653
181	0xbc2972e9	-0.010342338
182	0x3f46caab	0.77652997
183	0x3f214cf1	0.6300803
184	0x3ef57744	0.47942555
185	0x3f60a940	0.87758255
186	0x3e8e11ed	0.2774805
187	0x3f75f27c	0.96073127
188	0x3e213c1e	0.15745589
189	0x3f7cce81	0.987526
190	0x3db5db21	0.08879686
191	0x3f7efd1e	0.99604976
192	0x00000000	0.0
193	0x3f800000	1.0
194	0x00000000	0.0
195	0x3f800000	1.0
196	0x00000000	0.0
197	0x3f800000	1.0
198	0x00000000	0.0
199	0x3f800000	1.0
200	0x00000000	0.0
201	0x3f800000	1.0
202	0x00000000	0.0
203	0x3f800000	1.0
204	0x00000000	0.0
205	0x3f800000	1.0
206	0x00000000	0.0
207	0x3f800000	1.0
208	0xbe8f0f8c	-0.2794155
209	0x3f75cdb8	0.96017027
210	0xbe6be576	-0.23036751
211	0xbf791d53	-0.9731037
212	0x3f72784e	0.9471482
213	0xbea43f6d	-0.3207964
214	0x3f603089	0.8757406
215	0x3ef72f32	0.48278195
216	0x3f108c69	0.5646425
217	0x3f534932	0.8253356
218	0x3ea97dfd	0.33103934
219	0x3f7190e2	0.943617
220	0x3e41206f	0.18860029
221	0x3f7b67e3	0.98205394
222	0x3dda19c2	0.10649444
223	0x3f7e8b51	0.9943133
224	0x00000000	0.0
225	0x3f800000	1.0
226	0x00000000	0.0
227	0x3f800000	1.0
228	0x00000000	0.0
229	0x3f800000	1.0
230	0x00000000	0.0
231	0x3f800000	1.0
232	0x00000000	0.0
233	0x3f800000	1.0
234	0x00000000	0.0
235	0x3f800000	1.0
236	0x00000000	0.0
237	0x3f800000	1.0
238	0x00000000	0.0
239	0x3f800000	1.0
240	0x3f283046	0.6569866
241	0x3f40ffbd	0.75390226
242	0xbf36b66d	-0.7137211
243	0xbf334f61	-0.70043
244	0x3f4ce86e	0.8004216
245	0xbf1974bc	-0.5994375
246	0x3f728444	0.9473307
247	0x3ea3f8b6	0.3202569
248	0x3f24eb73	0.64421767
249	0x3f43ccb3	0.7648422
250	0x3ec460de	0.38355154
251	0x3f6c6bc6	0.9235195
252	0x3e60d351	0.21955611
253	0x3f79c0ea	0.9755999
254	0x3dfe46ba	0.12415834
255	0x3f7e04e9	0.9922624

norm.weight f4 [32]
0	0x3f88a866	1.0676391
1	0x3f87f6da	1.0622208
2	0x3f885de1	1.065365
3	0x3f856e84	1.0424352
4	0x3f87c996	1.0608394
5	0x3f849661	1.0358392
6	0x3f861198	1.0474119
7	0x3f87484e	1.0568941
8	0x3f8d4054	1.1035256
9	0x3f85a3bc	1.0440593
10	0x3f8b9384	1.0904393
11	0x3f871a2c	1.0554862
12	0x3f88a3d2	1.0674994
13	0x3f895464	1.0728879
14	0x3f89c813	1.0764183
15	0x3f874db7	1.0570592
16	0x3f85080b	1.039308
17	0x3f8c2c2c	1.095098
18	0x3f8d31c7	1.1030816
19	0x3f87f558	1.0621748
20	0x3f889561	1.0670587
21	0x3f8ba9f1	1.0911237
22	0x3f8aaad3	1.0833381
23	0x3f83b9fe	1.0291135
24	0x3f89aa11	1.0755025
25	0x3f8a05c0	1.0783005
26	0x3f8c8641	1.0978471
27	0x3f87b975	1.0603472
28	0x3f8d6785	1.1047217
29	0x3f88a5f8	1.067565
30	0x3f8b4555	1.0880533
31	0x3f89a2b5	1.0752779

norm.bias f4 [32]
0	0x3c2285b6	0.0099195745
1	0x3ccdec37	0.02513705
2	0x3cf6524c	0.03006854
3	0xbc6c08f7	-0.014406434
4	0x3bc84845	0.006112131
5	0x3b6fc1b5	0.0036583964
6	0x3c36b226	0.011150872
7	0x3d120aa8	0.035654694
8	0xbc71bb73	-0.014754164
9	0xbcfd7886	-0.03094126
10	0xbbcec343	-0.006309898
11	0x3ce1010b	0.027466318
12	0xbccf348b	-0.02529361
13	0xbd163d2e	-0.03667944
14	0xbbf9daa0	-0.007624939
15	0xbb77b9c1	-0.0037799927
16	0xbd5bdb58	-0.05367598
17	0xbb6c4108	-0.0036049504
18	0x3ce0902b	0.027412495
19	0x3d408d4f	0.047009762
20	0x3c381137	0.011234573
21	0x3bb81ab5	0.005618418
22	0xbd0aee5e	-0.03391873
23	0x3bd4bcc0	0.0064922273
24	0xbb2d12db	-0.0026408944
25	0xbd406b18	-0.046977133
26	0x3cf0913c	0.029366128
27	0xbb216419	-0.0024626313
28	0x3ccfe2c4	0.025376685
29	0xbd22bb3b	-0.03972934
30	0x3d1f8e44	0.038954034
31	0xbc91f1f3	-0.017815566

patch_embeddings.weight f4 [14, 32]
0	0x3e5a20cd	0.21301575
1	0xbd95165b	-0.072796546
2	0xbec3faeb	-0.38277373
3	0xbf6323a3	-0.8872625
4	0x3f267e66	0.6503662
5	0x3c9fe466	0.019518089
6	0x3f70aacf	0.94010633
7	0x3d8ecd97	0.06972807
8	0x3ec286f9	0.379936
9	0x3f9787e6	1.1838348
10	0xbfb0545b	-1.3775743
11	0xbf0422d8	-0.5161567
12	0x3e524879	0.20535459
13	0xbe821cbe	-0.25412554
14	0xbf6ecab5	-0.93278056
15	0x3fc82f60	1.5639458
16	0x3fab2f54	1.3373818
17	0xbdee8f08	-0.11648375
18	0x3e96d8de	0.29462332
19	0x3f7007bb	0.93761796
20	0xc001f280	-2.030426
21	0x3efbf454	0.49209845
22	0x3fc09914	1.5046716
23	0x3f1c0de6	0.6095871
24	0x3dc92ddd	0.09823201
25	0xbfc90196	-1.5703609
26	0xbf925c7f	-1.1434478
27	0xbeb669dc	-0.3562764
28	0x3ed91da8	0.42405438
29	0xbf48a1a7	-0.7837166
30	0x3fbe08c3	1.4846424
31	0x401fa25b	2.4942844
32	0xbf2ef989	-0.6834951
33	0xbe946df8	-0.2899015
34	0x3f854c39	1.0413886
35	0x3df4c986	0.119525
36	0x3e20cd82	0.15703395
37	0x3f925aa0	1.1433907
38	0xbf958d34	-1.1683717
39	0xbea827c1	-0.3284283
40	0xbf01639b	-0.5054261
41	0xbf699390	-0.9124079
42	0x3f0ddd2a	0.55415595
43	0xbfba57f7	-1.4558095
44	0xbf96d5bb	-1.1783975
45	0x3f1b415e	0.6064662
46	0xbf189cf0	-0.5961447
47	0xbf3abe85	-0.7294696
48	0x3fd5e056	1.6709087
49	0xbf54742d	-0.8298977
50	0x3fac1da8	1.344655
51	0xbe7ddf1c	-0.2479214
52	0xbfc51f44	-1.5400167
53	0x4004f60f	2.0775182
54	0x4031904b	2.774432
55	0xbfdba63c	-1.7160106
56	0x3fbce38d	1.4756943
57	0xbfc144f0	-1.5099163
58	0x3f50b68f	0.8152856
59	0xbe5f9960	-0.21835852
60	0x3f45591d	0.770891
61	0x3fc3dc57	1.5301617
62	0x3fd487c5	1.6603934
63	0xbed5ade0	-0.4173422
64	0xbf54f0d4	-0.83179975
65	0x3f12669f	0.5718784
66	0xbdb4e58b	-0.08832844
67	0xbd2969bb	-0.041360598
68	0xbf024b67	-0.50896305
69	0x3ef76d75	0.48325697
70	0xbe8e8b75	-0.27840772
71	0xbf8b0100	-1.085968
72	0x4002bc96	2.0427604
73	0xbf01a010	-0.5063486
74	0x3e833642	0.25627333
75	0x3f33b0de	0.7019175
76	0xbfb24336	-1.3926761
77	0x3f6597ca	0.89684737
78	0x3de6a7ed	0.11262498
79	0x3e72cbb7	0.23710524
80	0x40201595	2.5013173
81	0xbf9e60fb	-1.2373346
82	0x3f830e3e	1.0238721
83	0x3f0c81e1	0.5488568
84	0xbfcb2f38	-1.5873785
85	0xbfa318eb	-1.2741979
86	0x3f3225d9	0.69589
87	0xbe4150b8	-0.18878448
88	0x3eb27fe9	0.34863213
89	0xbeb31525	-0.3497707
90	0x3eddd86b	0.43329176
91	0xbf4a23b7	-0.78960747
92	0xbeddceda	-0.43321878
93	0xbecc3362	-0.39882952
94	0xbf7b6afa	-0.9821011
95	0xbed97e4a	-0.42479163
96	0xbfd54651	-1.6662084
97	0xbfb0a99a	-1.3801758
98	0xbe219b84	-0.15781981
99	0x3f79205e	0.97315013
100	0x3c3880a9	0.011261144
101	0xbf416047	-0.7553753
102	0xbe8df50a	-0.27726012
103	0x3cdf9ccd	0.027296448
104	0xbe31624b	-0.17322652
105	0xbe0deb9e	-0.13859412
106	0x3e9deabd	0.30843154
107	0x3faed927	1.366002
108	0x3e0c5627	0.1370474
109	0x40225aa8	2.5367832
110	0xbf1974ed	-0.5994404
111	0xc0003c17	-2.0036676
112	0xbeb17ac5	-0.34663978
113	0x3c9dc87e	0.019260641
114	0x3f6b0a52	0.9181262
115	0xbfedf34c	-1.8589873
116	0x3e108e2b	0.14116733
117	0x3ef6a75a	0.48174554
118	0xbfdea21d	-1.7393223
119	0x3f130a6d	0.57437783
120	0x3fe1b82d	1.7634331
121	0x3e9c5e54	0.30540717
122	0x3e9fb729	0.31194428
123	0xbf2a0b89	-0.6642385
124	0xbf2e91f6	-0.6819147
125	0x3ea07c79	0.31344965
126	0xbf17c768	-0.59288645
127	0xbfbd5781	-1.4792329
128	0xc0032cc8	-2.0496082
129	0x3feba418	1.8409452
130	0x3faaffef	1.3359355
131	0xbef3c303	-0.4760972
132	0x3faa108f	1.3286303
133	0x3fd8cbb7	1.6937169
134	0xbde904c0	-0.11377859
135	0xbfda8c75	-1.7074114
136	0xbc527d27	-0.012847221
137	0x3dd43877	0.10362332
138	0x3f82306c	1.0171027
139	0x3f2af886	0.66785467
140	0x3e991840	0.29901314
141	0xbf39c034	-0.72558904
142	0x3f44637a	0.7671429
143	0x3f62faaa	0.88663733
144	0x4010bea3	2.2616355
145	0x3f7e6e14	0.99386716
146	0xbfbf9c07	-1.4969491
147	0xbe85a329	-0.26101044
148	0xbdbe0ec7	-0.09280162
149	0xbe8d6351	-0.27614835
150	0xbf20ac85	-0.62763244
151	0x3f8f90ef	1.1216105
152	0xbf7beb5d	-0.9840601
153	0x3e2d0514	0.16896468
154	0x3fa1446a	1.2599003
155	0xbe8641bc	-0.26222026
156	0xbf8b4917	-1.088168
157	0xbf31a3f9	-0.6939083
158	0x3fc709fc	1.5549922
159	0xbf348d16	-0.7052778
160	0xbf655cd9	-0.895948
161	0x3d644273	0.055727433
162	0xbd4eec3c	-0.05051826
163	0x4016b1af	2.354595
164	0xc02d5d50	-2.7088203
165	0x3f03d8a6	0.51502454
166	0xbf56a55e	-0.8384608
167	0xbe8c34c3	-0.27384004
168	0xbc0242db	-0.00795051
169	0x4003d319	2.0597594
170	0xbe23a612	-0.1598132
171	0xbe6f6b29	-0.23380722
172	0xbfa95056	-1.3227642
173	0xbd8c2af7	-0.068441324
174	0xbff01991	-1.8757802
175	0xbfb15ef2	-1.38571
176	0xbeafa5dc	-0.34306228
177	0xbf97c09c	-1.1855655
178	0x3de6b4dc	0.11264965
179	0x3e496f24	0.19671303
180	0x3f443abb	0.76652116
181	0x3f61dea0	0.88230324
182	0xbfdd3c57	-1.7284039
183	0x3fa52f88	1.290513
184	0x3f7a866d	0.9786137
185	0x3f882e78	1.0639181
186	0x3f224447	0.6338543
187	0xbfa315ac	-1.2740989
188	0xbf2a9591	-0.6663447
189	0x4007890a	2.1177392
190	0x3f0b6040	0.5444374
191	0x3f9bfd9e	1.2186773
192	0x3e60038d	0.21876355
193	0xbeaab322	-0.33339792
194	0x3fe8e1e8	1.8193941
195	0x3fb499b9	1.4109412
196	0x3f8dda6b	1.1082281
197	0xbf23b87e	-0.6395339
198	0xbef7789c	-0.48334205
199	0x3f12e2f9	0.5737758
200	0x3c84ae50	0.0161964
201	0xbfd68af3	-1.6761154
202	0x3f8a120b	1.0786756
203	0x3efeb796	0.4974944
204	0xbf9f8458	-1.2462263
205	0xbf770022	-0.9648458
206	0xbdd7ff1e	-0.105467066
207	0x3e067769	0.13131489
208	0x3e8e4245	0.27784935
209	0xbf3508b7	-0.7071642
210	0xbeb06638	-0.34452987
211	0xbeee9d83	-0.46604547
212	0x3f2359ee	0.63809097
213	0x3f241516	0.64094675
214	0x3f9d4348	1.2286158
215	0x3f42a129	0.7602716
216	0x3ef2ddde	0.47434896
217	0x3f5dec6a	0.86688864
218	0xbe7d66e8	-0.24746287
219	0xbf44901b	-0.7678239
220	0xbf17562f	-0.5911588
221	0x3ebb6762	0.36602312
222	0xbf089773	-0.53356093
223	0xbeb9ecd9	-0.36313513
224	0xbf1cfad8	-0.6132026
225	0xbe5ebcf1	-0.21751763
226	0x3be10dab	0.0068680844
227	0xbe9ca6e7	-0.30596086
228	0xbd691c73	-0.056911897
229	0x3f4af244	0.7927592
230	0xbbde952c	-0.006792685
231	0xbed89edc	-0.423087
232	0x3f588b4e	0.8458756
233	0xbfc43cc8	-1.5331049
234	0x3f1af9e8	0.60537577
235	0xbff2f94c	-1.8982329
236	0xbf7a07c1	-0.9766808
237	0x3db9e0a6	0.090760514
238	0xbee5418c	-0.4477657
239	0xbedc7bcb	-0.43063197
240	0x3fbcc885	1.4748694
241	0xbb676c04	-0.0035312185
242	0xbf424556	-0.7588705
243	0xbf939616	-1.1530178
244	0x3eeaf4dc	0.45889938
245	0xbe80f815	-0.25189272
246	0xbb3005ac	-0.002685885
247	0xbf5858b4	-0.8451035
248	0xbeadaea8	-0.33922315
249	0x3e5f9445	0.21833904
250	0xbf71268b	-0.94199437
251	0xbf9e67f5	-1.2375475
252	0x3f8f39d9	1.1189529
253	0xbffa4ddf	-1.9555014
254	0xbf10b6ae	-0.5652875
255	0x3f8a66ee	1.0812662

blocks.0.norm1.weight f4 [32]
0	0x3f850e20	1.0394936
1	0x3f852437	1.0401677
2	0x3f813bbe	1.0096357
3	0x3f80ecf5	1.0072314
4	0x3f7ffa87	0.9999165
5	0x3f804e27	1.002385
6	0x3f83a738	1.0285406
7	0x3f816036	1.0107486
8	0x3f844b5e	1.03355
9	0x3f804c1b	1.0023226
10	0x3f802faa	1.0014546
11	0x3f801d59	1.0008956
12	0x3f7f6f68	0.9977937
13	0x3f8160ab	1.0107626
14	0x3f82fdf8	1.0233755
15	0x3f81f6a4	1.0153394
16	0x3f80b6e3	1.0055813
17	0x3f810c77	1.0081929
18	0x3f8008da	1.0002701
19	0x3f7dfab0	0.99210644
20	0x3f8414d7	1.031886
21	0x3f83099c	1.0237308
22	0x3f8833ac	1.0640769
23	0x3f836b26	1.0267074
24	0x3f801746	1.0007102
25	0x3f819b8c	1.0125594
26	0x3f8112ca	1.0083859
27	0x3f80ec6e	1.0072153
28	0x3f8117d4	1.0085397
29	0x3f82cde2	1.021908
30	0x3f81d350	1.0142612
31	0x3f7ff586	0.99984014

blocks.0.norm1.bias f4 [32]
0	0xbb7b7a6c	-0.003837253
1	0xbc0b0de1	-0.008487196
2	0xbc6e07d3	-0.014528233
3	0xbaf64615	-0.0018789197
4	0xbabc87f8	-0.0014383784
5	0x3a4a2bc0	0.0007712208
6	0xbba729d3	-0.0051014214
7	0xbc84fdf9	-0.016234385
8	0xbb9cd53b	-0.0047861612
9	0x3bc99083	0.0061512603
10	0x3be6aa19	0.00703932
11	0xbbdb7911	-0.006697782
12	0x3b99e1d2	0.0046961093
13	0xbbd7890c	-0.0065776166
14	0x3ac6c268	0.0015164139
15	0x3b60a2e3	0.0034276776
16	0xba9cd58e	-0.00119655
17	0x3c38ff55	0.011291345
18	0xbbaaee6c	-0.0052164104
19	0x3bb8cd2d	0.0056396932
20	0xbb87da71	-0.0041459133
21	0xbbe5b0ea	-0.007009615
22	0xbb816cd9	-0.003949743
23	0xbc1f89d3	-0.00973745
24	0xbc2575fb	-0.0100989295
25	0x3c957af9	0.018247114
26	0xbae51266	-0.0017476797
27	0x3c287515	0.010281821
28	0x3c2cc0bc	0.010543998
29	0x3bac2aed	0.0052541406
30	0x3b50a24c	0.0031835018
31	0x3b8b4b8f	0.0042509506

blocks.0.attn.qkv.weight f4 [96, 32]
0	0x3dc214a2	0.09476592
1	0xbde1b6db	-0.11021205
2	0xbd939237	-0.07205623
3	0xbb1b4e6a	-0.0023697861
4	0x3dfc6c5e	0.12325357
5	0xbd798e1c	-0.06092654
6	0x3d37e07a	0.044891812
7	0xbe2e6cc6	-0.17033681
8	0x3dcf83ec	0.10132584
9	0xbd56e532	-0.05246467
10	0xbe263b9e	-0.1623368
11	0x3d793b6a	0.060847677
12	0x3cc28d9f	0.02374917
13	0x3c4a3be2	0.012343379
14	0xbb870728	-0.004120726
15	0xbe1df0b4	-0.15423852
16	0xbe36cc7c	-0.17851442
17	0x3db096c5	0.08622507
18	0x3e18fdc9	0.14940561
19	0x3db53f90	0.08850014
20	0xbc794170	-0.015213355
21	0x3de33d99	0.11095733
22	0x3d896a4a	0.06709726
23	0xbdb56247	-0.088566355
24	0xbe2b83e9	-0.16749538
25	0x3b48387b	0.0030551243
26	0x3b3e3e30	0.0029028766
27	0x3cadbad8	0.021207258
28	0xbd92e3c9	-0.07172353
29	0x3dddcc89	0.108300276
30	0xbd960784	-0.07325652
31	0xbd9f2546	-0.07770781
32	0x3cbc3f49	0.022979395
33	0xbe08ecd4	-0.13371593
34	0xbaa685b9	-0.0012704647
35	0x3d989e8c	0.074521154
36	0x3d84e66a	0.064892605
37	0xbde16a2d	-0.110065795
38	0xbd7f70e8	-0.062363535
39	0x3d6fc7af	0.058540042
40	0xbe257508	-0.16157925
41	0x3d80a1e5	0.06280879
42	0x3d46fb2d	0.048579384
43	0x3dc35789	0.095381804
44	0xbdf4a388	-0.119452536
45	0xbe30fba8	-0.17283499
46	0x3d6df586	0.058095478
47	0xbd84f690	-0.064923406
48	0xbdaf9ede	-0.085752234
49	0xbe2ed574	-0.17073613
50	0xbe25f72a	-0.16207567
51	0x3e1ad22c	0.15119237
52	0x3e48d4f8	0.19612491
53	0xbe54f44a	-0.20796314
54	0xbe3e929f	-0.18610619
55	0xbb3119ec	-0.0027023507
56	0xba078487	-0.00051695894
57	0xbe3aea4f	-0.18253444
58	0xbe1988a2	-0.14993528
59	0x3d4dbdf6	0.05022999
60	0xbe1f4326	-0.15552959
61	0xbd4da6c2	-0.05020786
62	0x3d9a5f09	0.07537658
63	0x3e2518fa	0.16122809
64	0x3cfc20ec	0.030777417
65	0x3e13f99b	0.14450686
66	0x3e0ea3ff	0.13929747
67	0x3c85d96c	0.016339026
68	0x3e3cd553	0.18440752
69	0x3e27bc03	0.16380315
70	0x3d8047ad	0.06263671
71	0xbdb1ddd4	-0.086848885
72	0xbd7a94ff	-0.06117725
73	0xbe2f1bb9	-0.17100419
74	0x3dd38af8	0.103292406
75	0x3dac6e5b	0.08419486
76	0x3e36acb4	0.17839319
77	0x3d187c4e	0.03722792
78	0x3cea187a	0.028576124
79	0x3ddc2235	0.10748712
80	0x3d54f864	0.051994696
81	0x3d88df3d	0.06683204
82	0xbca397f6	-0.019969922
83	0x3db9e098	0.09076041
84	0x3dff15ac	0.124553055
85	0x3a987f98	0.0011634706
86	0xbd575603	-0.05257226
87	0xbe356cc8	-0.17717278
88	0xbdd318e7	-0.10307484
89	0xbc1c469d	-0.00953832
90	0x3d849927	0.06474524
91	0x3d092afc	0.03348826
92	0x3e3f4bd4	0.1868127
93	0xbd1a605a	-0.037689544
94	0xbd65f835	-0.05614491
95	0xbb1f08f1	-0.0024266804
96	0xbe2bb061	-0.16766502
97	0x3ceedbb8	0.029157504
98	0xbe1febe0	-0.15617323
99	0xbd516fdc	-0.051132068
100	0x3d9e4c59	0.07729406
101	0xbe1b00c1	-0.15137006
102	0xbd170efc	-0.036879525
103	0x3d647736	0.05577775
104	0x3da9a19f	0.0828278
105	0x3d9b6be6	0.07588939
106	0xbdd34058	-0.10315007
107	0xbe0f2e0e	-0.13982412
108	0x3dd35d9e	0.103205904
109	0x3dad0ce4	0.08449724
110	0xbe1920cc	-0.14953917
111	0xbe2a2975	-0.16617377
112	0x3d22a15b	0.03970466
113	0xbe18d8e5	-0.14926489
114	0xbdf992ce	-0.12186204
115	0xbe23cc62	-0.15995935
116	0xbe2077a6	-0.15670642
117	0xbdc9431f	-0.098272555
118	0x3d7ed408	0.062213928
119	0x3de57a6b	0.1120499
120	0xbe0b253b	-0.13588421
121	0xbe0482c4	-0.12940508
122	0xbda669a4	-0.08125618
123	0xbd973aa1	-0.073842295
124	0x3e0708b0	0.13186908
125	0xbdd6e8ac	-0.104935974
126	0xbd1be2b2	-0.03805799
127	0x3e25fa15	0.1620868
128	0x3d9328ff	0.07185554
129	0x3ca863b1	0.020555349
130	0xbd8ad70b	-0.067792974
131	0xbe075fb3	-0.132201
132	0xbe092436	-0.1339272
133	0x3e45dd4f	0.19322704
134	0xbe3b474b	-0.18288915
135	0x3d56cb52	0.052439995
136	0x3dba4ddd	0.090968825
137	0x3daef46b	0.08542713
138	0x3c8a73b1	0.01690087
139	0xbde02194	-0.109439045
140	0xbdedcffa	-0.11611934
141	0x3c41062e	0.0117812585
142	0xbdee8fde	-0.11648534
143	0x3e4a582c	0.19760197
144	0xbd141955	-0.03615697
145	0xbddb16ba	-0.10697694
146	0xbe342f15	-0.17596085
147	0x3dbce438	0.09223217
148	0x3df4bf3b	0.11950537
149	0x3e3f2460	0.1866622
150	0x3b3127b4	0.0027031722
151	0xbe1e8f05	-0.15484245
152	0xbd61a995	-0.055093367
153	0xbcb4498f	-0.022007732
154	0xbd4e8f7b	-0.050429802
155	0xbe2f1da2	-0.17101148
156	0x3db35b2c	0.08757624
157	0xb9a399a2	-0.00031204248
158	0xbca0f010	-0.01964572
159	0x3e161616	0.14656863
160	0x3e51761d	0.20455213
161	0x3e2c022f	0.16797708
162	0xbd64219d	-0.05569612
163	0x3d6687a7	0.056281712
164	0xbe1585d9	-0.1460184
165	0xbd1d9106	-0.038468383
166	0x3e20a119	0.15686454
167	0xbde771a0	-0.11300969
168	0xbde39ef1	-0.111143
169	0xbcc45e00	-0.023970604
170	0x3e022a4a	0.12711444
171	0x3b3fe805	0.0029282582
172	0xbe3814d1	-0.17976691
173	0xbb9664e9	-0.004589666
174	0x3e1f8995	0.15579827
175	0x3c07c0a2	0.008285673
176	0xbe38b257	-0.18036781
177	0x3d92828e	0.071538076
178	0xbe1a42ae	-0.15064499
179	0xbe284c9a	-0.16435471
180	0xbd74024b	-0.0595725
181	0x3e3f5d94	0.18688041
182	0x3d27a7c6	0.040931486
183	0xbdd982c0	-0.10620642
184	0x3db2d2e3	0.0873163
185	0x3dd68bdd	0.104758956
186	0x3e209278	0.15680873
187	0x3e24dddf	0.16100262
188	0x3de01177	0.10940831
189	0xbe287acf	-0.16453098
190	0x3c4bbdb9	0.01243537
191	0xbd557692	-0.05211503
192	0xbdc06005	-0.09393314
193	0x3e3720fe	0.1788368
194	0x3ddb91c1	0.1072116
195	0xbd92b6a4	-0.07163742
196	0xbdca0caf	-0.098657005
197	0xbdcc81c8	-0.09985691
198	0x3e175216	0.14777407
199	0xbddf7c44	-0.10912374
200	0x3aeeb712	0.0018212518
201	0x3de21498	0.11039084
202	0x3dcc6414	0.09980026
203	0x3d7d10a5	0.06178345
204	0x3c9313da	0.017953802
205	0x3e2a867d	0.16652866
206	0xbd392c11	-0.04520804
207	0xbe0681ed	-0.131355
208	0xbe315895	-0.17318948
209	0x3e2f923d	0.17145629
210	0x3d95de9c	0.0731785
211	0x3df95063	0.12173536
212	0x3d8a83ea	0.06763442
213	0x3d06f5b3	0.03294916
214	0x3da8d5ae	0.08243881
215	0xbd71a4e9	-0.05899516
216	0xbe2c44aa	-0.16823068
217	0xbd01a076	-0.031647168
218	0x3e55e5a6	0.20888385
219	0x3e04a0f3	0.12952022
220	0x3de1dee0	0.11028838
221	0xbcc6efb3	-0.02428422
222	0x3c7efea3	0.01556364
223	0xbe24b2c7	-0.16083823
224	0x3e19d17c	0.15021318
225	0x3e2a1e39	0.16613092
226	0xbdce11c5	-0.10061983
227	0xbd9a5478	-0.075356424
228	0xbd507c23	-0.050899636
229	0x3d401022	0.046890385
230	0xbda8fe21	-0.08251596
231	0x3dfeaaa2	0.124348894
232	0x3de21fe9	0.11041243
233	0x3d5466da	0.0518559
234	0xbdbb657d	-0.09150217
235	0x3e22c014	0.15893584
236	0xbde26551	-0.11054481
237	0x3ceca767	0.028888417
238	0x3e30aec7	0.17254172
239	0x3d910c79	0.07082457
240	0xbdccf362	-0.10007359
241	0xbddcaff7	-0.1077575
242	0xbdde449f	-0.10852932
243	0xbd1ab09b	-0.03776608
244	0xbdc83c25	-0.09777097
245	0x3e2700a0	0.16308832
246	0x3e403374	0.18769628
247	0xbd3ff688	-0.04686597
248	0xbdeef9b1	-0.116687186
249	0xbd958932	-0.073015586
250	0x3e039159	0.12848414
251	0xbcb297cb	-0.021800896
252	0xbe04de7d	-0.12975498
253	0x3dd98229	0.10620529
254	0x3d125612	0.035726614
255	0x3e359140	0.1773119

blocks.0.attn.proj.weight f4 [32, 32]
0	0x3d933195	0.071871914
1	0xbcd3f731	-0.025874706
2	0xbd66250e	-0.05618768
3	0xbdadfa66	-0.08495025
4	0x3d924b0c	0.0714322
5	0xbd897bd8	-0.067130744
6	0xbda625ff	-0.08112716
7	0xbc75d87c	-0.015005227
8	0x3b8dc7c3	0.004326792
9	0xbd386cde	-0.0450257
10	0xbd8e8ced	-0.06960473
11	0xbe37f465	-0.17964323
12	0xbdd9f325	-0.10642079
13	0x3dd90dca	0.10598333
14	0x3e0c84c9	0.13722529
15	0xbdd69a49	-0.10478646
16	0xbe24ac5f	-0.1608138
17	0xbe07d45b	-0.13264601
18	0xbc88b0e9	-0.01668592
19	0x3d6c1b9a	0.05764351
20	0xbe28ed12	-0.16496685
21	0xbe0fb9a6	-0.14035663
22	0xbd76cc5a	-0.06025348
23	0xbdc54a6f	-0.09633338
24	0x3e0e16ed	0.13875933
25	0xbd915dfb	-0.070980035
26	0x3c799a36	0.015234521
27	0xbdcfd402	-0.10147859
28	0xbdfe7bf7	-0.12425988
29	0xbe2443bb	-0.16041462
30	0xbd9f8ea4	-0.077908784
31	0xbe1e37f4	-0.15451032
32	0xbd80ce52	-0.062893525
33	0x3d8b6f0b	0.06808289
34	0xbd20842a	-0.03918854
35	0x3c256141	0.010093988
36	0x3dfb38b9	0.12266678
37	0x3db9f48c	0.09079847
38	0xbdb6972c	-0.089155525
39	0x3cc21737	0.02369271
40	0x3dbd12b0	0.0923208
41	0xbdbd5d8a	-0.09246357
42	0x3d3f34f4	0.04668136
43	0x3e2dec5d	0.16984697
44	0xbe27fbad	-0.164046
45	0x3da619c3	0.081103824
46	0xbd756676	-0.059912167
47	0x3db1692d	0.08662639
48	0x3cac82ea	0.021058518
49	0x3dd85dad	0.10564742
50	0xbd7902d0	-0.060793698
51	0x3e2d6dec	0.16936463
52	0x3e32b4fb	0.17451851
53	0x3e04deff	0.12975691
54	0x3e221600	0.15828705
55	0x3db6389e	0.088975176
56	0xbe3334db	-0.17500632
57	0x3de2cc4a	0.11074121
58	0xbd47a80b	-0.048744243
59	0x3dd178f9	0.10228152
60	0x3e0fb9f6	0.14035782
61	0xbd6ed40f	-0.058307704
62	0xbdbede42	-0.09319736
63	0xbd11ed2b	-0.03562657
64	0x3e0dfc79	0.13865842
65	0x3d8838ca	0.06651457
66	0xbe175e37	-0.14782034
67	0x3dbbd674	0.09171763
68	0xbddce140	-0.107851505
69	0x3ddc51ba	0.107577756
70	0x3c1441ef	0.009048923
71	0x3e1ae96e	0.15128109
72	0x3c29d2ca	0.010365197
73	0x3d64b588	0.055837184
74	0x3c9a6c29	0.018850403
75	0xbdcdf2a0	-0.10056043
76	0x3e212178	0.15735424
77	0x3d9c1632	0.07621421
78	0xbcf21322	-0.029550139
79	0x3d0990be	0.033585303
80	0xbdd0e168	-0.10199243
81	0x3d85a645	0.06525854
82	0x3e0ed2b0	0.13947558
83	0xbddb0440	-0.1069417
84	0xbe296f52	-0.16546372
85	0xbd672158	-0.056428283
86	0xbdde0297	-0.10840338
87	0xbdcfbfae	-0.10143982
88	0xbe051ffb	-0.13000481
89	0xbd3bc9ce	-0.045846753
90	0x3d0fa399	0.03506813
91	0x3d352d63	0.044232737
92	0xbe08029f	-0.1328225
93	0xbe3767fb	-0.17910759
94	0x3e0af22a	0.13568941
95	0xbd80b9cd	-0.06285439
96	0x3befb04e	0.0073147183
97	0xbe163b46	-0.14671049
98	0xbd3a5f47	-0.04550102
99	0x3de0dbfa	0.10979457
100	0xbda3d0c2	-0.07998802
101	0xbd39f0de	-0.045395724
102	0xbe26bb66	-0.16282424
103	0x3e31e36e	0.17371914
104	0x3cf46cde	0.029837068
105	0x3dadeb80	0.08492184
106	0xbdd21cd7	-0.10259407
107	0x3e1948f9	0.14969243
108	0xbc79f2ae	-0.015255613
109	0xbdca4521	-0.098764665
110	0x3d269e72	0.04067845
111	0x3cb79288	0.022408739
112	0x3d64142a	0.055683292
113	0xbdafce0c	-0.08584222
114	0xbd40b9e1	-0.047052268
115	0x3deab0e9	0.11459524
116	0x3e233697	0.15938793
117	0x3d2565dd	0.040380348
118	0x3dab160f	0.08353817
119	0xbdfb8b87	-0.12282472
120	0x3d0735d4	0.03301032
121	0xbe1a7dac	-0.15087003
122	0x3bf2c3f0	0.0074086115
123	0xbc4809d6	-0.012209376
124	0xbd4c26c8	-0.049841672
125	0xbd23ee84	-0.040022388
126	0xbc9cf1b2	-0.019158218
127	0x3ca3893f	0.019962905
128	0x3d9efb2d	0.07762752
129	0xbd9aee88	-0.075650275
130	0xbd6e3900	-0.05815983
131	0xbb1804e7	-0.0023196281
132	0x3dcfa127	0.10138159
133	0x3cc8451d	0.024447018
134	0x3d0ba3bc	0.034091696
135	0xbd2d3c5f	-0.042293902
136	0xbde58cee	-0.11208521
137	0x3dbf67da	0.0934598
138	0xbdc3faf5	-0.09569351
139	0x3de9d36f	0.11417281
140	0x3da5973b	0.080854855
141	0xbd99ea62	-0.07515408
142	0xbd82a259	-0.063786216
143	0x3d71b215	0.059007723
144	0x3c8f6b0e	0.017507102
145	0xbe1124ea	-0.14174238
146	0x3c908d03	0.017645365
147	0xbdf31dcb	-0.11870917
148	0xbc40e35f	-0.0117729595
149	0xbd5cee1d	-0.05393802
150	0xbe12dbd8	-0.14341676
151	0xbe345077	-0.1760882
152	0x3df94d55	0.12172953
153	0xbd28cba5	-0.041209836
154	0xbd309f56	-0.043120705
155	0xbda12e91	-0.0787021
156	0x3da27ccd	0.0793396
157	0x3e010be7	0.12602197
158	0x3c04a428	0.0080957785
159	0x3c0ace9d	0.008472112
160	0xbe0070cb	-0.12543027
161	0xbe0e2785	-0.13882263
162	0x3e1d9b19	0.15391196
163	0xbddd2c70	-0.107994914
164	0xbcbc266b	-0.022967538
165	0x3e355504	0.17708212
166	0x3d6813f0	0.05665964
167	0xbe0210b7	-0.12701689
168	0x3e116c6c	0.14201516
169	0x3d5b74da	0.053578235
170	0xbe191c11	-0.14952113
171	0x3e171230	0.14753032
172	0xbce78913	-0.028263604
173	0x3e12df55	0.14343007
174	0x3df083d6	0.11743896
175	0xbe252976	-0.16129097
176	0x3d05aaa7	0.03263345
177	0xbd85d786	-0.065352485
178	0x3b5412e4	0.0032359893
179	0xbce25a61	-0.027630987
180	0x3e0a2557	0.13490807
181	0xbdb9321d	-0.090427615
182	0xbdb10ec9	-0.08645398
183	0x3b752b08	0.0037409682
184	0xbc1b33c1	-0.009472788
185	0x3d450f20	0.048110127
186	0xbcb76f96	-0.022392076
187	0xbdec21df	-0.11529898
188	0xbde04169	-0.10949976
189	0xbd3e47f4	-0.04645534
190	0x3dade861	0.084915884
191	0xbe0de82e	-0.13858101
192	0x3d3912f3	0.045184087
193	0xbd5f3169	-0.05449048
194	0x3e14c32f	0.14527582
195	0x3d2fcaa6	0.04291787
196	0xbd0a03bf	-0.03369498
197	0x3de76693	0.11298861
198	0xbb0fcb86	-0.0021941378
199	0x3e27e4fd	0.16395946
200	0xbe04507c	-0.12921327
201	0x3d44e484	0.048069492
202	0xbdad7acd	-0.08470688
203	0x3ddef3d1	0.10886348
204	0x3cecf2db	0.028924396
205	0xbcd126e0	-0.025531232
206	0x3dfc8f6b	0.12332042
207	0xbe19fcf6	-0.15037903
208	0x3d8d603a	0.069031194
209	0x3bd37571	0.006453209
210	0x3c9edc82	0.019392256
211	0x3d2ab9c8	0.04168108
212	0xbd031fa4	-0.032012597
213	0xbe39ced6	-0.18145308
214	0x3e327776	0.17428383
215	0xbd8c25d6	-0.06843154
216	0xbb3f2484	-0.0029166052
217	0xbcb07c83	-0.021543747
218	0x3d9d5a6c	0.07683262
219	0xbcec5cac	-0.028852783
220	0x3d08c899	0.03339443
221	0xbc3ea6ac	-0.011636417
222	0x3d9fe56f	0.07807433
223	0x3c2274da	0.009915555
224	0xbd7f6357	-0.062350597
225	0xbd1f07cb	-0.03882579
226	0x3d0d238a	0.03445772
227	0xbd39c02c	-0.045349285
228	0xbe02ee30	-0.12786174
229	0x3e34cd47	0.17656432
230	0xbe18bbd7	-0.14915405
231	0x3da77343	0.08176281
232	0xbd74cabc	-0.059763655
233	0x3d2f2905	0.04276373
234	0xbdfb8afc	-0.122823685
235	0xbdd0ad01	-0.10189248
236	0xbd74afef	-0.059738096
237	0x3d923582	0.07139112
238	0x3d8b6a76	0.06807415
239	0x3ce6939c	0.028146558
240	0xbd45875a	-0.048224784
241	0x3e3b945d	0.18318315
242	0xbca4e7b9	-0.020130025
243	0xbd12cc42	-0.035839327
244	0x3e2ac95d	0.16678376
245	0x3d0841a1	0.033265714
246	0xbe3731d4	-0.17890102
247	0xbe106161	-0.14099647
248	0xbdf37db3	-0.118892096
249	0xbe18c96d	-0.14920588
250	0xbe29d632	-0.16585615
251	0x3e11d5c7	0.14241706
252	0x3e0e2fb9	0.13885392
253	0xbddb1395	-0.10697094
254	0xbd79a61c	-0.06094943
255	0x3da15f2d	0.078794815

blocks.0.attn.proj.bias f4 [32]
0	0xbd7e919a	-0.062150575
1	0x3d97dfa9	0.07415707
2	0x3dd1f0f3	0.102510355
3	0xbdb91c0f	-0.09038555
4	0x3d7c426a	0.061586775
5	0x3df8278e	0.121169195
6	0xbdfb14bf	-0.122598164
7	0x3ded5daf	0.11590134
8	0xbdbd7bed	-0.092521526
9	0xbdb7060f	-0.089367025
10	0x3dc0c3ca	0.09412344
11	0xbd39dd29	-0.04537693
12	0x3cf70b60	0.030156791
13	0x3de886cb	0.11353835
14	0xbd8420f5	-0.064515986
15	0xbd644d5e	-0.055737846
16	0xbe132bd5	-0.1437219
17	0x3dab1d5d	0.0835521
18	0x3ce33753	0.027736342
19	0x3e1ffc39	0.15623559
20	0x3e0023b8	0.12513626
21	0x3d43d46c	0.047810003
22	0x3d2e7255	0.042589504
23	0x3e18fc57	0.1494001
24	0xbe127041	-0.14300634
25	0xbe128eac	-0.14312238
26	0x3e2858ad	0.16440077
27	0xbd619e6c	-0.055082723
28	0x3d5465c6	0.05185487
29	0xbd40f545	-0.047108907
30	0xbe0d3ae8	-0.13792002
31	0xbe07d877	-0.13266169

blocks.0.norm2.weight f4 [32]
0	0x3f7fa116	0.9985517
1	0x3f7d3afe	0.9891814
2	0x3f7db774	0.9910805
3	0x3f7f6ed5	0.9977849
4	0x3f7daa89	0.9908834
5	0x3f7ed9bc	0.99550986
6	0x3f7cc100	0.98731995
7	0x3f8026e0	1.0011864
8	0x3f828a20	1.0198402
9	0x3f7d7ed3	0.99021643
10	0x3f80c69c	1.0060611
11	0x3f80ee02	1.0072634
12	0x3f82491a	1.0178559
13	0x3f80ef53	1.0073036
14	0x3f810935	1.0080935
15	0x3f832709	1.0246288
16	0x3f806ba3	1.0032848
17	0x3f81065a	1.0080063
18	0x3f8044a2	1.0020945
19	0x3f7a20ce	0.97706306
20	0x3f7c4831	0.98547655
21	0x3f7b83dd	0.9824808
22	0x3f80bac6	1.0056999
23	0x3f7c03f9	0.9844356
24	0x3f7f4d1a	0.9972702
25	0x3f830f21	1.0238992
26	0x3f823da0	1.0175056
27	0x3f810846	1.008065
28	0x3f7fc885	0.99915344
29	0x3f806661	1.0031244
30	0x3f8100d9	1.0078384
31	0x3f7d6df9	0.9899593

blocks.0.norm2.bias f4 [32]
0	0xbab95b4b	-0.0014141587
1	0xbae8c3ef	-0.0017758588
2	0x3b5e17f1	0.0033888782
3	0x3c46e3f4	0.012139309
4	0xbc7eb097	-0.015545032
5	0xbbd84560	-0.006600067
6	0x3b8c7319	0.0042861816
7	0xb9bd503a	-0.00036108663
8	0x3c45d841	0.012075485
9	0x3c2fa176	0.010719648
10	0x3b429c58	0.002969524
11	0x3b2b91db	0.0026179466
12	0x39f09792	0.00045889296
13	0x3b0bfd50	0.0021360703
14	0x3ba1e714	0.0049408767
15	0x3c0af02f	0.008480116
16	0x39d2f5a6	0.00040237344
17	0xbb2ea6e2	-0.0026649763
18	0xba91d388	-0.0011125663
19	0x3c81aa5f	0.01582831
20	0x3b9b7a02	0.004744769
21	0x3b5c5523	0.0033620081
22	0xbbb475ca	-0.0055072056
23	0x3cce8656	0.02521054
24	0xbba4fc2c	-0.005034944
25	0x3b4a6f3f	0.0030889062
26	0x3ba3bdfb	0.0049970127
27	0x3a74a9a0	0.00093331374
28	0xbb3ada53	-0.002851148
29	0x3b6db48b	0.0036270942
30	0xbb91d04e	-0.0044498807
31	0xbca32ee9	-0.01991983

blocks.0.mlp.fc1.weight f4 [128, 32]
0	0xba5cac67	-0.0008418024
1	0xbcac895b	-0.02106159
2	0x3d8be504	0.06830791
3	0xbe0a9a0a	-0.13535324
4	0xbc36763b	-0.011136587
5	0x3c48ca99	0.012255334
6	0xbe032766	-0.12807998
7	0x3e42903f	0.19000338
8	0xbd027e56	-0.031858765
9	0xbb97f265	-0.00463705
10	0x3dab3036	0.08358805
11	0xbe1f5e78	-0.1556338
12	0xbe407dc7	-0.1879798
13	0x3dcedb9c	0.10100481
14	0x3e1caae7	0.15299569
15	0xbde416de	-0.11137174
16	0xbe182b1a	-0.14860192
17	0x3e20c88f	0.15701507
18	0x3e226ff3	0.15863018
19	0x3e325565	0.17415388
20	0xbd017f0d	-0.031615306
21	0xbd179230	-0.03700465
22	0x3da50eae	0.080594406
23	0xbcbf51a1	-0.023354353
24	0x3e20be6c	0.1569764
25	0xbda701bb	-0.08154627
26	0x3e1b59f6	0.15171036
27	0x3dcc3cd9	0.09972543
28	0x3d57af49	0.0526574
29	0x3e1f6856	0.15567145
30	0xbd92366a	-0.07139285
31	0xbc7331da	-0.0148434285
32	0x3db09c3e	0.08623551
33	0x3e3373dd	0.17524667
34	0x3de07ad9	0.10960931
35	0x3dc1fb7e	0.094717965
36	0xbe21c78e	-0.1579878
37	0xbe224ff3	-0.1585081
38	0xbd3abf2d	-0.045592476
39	0xbd9aca2e	-0.07558094
40	0x3e3bbf2a	0.18334642
41	0x3d85c0e6	0.06530933
42	0x3da3427d	0.07971666
43	0x3c8d1025	0.017219612
44	0x3dfa7c6d	0.122307636
45	0xbe2aefd5	-0.16693051
46	0xbdb10f47	-0.08645492
47	0x3e1ec6de	0.1550555
48	0x3cc87aba	0.024472583
49	0xbe013784	-0.12618834
50	0x3e0dd613	0.13851194
51	0x3df90f50	0.12161124
52	0xbcf38222	-0.029725138
53	0x3d742853	0.05960877
54	0x3e367e83	0.17821698
55	0x3c5d408e	0.013504161
56	0xbbce9aae	-0.0063050603
57	0x3dbbae59	0.091641136
58	0xbcb81b87	-0.022474064
59	0x3dd0f59e	0.10203098
60	0xbd9eab64	-0.07747534
61	0x3baec9d5	0.005334119
62	0x3e20689c	0.15664905
63	0x3d82f0be	0.06393574
64	0xbe05e63a	-0.13076106
65	0x3d88d414	0.06681076
66	0x3deddc03	0.116142295
67	0xbe100bca	-0.14066997
68	0x3e2f2ea1	0.17107631
69	0x3d10549f	0.03523695
70	0xbe348021	-0.17627002
71	0xbe2000c2	-0.15625289
72	0x3e077247	0.13227187
73	0x3e0e9ba7	0.13926564
74	0xbcde1367	-0.027108861
75	0xbd385778	-0.04500529
76	0x3d80b0a5	0.06283692
77	0x3d945028	0.07241851
78	0x3bf9a516	0.0076185567
79	0x3e1fb46b	0.15596168
80	0xbde95306	-0.113927886
81	0x3e1e5854	0.15463382
82	0xbe088c6c	-0.13334817
83	0x3b13bd0e	0.0022543105
84	0x3cd64c6e	0.026159491
85	0xbca788d9	-0.020450996
86	0x3d91a04e	0.07110654
87	0xbe026f41	-0.12737752
88	0x3d283a8b	0.041071456
89	0xbcd1dfa1	-0.02561933
90	0x3e2069ce	0.15665361
91	0xbdd51675	-0.10404674
92	0xbe1a88ab	-0.15091197
93	0xbde784d7	-0.11304634
94	0xbd3ab6d3	-0.04558451
95	0xbdf15f0b	-0.11785706
96	0x3def3fe4	0.11682108
97	0xbd0802c3	-0.03320576
98	0x3de4fd53	0.1118113
99	0xbdf44cec	-0.11928734
100	0x3e2048b5	0.15652736
101	0x3e2b4160	0.16724157
102	0xbe19c354	-0.15015918
103	0x3e18b310	0.14912057
104	0x3b8edb07	0.004359606
105	0x3dcb4f59	0.09927244
106	0xbd62b55b	-0.055348735
107	0x3e105d6a	0.14098135
108	0xbcb44893	-0.022007262
109	0xbc4183f6	-0.011811247
110	0xbcee939b	-0.029123118
111	0x3da7554b	0.08170565
112	0x3d0316d0	0.032004178
113	0xbe1bbb05	-0.15208061
114	0xbb92e95b	-0.0044833845
115	0x3d4328cc	0.04764633
116	0x3cc80252	0.024415169
117	0xbd9f223f	-0.07770204
118	0x3d780e75	0.060560662
119	0xbbbdd2c4	-0.0057929475
120	0x3df958a0	0.12175107
121	0x3e00fd1c	0.12596554
122	0x3ca8af11	0.02059129
123	0xbdc88e88	-0.09792811
124	0x3dfe8e03	0.1242943
125	0x3d8dea98	0.06929511
126	0x3d5a09ee	0.053232126
127	0xbcf6d6ae	-0.030131664
128	0x3d7d8244	0.06189181
129	0xbdddfe7d	-0.108395554
130	0xbe31cb5e	-0.17362735
131	0x3e2752b7	0.16340147
132	0x3d40fe5c	0.047117576
133	0x3e0405bd	0.12892814
134	0xbe32c4b9	-0.17457856
135	0xbd42a648	-0.04752186
136	0xbd141ed1	-0.0361622
137	0x3e07a31c	0.13245815
138	0x3d02bb48	0.031916887
139	0xbdd1ae95	-0.10238377
140	0xbe10f3b8	-0.14155471
141	0x3d8dea93	0.06929507
142	0x3e33f008	0.17572033
143	0x3da28c74	0.079369456
144	0x3e23edad	0.16008635
145	0xbe3efcaa	-0.18651071
146	0x3e19fa7a	0.15036955
147	0xbbde5e7a	-0.006786165
148	0xbd86e2ed	-0.065862514
149	0xbe19b225	-0.15009363
150	0x3d447939	0.04796717
151	0x3ddc1c7f	0.10747623
152	0x3ddb1cdf	0.10698866
153	0x3da84ecc	0.08218154
154	0xbd3a7467	-0.045521166
155	0xbd54e18f	-0.051972922
156	0xbdb22f16	-0.08700387
157	0x3da492c1	0.080358036
158	0x3d38a666	0.045080565
159	0x3dfefc7f	0.124505036
160	0x3d6f0c89	0.058361564
161	0x3dd7210c	0.1050435
162	0xbd636cf9	-0.055523846
163	0xbe38b31b	-0.18037073
164	0x3a5b5271	0.0008366472
165	0x3dd05ee7	0.10174351
166	0xbe1c5388	-0.1526624
167	0x3d88018e	0.066409215
168	0x3d0d2b37	0.03446504
169	0x3d5fcb2a	0.05463711
170	0x3c20f226	0.009823358
171	0xbe0aa8aa	-0.13540903
172	0xbe20a8dc	-0.15689415
173	0x3d18b889	0.03728536
174	0x3d666c3d	0.056255568
175	0x3d97ab28	0.07405692
176	0x3e19f773	0.150358
177	0xbd9835df	-0.0743215
178	0xbda25f32	-0.07928313
179	0xbddfbe50	-0.10924971
180	0x3e19fcb5	0.15037806
181	0x3c9defd3	0.019279396
182	0xbe0d954d	-0.13826485
183	0x3da8398a	0.082141
184	0xbe34df62	-0.17663339
185	0xbe0fd5ba	-0.14046374
186	0xbe1bc170	-0.1521051
187	0x3da5a1a3	0.080874704
188	0x3c8198ff	0.015820025
189	0x3e34d6a0	0.17659998
190	0x3cded9f6	0.027203541
191	0xbd85b6d4	-0.06529012
192	0xbdc6db57	-0.097098045
193	0x3e0c1c1d	0.136826
194	0x3cd25625	0.025675843
195	0xbe2cc40f	-0.16871665
196	0x3cadeba8	0.021230534
197	0x3df9e6a1	0.12202192
198	0xbd7966e5	-0.060889143
199	0x3d74da5f	0.059778567
200	0xbdcbd11a	-0.09951992
201	0x3dbc6f88	0.092009604
202	0x3d4c1d3c	0.049832568
203	0x3e0ea28a	0.13929191
204	0x3e2c0b60	0.16801214
205	0x3b397349	0.0028297475
206	0xbc96c401	-0.018404009
207	0xbdc5e04a	-0.0966192
208	0x3d3c888c	0.04602866
209	0x3d9535fa	0.07285686
210	0xbe190367	-0.14942704
211	0x3d9c424c	0.076298326
212	0x3e2e6943	0.17032342
213	0xbccb79e1	-0.02483839
214	0x3dc8c85e	0.09803842
215	0xbdb2be38	-0.087276876
216	0x3cc9b438	0.024622068
217	0xbe13ee02	-0.14446262
218	0x3d956a2b	0.072956406
219	0x3e19f3bc	0.15034384
220	0xbdd9b5ee	-0.106304035
221	0xbe0adbc4	-0.13560396
222	0x3dec7322	0.11545397
223	0x3cdc4929	0.026890354
224	0xbd984ff7	-0.07437127
225	0xbdf553f1	-0.11978901
226	0x3e2ebdf8	0.17064655
227	0xbd93ace4	-0.07210711
228	0x3dde9b8a	0.108695105
229	0xbc9f5091	-0.019447597
230	0xbc281342	-0.010258498
231	0xbda9d26e	-0.082920894
232	0xbd42efba	-0.047591902
233	0x3c151ccf	0.009101107
234	0x3e277385	0.16352661
235	0x3e35ba04	0.1774674
236	0xbcd88579	-0.026430832
237	0x3e0d400c	0.13793963
238	0x3e0a7377	0.13520609
239	0xbc35c706	-0.011094814
240	0x3dbc6544	0.091990024
241	0x3d801c1c	0.062553614
242	0x3d4f8bb4	0.05067034
243	0xbd3f6596	-0.04672774
244	0xbcd51f84	-0.026016004
245	0xbd24f769	-0.04027501
246	0x3d40a295	0.04703005
247	0xbd5d37fe	-0.054008476
248	0x3d047b1d	0.032343972
249	0x3e04a7bb	0.12954609
250	0x3dbfba34	0.09361687
251	0x3c89175a	0.016734768
252	0xbe18ece8	-0.14934123
253	0xbd76eae0	-0.060282588
254	0xbd69682b	-0.056984108
255	0xbdc89502	-0.09794046

blocks.0.mlp.fc2.weight f4 [32, 128]
0	0xbd8c0f94	-0.06838909
1	0xbd698144	-0.057008043
2	0x3cde90ec	0.027168714
3	0xbcd287f8	-0.0256996
4	0x3be97a8c	0.0071252044
5	0x3d8f8656	0.070080444
6	0x3c46d2ea	0.012135247
7	0xbd1472c9	-0.03624228
8	0xbc5cd84e	-0.013479305
9	0xbca08ef4	-0.019599415
10	0x3d87166b	0.06596073
11	0x3c1340b0	0.008987591
12	0x3c9f2cd9	0.019430565
13	0x3dea2b06	0.11433987
14	0xbcfc8e14	-0.030829467
15	0xbd501d9e	-0.050809495
16	0x3d1ff2a4	0.03904976
17	0xbda552ff	-0.08072471
18	0xbd5e4cb0	-0.054272354
19	0xbcee4e9e	-0.029090222
20	0xbcad2877	-0.02113746
21	0xbcd2a44e	-0.025713112
22	0x3cfe4695	0.031039516
23	0x3d84ca6b	0.06483921
24	0xbd8e0057	-0.069336586
25	0xbc8c1761	-0.017100992
26	0xbd28bf78	-0.041198224
27	0x3d2f360a	0.042776145
28	0x3d68e592	0.05685956
29	0x3d80b88f	0.06285202
30	0x3da7615b	0.08172866
31	0x3d24b3f2	0.04021067
32	0xbd05b1f2	-0.032640405
33	0xbd7a23c8	-0.06106928
34	0xbd499d39	-0.049222205
35	0x3d24ab22	0.040202267
36	0xbd126dab	-0.03574912
37	0x3d422eb4	0.04740782
38	0xbdc7690c	-0.09736833
39	0x3d150c3d	0.036388624
40	0x3d2f0a60	0.042734504
41	0x3cd9fd20	0.026609957
42	0xbd553f22	-0.05206216
43	0x3db748bf	0.08949422
44	0xbc0e0ba2	-0.008669766
45	0x3d5eb1a4	0.05436863
46	0xbb584fe9	-0.0033006615
47	0x3bb2557f	0.005442321
48	0x3d158476	0.036503278
49	0xbcdef176	-0.027214747
50	0xbd9cfa57	-0.07664936
51	0xbb74a750	-0.0037331171
52	0xbc5400b9	-0.012939625
53	0xbd3d2778	-0.04618022
54	0x3d09825d	0.03357159
55	0x3b974eca	0.0046175467
56	0xbbdcaa75	-0.0067341872
57	0x3d0b4f09	0.03401092
58	0x3d98fd74	0.07470217
59	0xbd8e184d	-0.06938229
60	0x3dc96364	0.098334104
61	0x3d80744d	0.062721826
62	0xbd0e422b	-0.03473107
63	0x3d9185b3	0.07105579
64	0xbcb3dc79	-0.021955715
65	0x3d28e289	0.041231666
66	0x3cb218ec	0.0217404
67	0xbdcb708d	-0.09933577
68	0x3d9a248e	0.075265035
69	0x3d942bc1	0.07234908
70	0x3d387787	0.045035865
71	0x3d7dde61	0.061979655
72	0xbd95c190	-0.0731231
73	0x3d799083	0.060928833
74	0x3d269cdf	0.040676948
75	0xbdaa78cb	-0.08323821
76	0xbd6cba2a	-0.057794727
77	0xbd0064ca	-0.03134612
78	0x3d0e68d9	0.03476796
79	0xbd94952b	-0.07255014
80	0x3daaeb3f	0.08345651
81	0x3dae5ae1	0.085134275
82	0x3d4228f8	0.047402352
83	0x3db1dda3	0.08684852
84	0xbd0f3d58	-0.03497061
85	0xbd4bbf52	-0.049743004
86	0xbcaa4730	-0.020785898
87	0xbd2a8296	-0.041628443
88	0x3d996112	0.07489218
89	0xbcb53c44	-0.022123463
90	0x3da2a54d	0.07941685
91	0xbc8238ae	-0.015896168
92	0xbcf4f5d6	-0.02990238
93	0x3ce30eda	0.027717043
94	0x3da86d11	0.08223928
95	0xbd7b3e77	-0.061338868
96	0x3d92149c	0.07132837
97	0xb9ab6cad	-0.0003269663
98	0x3d752529	0.05984989
99	0xbd2e0647	-0.042486455
100	0x3cb1a67c	0.021685831
101	0xbd20a013	-0.03921516
102	0xbd8f456f	-0.06995665
103	0xbad0b5da	-0.0015923337
104	0x3d8e3237	0.069431715
105	0xbbf235d2	-0.00739167
106	0x3cb5038f	0.022096423
107	0xbd34be6b	-0.04412691
108	0xbd3a5b80	-0.045497417
109	0x3d83b514	0.06431022
110	0xbd2fb501	-0.04289723
111	0xbd853199	-0.065036006
112	0xbcf95bac	-0.03043922
113	0x3ca30275	0.019898633
114	0xbd9c819c	-0.076419085
115	0x3d48e370	0.049045026
116	0xbd87ced5	-0.06631247
117	0x3d8ad1b5	0.0677828
118	0xbd4f39f9	-0.050592396
119	0xbc547465	-0.012967204
120	0x3d9b6fc5	0.07589678
121	0x3d043713	0.032279085
122	0x3c05db33	0.008169937
123	0xbd4cd6b7	-0.050009456
124	0x3da7f357	0.0820071
125	0xbc1b3914	-0.009474058
126	0x3d1c4719	0.03815374
127	0x3d4dd734	0.05025406
128	0xbd05caef	-0.032664236
129	0xbd42a4a4	-0.047520295
130	0x3d570e25	0.052503724
131	0xbcb9a4e3	-0.022661632
132	0x3bacc152	0.005272069
133	0x3d5c8453	0.05383713
134	0x3d7ea7fc	0.06217192
135	0x3d3f3818	0.046684355
136	0x3c2f2254	0.010689337
137	0x3cdfe6c6	0.027331721
138	0x3bd7945e	0.006578966
139	0x3cc38e94	0.023871697
140	0x3d973806	0.073837325
141	0xbc398dd4	-0.011325318
142	0x3c78663b	0.015161092
143	0x3d997559	0.074930854
144	0x3c11d4e7	0.0089008575
145	0x3d47c9a3	0.04877628
146	0xbcf9115a	-0.030403782
147	0xbd94a62c	-0.07258257
148	0xbd712e38	-0.05888197
149	0xbd9fa23a	-0.07794614
150	0xbd7340b4	-0.059387878
151	0x3cc3505e	0.023842033
152	0x3d0b1bf3	0.0339622
153	0x3d9c8d02	0.076440826
154	0x3d8e60c3	0.069520496
155	0xbc727199	-0.014797592
156	0xbd2d9b91	-0.042384688
157	0xbc0b8323	-0.008515152
158	0x3bb42e77	0.005498703
159	0xbdb6972d	-0.08915553
160	0xbd0369aa	-0.03208319
161	0xbc180cd9	-0.009280407
162	0xbd93647e	-0.07196902
163	0xbc9d203c	-0.01918041
164	0xb945abb4	-0.00018851348
165	0xbbd3287d	-0.0064440356
166	0x3caf949d	0.021433169
167	0x3d0f0854	0.03492005
168	0x3d1a4c9a	0.03767071
169	0xbcec0217	-0.02880959
170	0x3cdf41a5	0.027252981
171	0x3abeeb2c	0.0014565936
172	0x3d81eab7	0.063435964
173	0xbd7fa630	-0.062414348
174	0x3d283408	0.041065246
175	0xbd95fc1d	-0.073234774
176	0xbdb29445	-0.087196864
177	0x3d81d008	0.06338507
178	0xbd505f55	-0.050872166
179	0x3d07bad1	0.033137146
180	0xbc90214e	-0.017594006
181	0x3d03c036	0.03216573
182	0xbdb6db02	-0.08928491
183	0x3dab71dc	0.08371326
184	0x3d4730ed	0.048630644
185	0xbd66e51c	-0.05637084
186	0xbd5b160f	-0.053487834
187	0xbda6058c	-0.08106527
188	0x3d9cc91f	0.07655548
189	0x3c3995f9	0.01132726
190	0xbcbb1eb2	-0.022841785
191	0xbd01b4a6	-0.03166642
192	0xbc2a20de	-0.010383813
193	0xbd6a58b9	-0.05721352
194	0xbd4ef339	-0.050524924
195	0x3d374e0d	0.04475217
196	0x3d90f4b1	0.07077921
197	0xbbae7152	-0.0053235674
198	0x3dad14f9	0.08451266
199	0x3d8863ce	0.06659661
200	0x3d1be773	0.038062524
201	0x3d548a2b	0.05188958
202	0xbd76a4d8	-0.0602158
203	0xbd0e0a32	-0.03467769
204	0xbd864d42	-0.065577045
205	0xbb90fc19	-0.0044245836
206	0xbcc9525e	-0.024575409
207	0x3cef708f	0.029228477
208	0xbb9e6c8f	-0.0048347185
209	0xbc3b2b38	-0.011423878
210	0x3d5d5b67	0.054042246
211	0xbc0d0b8f	-0.008608713
212	0x3a8511e2	0.0010152424
213	0x3c9f92ea	0.019479234
214	0xbb5e3cdd	-0.003391079
215	0x3d5fef8e	0.054671817
216	0x3c9712be	0.018441554
217	0xbd87b37d	-0.066260315
218	0x3d7e983b	0.062156897
219	0xbcd5155a	-0.026011158
220	0xbd13739c	-0.035998926
221	0x3cce0e2e	0.025153246
222	0x3b82435a	0.003975314
223	0xbc50624f	-0.012718751
224	0x3b556a76	0.0032564676
225	0x3d596d5b	0.053082805
226	0xbdcaf5d4	-0.09910169
227	0xbdcd2be5	-0.10018138
228	0xbd3a5ef2	-0.045500703
229	0x3d21a056	0.03945955
230	0x3d83d03c	0.06436202
231	0x3d894d20	0.067041636
232	0x3ca4db0f	0.020123987
233	0x3d1c0ffa	0.038101174
234	0xbd60f9dc	-0.054925784
235	0x3d997197	0.07492369
236	0x3d3114d5	0.043232758
237	0xbb6fe4a7	-0.0036604793
238	0xbd9512bb	-0.07278963
239	0x3d9b4654	0.075817734
240	0x3d09a0d3	0.03360064
241	0x3ca3df72	0.020004008
242	0x3d52d2dc	0.051470622
243	0xbd02bbc2	-0.03191734
244	0x3d688bc5	0.05677392
245	0xbd5d6f61	-0.054061297
246	0x3d0e35f9	0.03471944
247	0x3d7f6d1c	0.062359914
248	0xbda54f21	-0.08071733
249	0xbb81bf91	-0.003959604
250	0xbd4189a8	-0.04725042
251	0x3c960705	0.018313894
252	0x3d75ef16	0.060042463
253	0x3dcd3a63	0.10020902
254	0xba53e16d	-0.0008082602
255	0x3dae7f08	0.08520323

blocks.1.norm1.weight f4 [32]
0	0x3f82122d	1.0161797
1	0x3f86f11e	1.0542333
2	0x3f84347e	1.0328519
3	0x3f832a60	1.0247307
4	0x3f82724b	1.019113
5	0x3f820a10	1.0159321
6	0x3f876fb0	1.0580959
7	0x3f80e6cb	1.0070432
8	0x3f861352	1.0474646
9	0x3f837d7f	1.0272673
10	0x3f7f931a	0.99833834
11	0x3f82895c	1.0198169
12	0x3f849e9c	1.0360904
13	0x3f817866	1.0114868
14	0x3f82e9f7	1.022765
15	0x3f84821b	1.0352205
16	0x3f881152	1.0630286
17	0x3f8338a4	1.025166
18	0x3f7ff123	0.9997732
19	0x3f7bc7d6	0.983518
20	0x3f846ce0	1.0345726
21	0x3f84b01a	1.0366242
22	0x3f82c44b	1.0216154
23	0x3f85ac7c	1.0443263
24	0x3f7e6802	0.99377453
25	0x3f822443	1.0167316
26	0x3f849c68	1.0360231
27	0x3f8232ef	1.0171794
28	0x3f864f31	1.0492917
29	0x3f83bf3f	1.0292739
30	0x3f82d845	1.022225
31	0x3f8409d8	1.0315504

blocks.1.norm1.bias f4 [32]
0	0x3c1a5e03	0.009421828
1	0x3b22d5bf	0.002484664
2	0xbba4bb0e	-0.0050271815
3	0xbb04aa59	-0.0020243137
4	0x3b95393e	0.004553943
5	0x3b75b100	0.0037489533
6	0xbc69545d	-0.014241305
7	0xbb1ed3e9	-0.0024235195
8	0xbc0f4365	-0.008744095
9	0xbb324b53	-0.0027205541
10	0xbb20dbc5	-0.0024545055
11	0xb8d87907	-0.00010322226
12	0x3a320dd5	0.0006792222
13	0xbbb61aaf	-0.00555738
14	0x3bb24e43	0.0054414584
15	0x3a05e788	0.0005108048
16	0xbbea2644	-0.007145675
17	0x3bd294d2	0.006426432
18	0x3b1bdd17	0.0023782903
19	0x3c1eb10a	0.009685764
20	0xbc89c752	-0.016818676
21	0x3c1baa52	0.009501057
22	0xbb974ff3	-0.004617685
23	0x3b39e925	0.0028367725
24	0xbc05c853	-0.008165437
25	0xbb872fe1	-0.0041255807
26	0x3b36a72d	0.002787064
27	0xbacaea68	-0.0015481235
28	0x3bc10874	0.0058909003
29	0x3c5ee601	0.013604642
30	0xbc0863a1	-0.008324535
31	0x3854de83	5.075197e-05
