image_encoder/trained_models/vit_20241110_75k.pth (torch, 454617 bytes, 59 tensors)

cls_token f4 [1, 1, 32]
00000000: 6cf8 283c 89c0 aa3c 54f2 9ebb d413 333c
00000010: 14bf 233c 0f6e 89bb 42f1 abbc 1f3b 45bc
00000020: c42f 8ab8 a496 eb3a 98fd 533c d636 20bc
00000030: 7252 9a3a 959a 173c 8179 47bc ddf6 c33a
00000040: 3730 ec3b d457 83bc 46cf 343c d820 2dbc
00000050: 5de9 a13b ef51 0e3c 5f65 f43b 3b3a 6e3c
00000060: 4342 b23a f665 9fba cd20 4cbb 9c39 7b3c
00000070: c15c 05bb dc32 5cbc 7de4 fbbb fbcc b4bc
0.010313135 0.020843761 -0.004850665 0.01093002 0.009994287 -0.004194028 -0.020989064 -0.012038021
-6.58925e-05 0.0017973972 0.012938879 -0.009778699 0.0011773838 0.009253164 -0.012174965 0.001495089
0.007207896 -0.01603309 0.011035746 -0.010566913 0.004941149 0.008686527 0.0074583734 0.01454025
0.001360007 -0.0012161124 -0.003114748 0.015333559 -0.0020349475 -0.01343986 -0.00768715 -0.022070399

pos_enc f4 [32, 32, 32]
00000000: 0000 0000 0000 803f 0000 0000 0000 803f
00000010: 0000 0000 0000 803f 0000 0000 0000 803f
00000020: 0000 0000 0000 803f 0000 0000 0000 803f
00000030: 0000 0000 0000 803f 0000 0000 0000 803f
00000040: 0000 0000 0000 803f 0000 0000 0000 803f
00000050: 0000 0000 0000 803f 0000 0000 0000 803f
00000060: 0000 0000 0000 803f 0000 0000 0000 803f
00000070: 0000 0000 0000 803f 0000 0000 0000 803f
00000080: 0000 0000 0000 803f 0000 0000 0000 803f
00000090: 0000 0000 0000 803f 0000 0000 0000 803f
000000a0: 0000 0000 0000 803f 0000 0000 0000 803f
000000b0: 0000 0000 0000 803f 0000 0000 0000 803f
000000c0: a46a 573f 4151 0a3f ba7d 083f 0d94 583f
000000d0: 3e39 9f3e 6b4e 733f 3a23 353e 83f6 7b3f
000000e0: 7775 cc3d 98b8 7e3f af36 663d 6898 7f3f
000000f0: 5c81 013d 3cdf 7f3f 42ab 913c a3f5 7f3f
00000100: 0000 0000 0000 803f 0000 0000 0000 803f
00000110: 0000 0000 0000 803f 0000 0000 0000 803f
00000120: 0000 0000 0000 803f 0000 0000 0000 803f
00000130: 0000 0000 0000 803f 0000 0000 0000 803f
00000140: b7c7 683f 3311 d5be 0af2 663f b2e8 dc3e
00000150: 1b54 173f ec7b 4e3f f647 b23e a6fa 6f3f
00000160: f96f 4b3e a5e5 7a3f 87d9 e53d f361 7e3f
00000170: c970 813d f97c 7f3f 5ca5 113d 8ed6 7f3f
00000180: 0000 0000 0000 803f 0000 0000 0000 803f
00000190: 0000 0000 0000 803f 0000 0000 0000 803f
000001a0: 0000 0000 0000 803f 0000 0000 0000 803f
000001b0: 0000 0000 0000 803f 0000 0000 0000 803f
000001c0: c381 103e 2670 7dbf d745 7e3f ab7f edbd
000001d0: c209 503f 582f 153f 6d2f 023f 296d 5c3f
000001e0: 6d4e 973e ef90 743f d8ee 2b3e 9e5d 7c3f
000001f0: c1ff c13d 4fd9 7e3f 4e69 5a3d c3a2 7f3f
00000200: 0000 0000 0000 803f 0000 0000 0000 803f
00000210: 0000 0000 0000 803f 0000 0000 0000 803f
00000220: 0000 0000 0000 803f 0000 0000 0000 803f
00000230: 0000 0000 0000 803f 0000 0000 0000 803f
00000240: cfbd 41bf 3055 27bf ec49 473f 9eaf 20bf
00000250: de1d 743f b12e 9a3e bc1f 273f edeb 413f
00000260: d861 c73e a7ca 6b3f c665 643e 098d 793f
00000270: 892e 013e 69f4 7d3f c88d 913d 465a 7f3f
00000280: 0000 0000 0000 803f 0000 0000 0000 803f
00000290: 0000 0000 0000 803f 0000 0000 0000 803f
000002a0: 0000 0000 0000 803f 0000 0000 0000 803f
000002b0: 0000 0000 0000 803f 0000 0000 0000 803f
000002c0: 107c 75bf 2c3c 913e d8da a53e 4032 72bf
000002d0: 7ffc 7f3f e972 29bc abca 463f f14c 213f
000002e0: 4477 f53e 40a9 603f ed11 8e3e 7cf2 753f
000002f0: 1e3c 213e 81ce 7c3f 21db b53d 1efd 7e3f
00000300: 0000 0000 0000 803f 0000 0000 0000 803f
00000310: 0000 0000 0000 803f 0000 0000 0000 803f
00000320: 0000 0000 0000 803f 0000 0000 0000 803f
00000330: 0000 0000 0000 803f 0000 0000 0000 803f
00000340: 8c0f 8fbe b8cd 753f 76e5 6bbe 531d 79bf
00000350: 4e78 723f 6d3f a4be 8930 603f 322f f73e
00000360: 698c 103f 3249 533f fd7d a93e e290 713f
00000370: 6f20 413e e367 7b3f c219 da3d 518b 7e3f
00000380: 0000 0000 0000 803f 0000 0000 0000 803f
00000390: 0000 0000 0000 803f 0000 0000 0000 803f
000003a0: 0000 0000 0000 803f 0000 0000 0000 803f
000003b0: 0000 0000 0000 803f 0000 0000 0000 803f
000003c0: 4630 283f bdff 403f 6db6 36bf 614f 33bf
000003d0: 6ee8 4c3f bc74 19bf 4484 723f b6f8 a33e
000003e0: 73eb 243f b3cc 433f de60 c43e c66b 6c3f
000003f0: 51d3 603e eac0 793f ba46 fe3d e904 7e3f
0.0 1.0 0.0 1.0 0.0 1.0 0.0 1.0
0.0 1.0 0.0 1.0 0.0 1.0 0.0 1.0
0.0 1.0 0.0 1.0 0.0 1.0 0.0 1.0
0.0 1.0 0.0 1.0 0.0 1.0 0.0 1.0
0.0 1.0 0.0 1.0 0.0 1.0 0.0 1.0
0.0 1.0 0.0 1.0 0.0 1.0 0.0 1.0
0.84147096 0.54030234 0.53316844 0.8460091 0.3109836 0.9504153 0.17689219 0.9842302
0.09983342 0.9950042 0.056204494 0.9984193 0.031617507 0.99950004 0.017781857 0.99984187
0.0 1.0 0.0 1.0 0.0 1.0 0.0 1.0
0.0 1.0 0.0 1.0 0.0 1.0 0.0 1.0
0.9092974 -0.41614684 0.9021307 0.43146282 0.5911271 0.8065784 0.34820527 0.93741834
0.19866933 0.9800666 0.11223131 0.9936821 0.0632034 0.9980007 0.03555809 0.9993676
0.0 1.0 0.0 1.0 0.0 1.0 0.0 1.0
0.0 1.0 0.0 1.0 0.0 1.0 0.0 1.0
0.14112 -0.9899925 0.9932532 -0.11596616 0.8126489 0.58275366 0.50853616 0.86104065
0.29552022 0.9553365 0.1679033 0.9858035 0.09472609 0.99550337 0.053323083 0.9985773
0.0 1.0 0.0 1.0 0.0 1.0 0.0 1.0
0.0 1.0 0.0 1.0 0.0 1.0 0.0 1.0
-0.7568025 -0.6536436 0.7784717 -0.6276797 0.95358074 0.30113748 0.652828 0.7575062
0.38941836 0.921061 0.22304448 0.9748083 0.12615408 0.99201065 0.07107121 0.9974712
0.0 1.0 0.0 1.0 0.0 1.0 0.0 1.0
0.0 1.0 0.0 1.0 0.0 1.0 0.0 1.0
-0.9589243 0.2836622 0.32393527 -0.94607925 0.99994653 -0.010342338 0.77652997 0.6300803
0.47942555 0.87758255 0.2774805 0.96073127 0.15745589 0.987526 0.08879686 0.99604976
0.0 1.0 0.0 1.0 0.0 1.0 0.0 1.0
0.0 1.0 0.0 1.0 0.0 1.0 0.0 1.0
-0.2794155 0.96017027 -0.23036751 -0.9731037 0.9471482 -0.3207964 0.8757406 0.48278195
0.5646425 0.8253356 0.33103934 0.943617 0.18860029 0.98205394 0.10649444 0.9943133
0.0 1.0 0.0 1.0 0.0 1.0 0.0 1.0
0.0 1.0 0.0 1.0 0.0 1.0 0.0 1.0
0.6569866 0.75390226 -0.7137211 -0.70043 0.8004216 -0.5994375 0.9473307 0.3202569
0.64421767 0.7648422 0.38355154 0.9235195 0.21955611 0.9755999 0.12415834 0.9922624

norm.weight f4 [32]
00000000: 1ed1 023f c2e4 573f 5d98 303f da70 2a3f
00000010: b294 273f e952 483f 2097 1a3f 4eee 2a3f
00000020: 530a b73e 5bf5 a83e 285f f53e 3565 0c3f
00000030: 171b 283f 661c 3f3f 28d1 fa3e 1f2a 253f
00000040: 07ce 393f 12d2 493f 61c4 ff3e 20ff 0d3f
00000050: dde2 473f fe8b 243f eee5 fc3e e37f 413f
00000060: b2db 7c3e 70fa 373f 7fbf 023f d1a3 313f
00000070: 7f50 f33e 7529 523f 3318 113f 2977 9f3e
0.5110034 0.8433343 0.6898249 0.6657845 0.65461266 0.7825151 0.6038685 0.66769874
0.35750064 0.3299969 0.4792416 0.5484193 0.65666336 0.7465271 0.489877 0.64517397
0.7258 0.78836167 0.49954513 0.55467415 0.7808054 0.6427611 0.49394172 0.75585765
0.24693182 0.7186651 0.5107345 0.6939059 0.4752235 0.8209451 0.5667755 0.311456

norm.bias f4 [32]
00000000: 9bf1 fb3c 2a44 723d abc3 57bd 8442 843e
00000010: 008a 303d 386a 8e3d 4171 84bd 4057 78bd
00000020: 655b 98be b28b ccbe c4d7 4b3e fd9f 513e
00000030: 4511 2e3e 3dd7 cd3d 604b 34be 26f8 103d
00000040: 082f 19bd d0c9 fabb 640e 15be 35e2 fd3d
00000050: 9802 c33d 13ae 443d 72d9 893e 41b6 973c
00000060: 0a13 c23e f1a0 3cbe 02cf 0fbc f805 01be
00000070: 512b 573d 8b2a 0c3d f811 853e 4e56 0fbf
0.030754855 0.059147038 -0.052676838 0.25831997 0.043100357 0.06953853 -0.06466914 -0.060630083
-0.29757228 -0.3995033 0.19906527 0.20471187 0.16998775 0.10050819 -0.17606878 0.035392903
-0.037398368 -0.0076534525 -0.14556271 0.12396661 0.09521979 0.048017573 0.2692371 0.018519523
0.3790515 -0.1842077 -0.008777382 -0.12599933 0.052531544 0.03422026 0.25990272 -0.55991066

patch_embeddings.weight f4 [14, 32]
00000000: ff4f f73f 0898 bb3f 84fb 6a3f a616 06c0
00000010: ff45 2f3f b5cf 9dbf 786c d7bd 4edc cdbf
00000020: 39f0 41bf d3ea ce3f 44cc c0be ca3c b2bf
00000030: 3347 2ebf 67d7 0cbf ccbc 46bf 06ca 3b3f
00000040: ce40 d33f 5c8a f8bd 6aa3 e5be cf63 e43e
00000050: 65e1 31bf 08df 8b3f ef25 3f3f b0c1 d73f
00000060: 7ec3 9e3f 9c5b aa3f 0a72 153f 98ff a53f
00000070: 527a 72be aac8 233c e30f 81be fd86 5a3f
00000080: c3f3 b6bf a8e2 5bbf a15a 42be 1338 de3f
00000090: 20e0 8d3e 8286 c1be 5845 a93e 8316 37bf
000000a0: 82fa c0bf 0a6e 813f 71f6 62bf a42b 19bf
000000b0: 62e1 a2bf e939 0540 5b1d 99bf ae0f 05bf
000000c0: 0b34 66bf 71a2 22bf aab6 743d bc81 063f
000000d0: 8710 05bf 1703 933f 8059 49bf 45e6 3cbf
000000e0: 2a22 b2bf 3a20 5fbc eb7b 6abd 5b95 263f
000000f0: 469e cbbd 6f27 eb3f 938d 94bf 2229 af3f
00000100: ef26 b03f bf8b 673f db8a 0c40 acf8 003f
00000110: ab0f 9c3e 3a23 08be c640 77bf d469 a43f
00000120: 6dc4 b1bd f4ec 193f 6254 703d c2d1 c23e
00000130: 5f29 143f fc79 21bf b79c 0bc0 46e8 43bf
00000140: 4346 353b 540e b2be ac92 aebf 64dd 02bf
00000150: f538 f23e ab57 023f a99b 943f 3095 c9bc
00000160: f5cc 293f 6da1 01bf 3e74 88bf bf35 0d3f
00000170: 536d e3bf d038 42bf 4663 af3f 7efd e43e
00000180: e885 1dc0 aaf2 e83e 6a80 483f 2f95 12bc
00000190: dae7 203f 8ea1 133f 06a6 843f 50a0 e0be
000001a0: b301 66be 5745 423f 3ee4 c43e d3f9 623e
000001b0: 1edd 8b3e 0059 a63f 57f8 88bb f13a b1be
000001c0: 0498 b7bf 5a59 dfbd c321 10bf 13c1 073f
000001d0: bde7 353f 7923 1a3e 2a16 dfbe d081 083f
000001e0: 1008 65bd 88dd 943e c492 e73d 131b 313f
000001f0: a979 8f3f f455 c13e 93ab 2e3f df3a d63e
00000200: b4cd f73f 7377 7e3f e5b9 b7bf 5e3e 90bf
00000210: 6b2a 1dbe ed2d cd3f d946 2b3f 1860 183f
00000220: 7091 913f ae24 f93c 58b3 e3bf 7081 673f
00000230: 92fe bebe 5ddc 873f 5d07 31bf c8da 1c3f
00000240: 07b4 6ebf 1734 723f 5e3c c23f 5f03 b73f
00000250: b9d2 8c3e 3726 3ebe cfd0 36bf 7670 a03d
00000260: bb7d ac3e e344 6c3f 44df f7be df6a c93f
00000270: cf62 1cc0 92e1 c6be add6 96bf 9973 463f
00000280: 5d69 f3bf 08d8 693e 19b5 123d a4d4 a3be
00000290: e565 903e a078 30bf ddb0 513e e821 86bf
000002a0: 989d c8bf 1729 ad3f 0af8 a43f a06c 1d3d
000002b0: b9c2 c3bf 6520 3e3f a2e0 463f c1d6 fd3f
000002c0: 57ca 7d3d 01cd 0e3e 06a3 4dbf 3ec5 6dbe
000002d0: 547e 69bf 772a cabf e074 8dbf 544c 15bf
000002e0: 8dff 07bf 1122 bbbf 3330 f9bf a805 0d3e
000002f0: 9b0b 813f 018d 0ebf b14d 323f e58e 2a3f
00000300: 5e3c e73f e05a 69bf 045d 7f3f c858 b8be
00000310: 40bc 8cbf 6062 ae3e 6751 df3e cc9a a83f
00000320: d1a7 f53e 9a21 0240 be5f 05bf 7f03 6bbf
00000330: c419 5a3e e5cf 863f 7dac a23f 37d7 d03e
00000340: e7d0 3cbf 334d 84bf 54e6 eebe e47c 2abf
00000350: efd1 2f3e 035d f33e 6010 59be 71d3 14c0
00000360: df75 d5be 0cef 853f 92ee ddbf 2056 bd3f
00000370: d614 b03e 4f53 09bf 9e42 8c3f c564 de3f
00000380: d5ec 4bbd 1930 dc3f 0d35 283e 1c82 87bf
00000390: f4e3 18bf 70fb 183e 22e4 e63e 2c6d fb3f
000003a0: 5951 65bd 1e11 60bf 2a24 02c0 019e 8dbf
000003b0: 6bd1 b13d 8433 073e 018e 543e 8fe0 b73e
000003c0: 8091 75bf 7e89 9b3e 9108 0ebf 7da8 063f
000003d0: 76d0 68bf e7bc 10bd 7c26 a5be 834e af3f
000003e0: 43e3 993f 2529 34bf 121c 563f cf10 003f
000003f0: f8cc 013f c320 133f 14de 103f 4a66 133e
1.9321288 1.4655771 0.9179003 -2.0951324 0.6846618 -1.2329012 -0.10518736 -1.6082857
-0.75757176 1.6165413 -0.37655842 -1.3924801 -0.6807739 -0.5501618 -0.7763183 0.7335514
1.6504152 -0.12135765 -0.44851238 0.44607398 -0.6948455 1.0927439 0.7466726 1.6855984
1.240341 1.3309207 0.58377135 1.2968626 -0.23679474 0.0099965725 -0.25207433 0.85362226
-1.429314 -0.85892725 -0.18979885 1.7360862 0.27710056 -0.37797934 0.33060718 -0.71518725
-1.5076449 1.0111706 -0.8865729 -0.59832215 -1.2725031 2.0816596 -1.1962084 -0.5197705
-0.8992316 -0.63529116 0.059744515 0.5254171 -0.51978344 1.1485318 -0.7865219 -0.73788863
-1.3916676 -0.013618523 -0.057247084 0.6507165 -0.09942298 1.8371409 -1.1605705 1.3684428
1.3761882 0.9044761 2.195975 0.50379443 0.30480704 -0.13294688 -0.9658321 1.2844796
-0.08680043 0.60127187 0.058674224 0.38050658 0.5787563 -0.6307676 -2.18144 -0.76526296
0.0027660287 -0.34776556 -1.3638511 -0.51119065 0.4730908 0.5091502 1.1610004 -0.024607271
0.66328365 -0.5063694 -1.0660474 0.55160135 -1.7767738 -0.7586794 1.3702171 0.4472465
-2.461298 0.45497638 0.78320944 -0.008946701 0.6285378 0.5766839 1.0363166 -0.4387231
-0.22461586 0.75887054 0.38455385 0.22165613 0.27317137 1.2995911 -0.004179995 -0.3461528
-1.4343266 -0.10905714 -0.56301516 0.5302898 0.7105673 0.15052594 -0.43571597 0.5332308
-0.055915892 0.29075265 0.1130729 0.69181937 1.1209003 0.3776089 0.6823055 0.4184179
1.9359651 0.99401015 -1.4353606 -1.1269033 -0.15348212 1.602964 0.6690498 0.5952163
1.1372509 0.030412998 -1.7789106 0.9043188 -0.37303597 1.0614125 -0.6915186 0.61271334
-0.9324345 0.9461073 1.5174673 1.4297904 0.2750452 -0.18569265 -0.71412367 0.0783395
0.33689675 0.9229261 -0.48412526 1.573574 -2.4435308 -0.38843971 -1.1784264 0.7752014
-1.9016529 0.22836316 0.03581724 -0.3199817 0.2820274 -0.6893406 0.20477624 -1.0479097
-1.5673094 1.3528165 1.2888196 0.03843367 -1.52938 0.7426818 0.7768651 1.9831163
0.061960544 0.1394539 -0.8032688 -0.23219773 -0.91208386 -1.5794209 -1.1051292 -0.5831959
-0.53124315 -1.4619771 -1.9467834 0.13771689 1.0081667 -0.55683905 0.696498 0.6662429
1.8065298 -0.9115429 0.99751306 -0.36005235 -1.0994949 0.3405943 0.43616793 1.317224
0.47979596 2.0333009 -0.52099216 -0.9180221 0.21298891 1.0532194 1.2708889 0.40789196
-0.7375626 -1.0336059 -0.466601 -0.6659682 0.17169927 0.475319 -0.21197653 -2.3254054
-0.4169149 1.0463576 -1.7338431 1.4791908 0.34390897 -0.53642744 1.095783 1.7374502
-0.049786408 1.7202178 0.16426487 -1.0586581 -0.5972283 0.14939666 0.45095927 1.9642692
-0.055985782 -0.8752612 -2.0334573 -1.1063844 0.086825214 0.13203245 0.20757295 0.35913512
-0.9592514 0.30378336 -0.5548182 0.5260084 -0.90943086 -0.0353364 -0.32255924 1.3695835
1.202248 -0.7037528 0.8363658 0.5002565 0.5070338 0.57471865 0.56588864 0.14394489

blocks.0.norm1.weight f4 [32]
00000000: 3fb3 823f 2e5f 7f3f 82ce 773f b15f 7b3f
00000010: a6fd 7f3f 3548 7d3f 350d 813f c636 7b3f
00000020: 81e4 823f 375b 7e3f d507 7a3f 0f89 7e3f
00000030: 9eae 7e3f fc02 803f e253 7b3f a55f 7d3f
00000040: 74f4 803f c97d 7d3f be18 7e3f c43e 7f3f
00000050: 48cb 7c3f 23ad 7e3f 0764 813f 8a89 793f
00000060: 74eb 7d3f 438c 7d3f 0065 7e3f a6cc 793f
00000070: 1ed7 7a3f 21ac 7e3f 57f8 7b3f f49d 7e3f
1.0210952 0.9975461 0.9679948 0.9819289 0.9999641 0.98938304 1.0082155 0.9813045
1.0225984 0.9935793 0.976682 0.99427885 0.99485195 1.0000911 0.9817487 0.98974067
1.0074601 0.9902006 0.99256504 0.9970515 0.9874768 0.99482936 1.0108651 0.9747549
0.991874 0.9904215 0.99372864 0.97577894 0.9798449 0.994814 0.9842581 0.9945977

blocks.0.norm1.bias f4 [32]
00000000: 5ad6 ad3b fb22 1d3c 0e4c 6abb 78d2 f23b
00000010: 3cfd 25bc cff0 943c 3087 f7bb ecbb 56ba
00000020: 4be8 93bb f267 693b b8e2 563c ee9b 85ba
00000030: 016b babb 7e88 d93b c295 ceba 8d11 d2bb
00000040: d004 583c df3d f1bb c7d2 83bb f37a 823b
00000050: 3cb1 a7bb cf64 bf3b 37cd d4bb 4331 973c
00000060: d6c2 15b9 3d73 53bb 57ee 2dbc be28 17bb
00000070: 70ee 6e3b 37df 87ba 20fb 4cbb 298d fc39
0.0053050937 0.0095908595 -0.0035750899 0.0074103437 -0.010131177 0.018181233 -0.0075539574 -0.00081914547
-0.0045137755 0.0035614935 0.013115577 -0.0010193565 -0.0056890254 0.0066385856 -0.0015761184 -0.0064107836
0.013184741 -0.007362112 -0.0040229294 0.003981942 -0.0051175635 0.0058408747 -0.00649419 0.018456107
-0.0001428233 -0.0032264732 -0.010615907 -0.0023065056 0.0036458038 -0.0010366206 -0.0031277612 0.00048170358

blocks.0.attn.qkv.weight f4 [96, 32]
00000000: 4402 0c3e 0c93 16be dde7 57bc 3921 32be
00000010: 1420 17be bde5 a83c 4810 2f3d d8b7 c83c
00000020: 6156 a4bd 79ab 173e 1a01 c73c 299a abbd
00000030: 83a0 9f3c 48e0 283d 5854 6b3d 2016 dcbd
00000040: 603d 403d fae7 a8bd 017b 24be c965 babd
00000050: ef4c 473e 423c 123e 9024 243e 340c d13d
00000060: db7c ef3d d6f1 81bd de14 c8bd 4668 ac3d
00000070: 5513 d5bd 5aa9 d1bd 5260 44bd 9911 2f3d
00000080: 0411 b03d bad1 35bd 7137 adbd 3569 8e3c
00000090: d541 c1bd 82c1 acbd a544 b93d e57f e23b
000000a0: fc74 123e 06ee 3e3e fe7e 1d3d e566 173d
000000b0: a47a ae3c 22c2 6e3b c333 26ba 25b1 ccbc
000000c0: e982 bc3d f984 163e 78c1 f8bc 24dc bdbd
000000d0: 7bf8 a9bd 0793 94bd 15a6 763c 8e57 f03d
000000e0: 682c 0e3e 2a32 e43d a7ce f7bd 0156 a8bd
000000f0: 117e 1e3a 9f40 6abd 4e64 433b aee2 25be
00000100: f8af 5b3d e83e 04be 9ab4 b3bd aedc 1bbe
00000110: e820 213e d678 26be 33aa ff3d 547e 873b
00000120: e4d3 20bd 2840 e73d 051b eabc a0eb e43d
00000130: 18ad e03d dde7 18be 7229 8f3d 644f 9a3c
00000140: 81e8 223d b1ac b13c f751 373d fc29 bfbd
00000150: 3ab5 ddbc 7711 293e c1ab ec3d 7be6 52bc
00000160: f8cd 31be 5d4e 2d3c b272 f3bd bed0 163e
00000170: 92a0 c6bd c512 76bc 8ac7 2fbd c926 173d
00000180: c8b5 483e 9627 0d3d f514 0e3d 3e68 2a3e
00000190: aa29 1e3e d796 b0bd 0dfc 89bd e748 093d
000001a0: 6b8a b2bd b532 a03d fee6 33bb 23f6 09be
000001b0: 6e0b d03d c255 643d e5dc 153d 5459 503e
000001c0: 7c85 063e fc2e 193e 21ad df3c 4857 2abe
000001d0: 8a96 89bd 4a44 a6bd e66b e7bd 4c33 40bd
000001e0: ca14 0abe 74b8 3ebe efb8 f1bd b9ed 19be
000001f0: 60d1 21be 765e 6d3d eecd fd3d fee8 a7bd
00000200: 28f7 27bd 9e2b d83d e642 b3bd 8d25 a1bd
00000210: f2c9 fc3d f1f5 24be e127 353b 6fdd 163e
00000220: 4733 723a 852f 2c3d e8ca cdbd 85e0 c3bb
00000230: 2a43 013c f25f 633d d472 6b3d f40f 163e
00000240: c653 01be 5e2b febb 5595 a3bd a59d 1dbe
00000250: c1ed a83b 85d1 11be ffa5 053e 6820 e73c
00000260: b845 e3bd faa8 b63d f458 31be d6c3 57bd
00000270: 5586 21bd fce6 21be 444b ffbd fc7c 11bd
00000280: 1674 043e 1113 2f3e 900b 2e3e 1aa8 f6bd
00000290: 4af7 d0bd 8fc6 293e 41b7 6c3d 7a45 183d
000002a0: 61a1 0d3d b2c3 0bbe 3906 97bd 515f 313e
000002b0: 7283 8cbd 99cf 38bc ee8d 0ebe 3eb4 ddbd
000002c0: 3895 e13a 9fd1 e9bd e7f2 fbbc e71e 733d
000002d0: 23da 58be f7b7 3e3d 3be2 00be ebd9 c8bd
000002e0: 1116 a13d d561 203e 05d2 35bd 8479 85bd
000002f0: b31d 03be 87a4 c7bd 763e 1fbe ee7c ddbc
00000300: c901 f33c 57c3 24be 66fb 123e b227 e63d
00000310: 6c2e 29be bc69 d1bd 188f 5d3d 352f 08bd
00000320: 1395 01bd 0674 b1bd de0a 0d3e 3c67 cabd
00000330: dd1a 1a3e 5872 ac3c 7d59 173d f70c 0a3e
00000340: 8e63 12bd aae0 d8bd 3cd3 d9bc 60c8 0d3e
00000350: 1f1d f5bd 6698 383d 93e8 36be 6d60 b03d
00000360: 4e7b 433d 7cc1 b5ba 7a06 983d 1f32 b23b
00000370: 0291 d23d 8e86 0bbe 0b64 d6bc c43b a43d
00000380: 5717 333e 1926 b83d 6767 08be 7169 033e
00000390: 9d6b 12bd 761e 42bd 6c30 2bbe 49a3 fcbc
000003a0: d67a cc3d 19ce 733c e919 debd 43d7 733d
000003b0: 3111 26bd 7a5d 273e 4215 1cbe 177a 68bd
000003c0: 6b7d 2fbe e0d8 92bd cce4 593d 8647 263e
000003d0: f956 453d 528e 313e a1a7 143d 96e3 cf3d
000003e0: 150d eb3d bb56 083e f02b d5bd 592d 2a3e
000003f0: 983f d43d a1d3 a3bd 9fe2 b2bd cd16 14be
0.1367274 -0.14704531 -0.013177839 -0.17395486 -0.1475833 0.02061736 0.042740136 0.024501726
-0.08024288 0.14811505 0.024292517 -0.08379013 0.019485718 0.041229516 0.057453483 -0.107464075
0.04693353 -0.08247371 -0.16062547 -0.09101445 0.19462942 0.14280799 0.16029572 0.10207406
0.11693736 -0.06344955 -0.09769605 0.08418326 -0.10404078 -0.10237379 -0.04794342 0.04274139
0.085969955 -0.044389464 -0.0845784 0.017384151 -0.094363846 -0.08435346 0.09046296 0.006912219
0.14302438 0.18645486 0.038451187 0.036963362 0.021298714 0.003643163 -0.00063401106 -0.024986813
0.09204657 0.14699163 -0.03036569 -0.09270504 -0.08299347 -0.07254606 0.0150542455 0.1173545
0.13884127 0.111423805 -0.12099963 -0.08219529 0.0006046007 -0.057190534 0.0029814425 -0.16199753
0.053634614 -0.12914622 -0.087746814 -0.15220901 0.15735209 -0.16257033 0.12483635 0.0041349325
-0.039264575 0.11291534 -0.028577337 0.111777544 0.10970515 -0.14932199 0.06990327 0.018836685
0.039772514 0.021688791 0.044755902 -0.0933418 -0.027063955 0.16510569 0.11556197 -0.012872334
-0.17363727 0.010577765 -0.11887111 0.14728066 -0.09698595 -0.015019123 -0.042914905 0.036902223
0.19600594 0.03446158 0.034687955 0.16641328 0.15445581 -0.086225204 -0.06737528 0.03351679
-0.087178074 0.078221716 -0.0027450914 -0.134728 0.1015843 0.055745848 0.036587615 0.20346576
0.13136858 0.1495933 0.027304234 -0.16634858 -0.06718166 -0.08118494 -0.11299877 -0.04692392
-0.13484493 -0.18625051 -0.118028514 -0.1503209 -0.15802526 0.057951413 0.123927936 -0.081987366
-0.04100719 0.10555194 -0.08752994 -0.0786849 0.123432055 -0.16109444 0.0027642178 0.14732908
0.00092392083 0.042037506 -0.10048467 -0.0059776925 0.007889548 0.055511422 0.057482556 0.14654523
-0.12629613 -0.0077566346 -0.07987467 -0.15392168 0.0051552956 -0.14240082 0.13051604 0.028213695
-0.11097282 0.089189485 -0.17319089 -0.052676998 -0.03943475 -0.1581077 -0.12465528 -0.035519585
0.12934908 0.17097117 0.16996598 -0.120437816 -0.10203417 0.1657965 0.057791952 0.037175633
0.03457773 -0.1364887 -0.07374234 0.17321517 -0.06861009 -0.011279964 -0.1392133 -0.10825394
0.0017210608 -0.11416935 -0.030755473 0.059355643 -0.21176963 0.04656216 -0.125863 -0.098071896
0.07865537 0.1566232 -0.044389743 -0.06517318 -0.12804298 -0.09748178 -0.1555117 -0.02703711
0.029663937 -0.16090141 0.14353713 0.1123804 -0.16521615 -0.10225245 0.054091543 -0.033248145
-0.03163631 -0.08664708 0.13773677 -0.09882972 0.1504931 0.021050617 0.036950577 0.13481508
-0.035739474 -0.10589726 -0.026589982 0.13845968 -0.11968445 0.045067213 -0.17862158 0.08612142
0.047725014 -0.0013866867 0.0742311 0.005438104 0.10281564 -0.13625547 -0.026170751 0.08019212
0.17489372 0.089916416 -0.13320695 0.12833191 -0.03574716 -0.04739233 -0.1671769 -0.03083958
0.099843666 0.0148806805 -0.10844786 0.05953146 -0.04054374 0.16344252 -0.15242484 -0.05675706
-0.17137687 -0.07170272 0.053196713 0.16238222 0.048178647 0.17339447 0.036292676 0.101508304
0.114771046 0.13314335 -0.10408771 0.16618861 0.10363692 -0.079993494 -0.08734631 -0.14461823

blocks.0.attn.proj.weight f4 [32, 32]
00000000: 05e4 81bd 4f7d e93d d4da 02be 53f7 0fbe
00000010: 7c72 07be 48db d6bd 266e 233e 38d1 f33c
00000020: ad1b b8bc 1c41 56bd 70ab 0cbe b7d4 57bd
00000030: 1fd6 b83d 6381 013e 5555 063e 3f75 a33c
00000040: f30a bfbd 7166 c8bd 7016 223e 1bcf 28be
00000050: 95df 1e3d 7f80 8bbc 552e 333e fdff e03d
00000060: d13c 62bd 5485 11be fabe 1d3d b38c f0bd
00000070: bf11 dbbc f346 2c3d 5af0 c23d 2376 33bd
00000080: 9c02 debd 78d5 04be 0d23 36be 32be af3c
00000090: 78c1 efbd 27a0 583c b87d 97bd 6690 f9bd
000000a0: 5003 e83d ae30 d13d a696 043e 4d43 4a3e
000000b0: b6d7 04be c671 e7bd 0e56 12be e1f8 dd3d
000000c0: 8a75 ae3d 27ce 0f3e 4f44 ffbd 6bde c2bd
000000d0: 63a3 273e 85e1 00be 7d6d 1fbe c7e2 953d
000000e0: 105f 09be 323d 53bd aab5 ce3d 64f6 0a3e
000000f0: c9c2 32bc 2b02 15be 9cf9 d73d 7113 383e
00000100: a39d 0abe 1f8b 1a3c 118b edbd 8360 f3bd
00000110: 65ae 923d 25ff 8f3d 112a 6a3d ddd2 06be
00000120: 6783 e9bc 6d33 3d3d 5948 e4bc 84c5 bcbd
00000130: fa03 aebd 0e8f 2f3e d9b3 10be 9a55 cebd
00000140: f48e 083e 76ae ffbd c158 f13d e7d3 b4bd
00000150: 3cba 0ebb 4d46 bbbd e1e5 113e 4f24 e73d
00000160: f94b 533d 5909 7e3c 4132 80bd 0acf b7bd
00000170: c465 88bd fedb 613d b363 ebbc 962c d33d
00000180: 8b68 bc3c dbf7 77bb 6f6f cbbd ee00 973d
00000190: de3e 23be 7c5e 293d 632f 6b3d ee80 cc3c
000001a0: c26d ef3d 86e6 4c3d 8add 35bd 4232 15be
000001b0: 610f 2dbe 3bb4 c43d 6e6e c63d 0594 01be
000001c0: 6f7d 4f3d be2c 6abd d472 0f3e 089e 82bd
000001d0: a763 153e 717b 0f3e 9bb5 f53d 86d6 fd3d
000001e0: 615c 673d 34b6 533d 0a02 36be 3a30 26bd
000001f0: 4569 89bc 0972 a73d 7e31 8fbd 13d2 883d
00000200: 9037 f63d ee57 943d ca6b 833d 8943 92bc
00000210: 2b98 be3d 9f7a 78bd fef7 ff3d 7262 9c3b
00000220: 2819 3bbc f138 1abe 212b 253e b385 0ebd
00000230: a61e 023e 23a7 f9bd b795 0fbe 960d a3bc
00000240: 9b5e 0bbe c132 f53c 8576 a23b 09b0 78bd
00000250: 50ac dc3d 4957 d93d 7297 11be a006 17be
00000260: f04c b83d eb44 d8bd 29f3 ad3c 9177 43bd
00000270: 00f5 e33c 6a0f b8bd 6c32 7ebc 75f2 51bd
00000280: 8062 a7bd 4cde bbbd 7a9b f83c 2358 f33d
00000290: 9031 92bb 757f a4bb 1348 013e b78d 0c3e
000002a0: 89c9 e0bc aaff 09be 3c60 343d d92f 7a3d
000002b0: e21d 0cbe f287 21be 8f90 bb3c 0d36 233e
000002c0: 5fa9 18be 8ee3 b5bd 666f 5abd 7ee8 1cbe
000002d0: b8aa d8bd 68c6 053e 516c 043e 713b 0cbe
000002e0: 395b 5c3b 111d 0fbe c425 783d 7a2c eebd
000002f0: a72a babd 9f2f adbd 781d 123d 68f4 e93d
00000300: 9cd9 8dbd 85a6 013d 7fa9 193e d7a0 79ba
00000310: ad44 3d3b c95c 8a3c 1b67 c83c 9a32 af3d
00000320: 3c0f be3d 8086 c3bd 3d80 293e 29d9 c13d
00000330: 8ab8 dfbc 97d8 183e e8d5 e43b eccd c73d
00000340: f918 27be 04af 273e dad7 1d3e f1f7 0cbe
00000350: d5da 2dbe 77da 19bd 25ae 14be 7674 823d
00000360: a2f9 b13d c138 b6bc a198 eb3d 9710 303c
00000370: b897 54bd 877b 1ebe 059c fd3c cf06 32be
00000380: a111 cc3b 34d1 ee3c 57e2 ddbd 1a63 733d
00000390: cac4 f43c 1f83 fa3d 501a 9d3d cc8a 14be
000003a0: 1f6e 0bbe 1487 52bd 4de6 f1bd 7eed 7d3d
000003b0: 5abd f7bd ba15 02be 0a9d 323d 8ec9 d03d
000003c0: 2627 52bd ad1e 38be 4e79 eb3c c045 a73d
000003d0: 18f9 123e 14e1 efb9 aa84 0f3e ef81 29be
000003e0: 6d88 293e b7d1 f7bd 1f08 dcbd a296 f63d
000003f0: c17c fdbc d8ac e23d d491 aebd 8192 043e
-0.063423194 0.11400854 -0.12778789 -0.1405919 -0.13227266 -0.10491043 0.15959987 0.02976285
-0.022474134 -0.052308187 -0.13737273 -0.052693095 0.09025215 0.12647013 0.13118489 0.019953368
-0.0932826 -0.09785164 0.15828872 -0.16485254 0.038787443 -0.017029045 0.17498143 0.10986326
-0.05523378 -0.14211017 0.038512208 -0.11745586 -0.02674186 0.04205985 0.095185 -0.043813836
-0.108403414 -0.12972057 -0.17786808 0.021452997 -0.11706823 0.013221777 -0.07397026 -0.12185745
0.11328757 0.10214363 0.12948093 0.19752236 -0.12972912 -0.113009974 -0.1429064 0.108384855
0.085185125 0.14043485 -0.12464201 -0.09515079 0.16370921 -0.12586029 -0.1556911 0.07318645
-0.1341517 -0.051572032 0.100932434 0.13570553 -0.010910698 -0.14551608 0.10545656 0.17976166
-0.13536696 0.009432583 -0.115987904 -0.118836425 0.07162169 0.07031087 0.057169024 -0.13166375
-0.02850504 0.04619162 -0.02786653 -0.092173606 -0.08496852 0.17144415 -0.14131106 -0.10074921
0.13335782 -0.12484448 0.117845066 -0.0882948 -0.0021778485 -0.09144268 0.14247848 0.11286222
0.051586125 0.015505158 -0.06259585 -0.089750364 -0.06660035 0.05514144 -0.028734064 0.103112385
0.022999069 -0.0037836942 -0.09933364 0.07373224 -0.1594195 0.041349873 0.05741824 0.024963822
0.116908565 0.05002453 -0.04440073 -0.14569953 -0.16900398 0.09604689 0.096890315 -0.12654121
0.050656732 -0.057171576 0.14008647 -0.06377798 0.14588796 0.14011933 0.11997529 0.12394433
0.056484584 0.051687434 -0.17774215 -0.040573336 -0.01677383 0.08176047 -0.06991862 0.066806935
0.120223165 0.07243334 0.064170435 -0.017854469 0.093063675 -0.060663816 0.12498473 0.004772478
-0.011419572 -0.15060784 0.16129734 -0.034795474 0.12707004 -0.12190082 -0.14021955 -0.01990394
-0.13610308 0.029931428 0.0049579763 -0.060714755 0.107750535 0.106123514 -0.14217928 -0.14748621
0.0899905 -0.1056002 0.021234112 -0.04772145 0.027826786 -0.08987315 -0.015514951 -0.051256616
-0.08173084 -0.09173259 0.030347575 0.11882045 -0.0044614747 -0.005020077 0.1262515 0.13725935
-0.02743985 -0.13476434 0.04403709 0.061080787 -0.13683274 -0.15774515 0.02289608 0.15938587
-0.1490836 -0.08881293 -0.053328894 -0.15323064 -0.10579437 0.13063967 0.12931944 -0.1369455
0.003362371 -0.13975932 0.06058289 -0.11629577 -0.090901665 -0.08456349 0.035672635 0.1142357
-0.06926271 0.031652946 0.15006064 -0.0009522563 0.0028880045 0.016889947 0.024463227 0.08554573
0.092802495 -0.09547138 0.16552825 0.09465248 -0.027309675 0.14926372 0.0069835074 0.09756073
-0.1631812 0.16375357 0.15414372 -0.13766457 -0.16978009 -0.03756186 -0.14519556 0.063698694
0.08690192 -0.02224386 0.11503721 0.010746143 -0.051902503 -0.1547681 0.030958185 -0.1738541
0.0062276875 0.02915249 -0.108341865 0.059420682 0.029878993 0.122320406 0.07671034 -0.14506072
-0.13616227 -0.05139835 -0.118115045 0.06199407 -0.12096663 -0.127036 0.043606795 0.101946935
-0.051306866 -0.17980452 0.028744366 0.08167601 0.14352834 -0.0004575333 0.14015451 -0.16553472
0.16555949 -0.12100547 -0.107437365 0.1204045 -0.030943276 0.110681236 -0.08523908 0.12946512

blocks.0.attn.proj.bias f4 [32]
00000000: dce4 ef3d 6510 403c 026c 253e 37df b3bd
00000010: df61 68bd 10b0 2d3b 262c c43d 2a23 16be
00000020: aa53 46bd ee47 0a3e e110 393d 5725 ff3d
00000030: bb92 82bd bac9 e4bd eb9f dcbd cb1d d7bd
00000040: 3634 04be 6280 9f3d 2234 583d 7529 dbbd
00000050: 66d2 103e a46a 203d c965 843d e305 94bd
00000060: 964e f03d 1213 eebd 2d5c f33d 8c1e b5bd
00000070: d6c2 8b3d cb8a 8ebd bd58 da3d 203e 08be
0.11713573 0.011722659 0.16154483 -0.08782809 -0.056733962 0.0026502647 0.09578733 -0.14661852
-0.048419632 0.13504001 0.045182113 0.12458294 -0.06375643 -0.11171289 -0.107726894 -0.105037294
-0.12910542 0.07788159 0.052784093 -0.10701267 0.1414276 0.0391642 0.064647265 -0.07227685
0.11733739 -0.11624731 0.118828155 -0.08843717 0.068242714 -0.069600664 0.10661457 -0.13304949

blocks.0.norm2.weight f4 [32]
00000000: 71ae 813f 43ef 7e3f 1cea 7d3f c1cf 7e3f
00000010: f84c 753f 4afa 763f 577c 7c3f a5d9 7f3f
00000020: c5a2 7e3f f72d 7e3f f0c7 7b3f c059 803f
00000030: 2dea 803f 68f1 7b3f 4ea9 7b3f 6c94 7b3f
00000040: e89c 803f bf5c 7c3f 6b59 763f d377 7c3f
00000050: 8ba8 7b3f cec5 783f 7820 7d3f 837b 813f
00000060: 7831 7d3f 19ab 7f3f d0c9 7e3f 365f 7e3f
00000070: ca08 813f f6d1 803f 245b 7e3f 70e3 803f
1.013136 0.99583834 0.9918535 0.9953576 0.9582057 0.9647566 0.9862723 0.99941474
0.99467117 0.99288887 0.98351955 1.002739 1.0071465 0.9841523 0.98305213 0.9827335
1.0047884 0.9857902 0.9623019 0.9862034 0.9830405 0.97176826 0.9887767 1.0115818
0.9890361 0.9987045 0.9952669 0.9936403 1.0080807 1.0064075 0.9935782 1.0069408

blocks.0.norm2.bias f4 [32]
00000000: 43c2 4fba 1afb 81bb 76ea 2cbc 2667 a3bc
00000010: 17bb 10bc 92a4 65ba 92d0 363c 9bfd febb
00000020: 311b ae3b cf8f 183c 9ce2 183c 983e 22bc
00000030: db21 9bb9 8660 e6bc 08f7 463c 035c b4bb
00000040: 1294 e03b 2d71 d5bb 0e82 983c 7be8 7ebb
00000050: bbb9 e9bb a32a acbb 2a1e 873b 5b39 bdba
00000060: d9f8 213b 1bf5 c2b9 1baa f1bb 730f b83a
00000070: 5820 dabb 030a 0ebc 9d64 11bc 7eba a73c
-0.00079253706 -0.003966701 -0.010553947 -0.019946646 -0.008833668 -0.00087601796 0.0111581255 -0.007781697
0.0053133 0.00931163 0.009331372 -0.009902619 -0.00029589128 -0.028122198 0.012143858 -0.0055041327
0.006853589 -0.0065137357 0.018616702 -0.0038895893 -0.0071327365 -0.005254106 0.004123469 -0.0014436649
0.0024714975 -0.0003718518 -0.0073750145 0.001404269 -0.0066566877 -0.008669379 -0.008874086 0.020474669

blocks.0.mlp.fc1.weight f4 [128, 32]
00000000: f033 b9bc 2c12 73bd 03a8 2ebe c19b 78bd
00000010: 9fe1 91bd 7a43 b23c 78a8 153e e5a3 29bd
00000020: 425d 593e c0e8 7ebd 329e 9dbd 69ad 79bc
00000030: 5c38 69bd 4a7e 683d 8cb3 3c3e 4a67 5d3d
00000040: 44b3 04be fe7e a8bd 5b7e 88bc 6e16 12be
00000050: 812a 2c3d 8a80 723e d26d 143d 32b8 4cb9
00000060: f2fc dabc a471 9bbd fc77 f7bc cc42 233e
00000070: f9a4 04be 6745 1d3d a855 d7bd dc8e 3fbd
00000080: 9578 033c 2310 17be 144e 8c3c e1d6 24be
00000090: 89b6 e8bd 1370 e03d 7fc1 4a3e 9c2c fdbc
000000a0: 8ab5 b5bd 5041 20be c16d e4bc 1749 aebd
000000b0: df07 103e df38 12be 678f de3d 894d 363d
000000c0: c221 17bd f3d6 fd3d f8f5 c63d 60fd 813c
000000d0: 58c7 dabd 52ab f8bc 695a 9c3c 5142 243e
000000e0: 04cf 47bd 78f8 c7bd 8035 1bbe e194 cb3d
000000f0: a05a 7e3e a296 063e f635 b7bd 85ee 073e
00000100: f3a9 4bbd fc0b b53d d368 f93d b1fb 12be
00000110: 8660 503d 7f22 943d f712 f2bd 03e2 313e
00000120: eecc fe3d 9ae8 193e d318 7fbc bf83 e8bd
00000130: ca4e bbbd b826 9c3d a526 2abd 55ec fd3d
00000140: fd33 163e 732f a13c f20c 17be db27 7c3d
00000150: 577b 2a3e 3346 33bd 7c31 d3bd 93d4 00bd
00000160: 8ec3 023d ccc0 f4bd 30c4 d23d c10b 7a3d
00000170: a5db a0bd 9634 89bd f400 9bbd beca fc3d
00000180: ff57 c23d 93ac 4a3d ae13 aebc 6277 2f3d
00000190: 773c 1c3e 4c1c 223d cd68 95bd 10cc 703d
000001a0: e11a 8cbd 4627 b9bb a0c7 efbd 0c15 323c
000001b0: 900e bb3c 13f6 c4bd 5893 cf3d e351 233e
000001c0: ad6a 42be 91b8 803d 270c 00be 8733 87bc
000001d0: e806 ba3d 2a28 eb3c 4560 7c3d dcfa 69bd
000001e0: d786 313e 7ba3 afbd fc63 013d a7b8 b53b
000001f0: 0fca d03d 5253 0e3d dfc5 fe3d bc38 083d
00000200: 8c97 083e 8f41 05bc 8d2f 9a3d c21f 2c3e
00000210: 09a2 81bd 49c6 6ebd f44e 003e 1025 8f3d
00000220: ff33 13be 966e a13d a38d 2abe d433 bfbd
00000230: 0718 713d acaa 9d3d a40e 12bd cf7f 0c3e
00000240: e035 2a3e febe 0c3e 052d 12be d2d5 8cbd
00000250: 14c5 523b 1531 143e ebc1 f4bc 0eea 4d3d
00000260: 2b70 a83d 2642 aebd 8850 ebbd 239c 223e
00000270: 7527 683b c221 f43d 6d8d 43be 6747 98bd
00000280: 6168 1d3e cf2a 5cbc dc9e 783d 7a4e 04be
00000290: 6709 213e 911f afbd 4e72 3ebb 8042 f2bd
000002a0: eed9 c0bd 7ea5 1ebe 2833 1fbe f48a 92bc
000002b0: 8c53 99bd e842 eb3d 7765 28ba 96ea 073e
000002c0: 2b2d 28bd b074 263d 8b60 2d3e f7ce f3bd
000002d0: 3387 a7bd eca1 df3d 5242 60bc 877e 79bd
000002e0: c3c2 333c d362 c8bd 1d96 343b df73 82bd
000002f0: 4e4c 603d 9ae9 2abd ca5b 90bd 8b9a 5ebd
00000300: 6b88 ca3c 6096 893d f110 4abe 8baa 09be
00000310: 15b8 36be 94cb c43d 8bf1 f33d 1e8b 2dbe
00000320: fce3 f73c de7b fc3c c9ec acbd 76ec 513d
00000330: bd9e 1e3e 69ac 4b3e 6bf0 773d 7824 1cbd
00000340: 096a fabd ea22 8dbd 9dc2 5dbc 751f 0ebb
00000350: 57e4 103e e472 07be ff23 d33b 3beb 27bd
00000360: 4308 aa3c 5180 323e ad93 6a3c d2ec dfbc
00000370: c816 79bd 6b59 0ebe ae00 20be 996f 9f3d
00000380: 4f74 c7bd 4496 e33d 7a29 85bd e16b e13c
00000390: 183c 093e a36a 09bc 4a34 9f3d 6daf 0d3e
000003a0: 374c adbd 75b6 0b3e 40a0 39be 8f7c 3b3e
000003b0: 90e3 32bd b73a 153c ea8e ad3d 8b8b 493d
000003c0: e213 d03d e291 74bd 38e1 dfbd 1582 253e
000003d0: df1c eebd 8858 e43d 7240 263e 63bf 193e
000003e0: e54f 4ebd 3857 0cbb 39c2 2dbe 6a5b 9bbd
000003f0: 2d9b 72bd f0e2 d7bd d5da 853d 0e55 f63d
-0.022607774 -0.059343502 -0.17056279 -0.060695414 -0.07123112 0.021760691 0.14615047 -0.041416068
0.21226981 -0.062233686 -0.07696189 -0.015239098 -0.056938514 0.056761064 0.18427867 0.054053582
-0.1295901 -0.08227347 -0.016661813 -0.14266369 0.042032722 0.23681846 0.036237545 -0.00019523574
-0.026731942 -0.075900346 -0.03020858 0.1594345 -0.12953557 0.038396265 -0.105143845 -0.0467671
0.008024354 -0.1475225 0.017127074 -0.16097595 -0.11362941 0.109588765 0.19800375 -0.03090506
-0.088725165 -0.15649915 -0.027884366 -0.085100345 0.14065503 -0.14279507 0.108671956 0.044507537
-0.03689743 0.12394514 0.097148836 0.015867889 -0.10682553 -0.03035513 0.01908608 0.16040923
-0.04878141 -0.097641885 -0.15157127 0.09940506 0.24839258 0.131434 -0.08945839 0.13274582
-0.049722623 0.088401765 0.12178197 -0.14353825 0.050873302 0.07233142 -0.118200235 0.17371373
0.12441431 0.15030137 -0.015569883 -0.113532536 -0.09145887 0.076245725 -0.04154076 0.123985924
0.1466827 0.019675946 -0.14751032 0.061561447 0.16648613 -0.04376812 -0.10312173 -0.031452727
0.031924777 -0.119508356 0.10291326 0.061046366 -0.07854394 -0.06699483 -0.07568541 0.123433575
0.0948944 0.049480986 -0.021249618 0.04283846 0.1525744 0.039577767 -0.0729538 0.05878836
-0.06841064 -0.0056504337 -0.11707997 0.010869276 0.022834092 -0.096172474 0.101355255 0.15949206
-0.18986006 0.06285203 -0.12504636 -0.016504062 0.090833485 0.028705675 0.061615247 -0.057124004
0.17336594 -0.08576103 0.031589493 0.005545694 0.101947896 0.03474743 0.12440085 0.03325723
0.1333906 -0.008133306 0.07528601 0.1680899 -0.06329734 -0.05829457 0.12530118 0.06989491
-0.14375304 0.07882421 -0.16655593 -0.09336057 0.058860805 0.07698569 -0.035658494 0.1372063
0.16622114 0.13744733 -0.14274986 -0.068767205 0.0032160925 0.14471848 -0.029877624 0.05027204
0.08224519 -0.085087106 -0.114899695 0.15879874 0.003542391 0.11920501 -0.19096918 -0.07435494
0.15371849 -0.013437941 0.060698375 -0.12920561 0.15726243 -0.08550943 -0.002905983 -0.1182909
-0.09416567 -0.15492818 -0.15546858 -0.017888524 -0.074866384 0.11487371 -0.0006423811 0.13273081
-0.0410587 0.040638626 0.1693136 -0.1190471 -0.08180084 0.10919556 -0.013687687 -0.06091168
0.010971728 -0.09784474 0.0027555295 -0.06369757 0.05476027 -0.041726686 -0.070487574 -0.054346602
0.024723252 0.06718135 -0.19733025 -0.13443963 -0.17843659 0.09609142 0.11911305 -0.169476
0.030260079 0.030820783 -0.08443601 0.051250897 0.15490241 0.19889988 0.060532015 -0.038120717
-0.12227256 -0.06891425 -0.013535169 -0.002168623 0.14149605 -0.13227421 0.0064435 -0.040995818
0.020755893 0.17431761 0.014317435 -0.027334604 -0.06081274 -0.13901298 -0.1562526 0.077849574
-0.09738981 0.11112645 -0.06502052 0.027517261 0.1340183 -0.008387241 0.07773645 0.13836451
-0.084618025 0.1364382 -0.18127537 0.18309234 -0.04367405 0.009108237 0.08474524 0.049205344
0.10160042 -0.059709437 -0.10931629 0.16162904 -0.116266005 0.111496985 0.16235521 0.15014414
-0.050369162 -0.002141429 -0.16968621 -0.07585795 -0.05923002 -0.10541332 0.065358795 0.12027942

blocks.0.mlp.fc2.weight f4 [32, 128]
00000000: f8f3 883b 7d56 933b 190f a4bd b9f6 753c
00000010: f360 8bbd a83d d83b 5adc 00bc 2c52 673d
00000020: aba7 c9bc 9396 943d ee3e 17bc 5abb 95bc
00000030: 0def aabd 9557 983d d6e8 393c 3cb8 97bd
00000040: 0bc8 673c 41f9 633d f9ae f8bc 28c1 403d
00000050: b291 1f3d 6f25 73bc 8aeb c23d d8df 893d
00000060: 115e 68bc 4aaa 0ebc ab5d 6c3d 4ae9 b0bc
00000070: 5bc7 813d df5c abbd fd44 0dbd 9882 273d
00000080: da31 cebd da2b 27bd de74 26bd 191c 1f3d
00000090: 5ff0 23bc 0b27 a0bd 68c3 7d3d b78e 23bd
000000a0: fc9e 28ba effd e53c 9617 b1bd 997f bbbb
000000b0: dceb b6bc 2344 20bd ecc0 abbc 2ca2 4b3d
000000c0: 15e1 56bd e2b1 3ebd eeab 363d d8bd a23c
000000d0: 80e8 803b 3c33 ad3b 7a13 a33d 5ced 20bd
000000e0: 0538 a1bd e46a a3bd c446 cd3c 2505 f93c
000000f0: bbd8 8dbc ab8e 97bd ed57 80bd bd03 8cbd
00000100: f187 8e3d d586 a03c 381d 68bd ffdf dfbd
00000110: 54da 413d 75bb 8b3b 01b3 a83d b85a 81bd
00000120: c153 8fbd 3d45 b53c 5cf9 803d 1dc7 bb3d
00000130: 5cd1 b53d d40e 5a3d 0966 153d 8082 52bd
00000140: d051 af3d d429 02bd a330 8b3d 7f41 313d
00000150: d5fa 4bbd 754d 24bc 3586 20bc 97be b93d
00000160: b321 683d 9d80 d03b bc06 70bd b083 893c
00000170: 8a3d 8b3d 29b1 03bd 16d5 933d 078b eb39
00000180: bda3 5a3d c273 013d 9830 3c3d 0cce 63bd
00000190: 3e51 393d c854 b7bd 1f2b 16bc ff6f 8a3d
000001a0: 5c80 98bd 704f aabd 5482 00bd 86cd 4b3c
000001b0: 80fc d8bc 9b85 8abd e40b 673c 033e cfbc
000001c0: 9e62 1cbd ec11 b63b 400c fc3c c7ea 633c
000001d0: 765e 60bd 22f4 433d 0a74 f73b c117 11bd
000001e0: 3fb5 a03d bf4c d43c 882b 4d3d d363 913d
000001f0: 4b83 b4b9 bbc1 633d 6f56 3a3d 9c70 923d
00000200: 3f61 063c 6267 d33d 5d5f 253d 14b5 38bd
00000210: 615c 783d 167f 56bc 5dad aabc 399a 9bbd
00000220: e4dc 47bc 3665 813d 4f18 9dbd 2192 043d
00000230: 6f12 593d da5f a4bd ee01 a4bb 2043 003d
00000240: 004f 9b3d 4aa2 233d 0d9d b2bd 23d0 49bd
00000250: 5a0b 2c3d 4265 70bd 10dd c5bd 5adf 6ebb
00000260: 1d2c ef3c 5ec1 92bd c8bb a9bd 828e 333d
00000270: 74f0 7abd 2722 8fbd 4336 e1bc 8be4 843d
00000280: 868c bfbc c07c 7dbd 7095 8bbd dca7 c9bc
00000290: 0024 ab3d 93f9 6f3d 1600 ddbc d04c a8bd
000002a0: ea53 c7bc d854 453d 257f c33d a49f 423d
000002b0: 72a6 a6bd 705c b83c d0d3 103b 4c9b 0c3d
000002c0: ea0b 1d3d dc7f 26bd 8b25 023c be9e ed3c
000002d0: 5ab5 933c 2948 80bd f78f 363d 06e7 c9bd
000002e0: 0e12 3b3d cb8a 67bd df01 cdbc c39a 57bd
000002f0: c41b 55bc b252 b13b 662c babd d307 693d
00000300: d308 34bc 8fd5 b13d d284 c7bc 8bba 4bbd
00000310: 7d14 c13c 45de 9f3d 0404 e93d 81f1 f23c
00000320: dc46 b63c 51cb 97ba 6197 73bd 2108 7dbd
00000330: cf3f 9fbd 22b6 88bd 0d5d b1bb 35c9 513d
00000340: 473b 993d 69ce 3dbd fb1e debc c9f1 a13d
00000350: fb7c baba 97f6 65bb bab9 34bd 022c 143c
00000360: a3c8 363d 73d1 43bd c553 e9bc 0ab6 0d3c
00000370: c16f 18bd 96f2 8abc 878f 243b 3318 563d
00000380: 4976 80bb 06d2 d43c d576 77bd 8a63 363d
00000390: c55d 52bb b110 1fbd 8750 d9bd fa92 11bd
000003a0: 8e26 b2bd 4266 63bc 8856 903d 2eb3 70bb
000003b0: dd72 9c3d d2c2 bcbc a769 aabc 9b97 e1bd
000003c0: 4903 5dbd 15e6 8a3d cd88 1b3d 6d1e 513d
000003d0: 58fd bbbb 1bbc 253b 6fa3 f1bc 7994 5f3d
000003e0: 806a e5bd fda2 77bd 84a3 c9bd 1799 a03c
000003f0: d2b0 aabc fd00 b4bc 4b41 4b3d 8d6d 993d
0.004179474 0.004496394 -0.08010692 0.015012437 -0.06805601 0.006599147 -0.007865036 0.05647485
-0.024616083 0.07255282 -0.009231312 -0.018277813 -0.083463766 0.0743858 0.011347016 -0.07408187
0.014146815 0.05565763 -0.030356871 0.04705921 0.038957305 -0.014840468 0.09517582 0.06732148
-0.014182583 -0.008707592 0.057706516 -0.021595616 0.06336852 -0.08367323 -0.03448962 0.04089603
-0.10068102 -0.040813304 -0.040638797 0.038845155 -0.010006039 -0.07819947 0.061953932 -0.039931025
-0.0006432382 0.028075187 -0.08647077 -0.005721998 -0.022329263 -0.03912748 -0.020966016 0.049715206
-0.05246075 -0.04655636 0.04459756 0.019865915 0.003933966 0.0052856486 0.07962699 -0.039288864
-0.07872013 -0.07979372 0.025058158 0.03039796 -0.01731526 -0.07400259 -0.062667705 -0.068366505
0.069595225 0.019595543 -0.05666849 -0.10931396 0.047327355 0.00426429 0.08237267 -0.06316131
-0.06998397 0.022127742 0.062975615 0.09168837 0.08877823 0.053236797 0.03647426 -0.051393986
0.08560526 -0.03177817 0.06796386 0.043275353 -0.04979976 -0.010028233 -0.009797622 0.09069555
0.056672763 0.006362988 -0.058600172 0.016786426 0.06798847 -0.032151375 0.07218377 0.00044926276
0.05337881 0.031604536 0.04594478 -0.055616423 0.045243494 -0.089517176 -0.009165554 0.06759643
-0.074463576 -0.08315933 -0.03137429 0.012439137 -0.026487589 -0.067637645 0.014101956 -0.025298124
-0.038179986 0.0055563357 0.03076756 0.013910956 -0.054777585 0.047840245 0.0075516747 -0.035423044
0.0784707 0.025915502 0.050090343 0.07099118 -0.00034430096 0.055604678 0.045492586 0.07150385
0.008201896 0.10322453 0.04037415 -0.045094565 0.060634974 -0.013091823 -0.02083462 -0.07597775
-0.0121986605 0.063181326 -0.07670652 0.032365922 0.052996095 -0.08026095 -0.005005113 0.031314015
0.075834274 0.039949693 -0.08721361 -0.04927076 0.042003013 -0.058690317 -0.09661305 -0.0036449046
0.02919584 -0.07165788 -0.082877696 0.043837078 -0.06126447 -0.06988936 -0.027491694 0.064889036
-0.023382436 -0.06188655 -0.06815612 -0.024616174 0.08356476 0.058587622 -0.02697758 -0.08217776
-0.024332006 0.048176616 0.09545735 0.047515526 -0.08137216 0.022505015 0.0022098906 0.03432779
0.03834144 -0.04064928 0.007943521 0.029006358 0.018030811 -0.062637635 0.04457089 -0.09858517
0.045671515 -0.056528848 -0.025025306 -0.052637827 -0.013007108 0.0054114694 -0.090904996 0.056892227
-0.010988432 0.08683311 -0.024355326 -0.049738448 0.02356934 0.078060664 0.11377719 0.029656174
0.022250585 -0.0011580979 -0.059470538 -0.06177533 -0.077758424 -0.06675364 -0.005412704 0.051217277
0.074820094 -0.046339426 -0.027114382 0.07907445 -0.0014227921 -0.0035089606 -0.044122435 0.009043695
0.044624936 -0.04780717 -0.028482327 0.0086493585 -0.03721595 -0.016961377 0.0025109963 0.052269172
-0.0039203507 0.025979053 -0.06041606 0.04452852 -0.0032099348 -0.038834278 -0.106110625 -0.03554056
-0.0869876 -0.013879361 0.070477545 -0.0036727893 0.07639096 -0.023042116 -0.020802332 -0.110152446
-0.05395821 0.06782166 0.03797226 0.051054407 -0.005736988 0.0025289122 -0.029496877 0.054584954
-0.11201954 -0.060458172 -0.09845641 0.019604249 -0.020836268 -0.021973127 0.049622815 0.07491598

blocks.1.norm1.weight f4 [32]
00000000: 210b 813f 5002 883f 5d9d 813f ac79 7a3f
00000010: 8a2f 7d3f 249f 7c3f 7513 7e3f 8bbe 763f
00000020: 5554 843f bfad 7d3f 02bf 813f 2a12 7c3f
00000030: c9a6 7d3f 5785 7e3f fe20 7b3f f2e5 7c3f
00000040: 9979 7e3f dd95 7e3f 57a4 7a3f f1b3 7b3f
00000050: 2730 7a3f b22c 7f3f d467 803f 773d 843f
00000060: 4e68 783f 58b5 7c3f 3258 7a3f 2461 7c3f
00000070: cf60 833f 49e3 813f 800e 833f 5157 7c3f
1.0081521 1.0625706 1.0126148 0.97841907 0.98900664 0.9868033 0.9924844 0.96384495
1.0338236 0.9909324 1.0136416 0.98465216 0.9908262 0.9942221 0.9809722 0.9878837
0.99404293 0.99447423 0.9790701 0.98321444 0.97729725 0.99677575 1.0031686 1.0331258
0.97034156 0.9871421 0.97790825 0.98585725 1.0263919 1.0147487 1.02388 0.98570734

blocks.1.norm1.bias f4 [32]
00000000: 7850 363b 3ec3 5cbc c293 cbbb a292 003b
00000010: c3f8 133b 3318 733b 113c b3bb 41eb 5a3c
00000020: 7511 093a fc7b 6d3c 115a cebb 3f33 30ba
00000030: 39de 1cbc 949f c9bb b619 f93b e720 e4bb
00000040: 6ab5 b03b d0d2 91bc 93a8 5a3c d05d a33b
00000050: 1279 b4bb cd8c 08ba e6fd dbba 6232 64bb
00000060: 1349 94bc 30fa a63b 1862 51ba 8604 24bb
00000070: 2736 193a 325a f9ba c666 eabb 4f4d 8fbb
0.002781896 -0.013474284 -0.0062126825 0.001961865 0.0022578693 0.0037093281 -0.005469807 0.013361753
0.00052287366 0.014494892 -0.006297358 -0.00067215035 -0.009574466 -0.0061530564 0.007601942 -0.00696193
0.00539272 -0.017800719 0.013345855 0.0049855486 -0.005507597 -0.0005208969 -0.0016784042 -0.003482007
-0.01810125 0.0050957426 -0.00079873344 -0.002502711 0.0005844556 -0.0019024073 -0.007153365 -0.0043732296

blocks.1.attn.qkv.weight f4 [96, 32]
00000000: 0442 98bc 34ed c73d 850e 463e 6457 07be
00000010: 05bd b93d 4c6b 263e 1485 f1bd 4d8d 95bd
00000020: 1d07 083e 187d d7bd 9478 853d e0bc c3bd
00000030: bd2e 0d3d ce71 07be 6ac3 4e3e cb71 22be
00000040: 38e4 1ebe 68b4 c5bd ab4b 5d3d e117 c93d
00000050: 4dd4 e43b d6ae cbbd 4e49 1dbe 3d61 50bd
00000060: 7198 a4bb 1ee5 a3bc 039c 16bd 53b3 d73c
00000070: cb8d 5e3e 1b05 42be 0907 c0bd 4afc e73d
00000080: b183 2cbe 043d 253d c911 2c3e 7879 f63d
00000090: 2ebf cdbd 1abc 7ebd 8d20 b03c 7754 203e
000000a0: 2f23 d0bb b796 32be 710c 2e3c 6f94 ca3d
000000b0: ac6f 97bd fac6 f9bd e0ae 623d c71a 033e
000000c0: 39a5 fbbd 02b5 d33c a525 0d3e 6b51 45bd
000000d0: 8a7f ecbd 1696 c7bd ba89 29be 9931 93bd
000000e0: 8870 b0bd c7f5 1d3d 9b74 d1bc b17a fabd
000000f0: faa4 7c3e 560f a4bc 8e24 e43c f251 0d3e
00000100: 60f7 f93d ffd6 a1bd 63a0 b8bd 5b75 dcbd
00000110: c321 3bbe b95b 1abe a8f5 94bd b89d 033e
00000120: 099b 6cbe 7a7a c2bd fb9a 1cbe dabf debd
00000130: 07b9 0c3e e87f 32be d9f9 34be 51e4 aabd
00000140: eba3 273d e7a8 17bd 8fd9 2ebe 2c98 433e
00000150: 8429 683d 12bc 85bd c3ae d1bc b799 593e
00000160: 03a9 8d3d 3ff7 04be 7029 cdbd 3bc6 9dbd
00000170: c3ef 813a c439 9cbd 6314 513e c35e a1bc
00000180: 06d0 00bc 48c4 803d 8e5a 403e 96c4 30bc
00000190: e3ce 43bd 54aa d6bd 3b42 033e 8312 8b3c
000001a0: 2d4d 033d f2a5 073e f2ac 9cbb dc52 5bbd
000001b0: b7b2 7ebd 479a 053e e581 5a3d ecba b7bd
000001c0: 9ed9 0c3e 88d3 273d 7968 4ebc 4f43 183c
000001d0: 7da4 33be d452 f4bd 3f3f d3bd b056 86bc
000001e0: f67e 76bd 2eb6 0d3e ef0f 22be 760c 083e
000001f0: b319 9bbd c388 d6bd ff4e 1a3e ab51 b9bc
00000200: faa5 3fbd 5e5a a93d 40cb d7bd 6d45 033c
00000210: 2a16 6ebd c191 6e3d e65b b4bd e1a1 c0bd
00000220: 2588 1abe 8086 f7bc f5ea e53d 0a84 e13d
00000230: 8b7e 1fbe 297c 873d 1b4b 133e ce4e 293e
00000240: a9ba 543b de1c 173d b4b2 ea3d 542a 3b3e
00000250: e6b4 b43c 2b30 79bc 9ec0 313e 8b65 ba3b
00000260: 8ad2 113e 0e40 113e de2c 3c3d 7a3a f8bd
00000270: 0107 a93d 1ce1 e43d 2a66 313d d11b 873c
00000280: 2306 c43d a3bd b03d eacb adbd 3ee4 ebbd
00000290: dd27 5e3d 5d02 85bd bfd3 0ebe 32ff 1a3e
000002a0: 8a04 25be 33da 3fbd 0637 b9bd 3e49 0b3e
000002b0: 2841 d3bc b363 15be 0243 163e 558e 183e
000002c0: 4ee0 e13d 517b 203e adc0 15be 2e8d edbd
000002d0: 0822 cd3d 61f5 aabc 2166 ed3d be37 393e
000002e0: 272d 81bd 21d0 a4bd cd39 063e 632a ccbd
000002f0: 3048 f6bd 9630 153e 86c5 0c3d 50f3 07be
00000300: 0b6f bf3c 57f5 23bd c894 423d 8341 fbbd
00000310: 455e 58bb 7b6c 1d3e 1d47 e43c ef60 3a3c
00000320: 1b1e 413e c6f2 af3d 4d4e ee3d d0a9 7e3d
00000330: 560f 59bd 65bf 0dbe 854c 4cbd 70fe f5bd
00000340: d370 953d 57b3 033e cb86 413e db6a c73d
00000350: 05c5 203b 52d8 413d 4918 b7bc ed49 58bc
00000360: 05c7 e3bd abbf 3a3e 72c2 c53d 7b86 9dba
00000370: 5dba 253c 2021 21bd 4747 7bbd 3ce6 acbd
00000380: e8bf 4bbd dbee d4bd 324e 0e3d 59c9 d2bd
00000390: 960f 803d d5eb d4bd cce1 b13d 33b6 8ebc
000003a0: b55c 6cbd 5a46 d03c 98e6 45bc 0339 af3d
000003b0: 213b 47bc 7462 9fbd 7e39 0dbd d3e3 b2bd
000003c0: d10f 943d 4de9 f43c 1abc 6a3d 43ed b23b
000003d0: 413e d23b 125a 64bd b47d 67bd 8bd1 953d
000003e0: fd29 cb3d a637 b0bd 546b 013e edab 5fbd
000003f0: 47a8 c3bd bf75 3a3e 5106 e13b b474 913d
-0.018586166 0.0976204 0.19341476 -0.1321693 0.09069256 0.16251868 -0.11792961 -0.073023416
0.13283964 -0.105219066 0.06517139 -0.095575094 0.0344684 -0.13227007 0.20191732 -0.15863721
-0.15516746 -0.096535504 0.05402724 0.09819008 0.006983316 -0.09945457 -0.15359995 -0.050873984
-0.0050230552 -0.020006713 -0.036769878 0.026330626 0.21733777 -0.1894726 -0.09376342 0.11327417
-0.16847111 0.040341392 0.1680366 0.12034887 -0.1004623 -0.062191106 0.021499896 0.15657221
-0.0063518505 -0.17440306 0.010623083 0.09891593 -0.073943466 -0.12196155 0.055342555 0.12803183
-0.12287373 0.025843147 0.13783891 -0.04817335 -0.11547764 -0.097454235 -0.16556445 -0.071871944
-0.08615214 0.03856447 -0.025568297 -0.12230433 0.24672309 -0.020026844 0.027849462 0.13800791
0.12205386 -0.079023354 -0.09014966 -0.10764571 -0.18274598 -0.15074052 -0.07273418 0.12853134
-0.23106016 -0.09496017 -0.15293495 -0.108764365 0.13742457 -0.17431605 -0.17673434 -0.08344329
0.04092781 -0.037026312 -0.1707518 0.19101018 0.056680217 -0.06530012 -0.025596028 0.21250044
0.06917002 -0.12984942 -0.10017669 -0.07703825 0.0009913374 -0.076282054 0.20417933 -0.019698506
-0.007862097 0.06287438 0.18784544 -0.010789057 -0.047804724 -0.10481706 0.12818234 0.0169766
0.032056022 0.13246897 -0.004781359 -0.053545818 -0.062182155 0.13047133 0.053346533 -0.089711994
0.1375489 0.040973216 -0.01259815 0.009293391 -0.17543216 -0.11929861 -0.103147976 -0.016398758
-0.060179673 0.13839027 -0.1582639 0.13286003 -0.07573261 -0.10475304 0.15069197 -0.02262195
-0.046789147 0.08269189 -0.10536814 0.008012158 -0.058126606 0.05824447 -0.08806591 -0.09405876
-0.15090998 -0.030215502 0.11226455 0.110115126 -0.15575616 0.066154785 0.14384119 0.16533968
0.003245989 0.036892764 0.11459866 0.18277866 0.022058915 -0.015209238 0.17358634 0.0056883744
0.1424047 0.14184591 0.045941226 -0.121205285 0.08253289 0.11175749 0.043310322 0.016492756
0.09571483 0.0862992 -0.08486159 -0.11518143 0.054237235 -0.064945914 -0.13947962 0.15136412
-0.16115013 -0.04683895 -0.09043698 0.13602158 -0.025787905 -0.14588813 0.14673999 0.14898045
0.11029111 0.15672041 -0.14624281 -0.115991935 0.100162566 -0.020868959 0.11591745 0.1808767
-0.0630744 -0.0804751 0.13107987 -0.09969022 -0.120254874 0.14569315 0.03436806 -0.1327641
0.02336838 -0.040028896 0.04750517 -0.12268355 -0.0033015173 0.15373413 0.02786594 0.01137565
0.1885914 0.08591227 0.116360284 0.062173665 -0.05299314 -0.13842542 -0.049877662 -0.12011421
0.0729691 0.12861381 0.18899076 0.09737178 0.0024531495 0.04732544 -0.022350447 -0.013201219
-0.11121944 0.18237178 0.09656228 -0.0012018228 0.010115233 -0.03933823 -0.061347272 -0.08442351
-0.049743563 -0.103971206 0.03474254 -0.1029231 0.06252973 -0.10396544 0.086856455 -0.017420864
-0.0577056 0.025424171 -0.012078904 0.08555796 -0.0121600935 -0.0778245 -0.034478657 -0.0873486
0.07229579 0.029896403 0.057308294 0.0054604127 0.0064161127 -0.05574996 -0.056516364 0.07315358
0.09920118 -0.08604364 0.12638599 -0.05460732 -0.09553581 0.18208979 0.006867208 0.071023375
